FL/cnn-img/outputs/2025-03-18/18-11-21/model_state_acc_0.3142_round_5.pth (torch, 251962 bytes, 10 tensors)

conv1.weight f4 [6, 3, 5, 5]
-0.108265765 -0.2489323 -0.18092158 -0.004724285 -0.11999101 0.16927747 -0.11084575 -0.29526818
-0.3524929 -0.25173637 0.4025202 0.3206367 -0.06244671 -0.34437522 -0.52190214 0.5177657
0.40229145 -0.04690615 -0.42536786 -0.5263476 0.23478518 0.22528979 -0.08237462 -0.29660437
-0.3686045 -0.28498715 -0.4518868 -0.45413238 -0.17081049 -0.2878975 0.16575617 0.0025424375
-0.3243285 -0.42574376 -0.4999278 0.46369323 0.37833682 -0.07716429 -0.50537413 -0.5498928
0.6477725 0.555714 -0.0186314 -0.33573312 -0.33607155 0.6145918 0.31404492 0.18404745
-0.27146357 -0.12824453 -0.03309489 -0.16650468 0.07706068 -0.0005688671 0.012059715 0.38395113
0.09974144 0.0031448225 0.045252405 -0.07869846 0.59064686 0.56676453 0.26027444 0.042064536
-0.15759444 0.5729188 0.60905004 0.29923347 0.059285335 -0.009066227 0.5698758 0.6927007
0.5057443 0.20755513 0.21438055 -0.012520986 0.031740393 -0.054494448 0.08223889 0.04934833
-0.35570458 -0.36537564 -0.40622422 -0.37864503 -0.41461986 -0.5101509 -0.69003 -0.70626086
-0.58387625 -0.6716628 -0.41088626 -0.48940518 -0.5295868 -0.66249985 -0.5924219 -0.1476476
-0.33140737 -0.27968475 -0.2733338 -0.3797334 0.10264383 0.27345166 0.44890162 0.38663167
0.31914598 0.008098546 0.23382181 0.03916218 0.09987628 0.02812438 -0.24627142 -0.159154
-0.35058433 -0.2780507 -0.26015705 -0.30920163 -0.37999356 -0.2777923 -0.25250033 -0.2992177
-0.15366931 -0.2510637 -0.4288945 -0.3171481 -0.32806498 0.8830112 1.0228665 1.093539
0.9148182 0.9548367 0.6604415 1.0070821 0.95989966 0.90452 0.8005429 0.44045967
0.5458523 0.3788005 0.36388543 0.42635 0.39616892 0.25476184 0.22073269 0.2325554
0.25663212 0.25030133 0.2251232 0.21011852 0.28623042 0.07357427 0.21763147 0.17685519
0.24270035 0.17733048 -0.023278704 0.39092308 0.39757898 0.381344 0.4177616 0.34501013
0.47437188 0.7941197 0.8838059 0.77673024 0.4411928 0.21125741 0.15913695 -0.004447895
0.06390856 -0.1107325 -0.54787767 -0.6061103 -0.6506649 -0.6926752 -0.41701713 -0.14447556
-0.28892073 -0.35522637 -0.3858226 -0.30291185 -0.28465995 -0.27965072 -0.25660998 -0.045254435
-0.031027284 -0.0671204 0.12624693 0.11178812 0.2643664 0.20246823 -0.2711108 -0.26275808
-0.23928042 -0.2477376 -0.1548417 -0.75502694 -0.87123775 -0.80924946 -0.83079123 -0.5446266
0.065103844 -0.018766709 0.11919909 -0.07930761 0.046752658 0.21066865 0.15521577 0.23793189
0.18140458 0.16144137 0.24387822 0.31519377 0.53058624 0.39965943 0.35470963 0.13445264
0.20263833 0.1074932 0.19676244 0.10218919 -0.20174196 -0.3452574 -0.42968795 -0.15206254
-0.06729742 0.18375257 0.092131995 -0.17100126 -0.28783843 -0.31444314 0.21191397 0.1728167
0.06428488 -0.29341006 -0.41968033 0.17758872 0.085973285 0.1586999 -0.14303976 -0.3845008
-0.03453422 0.14213464 0.1460272 0.04358721 -0.13050303 -0.0941289 -0.07354549 0.05554258
0.14575894 0.008617938 0.10699954 -0.005940588 -0.10961343 -0.20114094 -0.20521878 0.19091277
00000000: 71ba ddbd 1ce8 7ebe 8243 39be 2dce 9abb
00000010: d9bd f5bd 1357 2d3e 1903 e3bd 642d 97be
00000020: f379 b4be 97e3 80be 2117 ce3e 7e2a a43e
00000030: 1fc8 7fbd f351 b0be 619b 05bf 4b8c 043f
00000040: 25f9 cd3e aa20 40bd d1c9 d9be b7be 06bf
00000050: 876b 703e 5eb2 663e 06b4 a8bd 87dc 97be
00000060: bbb9 bcbe d6e9 91be b55d e7be 0a84 e8be
00000070: f2e8 2ebe 4d67 93be fcbb 293e 069f 263b
00000080: 630e a6be 16fb d9be 89f6 ffbe 3369 ed3e
00000090: 5db5 c13e 5008 9ebd 3360 01bf c6c5 0cbf
000000a0: 6bd4 253f 4643 0e3f e1a0 98bc 36e5 abbe
000000b0: 9211 acbe e355 1d3f 7fca a03e ef76 3c3e
000000c0: 46fd 8abe 8952 03be 828e 07bd 3480 2abe
000000d0: fdd1 9d3d 0620 15ba 1c96 453c 3e95 c43e
000000e0: 3d45 cc3d 5e19 4e3b 965a 393d a82c a1bd
000000f0: a234 173f 7b17 113f b142 853e dd4b 2c3d
00000100: 7060 21be ceaa 123f b4ea 1b3f 2135 993e
00000110: 2ed5 723d 838a 14bc 61e3 113f d554 313f
00000120: 7578 013f 5589 543e 9386 5b3e d224 4dbc
00000130: 3702 023d 9235 5fbd dd6c a83d 7921 4a3d
00000140: e91e b6be 8412 bbbe 9ffc cfbe c3dd c1be
00000150: 0e49 d4be 4099 02bf cea5 30bf 83cd 34bf
00000160: ea78 15bf 18f2 2bbf af5f d2be 5193 fabe
00000170: 0093 07bf 9799 29bf f6a8 17bf ef30 17be
00000180: 3aae a9be d732 8fbe 68f2 8bbe 6b6c c2be
00000190: ee36 d23d db01 8c3e 6fd6 e53e 96f4 c53e
000001a0: 1a67 a33e c4af 043c fc6e 6f3e 8668 203d
000001b0: ef8b cc3d 1a65 e63c 932e 7cbe 44f9 22be
000001c0: ca7f b3be a95c 8ebe 4e33 85be ad4f 9ebe
000001d0: 848e c2be cb3a 8ebe b947 81be 1033 99be
000001e0: 7d5b 1dbe 6c8b 80be 0f98 dbbe 3c61 a2be
000001f0: 22f8 a7be 060d 623f 4aed 823f 16f9 8b3f
00000200: 8731 6a3f 2e70 743f b212 293f 11e8 803f
00000210: fcbb 753f 9f8e 673f 61f0 4c3f ee83 e13e
00000220: fabc 0b3f 24f2 c13e 314f ba3e 8c4a da3e
00000230: a7d6 ca3e 2570 823e c007 623e 0123 6e3e
00000240: 4965 833e 7f27 803e b286 663e 4f29 573e
00000250: cb8c 923e 1bae 963d c9da 5e3e 8719 353e
00000260: 7186 783e 1f96 353e fbb2 bebc 1227 c83e
00000270: 798f cb3e 853f c33e d9e4 d53e 2ba5 b03e
00000280: dfe0 f23e 6e4b 4b3f 1a41 623f cbd7 463f
00000290: 06e4 e13e dd53 583e ccf4 223e a6bf 91bb
000002a0: 7ee2 823d b9c7 e2bd b641 0cbf 0b2a 1bbf
000002b0: fa91 26bf 2953 31bf 4583 d5be 67f1 13be
000002c0: 6bed 93be 3be0 b5be 8a8a c5be 4317 9bbe
000002d0: f3be 91be 612e 8fbe 6262 83be b75c 39bd
000002e0: ee2c febc 6c76 89bd e046 013e 2bf1 e43d
000002f0: 085b 873e d553 4f3e 09cf 8abe 3a88 86be
00000300: ed05 75be edae 7dbe d38e 1ebe 7249 41bf
00000310: 7009 5fbf f92a 4fbf bcae 54bf a66c 0bbf
00000320: 2a55 853d a4bc 99bc a71e f43d 076c a2bd
00000330: b77f 3f3d 86b9 573e e2f0 1e3e 6ba4 733e
00000340: 1fc2 393e e350 253e 36bb 793e 1461 a13e
00000350: 80d4 073f 29a0 cc3e 809c b53e f4ad 093e
00000360: 6c80 4f3e 6525 dc3d 187c 493e 9148 d13d
00000370: 7295 4ebe 94c5 b0be 0f00 dcbe 48b6 1bbe
00000380: 3bd3 89bd a229 3c3e b3af bc3d f41a 2fbe
00000390: 8f5f 93be b1fe a0be faff 583e dcf6 303e
000003a0: cba7 833d d839 96be 57e0 d6be d1d9 353e
000003b0: c312 b03d 3a82 223e 0479 12be 4add c4be
000003c0: c173 0dbd be8b 113e 2888 153e 8188 323d
000003d0: 96a2 05be a7c6 c0bd 059f 96bd 9e80 633d
000003e0: d541 153e 4032 0d3c 9322 db3d 44a9 c2bb
000003f0: 027d e0bd e4f7 4dbe df24 52be a37e 433e

conv1.bias f4 [6]
-1.5016409 -0.6426113 -1.4355913 -1.3912568 -1.4274508 -1.2700012
00000000: c535 c0bf 2d82 24bf 75c1 b7bf b414 b2bf
00000010: b5b6 b6bf 668f a2bf

conv2.weight f4 [16, 6, 5, 5]
-0.12658389 -0.004352037 -0.012373688 -0.11225677 -0.029072164 -0.16246141 -0.026009975 -0.03834683
-0.09650924 -0.04723477 -0.17317308 -0.06961876 -0.04686154 -0.15239789 -0.02561854 -0.03469978
-0.110281624 -0.09339937 -0.102373965 -0.059536282 -0.07542049 -0.16175358 -0.06416514 -0.15874283
-0.03804117 -0.02279496 -0.13577788 -0.13272355 -0.15493335 -0.11327713 -0.06037019 -0.037948724
-0.15640484 -0.10298789 -0.058039654 -0.14272507 -0.100937486 -0.12971872 -0.044917453 -0.17911027
-0.0774248 -0.116548665 -0.05461015 -0.062342916 -0.12969413 -0.046758864 -0.119691715 -0.10057238
-0.19039364 -0.106925145 -0.019252485 -0.08493848 -0.06563233 -0.12003704 -0.030350497 -0.11031258
-0.09160405 -0.097449094 -0.08848495 -0.073025994 -0.061872963 -0.09443871 -0.033849005 -0.015287519
-0.018692294 -0.11021905 -0.12101383 -0.103247136 -0.046161 -0.015570735 -0.1163423 -0.06449948
-0.11633597 -0.16755836 0.004577458 -0.113744654 -0.1714438 -0.17395371 -0.113297604 0.006210507
-0.05708262 -0.08926018 -0.058615964 -0.07133683 -0.06365461 0.029859973 -0.090747334 -0.15281267
-0.023028536 -0.13055022 -0.059540197 -0.16265236 -0.1300115 -0.07709562 -0.038104314 -0.050729126
-0.10727159 -0.09268857 -0.10028965 -0.0963647 -0.06119832 -0.102333695 -0.13953818 -0.05648582
-0.04724246 -0.06641448 -0.019402524 -0.14163034 -0.037196834 -0.13452323 -0.06622896 -0.048775975
0.022049274 -0.035507128 -0.11461116 -0.08359254 -0.102945045 -0.069364324 -0.14198199 -0.023861976
-0.19821593 -0.13779105 -0.03348096 -0.090471275 -0.040753428 0.013012671 -0.08051657 -0.058899447
-0.03126506 0.022904828 -0.18432717 -0.11801458 -0.10121279 -0.1734264 -0.16746967 -0.18576911
-0.15606186 -0.124537565 -0.1734046 -0.14502259 -0.18318297 -0.17967652 -0.008838607 0.0014804305
-0.0017834535 -0.08223616 -0.19469859 -0.20124608 -0.09726761 -0.015604495 -0.2043608 0.3320345
0.3128251 -0.36620837 -0.0782673 -0.31384403 0.05395147 0.5510997 -0.13641392 -0.282924
-0.4548763 -0.22943494 0.5750253 -0.3054216 -0.2942555 -0.49049404 -0.5562154 0.10713982
-0.27984965 -0.48231333 0.26004907 -0.7238777 -0.6061114 -0.60760844 -0.4629768 0.08351583
-0.4775532 -0.57990867 -0.38545963 0.032623593 -0.40193865 -0.2819337 -0.35141543 -0.08775385
0.0229075 -0.32175404 -0.24273466 -0.05796449 -0.28537753 -0.17725039 -0.5747577 -0.58830386
-0.43025845 -0.5554853 -0.42472953 -0.056508865 -0.46619192 -0.3582867 -0.41747388 -0.4484585
-0.5937427 -0.6757135 -0.719377 -0.50515324 -0.32867378 -0.5982053 -0.7749757 -0.777663
-0.3140225 -0.2987922 0.11311277 -0.11438299 -0.2841355 -0.3766308 -0.31175458 0.07752937
-0.291933 -0.5108936 -0.5358102 -0.4160476 -0.3162358 -0.5644126 -0.44939828 -0.35007575
-0.35589743 -0.045325466 -0.13320911 -0.22783497 -0.068445295 -0.20639747 -0.34796137 -0.20697565
-0.29083174 -0.3688115 -0.18441345 -0.40385327 -0.21768525 0.035375025 -0.28457937 -0.14457273
-0.2875567 -0.1403657 0.105526544 -0.28307828 -0.024730993 -0.25344342 -0.276036 -0.31022963
-0.43577763 -0.26333264 -0.29511234 -0.40308663 -0.19888088 -0.22498062 -0.122182116 -0.23778345
00000000: 359f 01be 889b 8ebb 02bb 4abc e1e6 e5bd
00000010: bf28 eebc 495c 26be df12 d5bc 9111 1dbd
00000020: a3a6 c5bd 3f79 41bd 4954 31be 4894 8ebd
00000030: e3f1 3fbd 310e 1cbe f9dd d1bc 5b21 0ebd
00000040: 55db e1bd 2b48 bfbd 71a9 d1bd 51dc 73bd
00000050: 0f76 9abd bba2 25be 0369 83bd 7b8d 22be
00000060: 0fd1 1bbd 7fbc babc 5b09 0bbe afe8 07be
00000070: d9a6 1ebe d7fd e7bd bb46 77bd 1f70 1bbd
00000080: 9728 20be 51eb d2bd fdba 6dbd 8526 12be
00000090: 50b8 cebd fcd4 04be 5dfb 37bd af68 37be
000000a0: e590 9ebd 11b1 eebd e5ae 5fbd 495b 7fbd
000000b0: 8ace 04be 3986 3fbd ee20 f5bd e4f8 cdbd
000000c0: 8df6 42be 92fb dabd 63b7 9dbc 3af4 adbd
000000d0: 3e6a 86bd fbd5 f5bd 9ba1 f8bc 90eb e1bd
000000e0: e79a bbbd 6493 c7bd 9937 b5bd a78e 95bd
000000f0: 816e 7dbd 1569 c1bd 41a5 0abd 8178 7abc
00000100: 9520 99bc 86ba e1bd 19d6 f7bd 3c73 d3bd
00000110: 5113 3dbd 651c 7fbc df44 eebd 4e18 84bd
00000120: 8e41 eebd 6b94 2bbe 80fe 953b f5f2 e8bd
00000130: f78e 2fbe ec20 32be 9308 e8bd 8281 cb3b
00000140: 77cf 69bd 0bce b6bd 4b17 70bd 0b19 92bd
00000150: 595d 82bd e79c f43c bdd9 b9bd ed7a 1cbe
00000160: 57a6 bcbc f5ae 05be 6ce0 73bd 578e 26be
00000170: bc21 05be 4fe4 9dbd 4513 1cbd 58c9 4fbd
00000180: 35b1 dbbd 81d3 bdbd a964 cdbd db5a c5bd
00000190: 17ab 7abd 5494 d1bd 19e3 0ebe ad5d 67bd
000001a0: 4f81 41bd 5104 88bd 0bf2 9ebc 8b07 11be
000001b0: b55b 18bd 75c0 09be 0da3 87bd 51c9 47bd
000001c0: aea0 b43c ec6f 11bd 41b9 eabd 9132 abbd
000001d0: dad4 d2bd e20e 8ebd ba63 11be 317a c3bc
000001e0: 1ef9 4abe 1919 0dbe 5523 09bd 0149 b9bd
000001f0: 11ed 26bd 1933 553c dfe5 a4bd 8c40 71bd
00000200: cb0f 00bd e8a2 bb3c 43c0 3cbe a1b1 f1bd
00000210: a748 cfbd b196 31be 2b7d 2bbe 423a 3ebe
00000220: aece 1fbe 8d0d ffbd fa90 31be cd80 14be
00000230: 5194 3bbe 1ffd 37be cecf 10bc 010b c23a
00000240: c5c2 e9ba 6f6b a8bd 115f 47be 7413 4ebe
00000250: 3e34 c7bd ffa9 7fbc f543 51be 6d00 aa3e
00000260: 9d2a a03e aa7f bbbe 9b4a a0bd 2ab0 a0be
00000270: 37fc 5c3d df14 0d3f 17b0 0bbe 6adb 90be
00000280: 8ce5 e8be fef0 6abe dc34 133f 3860 9cbe
00000290: a8a8 96be 0922 fbbe 2264 0ebf 1f6c db3d
000002a0: 7448 8fbe c6f1 f6be 2725 853e 0d50 39bf
000002b0: 1e2a 1bbf 3a8c 1bbf 4c0b edbe 590a ab3d
000002c0: da81 f4be e574 14bf f75a c5be 51a0 053d
000002d0: e7ca cdbe 9d59 90be b9ec b3be 4ab8 b3bd
000002e0: 82a8 bb3c f2bc a4be 6f8f 78be 2c6c 6dbd
000002f0: 011d 92be 2081 35be 5223 13bf 159b 16bf
00000300: d64a dcbe 4934 0ebf 2676 d9be d775 67bd
00000310: b5b0 eebe 5b71 b7be 23bf d5be 5a9c e5be
00000320: 86ff 17bf 8ffb 2cbf 1729 38bf b951 01bf
00000330: ee47 a8be fc23 19bf cf64 46bf ec14 47bf
00000340: 8fc7 a0be 4bfb 98be aba7 e73d a141 eabd
00000350: 357a 91be c1d5 c0be 4c9e 9fbe b8c7 9e3d
00000360: 3e78 95be ecc9 02bf db2a 09bf 3104 d5be
00000370: a9e9 a1be 587d 10bf 8817 e6be 213d b3be
00000380: 3038 b6be 32a7 39bd f867 08be 924d 69be
00000390: 0c2d 8cbd dc59 53be fe27 b2be 6df1 53be
000003a0: e6e7 94be dcd4 bcbe e1d6 3cbe dbc5 cebe
000003b0: e2e8 5ebe 67e5 103d 63b4 91be e00a 14be
000003c0: a23a 93be 07bc 0fbe 4d1e d83d a3ef 90be
000003d0: a798 cabc 56c3 81be 9754 8dbe 6bd6 9ebe
000003e0: 3f1e dfbe 89d3 86be f718 97be 5f61 cebe
000003f0: 6ea7 4bbe 5261 66be 9e3a fabd 817d 73be

conv2.bias f4 [16]
-0.07662662 0.824805 1.0020082 0.7295454 0.18049863 0.020238314 0.5759103 0.2944862
-0.10715454 -0.13419612 1.1454173 0.81062806 -0.7293955 -0.17649809 -0.09683628 0.10309897
00000000: 6bee 9cbd 6c26 533f ce41 803f 7dc3 3a3f
00000010: a2d4 383e d2ca a53c db6e 133f e5c6 963e
00000020: d773 dbbd b56a 09be 099d 923f 5285 4f3f
00000030: aab9 3abf eabb 34be 1952 c6bd 8e25 d33d

fc1.weight f4 [120, 400]
0.032370355 -0.040955093 -0.062361173 -0.048037075 -0.028875934 -0.0655072 -0.02070246 -0.026801692
-0.064599335 -0.0039270385 -0.038259592 -0.0069234287 0.0034539143 -0.051786374 -0.053567998 -0.04601832
-0.02431404 -0.070784025 0.001508108 -0.061860304 -0.034590628 -0.036299977 -0.034540888 -0.009110059
0.005509541 -0.08955038 -0.057425912 -0.07110084 -0.093141176 -0.011567635 -0.038009755 -0.042458333
-0.07232052 -0.044329084 -0.051230635 -0.04062652 0.0018546393 -0.050130397 -0.078513466 -0.046694353
-0.05860534 -0.025475606 -0.09439381 -0.12081725 -0.01847533 -0.119693525 -0.10603823 -0.038246814
-0.06064147 -0.094001666 -0.092182934 0.0077004447 -0.023239994 0.014074612 -0.03472832 -0.074668355
0.08399686 0.0017357828 -0.02538902 -0.099418566 -0.0310868 -0.10052731 0.01678098 0.03867212
0.011631837 -0.07106054 -0.11506883 -0.031446587 -0.07738199 -0.017285218 -0.08928172 -0.12564155
-0.09441785 -0.08265122 0.013629563 -0.093543686 -0.12717389 -0.07778672 -0.13482781 -0.06926028
-0.093983114 -0.12424986 -0.083266266 -0.13563097 -0.13441241 -0.08548739 -0.09350544 -0.15972692
-0.07497579 -0.12527269 -0.0766603 -0.09838503 -0.1640021 -0.13989548 -0.09459548 -0.1319859
-0.13703099 -0.14399561 -0.03427857 -0.030444104 0.044667352 0.014259865 -0.01508099 -0.018950332
0.009611727 0.01764968 0.06946215 0.020750545 -0.018581703 -0.014287361 -0.005305603 -0.091604784
-0.076214224 -0.03550987 -0.038565446 -0.04353175 -0.022875728 -0.07652812 -0.026832247 0.047162622
0.0008537816 -0.049724378 -0.05329039 0.0104296 -0.033318646 -0.069868915 -0.05625785 -0.06942105
-0.091037 -0.009624301 -0.076240234 -0.08055068 -0.053727623 -0.06525088 -0.062905036 -0.03051405
-0.09100375 -0.095436655 -0.10491614 -0.1271856 -0.054833245 -0.099024 0.063050345 0.009968234
-0.010070238 -0.091202766 -0.0652168 -0.027426286 -0.021875467 -0.08488758 -0.1223406 -0.063822985
-0.080318116 -0.097453445 -0.08701585 -0.09042659 -0.10850433 -0.028757997 -0.024773885 -0.065879926
-0.12808861 -0.024802256 -0.104530275 -0.03486406 -0.034827832 -0.03141117 -0.034066744 -0.079764515
-0.099937916 -0.033362377 -0.074629694 -0.087234534 -0.080025576 -0.07755271 -0.044689767 -0.083186336
-0.027554307 -0.019876724 -0.038748454 -0.15483394 -0.13009387 -0.06848882 -0.10938276 -0.06612017
-0.051520348 -0.098546684 -0.0061341287 0.006697661 -0.01346614 -0.050582096 -0.042372666 -0.023229945
-0.04514677 -0.001100087 -0.029053055 -0.06798117 -0.06556079 -0.1236153 0.011368163 -0.08471986
0.0104217455 0.0048499783 -0.041486457 -0.10387708 -0.05928148 -0.014690076 -0.07954862 -0.012175355
-0.082821876 -0.059668723 0.020693427 0.012270361 -0.0051594274 -0.049500927 -0.0080832755 0.009608423
-0.042001907 -0.059245337 -0.08067041 0.0030589055 -0.00811827 -0.0069048004 0.008905799 0.00027260167
-0.041190214 -0.1023896 -0.025410203 -0.013159634 -0.042480655 -0.037692677 -0.042489175 -0.017190168
-0.035245534 -0.048584867 -0.061015222 0.012337234 -0.0100650685 -0.048729587 0.004521455 -0.042790413
-0.004908946 -0.081604354 -0.021204723 -0.050608065 -0.013139797 -0.05417615 -0.008444327 -0.05136095
-0.0062360424 0.009778981 -0.055106323 -0.031490117 -0.070991136 -0.1578967 -0.059638962 -0.026007999
00000000: c796 043d 87c0 27bd 6e6e 7fbd 86c2 44bd
00000010: 398d ecbc a428 86bd 3598 a9bc 398f dbbc
00000020: a84c 84bd 63ae 80bb 17b6 1cbd eedd e2bb
00000030: 115b 623b f31d 54bd 1e6a 5bbd b57d 3cbd
00000040: 3d2e c7bc 37f7 90bd b5ab c53a 3b61 7dbd
00000050: e7ae 0dbd 49af 14bd bf7a 0dbd 5b42 15bc
00000060: 6189 b43b 3166 b7bd 6f37 6bbd 519d 91bd
00000070: cdc0 bebd 2e86 3dbc 1eb0 1bbd cae8 2dbd
00000080: c81c 94bd 6a92 35bd 37d7 51bd fe67 26bd
00000090: 5e17 f33a 8855 4dbd abcb a0bd 9442 3fbd
000000a0: 270c 70bd 38b2 d0bc 8b51 c1bd 096f f7bd
000000b0: 9359 97bc e121 f5bd 922a d9bd b1a8 1cbd
000000c0: 3163 78bd f283 c0bd 68ca bcbd 0354 fc3b
000000d0: cd61 bebc 3499 663c 483f 0ebd b9eb 98bd
000000e0: 8c06 ac3d 3583 e33a a2fc cfbc f69b cbbd
000000f0: bfa9 febc 43e1 cdbd 4478 893c a866 1e3d
00000100: 7693 3e3c 3088 91bd 35a9 ebbd 23ce 00bd
00000110: 737a 9ebd bb99 8dbc 56d9 b6bd 2ea8 00be
00000120: 255e c1bd 0b45 a9bd 884e 5f3c d593 bfbd
00000130: df39 02be a54e 9fbd 4d10 0abe 55d8 8dbd
00000140: 387a c0bd b676 febd 8187 aabd d8e2 0abe
00000150: 68a3 09be 0314 afbd c87f bfbd 748f 23be
00000160: e88c 99bd 7c47 00be 1300 9dbd 177e c9bd
00000170: 2bf0 27be c340 0fbe 46bb c1bd 5027 07be
00000180: da51 0cbe 9673 13be b067 0cbd ea65 f9bc
00000190: 1df5 363d 35a2 693c 4216 77bc ba3d 9bbc
000001a0: 817a 1d3c 1096 903c 2c42 8e3d 0cfd a93c
000001b0: a838 98bc 8915 6abc a0da adbb 4a9b bbbd
000001c0: 3416 9cbd cc72 11bd cdf6 1dbd 594e 32bd
000001d0: e165 bbbc c6ba 9cbd 4dcf dbbc 982d 413d
000001e0: 50d0 5f3a caab 4bbd 0647 5abd eae0 2a3c
000001f0: 2279 08bd 6f17 8fbd a26e 66bd a02c 8ebd
00000200: 9b71 babd 3faf 1dbc d723 9cbd c1f7 a4bd
00000210: 7f11 5cbd 41a2 85bd 5bd4 80bd 9af8 f9bc
00000220: 2d60 babd 4b74 c3bd 46de d6bd f13c 02be
00000230: d398 60bd 18cd cabd 8a20 813d ce51 233c
00000240: a4fd 24bc 84c8 babd 6390 85bd 17ad e0bc
00000250: 2e34 b3bc 8ad9 adbd b58d fabd a0b5 82bd
00000260: d37d a4bd ac95 c7bd 5e35 b2bd 9331 b9bd
00000270: 8537 debd e495 ebbc 9af2 cabc 0eec 86bd
00000280: a929 03be 1a2e cbbc f813 d6bd 9ecd 0ebd
00000290: a1a7 0ebd 00a9 00bd 9289 0bbd 945b a3bd
000002a0: 40ac ccbd fda6 08bd 74d7 98bd 05a8 b2bd
000002b0: 73e4 a3bd f5d3 9ebd 9e0c 37bd 995d aabd
000002c0: 92b9 e1bc 83d4 a2bc b3b6 1ebd ca8c 1ebe
000002d0: 5437 05be de43 8cbd 1204 e0bd 036a 87bd
000002e0: 0007 53bd d8d2 c9bd cd00 c9bb 0d78 db3b
000002f0: 16a1 5cbc 2c2f 4fbd f68e 2dbd ba4c bebc
00000300: d2eb 38bd cb30 90ba ac00 eebc b639 8bbd
00000310: bc44 86bd 052a fdbd 8841 3a3c 9b81 adbd
00000320: f8bf 2a3c 91ec 9e3b b4ed 29bd 82bd d4bd
00000330: 23d1 72bd a5ae 70bc 63ea a2bd 247b 47bc
00000340: 849e a9bd 3167 74bd 4385 a93c a009 493c
00000350: 6a10 a9bb 7cc1 4abd b76f 04bc a66c 1d3c
00000360: 310a 2cbd 3dab 72bd 8736 a5bd eb77 483b
00000370: 7e02 05bc aa41 e2bb a1e9 113c faeb 8e39
00000380: 12b7 28bd a3b1 d1bd 0f29 d0bc 819b 57bc
00000390: 3200 2ebd a363 1abd 2109 2ebd 65d2 8cbc
000003a0: 9f5d 10bd ed00 47bd 19eb 79bd 1c22 4a3c
000003b0: f5e7 24bc ad98 47bd b728 943b 0045 2fbd
000003c0: 39db a0bb 2f20 a7bd 87b5 adbc 674a 4fbd
000003d0: 4e48 57bc d0e7 5dbd 135a 0abc dc5f 52bd
000003e0: b757 ccbb 0538 203c 2bb7 61bd c8fb 00bd
000003f0: cd63 91bd acaf 21be fc47 74bd ba0e d5bc

fc1.bias f4 [120]
-0.24799569 -0.1280591 -0.23290916 -0.34368825 -0.3499445 -0.20413795 0.053633183 -0.34289545
-0.3286176 -0.29433116 -0.2826931 0.3808614 -0.2366329 -0.36357266 -0.26152787 -0.25279027
0.40506652 0.39213783 -0.25166863 -0.3196551 0.015821766 -0.3297226 -0.23030129 -0.27939236
-0.12285441 -0.3074707 -0.32813528 -0.31958443 -0.17633252 -0.17030483 -0.3090531 0.5770491
-0.22203662 -0.16760905 -0.33559582 -0.29486632 -0.20182513 -0.302465 0.49980345 -0.31226194
-0.05371747 -0.22096792 -0.1558073 -0.335183 -0.24821745 0.23793884 -0.24642225 0.3569479
-0.29795712 -0.34382504 -0.21333653 -0.27780217 -0.11806318 0.24559207 0.6206014 -0.26770824
-0.28601015 0.2637977 -0.19659176 -0.22566472 -0.07847299 -0.077197105 -0.029047882 -0.37337735
-0.083339214 -0.34188983 -0.26230788 -0.16008674 -0.32015622 -0.18495682 -0.32977635 -0.22899118
-0.18511 -0.08575231 -0.29940644 0.3450672 0.2494861 -0.26544163 -0.22518967 0.072338395
-0.22446707 -0.3202135 -0.28029126 0.37244132 -0.26133168 -0.40340284 -0.25536218 -0.261957
0.034461427 -0.3232288 -0.36523014 -0.06134774 0.10316908 -0.03651965 -0.22400658 -0.09000605
-0.29161188 0.15544873 -0.12486889 0.41219598 -0.31732452 -0.33391672 -0.34435296 -0.16841516
-0.39244 -0.12287524 -0.40511164 -0.32587022 -0.161904 -0.2674512 -0.33117115 -0.14244522
-0.22056657 -0.037686005 0.50197935 -0.28819212 -0.38807386 -0.20361361 -0.3251642 0.29934812
00000000: 95f2 7dbe ed21 03be bd7f 6ebe e8f7 afbe
00000010: ed2b b3be 8a09 51be 78ae 5b3d fe8f afbe
00000020: 9140 a8be 93b2 96be 26bd 90be 4400 c33e
00000030: e54f 72be 3226 babe fbe6 85be ba6d 81be
00000040: e164 cf3e 4ac6 c83e b6da 80be d5a9 a3be
00000050: a69c 813c 67d1 a8be 1ad4 6bbe 840c 8fbe
00000060: 189b fbbd cd6c 9dbe 5901 a8be 92a0 a3be
00000070: 8390 34be 6464 2ebe 353c 9ebe 7db9 133f
00000080: 915d 63be b5a1 2bbe 37d3 abbe b8f8 96be
00000090: 3fab 4ebe b1dc 9abe 3de6 ff3e cce0 9fbe
000000a0: da06 5cbd 6a45 62be f38b 1fbe 1b9d abbe
000000b0: b72c 7ebe 3da6 733e 1d56 7cbe e0c1 b63e
000000c0: d68d 98be d609 b0be e474 5abe 163c 8ebe
000000d0: 1ccb f1bd 7d7c 7b3e bcdf 1e3f 0e11 89be
000000e0: ec6f 92be 7e10 873e 5a4f 49be a714 67be
000000f0: 72b6 a0bd 8419 9ebd d3f5 edbc 512b bfbe
00000100: c0ad aabd 2f0c afbe 384d 86be c7ed 23be
00000110: 84eb a3be 5265 3dbe 72d8 a8be aa7c 6abe
00000120: 7a8d 3dbe e89e afbd cd4b 99be a6ac b03e
00000130: 4979 7f3e f7e7 87be 1f98 66be 2726 943d
00000140: b2da 65be 06f3 a3be 5682 8fbe a1b0 be3e
00000150: 44cd 85be d18a cebe d5be 82be 3a1f 86be
00000160: 6d27 0d3d 3f7e a5be 72ff babe c547 7bbd
00000170: 504a d33d a195 15bd fb61 65be 1855 b8bd
00000180: 274e 95be f42d 1f3e 43bb ffbd 5a0b d33e
00000190: 5c78 a2be 22f7 aabe 084f b0be 0675 2cbe
000001a0: e5ed c8be 04a6 fbbd cb6a cfbe 76d8 a6be
000001b0: 2aca 25be 5def 88be 448f a9be 29dd 11be
000001c0: 34dc 61be a45c 1abd b881 003f eb8d 93be
000001d0: 9eb1 c6be 1680 50be ec7b a6be 2844 993e

fc2.weight f4 [84, 120]
0.017733341 -0.045368355 0.068296246 -0.021823134 0.017569173 0.014885639 -0.4985832 -0.1029588
0.016735876 0.045594905 0.043055292 -0.2743897 0.09122534 0.091036975 -0.020733217 -0.032773715
-0.12409018 -0.25545081 -0.021467375 0.0068341056 -0.17619847 -0.01375378 -0.022627806 -0.029851055
0.042568736 -0.13552345 -0.007201432 0.034006942 0.10097397 0.05595254 -0.060834035 0.19773096
0.011838817 -0.019334378 -0.05429557 0.0053542433 -0.046445467 -0.019884469 0.015511929 0.09222674
-0.12764047 0.028168425 -0.16903582 -0.029672 -0.0040446334 0.073265165 -0.120775014 -0.051150456
0.08151218 -0.080528334 0.0011193134 0.12779836 -0.10376686 -0.33777604 -0.08534501 -0.04706933
0.012956507 -0.16829851 0.042622827 0.082506076 0.022208354 -0.16143897 -0.07801121 -0.18521637
-0.2788702 0.009462498 0.014680748 0.02449007 -0.12363535 -0.009609317 0.003938358 0.017841106
-0.24319829 0.020300591 -0.15202618 -0.024418915 -0.03219661 -0.035087176 -0.15690154 -0.29992536
0.20746733 -0.02618589 -0.078191034 -0.0443801 -0.033968505 -0.13456774 -0.11614307 -0.017422339
-0.015730737 0.027687125 -0.08113988 -0.16009496 -0.112197 -0.051907703 -0.028541861 -0.0014403998
-0.034045637 0.13272168 0.021002304 -0.39100125 -0.0059707398 -0.15205392 -0.089737736 -0.11973765
-0.117980726 -0.111043565 -0.034601495 -0.14519472 0.08174127 0.09803676 -0.036043327 -0.08735314
0.06990791 -0.16174236 -0.075711474 -0.12063965 -0.07015731 -0.085322924 0.02107493 0.19542253
0.024602933 -0.0970763 -0.018382918 -0.13678302 0.0049020303 -0.0073616863 -0.41647023 -0.0014390519
-0.12162803 -0.087766595 0.017026523 -0.2627698 -0.102308154 0.049510214 -0.09776195 -0.20136847
-0.29232183 -0.23318823 -0.06566475 -0.14361703 -0.123090096 -0.08341032 -0.12443228 -0.12971951
-0.06391734 -0.03756491 -0.14598882 -0.096382044 -0.043455508 -0.13512598 -0.06533199 -0.23582524
-0.008576819 0.02397957 -0.12936509 -0.0503768 0.047052488 -0.06669296 -0.23186833 -0.06199807
-0.022138651 -0.056319002 -0.1313959 0.0013239235 -0.06595607 1.759766e-05 -0.028855128 -0.21214278
0.039756965 0.025543291 -0.09693327 -0.045696538 -0.055538837 -0.28061545 -0.103237554 0.03204541
-0.04081516 -0.1518837 -0.08503476 -0.07025749 -0.05078446 -0.08153563 -0.0616515 -0.10914123
-0.11846633 -0.039814357 -0.093838885 -0.005095009 -0.025439734 0.008357122 -0.08023579 0.0322982
0.06704707 0.038103893 -0.1171276 -0.2739965 -0.20588297 0.05199079 0.001102922 -0.25057012
-0.00075072516 -0.020963944 -0.11287775 -0.18288085 -0.037203733 0.026886493 -0.16155566 0.017331706
-0.06389708 -0.11368706 0.12178492 -0.064607404 -0.046863597 -0.16607411 -0.12607872 -0.019265901
-0.07191042 -0.14496167 -0.062230263 -0.1545408 -0.067508176 -0.023463545 0.05591334 -0.08725882
-0.14643292 -0.118567236 -0.008179817 0.017221486 -0.013371568 -0.14825767 -0.02271354 -0.10594971
-0.03853209 0.013112772 -0.15604156 -0.07582735 -0.07878762 -0.06449447 0.08709891 -0.13861209
-0.028547661 -0.07422615 -0.1116917 -0.033818256 -0.04830994 0.13230105 -0.4431155 -0.06580308
-0.018873697 0.05456892 -0.03648999 -0.13057874 0.042614505 0.051003247 -0.122860886 -0.043382242
00000000: 8345 913c 2bd4 39bd e7de 8b3d 6ec6 b2bc
00000010: 3aed 8f3c e5e2 733c 4c46 ffbe 10dc d2bd
00000020: ad19 893c b9c1 3a3d bf5a 303d cf7c 8cbe
00000030: 5ad4 ba3d 9871 ba3d b5d8 a9bc bb3d 06bd
00000040: fe22 febd 73ca 82be 59dc afbc a2f0 df3b
00000050: 5f6d 34be 8957 61bc f35d b9bc 338a f4bc
00000060: 8e5c 2e3d a9c6 0abe fdf9 ebbb dd4a 0b3d
00000070: 71cb ce3d 7e2e 653d 1c2d 79bd fc79 4a3e
00000080: 99f7 413c 2163 9ebc 0865 5ebd a672 af3b
00000090: 9a3d 3ebd c1e4 a2bc bf25 7e3c 60e1 bc3d
000000a0: 2fb4 02be 78c1 e63c ba17 2dbe b212 f3bc
000000b0: d888 84bb 0c0c 963d e458 f7bd 2483 51bd
000000c0: dcef a63d 0aec a4bd edb5 923a 93dd 023e
000000d0: b883 d4bd fbf0 acbe 5dc9 aebd c5cb 40bd
000000e0: 8747 543c 7256 2cbe 4695 2e3d f2f8 a83d
000000f0: 4bee b53c 4250 25be 57c4 9fbd 5ca9 3dbe
00000100: 13c8 8ebe 9808 1b3c 8587 703c 669f c83c
00000110: 8834 fdbd 6670 1dbc 570d 813b 8327 923c
00000120: f908 79be 6d4d a63c c0ac 1bbe 2d0a c8bc
00000130: 98e0 03bd 92b7 0fbd ccaa 20be d18f 99be
00000140: 5172 543e cb83 d6bc 9f22 a0bd e8c7 35bd
00000150: 8f22 0bbd 20cc 09be 6bdc edbd 4bb9 8ebc
00000160: bfdd 80bc 1cd0 e23c aa2c a6bd efef 23be
00000170: 8ac7 e5bd 2c9d 54bd 9fd0 e9bc cccb bcba
00000180: 7073 0bbd 31e8 073e 060d ac3c 5131 c8be
00000190: 32a6 c3bb 06b4 1bbe 6bc8 b7bd 0339 f5bd
000001a0: e19f f1bd cf6a e3bd 4cba 0dbd edad 14be
000001b0: f867 a73d 7fc7 c83d 2ba2 13bd 34e6 b2bd
000001c0: e12b 8f3d ca9f 25be 9e0e 9bbd ec11 f7bd
000001d0: a3ae 8fbd c9bd aebd 55a5 ac3c d81c 483e
000001e0: 178c c93c f0cf c6bd c697 96bc d910 0cbe
000001f0: 36a1 a03b 4d3a f1bb 963b d5be 929e bcba
00000200: 1e18 f9bd f9be b3bd 357b 8b3c c389 86be
00000210: f086 d1bd 39cb 4a3d 6b37 c8bd 8933 4ebe
00000220: 35ab 95be e5c8 6ebe 3e7b 86bd 5810 13be
00000230: a916 fcbd 08d3 aabd 5ad6 febd 31d5 04be
00000240: 18e7 82bd aadd 19bd 187e 15be f363 c5bd
00000250: 67fe 31bd 775e 0abe c7cc 85bd 2c7c 71be
00000260: c985 0cbc ce70 c43c 4878 04be e757 4ebd
00000270: 1cba 403d 5296 88bd e46e 6dbe b0f1 7dbd
00000280: 1e5c b5bc c1ae 66bd a68c 06be 8087 ad3a
00000290: fa13 87bd b09e 9337 9761 ecbc f53b 59be
000002a0: 33d8 223d 2a40 d13c f384 c6bd 4b2c 3bbd
000002b0: b17c 63bd d4ac 8fbe 366e d3bd 0c42 033d
000002c0: cc2d 27bd 6787 1bbe b426 aebd 29e3 8fbd
000002d0: 5e03 50bd 27fc a6bd 4986 7cbd 7085 dfbd
000002e0: 7a9e f2bd 6114 23bd 9a2e c0bd 09f4 a6bb
000002f0: fd66 d0bc 4fec 083c a952 a4bd 1e4b 043d
00000300: f94f 893d d412 1c3d 98e0 efbd 4549 8cbe
00000310: fcd2 52be 4bf4 543d ec8f 903a ba4a 80be
00000320: 50cc 44ba 94bc abbc 732c e7bd 1e45 3bbe
00000330: f162 18bd 1041 dc3c d96e 25be 39fb 8d3c
00000340: 79dc 82bd c3d4 e8bd 5f6a f93d e350 84bd
00000350: 0bf4 3fbd 550f 2abe c81a 01be 86d3 9dbc
00000360: c545 93bd d570 14be 29e5 7ebd f23f 1ebe
00000370: ba41 8abd 9f36 c0bc 6305 653d c1b4 b2bd
00000380: 83f2 15be 61d3 f2bd a404 06bc 1314 8d3c
00000390: 6c14 5bbc dcd0 17be bf11 babc 29fc d8bd
000003a0: d3d3 1dbd f4d6 563c 5cc9 1fbe 5f4b 9bbd
000003b0: 675b a1bd ad15 84bd ea60 b23d 54f0 0dbe
000003c0: c9dc e9bc e103 98bd 9ebe e4bd 0385 0abd
000003d0: a5e0 45bd ed79 073e 09e0 e2be c4c3 86bd
000003e0: 039d 9abc a983 5f3d 8776 15bd 6fb6 05be
000003f0: 8c8c 2e3d c8e8 503d 7d9e fbbd 94b1 31bd

fc2.bias f4 [84]
-0.02243327 -0.121410325 0.6605018 -0.41887504 0.16880548 0.15009391 -0.28309345 0.15170206
0.7113405 -0.41179425 0.15041271 -0.001958374 0.44399026 -0.32709306 0.17909034 -0.511982
-0.3805561 -0.49098572 -0.3373282 -0.41107425 0.8526327 -0.38904518 -0.24026208 0.33535317
-0.45790675 -0.4150185 0.025469746 -0.30504322 -0.4881559 -0.31945267 -0.5203637 -0.46393898
-0.32371095 -0.3872323 0.42185807 0.04904495 -0.26451457 -0.5411935 -0.44767186 -0.2936795
-0.42747948 -0.5547258 -0.4416027 -0.18269102 -0.37503687 -0.2408613 -0.3381559 -0.026409075
-0.39440563 -0.45276862 -0.2911953 -0.5407016 -0.3581183 -0.22787401 0.111810304 -0.36162755
-0.34194973 -0.49981242 -0.28640202 -0.5646681 -0.2811545 0.22577254 -0.22823176 -0.43731254
-0.15105969 -0.58246416 0.17434695 -0.3510327 -0.33092842 -0.28678495 -0.25844064 -0.35392603
-0.5220116 0.21253054 -0.47750428 -0.448515 -0.2192199 -0.51509064 -0.4171907 -0.43186936
0.37230536 -0.10301035 -0.42470267 -0.4373413
00000000: fac5 b7bc faa5 f8bd a516 293f ca76 d6be
00000010: 58db 2c3e 38b2 193e a0f1 90be c957 1b3e
00000020: 691a 363f b2d6 d2be ca05 1a3e 1058 00bb
00000030: b152 e33e be78 a7be 7563 373e 4111 03bf
00000040: 40d8 c2be 7b62 fbbe 48b6 acbe 5378 d2be
00000050: 2346 5a3f ee30 c7be 4307 76be 69b3 ab3e
00000060: c172 eabe 4e7d d4be eea5 d03c a02e 9cbe
00000070: 92ef f9be 4d8f a3be 8e36 05bf 6989 edbe
00000080: 71bd a5be 5043 c6be c8fd d73e 5ce3 483d
00000090: 746e 87be a88b 0abf 3f35 e5be 295d 96be
000000a0: 97de dabe 8302 0ebf c019 e2be 5b13 3bbe
000000b0: d504 c0be 58a4 76be c522 adbe d857 d8bc
000000c0: 89ef c9be 4ad1 e7be 8d17 95be 6c6b 0abf
000000d0: 485b b7be ce57 69be cdfc e43d 3f27 b9be
000000e0: 0914 afbe 6ae7 ffbe 49a3 92be 178e 10bf
000000f0: 7cf3 8fbe eb30 673e 96b5 69be 6ee7 dfbe
00000100: 64af 1abe 5f1c 15bf 0288 323e 8fba b3be
00000110: 736f a9be 7ad5 92be 5552 84be cb35 b5be
00000120: 8da2 05bf 9ba1 593e 717b f4be c2a3 e5be
00000130: 2e7b 60be fbdc 03bf 059a d5be fb1d ddbe
00000140: cf9e be3e 17f7 d2bd a172 d9be 33eb dfbe

fc3.weight f4 [10, 84]
-0.30050397 -0.7142047 -0.25969636 -0.27094617 -0.47029883 -0.6245864 -0.8337269 0.266427
-0.10415691 -0.5580535 -0.79574805 -0.2720179 -0.16371976 -0.20922619 -0.03718341 -0.15478545
-0.5133253 -0.65807575 -0.39494744 -0.30523804 -0.3654728 -0.5916447 -0.5527032 0.2577369
-0.14780805 -0.36339542 -0.5707303 -0.22993861 -0.43290272 -0.1849392 -0.31092146 -0.24227744
-0.30433273 -0.32173526 -0.35583183 -0.4796145 -0.21262877 -0.32637796 -0.37672883 -0.49374634
-0.33101302 -0.5900512 -0.25280294 -0.84309363 -0.2680616 -0.48476118 -0.29382747 -0.25995904
-0.3102226 -0.52914816 -0.23337209 -0.34004334 -0.47845715 -0.25179064 -0.4087989 -0.37300327
-0.5820642 -0.37888435 -0.8788573 -0.52956 -0.34259167 -0.7147899 -0.7659611 -0.38657188
-0.35589352 -0.30299306 -0.62145793 -0.5708906 -0.32127872 -0.7016851 -0.15946722 -0.20588897
-0.39773384 -0.54577434 -0.530309 -0.4387888 -0.40300885 -0.7136522 -0.31458914 -0.5485562
-0.65679324 -0.6335032 -0.43035805 -0.3454854 -0.7403155 -0.9120632 -0.70958793 -0.4343054
-0.46631524 -0.023526069 -0.5969337 0.11767711 -0.3418496 -0.45081756 -0.17021945 0.1373788
-0.5805846 -0.282988 0.4457465 -0.27580708 -0.4088144 -0.6088167 -0.462976 -0.2299714
-0.5869561 -0.55362153 -0.48936138 -0.23690493 -0.1834114 -0.42045474 -0.84645504 -0.18324701
-0.40395755 -0.30433133 -0.26839206 -0.39631522 -0.16918802 -0.17792496 -0.42714235 -0.7580987
-0.42049932 -0.4428911 -0.31103548 -0.61444026 -0.67030984 -0.7347227 -0.5643464 -0.51427144
-0.20771898 -0.592865 -0.464628 -0.5778366 -0.36687407 -0.3712797 -0.32198092 -0.32383493
-0.5430244 -0.5271985 -1.0584233 -0.43400607 -0.6204647 -0.2872316 -0.8854122 -0.4628889
-0.45488188 -0.23332962 -0.84247446 -0.48626474 -0.9261966 -0.48253608 -0.350612 -0.4497959
-0.24843325 -0.48991406 -0.27545902 -0.3240379 -0.34311786 -0.7860662 -0.46314532 -0.3019354
-0.38799226 -0.42832318 -0.2380387 -0.49330518 -0.86599094 -0.6239407 -0.54050785 -0.33040848
-0.6389183 -0.46166056 -0.7656257 -0.6036316 -0.8553151 -0.11584839 -0.8165073 -0.2588986
-0.5519333 -0.65493774 -0.61972195 -0.1615389 -0.4776553 -0.25462526 -0.39330143 -0.47610614
-0.3612955 -0.65289074 -0.64484924 -0.31615785 -0.5326657 -0.6333828 -0.5195085 -0.13810466
-0.33944863 -0.5056911 -0.8286884 -0.31770268 -0.72882736 -0.20031853 -0.38757274 -0.34530145
-0.32892233 -0.4845567 -0.031288642 -0.7181442 -0.3216079 -0.49939814 -0.36120942 -0.63224953
-0.49917242 -0.79398096 -0.6456158 -1.0012003 -0.25359327 -0.44235128 -0.31150436 -0.92484224
-0.32547674 -0.70501983 -0.40857762 -0.3050702 -0.5080466 -0.32191262 -0.34499842 -0.6071208
-0.3932084 -0.5399737 -0.7968449 -0.60439813 -0.30099308 -0.45851684 -0.8503526 -0.5429754
-0.85550755 -0.37218675 -0.96751755 -1.0451458 -0.46878517 -0.4814108 -0.32446295 -0.199851
-0.8039209 0.348357 -0.8505246 -0.36014333 -0.31130308 -0.7531109 -0.24991536 -0.40968546
-0.063837424 -0.5169918 -0.42619595 -0.41705993 -0.84512573 -0.616077 -0.18096781 -0.38945
00000000: a8db 99be 1fd6 36bf ecf6 84be 75b9 8abe
00000010: 02cb f0be e5e4 1fbf 206f 55bf 1f69 883e
00000020: 3850 d5bd 98dc 0ebf 25b6 4bbf ee45 8bbe
00000030: 27a6 27be 643f 56be a24d 18bd 1480 1ebe
00000040: 4969 03bf a777 28bf 8d36 cabe 2948 9cbe
00000050: 401f bbbe 0776 17bf f57d 0dbf 17f6 833e
00000060: fe5a 17be f70e babe 621b 12bf 0775 6bbe
00000070: 6da5 ddbe b460 3dbe 1931 9fbe 9417 78be
00000080: 80d1 9bbe 7cba a4be 972f b6be 0890 f5be
00000090: 5bbb 59be 031b a7be 9ae2 c0be 52cc fcbe
000000a0: 8a7a a9be 980d 17bf 636f 81be fcd4 57bf
000000b0: 5f3f 89be 9e32 f8be 8e70 96be 5a19 85be
000000c0: 7fd5 9ebe 4176 07bf 18f9 6ebe 291a aebe
000000d0: 56f8 f4be b4ea 80be 174e d1be 49fa bebe
000000e0: 2902 15bf 21fd c1be cbfc 60bf 3f91 07bf
000000f0: 2d68 afbe 79fc 36bf 0716 44bf c0ec c5be
00000100: ad37 b6be e821 9bbe de17 1fbf e325 12bf
00000110: a57e a4be a2a1 33bf 604b 23be 8fd4 52be
00000120: c5a3 cbbe deb7 0bbf 55c2 07bf eda8 e0be
00000130: 2d57 cebe e9b1 36bf d411 a1be 2e6e 0cbf
00000140: 9a23 28bf 442d 22bf e457 dcbe 76e3 b0be
00000150: 5185 3dbf f97c 69bf 8ea7 35bf 475d debe
00000160: dfc0 eebe beb9 c0bc a6d0 18bf b200 f13d
00000170: e906 afbe 8fd1 e6be 024e 2ebe 07ad 0c3e
00000180: 31a1 14bf cee3 90be e338 e43e 9636 8dbe
00000190: 1f50 d1be 69db 1bbf 310b edbe 9f7d 6bbe
000001a0: c142 16bf 24ba 0dbf 938d fabe 3597 72be
000001b0: 33d0 3bbe d845 d7be 47b1 58bf 1ba5 3bbe
000001c0: 86d3 cebe 51d1 9bbe af6a 89be d4e9 cabe
000001d0: a03f 2dbe f631 36be 67b2 dabe c212 42bf
000001e0: b04b d7be 9fc2 e2be 0b40 9fbe f54b 1dbf
000001f0: 6d99 2bbf c916 3cbf 0179 10bf 4ba7 03bf
00000200: 49b4 54be 00c6 17bf b9e3 edbe 19ed 13bf
00000210: ebd6 bbbe 5f18 bebe afda a4be b1cd a5be
00000220: a603 0bbf 7bf6 06bf 6a7a 87bf 0b36 debe
00000230: c6d6 1ebf 0510 93be 60aa 62bf c6ff ecbe
00000240: 47e6 e8be f6ed 6ebe 68ac 57bf b1f7 f8be
00000250: 381b 6dbf f80e f7be 6b83 b3be a64b e6be
00000260: 4965 7ebe 04d6 fabe f708 8dbe 4ce8 a5be
00000270: 25ad afbe a23b 49bf 6221 edbe 4797 9abe
00000280: eca6 c6be 2d4d dbbe 6bc0 73be 7f92 fcbe
00000290: 95b1 5dbf 94ba 1fbf b95e 0abf 4d2b a9be
000002a0: 2690 23bf c65e ecbe 0c00 44bf 9a87 1abf
000002b0: eef5 5abf ec41 edbd 9f06 51bf 5b8e 84be
000002c0: 804b 0dbf 00aa 27bf 19a6 1ebf 746a 25be
000002d0: 3c8f f4be 3e5e 82be ce5e c9be 2fc4 f3be
000002e0: b9fb b8be d923 27bf d714 25bf 71df a1be
000002f0: c85c 08bf 6025 22bf 82fe 04bf 4f6b 0dbe
00000300: 36cc adbe f974 01bf ec24 54bf eda9 a2be
00000310: 6e94 3abf 4d20 4dbe ef6f c6be 5acb b0be
00000320: 8268 a8be d117 f8be 8528 00bd 4cd8 37bf
00000330: caa9 a4be 1db1 ffbe 71f0 b8be 1bdb 21bf
00000340: 8793 ffbe 5642 4bbf 1447 25bf 5527 80bf
00000350: fad6 81be de7b e2be 807d 9fbe 76c2 6cbf
00000360: e3a4 a6be 2e7c 34bf 1631 d1be 2932 9cbe
00000370: 580f 02bf bbd1 a4be a2a3 b0be 456c 1bbf
00000380: 9d52 c9be b73b 0abf 07fe 4bbf d6b9 1abf
00000390: c41b 9abe b8c2 eabe b5b0 59bf 7000 0bbf
000003a0: 8b02 5bbf 438f bebe 3baf 77bf 56c7 85bf
000003b0: 9c04 f0be 7a7b f6be 0220 a6be bea5 4cbe
000003c0: c3cd 4dbf d95b b23e fbbb 59bf b564 b8be
000003d0: 1e63 9fbe e0cb 40bf d0e9 7fbe 4bc2 d1be
000003e0: 32bd 82bd 9359 04bf 5b36 dabe e188 d5be
000003f0: 295a 58bf 39b7 1dbf a04f 39be fe65 c7be

fc3.bias f4 [10]
0.08930631 -0.37207118 0.19831952 -0.045383498 0.19467922 0.13138041 -0.12581417 -0.18626432
0.21944594 0.08062473
00000000: 3ae6 b63d 1d80 bebe 4614 4b3e 0ce4 39bd
00000010: fd59 473e 9688 063e 6ed5 00be 13bc 3ebe
00000020: 70b6 603e 941e a53d
