FL/cnn-img/outputs/2025-03-18/18-11-21/model_state_acc_0.3359_round_7.pth (torch, 251962 bytes, 10 tensors)

conv1.weight f4 [6, 3, 5, 5]
-0.20270568 -0.28193858 -0.1776812 -0.021901656 -0.14630857 0.17618883 -0.05781974 -0.28013533
-0.39915204 -0.27524403 0.5009585 0.44330072 -0.018258534 -0.40496466 -0.54807526 0.57421136
0.48727834 0.017267505 -0.4763534 -0.55328286 0.24872634 0.21768427 -0.081440575 -0.36191005
-0.41895553 -0.4135723 -0.5146243 -0.4802941 -0.20732889 -0.33841687 0.14187434 0.035338454
-0.32687044 -0.48621675 -0.55256623 0.53129727 0.49000457 -0.056151718 -0.5888783 -0.60705566
0.67248434 0.6243313 0.015198205 -0.41439438 -0.3931893 0.60306054 0.29419592 0.15943846
-0.36621228 -0.20787816 -0.11409132 -0.17017955 0.13636217 0.060727455 0.054990593 0.3608427
0.1600593 0.07199183 0.076416105 -0.0404536 0.6032268 0.67156166 0.3404895 0.046843033
-0.12969045 0.523546 0.6578676 0.37753406 0.06184519 0.016552512 0.48362857 0.6403238
0.5086262 0.18713158 0.2238534 -0.08569532 0.026486544 -0.04386364 0.0807953 -0.0018366098
-0.40106866 -0.42172146 -0.46841845 -0.4250933 -0.46572888 -0.5296156 -0.76966053 -0.8156944
-0.6763066 -0.75213504 -0.40215155 -0.51538205 -0.59439635 -0.73986804 -0.6594479 -0.1406363
-0.35813078 -0.34501904 -0.3376735 -0.43547568 0.04440205 0.30493346 0.5017878 0.42818585
0.30523577 -0.020976206 0.21935433 0.020770691 0.10677381 0.017900465 -0.24438474 -0.19960313
-0.42349184 -0.32646823 -0.29882544 -0.27853468 -0.3706529 -0.31298816 -0.2966698 -0.33413756
-0.13810997 -0.26265332 -0.48173246 -0.37433425 -0.37980184 0.8704928 1.1120921 1.2087404
1.0223378 0.9955905 0.6826468 1.0631214 1.0205586 0.9883398 0.8592769 0.5024479
0.5840386 0.38700897 0.4002874 0.466302 0.48311988 0.33365643 0.260645 0.2680602
0.30396464 0.32463342 0.29331335 0.24147466 0.31429473 0.11189151 0.26252514 0.23627405
0.27719173 0.1836664 -0.03394779 0.4035102 0.47942832 0.47674444 0.48742458 0.35362634
0.49064434 0.89163214 1.0067286 0.8738029 0.46807694 0.2523527 0.1725115 -0.024803746
0.040091556 -0.09905527 -0.5637721 -0.7263051 -0.82814246 -0.8432579 -0.4486165 -0.15502512
-0.30177784 -0.38578156 -0.42918503 -0.35606962 -0.3426094 -0.28707197 -0.2506644 -0.04784474
-0.07907363 -0.12435896 0.13324097 0.1454692 0.27839902 0.16242515 -0.3098525 -0.32116592
-0.32300404 -0.32801837 -0.19422942 -0.81264025 -1.0094601 -0.99157035 -0.98725945 -0.59104705
0.04753449 -0.034135196 0.092008464 -0.10834853 0.006967402 0.16944894 0.15765934 0.25565574
0.1933217 0.13611919 0.22194298 0.35339388 0.60493934 0.45753428 0.35830688 0.13989912
0.20269167 0.10309478 0.1919862 0.11689368 -0.19738492 -0.40018222 -0.5099338 -0.21339849
-0.053576604 0.18373834 0.09672284 -0.16206409 -0.28777382 -0.31670797 0.24323435 0.18562862
0.08199698 -0.30049434 -0.45919377 0.22985576 0.105454415 0.17263225 -0.13913542 -0.4360036
-0.0095951585 0.15152341 0.1642837 0.077955276 -0.12671542 -0.10578273 -0.09164701 0.051999707
0.1585781 0.012861143 0.102898404 0.009877011 -0.080588676 -0.18576355 -0.20595545 0.21413203
00000000: 1492 4fbe 415a 90be 0ff2 35be 1a6b b3bc
00000010: ead1 15be d86a 343e 64d4 6cbd e66d 8fbe
00000020: a85d ccbe c9ec 8cbe d13e 003f 50f8 e23e
00000030: ec92 95bc 8757 cfbe a94e 0cbf 84ff 123f
00000040: 8c7c f93e 9574 8d3c 98e4 f3be f2a3 0dbf
00000050: 1eb2 7e3e a0e8 5e3e 51ca a6bd 464c b9be
00000060: 5781 d6be c0bf d3be 6bbe 03bf 1ce9 f5be
00000070: 064e 54be fa44 adbe 8247 113e 0ebf 103d
00000080: 905b a7be 67f1 f8be fb74 0dbf 1903 083f
00000090: e1e1 fa3e 58ff 65bd bac0 16bf 0068 1bbf
000000a0: ef27 2c3f 2dd4 1f3f e401 793c 802b d4be
000000b0: 1c50 c9be 2d62 1a3f d9a0 963e d643 233e
000000c0: 2d80 bbbe 03de 54be b6a8 e9bd 8c43 2ebe
000000d0: 86a2 0b3e 5abd 783d d13d 613d 60c0 b83e
000000e0: 96e6 233e 7470 933d 0c80 9c3d adb2 25bd
000000f0: 126d 1a3f 77eb 2b3f a454 ae3e 7bde 3f3d
00000100: 93cd 04be 1c07 063f 036a 283f 254c c13e
00000110: 6251 7d3d 2299 873c 2a9e f73e 43ec 233f
00000120: 5435 023f 6c9f 3f3e d339 653e 0781 afbd
00000130: 4ffa d83c 5caa 33bd 0278 a53d 66ba f0ba
00000140: df58 cdbe e0eb d7be 8bd4 efbe d4a5 d9be
00000150: 0474 eebe e394 07bf 7908 45bf 59d1 50bf
00000160: 6e22 2dbf ec8b 40bf cfe6 cdbe 14f0 03bf
00000170: 5c2a 18bf fe67 3dbf 94d1 28bf f602 10be
00000180: eb5c b7be 56a6 b0be 8ae3 acbe abf6 debe
00000190: edde 353d 3d20 9c3e 2a75 003f 2d3b db3e
000001a0: dd47 9c3e 4bd6 abbc 6c9e 603e 4c27 aa3c
000001b0: 3aac da3d ffa3 923c fe3f 7abe c364 4cbe
000001c0: ecd3 d8be d826 a7be a6ff 98be 199c 8ebe
000001d0: 38c6 bdbe fc3f a0be 1be5 97be 1414 abbe
000001e0: b36c 0dbe 7f7a 86be a3a5 f6be bda8 bfbe
000001f0: 6375 c2be 9ed8 5e3f 0959 8e3f 01b8 9a3f
00000200: f7db 823f 05df 7e3f f1c1 2e3f 5d14 883f
00000210: aaa1 823f d603 7d3f 92f9 5b3f 6da0 003f
00000220: 8e83 153f 0a26 c63e 78f2 cc3e 23bf ee3e
00000230: 7d5b f73e 04d5 aa3e 4373 853e 303f 893e
00000240: 41a1 9b3e 5a36 a63e 2b2d 963e 2245 773e
00000250: 3deb a03e 6027 e53d b269 863e d3f1 713e
00000260: 13ec 8d3e 0b13 3c3e d60c 0bbd e498 ce3e
00000270: a177 f53e d917 f43e b78f f93e 830e b53e
00000280: bc35 fb3e 0142 643f 7cdc 803f 8cb1 5f3f
00000290: c8a7 ef3e 6034 813e dba6 303e 3a31 cbbc
000002a0: 0b37 243d 7ddd cabd 5e53 10bf 22ef 39bf
000002b0: 2501 54bf c0df 57bf 10b1 e5be e8be 1ebe
000002c0: a082 9abe 2985 c5be 24be dbbe c24e b6be
000002d0: 806a afbe 19fb 92be 1657 80be d9f8 43bd
000002e0: 5bf1 a1bd e9af febd 5270 083e e1f5 143e
000002f0: 518a 8e3e c752 263e fda4 9ebe dc6f a4be
00000300: c960 a5be 06f2 a7be 14e4 46be 3109 50bf
00000310: fd35 81bf 8ed7 7dbf 09bd 7cbf dc4e 17bf
00000320: 86b3 423d 59d1 0bbd ef6e bc3d d6e5 ddbd
00000330: ce4e e43b 0684 2d3e 7371 213e 4fe5 823e
00000340: 20f6 453e d462 0b3e 0545 633e 0bf0 b43e
00000350: 4edd 1a3f ef41 ea3e 0074 b73e b741 0f3e
00000360: 688e 4f3e 5b23 d33d 0898 443e f465 ef3d
00000370: 461f 4abe afe4 ccbe 068b 02bf 2285 5abe
00000380: 2473 5bbd e725 3c3e a016 c63d 21f4 25be
00000390: 1757 93be 8c27 a2be 6d12 793e 6e15 3e3e
000003a0: 08ee a73d 65da 99be 721b ebbe 4f5f 6b3e
000003b0: 7cf8 d73d 82c6 303e 8479 0ebe dd3b dfbe
000003c0: 0335 1dbc f428 1b3e fc39 283e 04a7 9f3d
000003d0: b0c1 01be 9ea4 d8bd 6db1 bbbd a5fd 543d
000003e0: 4c62 223e 8bb7 523c 66bc d23d 30d3 213c
000003f0: ad0b a5bd cd38 3ebe fce5 52be 6d45 5b3e

conv1.bias f4 [6]
-1.8929026 -0.8613768 -1.714074 -1.6523632 -1.8624842 -1.7837193
00000000: a24a f2bf 3183 5cbf c766 dbbf a380 d3bf
00000010: e265 eebf ea50 e4bf

conv2.weight f4 [16, 6, 5, 5]
-0.12658389 -0.004352037 -0.0123736905 -0.11225677 -0.029072164 -0.16246141 -0.026009975 -0.03834683
-0.09650924 -0.04723477 -0.17317308 -0.06961876 -0.04686154 -0.15239789 -0.02561854 -0.03469978
-0.110281624 -0.09339937 -0.10237396 -0.059536282 -0.07542049 -0.16175358 -0.06416514 -0.15874283
-0.03804117 -0.02279496 -0.13577788 -0.13272355 -0.15493335 -0.11327713 -0.06037019 -0.037948724
-0.15640484 -0.102987885 -0.05803965 -0.14272507 -0.100937486 -0.12971872 -0.044917453 -0.17911027
-0.0774248 -0.11654868 -0.054610148 -0.062342916 -0.12969413 -0.046758864 -0.119691715 -0.1005724
-0.19039364 -0.106925145 -0.019252485 -0.08493848 -0.065632336 -0.12003704 -0.030350497 -0.11031255
-0.09160405 -0.09744912 -0.08848495 -0.073025994 -0.06187297 -0.09443871 -0.033849005 -0.015287519
-0.018692294 -0.11021905 -0.12101382 -0.10324716 -0.046161 -0.015570735 -0.1163423 -0.06449948
-0.11633597 -0.16755836 0.004577458 -0.113744654 -0.1714438 -0.17395371 -0.11329762 0.006210502
-0.05708262 -0.08926018 -0.058615953 -0.07133683 -0.0636546 0.029859971 -0.090747334 -0.15281267
-0.023028536 -0.13055022 -0.059540197 -0.16265236 -0.1300115 -0.07709562 -0.038104314 -0.050729137
-0.10727159 -0.09268857 -0.10028965 -0.0963647 -0.06119832 -0.10233372 -0.13953818 -0.056485828
-0.04724246 -0.06641448 -0.019402524 -0.14163034 -0.037196834 -0.13452323 -0.06622896 -0.048775975
0.022049274 -0.035507128 -0.11461116 -0.08359254 -0.102945045 -0.069364324 -0.14198199 -0.023861976
-0.19821598 -0.13779105 -0.03348096 -0.090471275 -0.040753428 0.013012671 -0.08051657 -0.058899447
-0.03126506 0.02290483 -0.18432717 -0.11801458 -0.101212785 -0.1734264 -0.16746967 -0.18576907
-0.15606186 -0.124537565 -0.1734046 -0.14502259 -0.18318297 -0.17967652 -0.008838607 0.0014804305
-0.0017834535 -0.08223616 -0.19469859 -0.20124613 -0.097267695 -0.015604495 -0.37629586 0.33516407
0.45279104 -0.41583464 -0.16051199 -0.3965158 0.07372382 0.79526716 -0.2562117 -0.32164514
-0.5269366 -0.3167219 0.7965519 -0.42988154 -0.3521781 -0.64193934 -0.7499666 0.17120019
-0.43369675 -0.5426979 0.31834066 -0.973474 -0.7333635 -0.7824584 -0.55381054 0.09844202
-0.4961678 -0.72993296 -0.54728544 -0.044528574 -0.45532897 -0.33706427 -0.31994128 -0.0044950307
0.043939874 -0.43961763 -0.42901045 0.020162115 -0.15882649 -0.12180573 -0.611147 -0.6783662
-0.49134558 -0.5661532 -0.3734706 0.03643737 -0.41618973 -0.38518527 -0.4864977 -0.5240263
-0.7078572 -0.8452508 -0.7789991 -0.56907487 -0.49780542 -0.7059177 -0.9788482 -0.99820435
-0.39600348 -0.46573472 0.2014566 -0.17308564 -0.47268498 -0.45519397 -0.31849864 0.16139257
-0.33432236 -0.588242 -0.6252997 -0.42336062 -0.43952972 -0.65500766 -0.5474939 -0.53297675
-0.43320528 -0.09481604 -0.20775594 -0.2439883 -0.0678556 -0.1650913 -0.4808679 -0.3200279
-0.3500621 -0.54223835 -0.15879765 -0.4305165 -0.27528942 0.15906605 -0.33245125 -0.1639598
-0.21556489 -0.13870956 0.20803314 -0.36563936 -0.012961592 -0.29035157 -0.40499017 -0.39777327
-0.57100385 -0.34962994 -0.2805704 -0.43224132 -0.16650511 -0.31940624 -0.22079559 -0.08745319
00000000: 359f 01be 889b 8ebb 05bb 4abc e1e6 e5bd
00000010: bf28 eebc 495c 26be df12 d5bc 9111 1dbd
00000020: a3a6 c5bd 3f79 41bd 4954 31be 4894 8ebd
00000030: e3f1 3fbd 310e 1cbe f9dd d1bc 5b21 0ebd
00000040: 55db e1bd 2b48 bfbd 70a9 d1bd 51dc 73bd
00000050: 0f76 9abd bba2 25be 0369 83bd 7b8d 22be
00000060: 0fd1 1bbd 7fbc babc 5b09 0bbe afe8 07be
00000070: d9a6 1ebe d7fd e7bd bb46 77bd 1f70 1bbd
00000080: 9728 20be 50eb d2bd fcba 6dbd 8526 12be
00000090: 50b8 cebd fcd4 04be 5dfb 37bd af68 37be
000000a0: e590 9ebd 13b1 eebd e4ae 5fbd 495b 7fbd
000000b0: 8ace 04be 3986 3fbd ee20 f5bd e7f8 cdbd
000000c0: 8df6 42be 92fb dabd 63b7 9dbc 3af4 adbd
000000d0: 3f6a 86bd fbd5 f5bd 9ba1 f8bc 8ceb e1bd
000000e0: e79a bbbd 6793 c7bd 9937 b5bd a78e 95bd
000000f0: 836e 7dbd 1569 c1bd 41a5 0abd 8178 7abc
00000100: 9520 99bc 86ba e1bd 18d6 f7bd 3f73 d3bd
00000110: 5113 3dbd 651c 7fbc df44 eebd 4e18 84bd
00000120: 8e41 eebd 6b94 2bbe 80fe 953b f5f2 e8bd
00000130: f78e 2fbe ec20 32be 9508 e8bd 7781 cb3b
00000140: 77cf 69bd 0bce b6bd 4817 70bd 0b19 92bd
00000150: 585d 82bd e69c f43c bdd9 b9bd ed7a 1cbe
00000160: 57a6 bcbc f5ae 05be 6ce0 73bd 578e 26be
00000170: bc21 05be 4fe4 9dbd 4513 1cbd 5bc9 4fbd
00000180: 35b1 dbbd 81d3 bdbd a964 cdbd db5a c5bd
00000190: 17ab 7abd 5794 d1bd 19e3 0ebe af5d 67bd
000001a0: 4f81 41bd 5104 88bd 0bf2 9ebc 8b07 11be
000001b0: b55b 18bd 75c0 09be 0da3 87bd 51c9 47bd
000001c0: aea0 b43c ec6f 11bd 41b9 eabd 9132 abbd
000001d0: dad4 d2bd e20e 8ebd ba63 11be 317a c3bc
000001e0: 21f9 4abe 1919 0dbe 5523 09bd 0149 b9bd
000001f0: 11ed 26bd 1933 553c dfe5 a4bd 8c40 71bd
00000200: cb0f 00bd e9a2 bb3c 43c0 3cbe a1b1 f1bd
00000210: a648 cfbd b196 31be 2b7d 2bbe 3f3a 3ebe
00000220: aece 1fbe 8d0d ffbd fa90 31be cd80 14be
00000230: 5194 3bbe 1ffd 37be cecf 10bc 010b c23a
00000240: c5c2 e9ba 6f6b a8bd 115f 47be 7713 4ebe
00000250: 4934 c7bd ffa9 7fbc daa9 c0be a09a ab3e
00000260: 3ad4 e73e 47e8 d4be 415d 24be 1e04 cbbe
00000270: 84fc 963d a196 4b3f 2e2e 83be acae a4be
00000280: 51e5 06bf 5f29 a2be d3ea 4b3f 6f19 dcbe
00000290: b050 b4be 2356 24bf d0fd 3fbf 1a4f 2f3e
000002a0: 800d debe 40ee 0abf 8cfd a23e 9835 79bf
000002b0: b6bd 3bbf 324f 48bf 87c6 0dbf f89b c93d
000002c0: b509 febe e3dc 3abf e61a 0cbf 9863 36bd
000002d0: e120 e9be b093 acbe 58cf a3be 0d4b 93bb
000002e0: 4cfa 333d 9015 e1be 42a7 dbbe 052b a53c
000002f0: 69a3 22be 4875 f9bd 2174 1cbf 68a9 2dbf
00000300: a691 fbbe 6bef 10bf 8a37 bfbe 5a3f 153d
00000310: d216 d5be 0137 c5be 3a16 f9be 9626 06bf
00000320: 2136 35bf 5b62 58bf 7c6c 47bf e4ae 11bf
00000330: 5ae0 febe 06b7 34bf cc95 7abf 528a 7fbf
00000340: f8c0 cabe c874 eebe a44a 4e3e 5d3d 31be
00000350: c403 f2be 2f0f e9be 4112 a3be 1844 253e
00000360: 4d2c abbe 0797 16bf a413 20bf b9c2 d8be
00000370: 0a0a e1be 95ae 27bf 8f28 0cbf 2a71 08bf
00000380: 15cd ddbe e92e c2bd f9bd 54be 12d8 79be
00000390: e0f7 8abd b20d 29be 5134 f6be b2da a3be
000003a0: 573b b3be 22d0 0abf da9b 22be a96c dcbe
000003b0: bcf2 8cbe 36e2 223e 0d37 aabe 14e5 27be
000003c0: 0bbd 5cbe e109 0ebe a406 553e 1535 bbbe
000003d0: db5c 54bc f6a8 94be df5a cfbe f0a8 cbbe
000003e0: 4f2d 12bf b202 b3be eca6 8fbe bc4e ddbe
000003f0: 5180 2abe 3789 a3be 3d18 62be a81a b3bd

conv2.bias f4 [16]
-0.07662662 1.0121151 1.0618682 0.71726954 0.2405178 -0.04202967 0.57945323 0.27303383
-0.107154615 -0.13419612 1.2748033 0.768988 -1.1431117 -0.23305391 -0.13957304 0.08523625
00000000: 6bee 9cbd fd8c 813f 4ceb 873f fa9e 373f
00000010: 4c4a 763e 4e27 2cbd 0c57 143f 17cb 8b3e
00000020: e173 dbbd b56a 09be c12c a33f 66dc 443f
00000030: 7c51 92bf afa5 6ebe 3cec 0ebe 5890 ae3d

fc1.weight f4 [120, 400]
0.032370355 -0.040955093 -0.062361173 -0.048037063 -0.028875934 -0.065507196 -0.02070246 -0.026801692
-0.064599335 -0.0039270385 -0.038259592 -0.0069234287 0.0034539143 -0.051786374 -0.053567998 -0.04601832
-0.02431404 -0.070784025 0.001508108 -0.061860304 -0.034590628 -0.036299977 -0.034540888 -0.009110059
0.005509541 -0.100746885 -0.088639155 -0.08836116 -0.107568964 -0.013501861 -0.03996956 -0.048889626
-0.07421455 -0.06334001 -0.06589768 -0.034156688 0.0032483272 -0.061290734 -0.10125403 -0.06600298
-0.08381683 -0.03565732 -0.12795953 -0.12765567 -0.035894524 -0.13639472 -0.12149535 -0.059494924
-0.071856655 -0.11036038 -0.10820262 -0.0148520395 -0.042126734 -0.006535612 -0.061205816 -0.0655544
0.04993897 -0.0054677296 -0.04447949 -0.12646833 -0.028973676 -0.1178794 0.007705343 0.042731363
-0.0129814 -0.098246776 -0.11475015 -0.059089396 -0.099614054 -0.039630324 -0.12894712 -0.16510147
-0.101021476 -0.10430804 -0.0035521118 -0.109315395 -0.12091987 -0.0957229 -0.16691294 -0.101055115
-0.104199655 -0.12172589 -0.104655005 -0.15807036 -0.14194906 -0.1212909 -0.11388103 -0.18568598
-0.107382596 -0.16586359 -0.08188827 -0.08429368 -0.17017592 -0.16419828 -0.1536775 -0.14525975
-0.1414962 -0.15519723 -0.054338507 -0.07278137 0.036443893 -0.009750264 -0.009742788 -0.008413693
0.010216798 0.021217756 0.07630951 0.02507978 -0.038254857 -0.019851599 -0.028453076 -0.09898223
-0.07933815 -0.05750086 -0.06623517 -0.06215952 -0.040005308 -0.097515956 -0.026256422 0.02676089
-0.013408119 -0.059221707 -0.07312109 -0.00906851 -0.028672636 -0.071694516 -0.086101785 -0.084481716
-0.11753739 -0.022472952 -0.1072981 -0.10534889 -0.065829076 -0.087139584 -0.09419327 -0.08021188
-0.1196121 -0.1127504 -0.10059906 -0.13739286 -0.08716585 -0.118711874 0.081520036 -0.013899823
-0.016505841 -0.103972115 -0.07478642 -0.03831528 -0.042507432 -0.1069665 -0.14510567 -0.07633115
-0.061602183 -0.09346978 -0.10771362 -0.11144317 -0.1111671 -0.050384756 -0.05208628 -0.09992429
-0.15323602 -0.05040234 -0.12836197 -0.026704516 -0.052343335 -0.062396746 -0.04398482 -0.104680225
-0.1413697 -0.027956264 -0.08031781 -0.12238135 -0.10424694 -0.07960975 -0.081457935 -0.090367824
-0.0469095 -0.017256081 -0.023920989 -0.16792174 -0.13351351 -0.06410258 -0.1285983 -0.08761345
-0.06501062 -0.086907715 -0.037375238 -0.016266469 -0.040834878 -0.06993508 -0.042034656 -0.059821848
-0.065584 -0.018574331 -0.05092626 -0.09774141 -0.08592664 -0.12820971 0.01705259 -0.095620215
0.0104217455 0.0048499783 -0.041486457 -0.103877105 -0.059281476 -0.014690076 -0.07954862 -0.012175365
-0.082821876 -0.05966872 0.020693427 0.012270361 -0.0051594274 -0.049500912 -0.0080832755 0.009608423
-0.042001907 -0.059245337 -0.08067041 0.0030589055 -0.00811827 -0.006904802 0.008905799 0.00027260167
-0.041190214 -0.1023896 -0.025410203 -0.013159634 -0.042480655 -0.037692677 -0.042489175 -0.017190168
-0.035245534 -0.048584867 -0.061015222 0.01233723 -0.0100650685 -0.048729587 0.004521455 -0.042790413
-0.004908946 -0.081604354 -0.021204723 -0.050608065 -0.013139797 -0.05417615 -0.008444327 -0.05136095
-0.0062360424 0.009778981 -0.09087869 -0.048998274 -0.088400334 -0.16392769 -0.058862336 -0.03255001
00000000: c796 043d 87c0 27bd 6e6e 7fbd 83c2 44bd
00000010: 398d ecbc a328 86bd 3598 a9bc 398f dbbc
00000020: a84c 84bd 63ae 80bb 17b6 1cbd eedd e2bb
00000030: 115b 623b f31d 54bd 1e6a 5bbd b57d 3cbd
00000040: 3d2e c7bc 37f7 90bd b5ab c53a 3b61 7dbd
00000050: e7ae 0dbd 49af 14bd bf7a 0dbd 5b42 15bc
00000060: 6189 b43b 6254 cebd 7288 b5bd b2f6 b4bd
00000070: 1e4d dcbd e936 5dbc 1fb7 23bd 7d40 48bd
00000080: ccfd 97bd 68b8 81bd 5df5 86bd e2e7 0bbd
00000090: e3e1 543b fe0b 7bbd 465e cfbd 922c 87bd
000000a0: 28a8 abbd 690d 12bd d307 03be 2bb8 02be
000000b0: 2306 13bd 0fab 0bbe 8ed2 f8bd f3b0 73bd
000000c0: 9529 93bd 9f04 e2bd 5699 ddbd f855 73bc
000000d0: 158d 2cbd b028 d6bb f3b2 7abd 6341 86bd
000000e0: ce8c 4c3d a42a b3bb 2030 36bd ea80 01be
000000f0: 345a edbc c16a f1bd 1a7d fc3b 1507 2f3d
00000100: f0af 54bc 9b35 c9bd 2002 ebbd b907 72bd
00000110: 7402 ccbd 6853 22bd b70a 04be 5c10 29be
00000120: 59e4 cebd 749f d5bd 8cca 68bb c0e0 dfbd
00000130: d6a4 f7bd 5e0a c4bd 3aeb 2abe fcf5 cebd
00000140: a166 d5bd 6c4b f9bd 5d55 d6bd 32dd 21be
00000150: 185b 11be 5d67 f8bd 753a e9bd 7724 3ebe
00000160: 68eb dbbd 25d8 29be 0ab5 a7bd 2aa2 acbd
00000170: 9942 2ebe 9823 28be a25d 1dbe f9be 14be
00000180: 61e4 10be 06ec 1ebe 0e92 5ebd 660e 95bd
00000190: 3146 153d 92bf 1fbc 37a0 1fbc 96d9 09bc
000001a0: 5b64 273c dcd0 ad3c 2948 9c3d 1c74 cd3c
000001b0: 20b1 1cbd d29f a2bc 6d16 e9bc 32b7 cabd
000001c0: 0a7c a2bd 0686 6bbd 4ea6 87bd fb9a 7ebd
000001d0: 9bdc 23bd 72b6 c7bd b517 d7bc a739 db3c
000001e0: baad 5bbc 7692 72bd 83c0 95bd 1694 14bc
000001f0: e0e2 eabc 93d4 92bd 2256 b0bd c004 adbd
00000200: 71b7 f0bd 3219 b8bc 1bbf dbbd 29c1 d7bd
00000210: 65d1 86bd 3d76 b2bd 67e8 c0bd 2046 a4bd
00000220: 30f7 f4bd afe9 e6bd e106 cebd b7b0 0cbe
00000230: 0284 b2bd 361f f3bd faf3 a63d 15bc 63bc
00000240: 4237 87bc 55ef d4bd 9f29 99bd 7cf0 1cbd
00000250: 461c 2ebd 4111 dbbd 9596 14be 8253 9cbd
00000260: 9252 7cbd 166d bfbd f598 dcbd 513c e4bd
00000270: 94ab e3bd 3f60 4ebd 6c58 55bd 1ba5 ccbd
00000280: e7e9 1cbe af72 4ebd 5271 03be 6ec3 dabc
00000290: f765 56bd bb93 7fbd 6d29 34bd 9662 d6bd
000002a0: 38c3 10be 8904 e5bc aa7d a4bd 13a3 fabd
000002b0: 6b7f d5bd 700a a3bd 6bd3 a6bd c412 b9bd
000002c0: 2d24 40bd a05c 8dbc f3f5 c3bc adf3 2bbe
000002d0: c4b7 08be 3748 83bd 46af 03be ae6e b3bd
000002e0: 4a24 85bd acfc b1bd c716 19bd 4241 85bc
000002f0: 7942 27bd 203a 8fbd 882c 2cbd c107 75bd
00000300: e750 86bd 3229 98bc 0e98 50bd a62c c8bd
00000310: 4efa afbd 6849 03be e0b1 8b3c 88d4 c3bd
00000320: f8bf 2a3c 91ec 9e3b b4ed 29bd 85bd d4bd
00000330: 22d1 72bd a5ae 70bc 63ea a2bd 2f7b 47bc
00000340: 849e a9bd 3067 74bd 4385 a93c a009 493c
00000350: 6a10 a9bb 78c1 4abd b76f 04bc a66c 1d3c
00000360: 310a 2cbd 3dab 72bd 8736 a5bd eb77 483b
00000370: 7e02 05bc ad41 e2bb a1e9 113c faeb 8e39
00000380: 12b7 28bd a3b1 d1bd 0f29 d0bc 819b 57bc
00000390: 3200 2ebd a363 1abd 2109 2ebd 65d2 8cbc
000003a0: 9f5d 10bd ed00 47bd 19eb 79bd 1822 4a3c
000003b0: f5e7 24bc ad98 47bd b728 943b 0045 2fbd
000003c0: 39db a0bb 2f20 a7bd 87b5 adbc 674a 4fbd
000003d0: 4e48 57bc d0e7 5dbd 135a 0abc dc5f 52bd
000003e0: b757 ccbb 0538 203c 9b1e babd 6ab2 48bd
000003f0: 3c0b b5bd a9dc 27be a219 71bd 2953 05bd

fc1.bias f4 [120]
-0.25202307 -0.07287212 -0.29985923 -0.34900272 -0.3671894 -0.2106567 0.07617448 -0.4047011
-0.3570477 -0.30577445 -0.32065904 0.45741785 -0.25835726 -0.36760044 -0.2634381 -0.26455134
0.48100087 0.48514497 -0.19416901 -0.3515602 0.07219802 -0.30491152 -0.26251298 -0.28753254
-0.3125984 -0.37808317 -0.43248385 -0.3111803 -0.17583446 -0.1648703 -0.25200638 0.6627796
-0.15157741 -0.17789477 -0.37937042 -0.2982756 -0.18652913 -0.29028487 0.5449745 -0.44917166
-0.08851944 -0.25591904 -0.19779049 -0.35472295 -0.29236478 0.2423189 -0.24482092 0.4161785
-0.31755912 -0.35400274 -0.2407008 -0.24330586 -0.17213292 0.22710605 0.75295156 -0.2671139
-0.2174151 0.23707266 -0.21557133 -0.23872462 -0.10837945 -0.2580204 -0.02231084 -0.34092546
-0.24614887 -0.3323847 -0.2559507 -0.22664037 -0.35208225 -0.2052989 -0.34358907 -0.223277
-0.17095473 -0.0067687603 -0.32638696 0.42257065 0.2944309 -0.3032074 -0.2546021 0.09304717
-0.27442312 -0.3280875 -0.30405998 0.47061804 -0.27987427 -0.42193174 -0.27327245 -0.27813205
0.13646132 -0.33880073 -0.3887593 -0.08213629 0.2437588 -0.07552949 -0.2484888 -0.1289352
-0.33786473 0.16465142 -0.15709928 0.52888954 -0.35011542 -0.32301822 -0.33444598 -0.13478123
-0.4186845 -0.12048239 -0.3944558 -0.3403219 -0.19351737 -0.30049556 -0.42285517 -0.25858954
-0.2101728 -0.08983479 0.5922386 -0.29721522 -0.43662465 -0.21144694 -0.32421803 0.3858641
00000000: 2b09 81be fa3d 95bd 2687 99be 7cb0 b2be
00000010: 4000 bcbe 64b6 57be 5e01 9c3d fc34 cfbe
00000020: f5ce b6be 788e 9cbe 6c2d a4be ac32 ea3e
00000030: 6747 84be 2036 bcbe 5ce1 86be 4673 87be
00000040: bf45 f63e ec64 f83e 3ed4 46be b3ff b3be
00000050: 8edc 933d 5d1d 9cbe 1a68 86be 7737 93be
00000060: e60c a0be 1e94 c1be 866e ddbe 0653 9fbe
00000070: f30d 34be c3d3 28be fb06 81be edab 293f
00000080: 1c37 1bbe 0c2a 36be d73c c2be 94b7 98be
00000090: 7e01 3fbe 38a0 94be 7383 0b3f d4f9 e5be
000000a0: ae49 b5bd d207 83be 9789 4abe 3f9e b5be
000000b0: d6b0 95be 7222 783e 56b2 7abe 5915 d53e
000000c0: 1c97 a2be d93f b5be 457a 76be 2c25 79be
000000d0: 9d43 30be 7d8e 683e 6fc1 403f 27c3 88be
000000e0: 10a2 5ebe 2dc3 723e bbbe 5cbe 3a74 74be
000000f0: 0cf6 ddbd 401b 84be 39c5 b6bc c88d aebe
00000100: 730e 7cbe 542e aabe f80b 83be 6a14 68be
00000110: 2044 b4be e039 52be e8ea afbe baa2 64be
00000120: c20e 2fbe 7acc ddbb 311c a7be 2e5b d83e
00000130: a6bf 963e 003e 9bbe 355b 82be 848f be3d
00000140: 3081 8cbe 16fb a7be c0ad 9bbe d9f4 f03e
00000150: ae4b 8fbe 7007 d8be 5eea 8bbe 5367 8ebe
00000160: 84bc 0b3e 4a77 adbe 750b c7be 1237 a8bd
00000170: e89b 793e 35af 9abd d973 7ebe 9707 04be
00000180: 9bfc acbe 629a 283e a2de 20be 4e65 073f
00000190: 5442 b3be a562 a5be 813c abbe 1704 0abe
000001a0: d15d d6be 79bf f6bd 1cf6 c9be ac3e aebe
000001b0: 6b29 46be 8eda 99be 7980 d8be d965 84be
000001c0: 8a37 57be 4dfb b7bd f39c 173f 982c 98be
000001d0: 448d dfbe 8c85 58be e8ff a5be fb8f c53e

fc2.weight f4 [84, 120]
0.04271815 -0.09934078 0.1955902 0.019865861 0.057138197 0.044622283 -0.5564392 -0.043307412
0.02023519 0.06777301 0.075218715 -0.3004686 0.083330624 0.092429 0.03519142 0.049431514
-0.1482979 -0.28685033 0.011646381 0.0047213477 -0.13477051 -0.027329383 -0.038262464 -0.018920165
0.05852196 0.013917056 0.00075262995 0.05376077 0.106118225 0.24737495 -0.041468043 0.27655742
0.03195525 0.0066150734 -0.021327594 -0.0058584632 -0.0071661165 -0.010069922 0.11352878 0.066458695
-0.0764466 0.11247277 -0.21606733 0.007081515 -0.0093191955 0.13308711 -0.1040926 -0.18347794
0.09490151 -0.09231977 0.07731071 0.110736415 -0.082113236 -0.54269004 -0.05935622 -0.06633998
0.1023059 -0.36052096 0.023021718 0.08968234 -0.0003718785 -0.15958676 -0.04633602 -0.16680887
-0.42577198 0.04578833 0.041759487 0.009994015 -0.08507505 0.07063319 0.018544987 -0.012257471
-0.49331573 0.13154563 -0.11816246 -0.049873713 0.016884724 -0.05258699 -0.13496064 -0.3689553
0.35433054 -0.0126292845 -0.040078446 0.03767105 -0.0262008 -0.13724339 -0.07202762 0.05861245
0.013951205 0.035520513 -0.039173182 -0.10641831 -0.08703056 0.17466022 -0.06365082 0.04801722
-0.0018713718 0.32103732 0.12339838 -0.42627716 -0.014550753 -0.0698669 -0.09929144 -0.05821757
-0.11168588 -0.076953955 -0.037616726 -0.13986732 0.104143076 0.113284275 0.041199494 -0.12451745
0.08874716 -0.076812215 0.074735306 -0.12941785 -0.06439101 -0.08737979 0.008223659 0.34290355
0.029908195 -0.10452947 0.016520785 -0.13181473 -0.000681625 0.0057981974 -0.5624325 -0.0142286625
-0.120417364 -0.095050596 0.008327777 -0.33702362 -0.08840107 0.054066226 -0.11623705 -0.16642883
-0.23420025 -0.19118543 -0.07839846 -0.13805975 -0.09010376 -0.07033147 -0.13490595 -0.13374497
-0.12314088 -0.023193795 -0.15894763 -0.089836106 -0.049367387 -0.14155087 -0.071912736 -0.2693207
0.033946894 0.035062727 -0.11718822 -0.00021862483 0.04468408 -0.06027431 -0.16629125 -0.039915666
-0.013555089 -0.063532636 -0.13281232 -0.0026622706 -0.03869684 -0.061478406 -0.028274877 -0.30928904
0.019356372 0.011041752 -0.07397764 -0.038576346 -0.02557909 -0.31937695 -0.14825325 0.037585218
-0.018685274 -0.32448897 -0.056869395 -0.08233829 -0.075542256 -0.05581414 -0.061943527 -0.11082566
-0.22374949 -0.036019795 -0.16113394 -0.04842234 -0.018640695 0.0038401447 -0.087514535 0.08342324
0.12548564 0.001377275 -0.11042091 -0.3728708 -0.20825744 0.05729236 0.008892684 -0.3181511
0.00046684092 0.00019315642 -0.12585942 -0.12654515 -0.041898336 0.02282513 -0.18156986 0.013069791
-0.06365106 -0.13209577 0.1315236 -0.027355686 -0.023605574 -0.119696826 -0.11146945 -0.015751176
-0.0078024464 -0.13015811 -0.047199078 -0.23539281 -0.055713657 -0.03395157 0.048044495 -0.094256364
-0.14912191 -0.09379348 -0.010596422 0.012856793 0.0012173611 -0.14666711 -0.09017578 -0.17870052
-0.04426627 -0.015440493 -0.10833411 -0.06283396 -0.08400038 -0.06449447 0.079623975 -0.12677224
0.008585641 -0.20175798 -0.054730535 -0.0014532964 -0.032447904 0.11889817 -0.67298543 -0.08475982
-0.019733608 0.097699195 -0.03334494 -0.19760463 0.030112876 0.08861472 -0.14921558 -0.059890233
00000000: 3af9 2e3d 2e73 cbbd cc48 483e bbbd a23c
00000010: be09 6a3d dbc5 363d cd72 0ebf 1d63 31bd
00000020: 45c4 a53c 93cc 8a3d 450c 9a3d 05d7 99be
00000030: 3fa9 aa3d 6a4b bd3d e124 103d b378 4a3d
00000040: 68db 17be 0cde 92be 76d0 3e3c 89b5 9a3b
00000050: 4801 0abe dfe1 dfbc 1ab9 1cbd 76fe 9abc
00000060: b9b4 6f3d 5d04 643c 244c 453a 4134 5c3d
00000070: 8354 d93d dc4f 7d3e 65da 29bd ef98 8d3e
00000080: 82e3 023d 42c3 d83b 35b7 aebc 5af8 bfbb
00000090: bed1 eabb 50fc 24bc c781 e83d 7f1b 883d
000000a0: 0990 9cbd 2058 e63d c140 5dbe 0e0c e83b
000000b0: 8aaf 18bc fd47 083e 802e d5bd a4e1 3bbe
000000c0: b95b c23d 2612 bdbd 1455 9e3d c6c9 e23d
000000d0: fc2a a8bd bced 0abf 821f 73bd 41dd 87bd
000000e0: c185 d13d 3496 b8be 0b98 bc3c 60ab b73d
000000f0: b0f8 c2b9 b66a 23be d7ca 3dbd f2cf 2abe
00000100: c9fe d9be 8b8c 3b3d ff0b 2b3d f0bd 233c
00000110: d43b aebd 22a8 903d a8eb 973c 8fd3 48bc
00000120: e193 fcbe e6b3 063e 29ff f1bd 6148 4cbd
00000130: d551 8a3c 7565 57bd 1f33 0abe b6e7 bcbe
00000140: d06a b53e 0feb 4ebc 4c29 24bd f54c 1a3d
00000150: 0fa3 d6bc 8889 0cbe 3883 93bd 9c13 703d
00000160: 9893 643c f57d 113d 0f74 20bd d8f1 d9bd
00000170: 143d b2bd 21da 323e 5c5b 82bd b4ad 443d
00000180: d148 f5ba 015f a43e 4ab8 fc3d 0041 dabe
00000190: 4866 6ebc 6116 8fbd 4f59 cbbd 8c75 6ebd
000001a0: 91bb e4bd 099a 9dbd ff13 1abd 6139 0fbe
000001b0: f748 d53d 9601 e83d cdc0 283d 0103 ffbd
000001c0: 12c1 b53d b94f 9dbd d30e 993d 1d86 04be
000001d0: 6fdf 83bd 2df4 b2bd 87bc 063c 0e91 af3e
000001e0: 0802 f53c 8c13 d6bd 9956 873c 71fa 06be
000001f0: 14af 32ba cefe bd3b 94fb 0fbf 561f 69bc
00000200: 619d f6bd e3a9 c2bd 3a71 083c 5c8e acbe
00000210: 9f0b b5bd 8c74 5d3d b10d eebd 526c 2abe
00000220: 31d2 6fbe 1dc6 43be 5f8f a0bd 895f 0dbe
00000230: 5288 b8bd f209 90bd c924 0abe 71f4 08be
00000240: 4931 fcbd ea00 bebc 2bc3 22be fefb b7bd
00000250: 7535 4abd b6f2 10be fc46 93bd 67e4 89be
00000260: e60b 0b3d ef9d 0f3d 6100 f0bd a83e 65b9
00000270: a706 373d 32e2 76bd 4148 2abe 9c7e 23bd
00000280: 2a16 5ebc 661d 82bd f4ff 07be 7d79 2ebb
00000290: 9480 1ebd c8d0 7bbd b7a0 e7bc 225b 9ebe
000002a0: 4191 9e3c 77e8 343c 9781 97bd 3b02 1ebd
000002b0: 3d8b d1bc 6085 a3be b3cf 17be f5f2 193d
000002c0: dc11 99bc 6b23 a6be e2ef 68bd faa0 a8bd
000002d0: e6b5 9abd 5e9d 64bd 7fb8 7dbd 90f8 e2bd
000002e0: 961e 65be 7e89 13bd 4c00 25be 8156 46bd
000002f0: 5fb4 98bc f0aa 7b3b d23a b3bd ced9 aa3d
00000300: 4f7f 003e ae85 b43a 5c24 e2bd ece8 bebe
00000310: 7041 55be 65ab 6a3d 9fb2 113c b3e4 a2be
00000320: 54c2 f439 088a 4a39 4be1 00be 0d95 01be
00000330: 979d 2bbd c4fb ba3c 73ed 39be ad22 563c
00000340: 7d5b 82bd 1d44 07be 1fae 063e 0819 e0bc
00000350: 7a60 c1bc 9c23 f5bd 184a e4bd 9c08 81bc
00000360: aaab ffbb 2b48 05be d253 41bd d00a 71be
00000370: 0134 64bd cd10 0bbd 4eca 443d 7b09 c1bd
00000380: 6ab3 18be cc16 c0bd 9d9c 2dbc 4ca5 523c
00000390: dc8f 9f3a e72f 16be 14ae b8bd 45fd 36be
000003a0: 8c50 35bd 1ffa 7cbc 46de ddbd 17af 80bd
000003b0: 6408 acbd ad15 84bd e511 a33d 95d0 01be
000003c0: caaa 0c3c a599 4ebe 202d 60bd 897c beba
000003d0: 18e8 04bd e280 f33d c648 2cbf 8e96 adbd
000003e0: 60a8 a1bc 8416 c83d b494 08bd de58 4abe
000003f0: 47af f63c a27b b53d f8cb 18be 764f 75bd

fc2.bias f4 [84]
-0.17542315 -0.38647342 0.99265605 -0.58539903 0.16344748 0.006553878 -0.57435346 -0.2060911
0.8169894 -0.62099934 0.023467949 -0.24498923 0.4605301 -0.46218857 -0.27436104 -0.8552287
-0.5319399 -0.71159875 -0.60563314 -0.5239001 1.4184145 -0.7285118 -0.4266363 0.1778131
-0.644078 -0.6556998 0.4324693 -0.43669924 -0.845048 -0.4271366 -0.6762537 -0.57502586
-0.45263284 -0.5323316 0.5497021 0.28210992 -0.4608131 -0.7235998 -0.5416995 -0.49552813
-0.6347325 -0.78408146 -0.732289 -0.74765956 -0.47422868 -0.5223303 -0.515938 -0.22101353
-0.5641613 -0.913795 -0.47885826 -0.7870302 -0.56961715 -0.32235616 -0.07451776 -0.60211426
-0.538555 -0.67434186 -0.49063772 -0.80665886 -0.33753893 0.19230424 -0.42598748 -0.5801666
-0.47906587 -0.74572366 0.17348501 -0.85869604 -0.6094999 -0.42648116 -0.38036466 -0.40418798
-0.7956473 0.34239766 -0.8863993 -0.71199685 -0.2930462 -0.6675808 -0.5507063 -0.61466926
0.50671417 -0.15148772 -0.61946183 -0.5317512
00000000: 20a2 33be d8df c5be b51e 7e3f b6dc 15bf
00000010: c75e 273e eac1 d63b d408 13bf 8c09 53be
00000020: 3826 513f d0f9 1ebf db3f c03c 75de 7abe
00000030: 9aca eb3e fba3 ecbe 0d79 8cbe 45f0 5abf
00000040: 372d 08bf 562b 36bf c60a 1bbf 511e 06bf
00000050: 9b8e b53f c07f 3abf 1370 dabe a314 363e
00000060: 4ce2 24bf f1db 27bf 9e6c dd3e 0b97 dfbe
00000070: 1155 58bf a6b1 dabe f61e 2dbf e534 13bf
00000080: 7ebf e7be e246 08bf 47b9 0c3f b670 903e
00000090: b2ef ebbe d63d 39bf d2ac 0abf ddb5 fdbe
000000a0: d47d 22bf 90b9 48bf 4b77 3bbf 9e66 3fbf
000000b0: 1ace f2be 70b7 05bf 8314 04bf 5f51 62be
000000c0: e06c 10bf 78ee 69bf e92c f5be d07a 49bf
000000d0: 6ed2 11bf de0b a5be c49c 98bd 2924 1abf
000000e0: bede 09bf aba1 2cbf de34 fbbe 3281 4ebf
000000f0: e7d1 acbe 67eb 443e 081b dabe cc85 14bf
00000100: 1f48 f5be bfe7 3ebf 0ea6 313e 81d3 5bbf
00000110: 2f08 1cbf bd5b dabe 28bf c2be baf1 cebe
00000120: 8baf 4bbf bf4e af3e 11eb 62bf 6d45 36bf
00000130: 270a 96be 93e6 2abf 17fb 0cbf f75a 1dbf
00000140: 05b8 013f 991f 1bbe 0d95 1ebf d920 08bf

fc3.weight f4 [10, 84]
-0.2882097 -1.2730764 -0.27506474 -0.44872704 -0.53813684 -0.65318584 -1.0833536 0.34226495
-0.11900891 -0.73703784 -0.7547048 -0.34806478 -0.1382223 -0.3626463 -0.075045355 -0.3387664
-0.7209886 -0.8495043 -0.65469456 -0.31323245 -0.6175639 -0.7923574 -0.8108142 0.22184049
-0.20776801 -0.65995646 -0.85971 -0.27582476 -0.6753742 -0.28688523 -0.39701924 -0.37268278
-0.5657985 -0.4382537 -0.3392676 -0.82939684 -0.42464125 -0.49415943 -0.39990705 -0.8369045
-0.40668306 -0.8087507 -0.2839805 -0.9759685 -0.36329848 -0.7176595 -0.45159134 -0.69714874
-0.41962254 -0.78603166 -0.34839413 -0.47539142 -0.59402543 -0.34046644 -0.42693266 -0.48390877
-0.93181765 -0.5506036 -1.325306 -0.73342973 -0.50987005 -0.78370625 -0.9557896 -0.4560889
-0.50756484 -0.43022844 -0.7283777 -0.694385 -0.63620937 -0.83950317 -0.24342236 -0.26024055
-0.5265639 -0.4771223 -0.71624273 -0.5613359 -0.50334674 -0.8058486 -0.33084953 -0.58239627
-0.7299496 -0.9228503 -0.7072432 -0.4679537 -1.1204903 -1.5412242 -0.714989 -0.6304639
-0.37431234 -0.10468973 -1.0310589 0.13128063 -0.45272768 -0.60644436 -0.23448619 0.16354339
-0.6313714 -0.46383134 0.47317255 -0.41184637 -0.62457985 -0.64939874 -0.52647126 -0.26529068
-0.75907904 -0.64817053 -0.801782 -0.3161666 -0.26295856 -0.6133903 -1.1918479 -0.19521166
-0.6009204 -0.40728462 -0.33433798 -0.5205249 -0.3756813 -0.29970795 -0.43168527 -1.075613
-0.57414746 -0.6059466 -0.38146588 -0.9253265 -0.7906311 -0.9278869 -0.6554003 -0.59140927
-0.23346479 -0.7964389 -0.61378527 -0.6153334 -0.4828902 -0.630167 -0.3269909 -0.4629645
-0.7001029 -0.5285622 -1.1637958 -0.5531298 -0.8404455 -0.40968552 -1.118111 -0.60996383
-0.5443595 -0.38797778 -0.9909281 -0.6265195 -0.99218893 -0.70047 -0.30015227 -0.6546093
-0.46690732 -0.61621594 -0.35750416 -0.38228735 -0.48263043 -0.71754885 -0.7893738 -0.5125399
-0.4840375 -0.61051416 -0.28789136 -0.5627547 -0.9792961 -0.99845725 -0.63590956 -0.34731576
-0.7567453 -0.612167 -0.5665753 -0.72941047 -0.77508384 -0.111983776 -1.0101734 -0.3520726
-0.34930748 -0.6857553 -0.63923466 -0.2346831 -0.36918777 -0.43038714 -0.5306709 -0.6089051
-0.47767863 -0.83222276 -0.7907623 -0.33384377 -0.36745393 -0.76091605 -0.68184257 -0.17357755
-0.45227978 -0.6460152 -0.7551107 -0.31361967 -1.0035453 -0.31174618 -0.56456757 -0.48647565
-0.48101497 -0.4915396 0.014872695 -0.53251743 -0.41752464 -0.64282995 -0.4135849 -0.9301704
-0.6185618 -0.95454997 -0.8000889 -1.2803084 -0.31777838 -0.7132817 -0.46555108 -1.135064
-0.39245504 -1.1178697 -0.43273294 -0.43833476 -0.6215069 -0.33566272 -0.37449357 -0.7456443
-0.49035925 -0.62650365 -1.0720639 -0.5592824 -0.42114773 -0.39102414 -0.8444094 -0.5920945
-1.1685405 -0.4144761 -0.9781964 -1.2840031 -0.678091 -0.6127924 -0.45688897 -0.29413834
-0.89219 0.37314692 -1.0248959 -0.5361292 -0.4332703 -0.9446947 -0.3087814 -0.46212268
-0.055802505 -0.7325329 -0.5527501 -0.3332965 -1.1071764 -0.6572417 -0.37305003 -0.57850695
00000000: 3990 93be 2bf4 a2bf 49d5 8cbe 8dbf e5be
00000010: 56c3 09bf 3037 27bf 55ab 8abf 5a3d af3e
00000020: f2ba f3bd 83ae 3cbf 5534 41bf 8c35 b2be
00000030: 268a 0dbe c7ac b9be 61b1 99bd ca72 adbe
00000040: b592 38bf 1d79 59bf 109a 27bf 0160 a0be
00000050: ab18 1ebf efd7 4abf 8591 4fbf 272a 633e
00000060: 23c1 54be e8f2 28bf f415 5cbf e738 8dbe
00000070: 53e5 2cbf 9fe2 92be 1b46 cbbe 47d0 bebe
00000080: 2cd8 10bf ca62 e0be 7cb4 adbe 5a53 54bf
00000090: 946a d9be 7702 fdbe 9ec0 ccbe 603f 56bf
000000a0: c338 d0be 490a 4fbf e465 91be 12d9 79bf
000000b0: 4202 babe 88b8 37bf fb36 e7be 5778 32bf
000000c0: c4d8 d6be 5f39 49bf b760 b2be 8166 f3be
000000d0: 0d12 18bf 9e51 aebe eb96 dabe e4c2 f7be
000000e0: 9a8b 6ebf 5cf4 0cbf a1a3 a9bf 0dc2 3bbf
000000f0: d886 02bf f9a0 48bf a1ae 74bf 7c84 e9be
00000100: c5ef 01bf e746 dcbe f676 3abf 37c3 31bf
00000110: 9ede 22bf aee9 56bf b643 79be 403e 85be
00000120: e4cc 06bf 6049 f4be af5b 37bf b6b3 0fbf
00000130: 55db 00bf 184c 4ebf 1c65 a9be ec17 15bf
00000140: fadd 3abf eb3f 6cbf e40d 35bf a197 efbe
00000150: 3a6c 8fbf d646 c5bf 8509 37bf 1566 21bf
00000160: dea5 bfbe 9267 d6bd bdf9 83bf 6e6e 063e
00000170: eccb e7be f03f 1bbf 261d 70be eb77 273e
00000180: 8ea1 21bf 4d7b edbe ac43 f23e 87dd d2be
00000190: 77e4 1fbf ff3e 26bf d2c6 06bf 2ed4 87be
000001a0: 0153 42bf 81ee 25bf 9641 4dbf 97e0 a1be
000001b0: 81a2 86be 2607 1dbf 798e 98bf 91e5 47be
000001c0: ebd5 19bf 9c87 d0be 592e abbe 1f41 05bf
000001d0: 4d59 c0be 5273 99be da05 ddbe b0ad 89bf
000001e0: 54fb 12bf 511f 1bbf 7f4f c3be 33e2 6cbf
000001f0: cd66 4abf ff89 6dbf 50c8 27bf 9966 17bf
00000200: 6511 6fbe 6be3 4bbf 0821 1dbf 7d86 1dbf
00000210: 623d f7be a052 21bf 5a6b a7be af09 edbe
00000220: f239 33bf da4f 07bf 43f7 94bf ea99 0dbf
00000230: 7027 57bf 4dc2 d1be 431e 8fbf 9726 1cbf
00000240: 255b 0bbf 06a5 c6be 77ad 7dbf 9563 20bf
00000250: 1800 7ebf 0052 33bf 8fad 99be 7a94 27bf
00000260: 7a0e efbe 54c0 1dbf c90a b7be 2bbb c3be
00000270: 561b f7be 48b1 37bf 6714 4abf d135 03bf
00000280: c3d3 f7be a84a 1cbf 7f66 93be b110 10bf
00000290: 26b3 7abf e59a 7fbf f8ca 22bf 5fd3 b1be
000002a0: 0fba 41bf fab6 1cbf 140b 11bf a5ba 3abf
000002b0: e56b 46bf c057 e5bd 5d4d 81bf dc42 b4be
000002c0: 6ed8 b2be a98d 2fbf e2a4 23bf c450 70be
000002d0: 2e06 bdbe b45b dcbe 0cda 07bf 34e1 1bbf
000002e0: 4b92 f4be 8d0c 55bf 666f 4abf 92ed aabe
000002f0: ec22 bcbe 65cb 42bf 3c8d 2ebf 50be 31be
00000300: 3791 e7be 4161 25bf ef4e 41bf c292 a0be
00000310: 2c74 80bf 329d 9fbe 8087 10bf 5613 f9be
00000320: 9847 f6be 14ab fbbe 9bac 733c 1053 08bf
00000330: cac5 d5be 8190 24bf 66c1 d3be a61f 6ebf
00000340: 115a 1ebf 635d 74bf a0d2 4cbf 25e1 a3bf
00000350: d9b3 a2be a199 36bf b65c eebe c749 91bf
00000360: deef c8be 5b16 8fbf 2c8f ddbe 6a6d e0be
00000370: 141b 1fbf fcdb abbe 9fbd bfbe 8be2 3ebf
00000380: 5e10 fbbe 8b62 20bf 6439 89bf 222d 0fbf
00000390: ada0 d7be 5134 c8be 372b 58bf 8193 17bf
000003a0: bc92 95bf 3636 d4be 146b 7abf 375a a4bf
000003b0: 5f97 2dbf f6df 1cbf 5aed e9be 4d99 96be
000003c0: 9066 64bf 1d0d bf3e ca2f 83bf c33f 09bf
000003d0: 9bd5 ddbe 83d7 71bf 9818 9ebe 589b ecbe
000003e0: 2b91 64bd 4787 3bbf 0881 0dbf d7a5 aabe
000003f0: f5b7 8dbf fe40 28bf 6a00 bfbe 0819 14bf

fc3.bias f4 [10]
0.070805 -0.4708883 0.27654764 0.083621785 0.20511259 0.15999687 -0.16489531 -0.24089111
0.25465626 -0.031892236
00000000: 3602 913d 4518 f1be a797 8d3e e641 ab3d
00000010: 0909 523e 38d6 233e 51da 28be 29ac 76be
00000020: 4e62 823e 6fa1 02bd
