FL/cnn-img/outputs/2025-03-18/18-11-21/model_state_acc_0.1_round_0.pth (torch, 251920 bytes, 10 tensors)

conv1.weight f4 [6, 3, 5, 5]
00000000: 146a c1bc f6a6 043d b29b 753c 357e a83d
00000010: b610 3ebc 412f 7abc 894c 82bd accf 2fbd
00000020: 981b 66bd 5858 983d f6c1 2abc 9064 293d
00000030: 666a 9b3d 85bb b73d 76c6 a1bd f57e cd3d
00000040: e0b3 933d 3ef1 08bd 7963 83bc e94f d7bd
00000050: d3a3 a4bd a5ac fe3c 3867 1fbd c772 483c
00000060: 9602 3cbd 0dfc 5dbd 544f 1bbd 651b d2bd
00000070: 752a e53d c1fa 30ba 915c 993c d2f2 b83d
00000080: 1184 d2bb eeba afbc 5fe4 91bd 9b44 9aba
00000090: 52f1 6f3d 222c 843d 2c75 34bd 4776 a0bd
000000a0: d448 c23d 8d1c c23d a2eb 8bbd 7557 0b3d
000000b0: 38f2 463d 55c2 b73d 67d8 aabd d098 ab3d
000000c0: f8e2 a3bd ee3f b73d c310 4bbd 8330 87bd
000000d0: 183e b13d 1e35 7ebd 1d8a e2bc e31c 873d
000000e0: d3de a1bd 9d56 e2bc 3396 833d dc3c cfbc
000000f0: 67d0 633c 9991 d53c d075 4b3d 4f79 bb3d
00000100: 7aca bdbd bbad bcbd 340a 99bd bfe1 aebd
00000110: efdf 773c dfc1 25bd 23fd 91bd 35c6 a63d
00000120: d589 dc3d eb33 7e3c f0a9 3a3d b993 983d
00000130: 0f7e 273d a2be 85bd c400 983d 8070 eb3d
00000140: c21e 47bd 634e b7bd 2e59 b1bd fb26 86bd
00000150: 2861 4cbd 8989 8f3d d165 79bd 44f0 4cbd
00000160: fc1f 483d b373 85bd aceb 8c3d 2af1 413d
00000170: defc 1a3d 7ff6 d8bd fe30 83bd b924 943d
00000180: 1387 81bb 47c5 c83d bcd4 b73d 36d5 8d3b
00000190: 0f3a b7bd c046 9ebd 38c6 4c3d 42d2 f4bb
000001a0: cfeb 503d 160c 2dbc 6600 ae3d 5e26 bdbd
000001b0: b919 c7bc 6c7d a23c 1fa4 493d 37a2 ce3d
000001c0: b21e 90bd 5752 08bc 4f72 0e3d 0816 3b3c
000001d0: 59b8 82bd 0591 883d ab76 ae3d bc4d 623d
000001e0: 9459 a13d 361e 1f3d f268 a6bd 4436 e73c
000001f0: b4eb 913d 637f 893d b9fc 063b 8198 123d
00000200: 556b ecbd 5246 d93d f8d4 70bd 4f02 bb3d
00000210: 807e 553d 2476 b93c 7df0 c83d 7e76 933d
00000220: 4ad6 a83d 449e 57bd 0de9 7dbd bd23 343d
00000230: c334 e13d 4f5d 67bd 0a69 41bd d4de dbbc
00000240: 14d4 413c 46df 0cbd 01c6 dbbc 5d44 5a3c
00000250: 75d5 b53d 6ad3 60bd f964 0e3b c24e f7bc
00000260: 51c0 1f3d 5833 423c b3c2 abbd a173 a43c
00000270: 48fa 43bd c971 b5bd 52d7 8cbc 1099 6d3c
00000280: 0d71 afbd 0154 a03d 37d2 ba3d 7add b43d
00000290: a6b8 8fbd c3fb 133d 72dd 513b 24ca c9bd
000002a0: 30a9 093d 2422 d7bd 36d6 93bd 0c3c a83c
000002b0: 98b5 413d 8a84 2cbd cc97 b73d cb0c e43d
000002c0: ac36 b53c 2bdb 3bbd 2b49 c9bd 9c54 aabb
000002d0: eee7 b3bd 1e24 aabd 9dee cebd 390f 583d
000002e0: abac 8f3d 819f d8bc ac46 883d e84b 8cbd
000002f0: 2681 903d daed b93d b952 053d c3cb 873d
00000300: 92c0 df3d eb64 8a3d 26d7 eb3d 47a3 6fbd
00000310: 5d4c 45bd 7168 343d 2b8d 94bd 0a20 ae3d
00000320: 5c74 ac3a 2f07 0dbd 8061 cf3d c56d cabd
00000330: 21f4 833d 39ff d03d 8740 543d 8f9d b93d
00000340: 1473 af3b 798e a63a 13b8 86bc 8618 91bc
00000350: e730 c43d 9ed7 46bd cf8e 79bc 793a 863c
00000360: 1549 d03d 778b bb3c 767a a83d 29ee bdbc
00000370: e639 d5bc c553 76bd bae5 e3bd 4ec2 aa3d
00000380: 8107 ac3d ee4d 513d 3da2 9f3c 54de 05bd
00000390: dc41 dcbd 5cfd c3bd f3e6 7b3d 097c 683c
000003a0: c4c2 bf3d a979 adbd bb3d bfbd c7ce 4d3d
000003b0: 05a4 bdbd 7d0c 8a3d 0c07 0bbd 3d25 3ebd
000003c0: 522f 13bd af18 903d d94a bd3d e440 8f3d
000003d0: 8dd9 283d 9c43 42bd aa76 e1bd 0d93 343b
000003e0: f321 c23d fafd c7bc aa69 173d dc00 58bd
000003f0: 737b 913c 7ae4 0fbd 1e96 1e3d 876c 983d
-0.023610152 0.03238579 0.014990734 0.08227197 -0.011600664 -0.015270055 -0.06362254 -0.04292266
-0.05617866 0.07438725 -0.01042222 0.04135567 0.07588653 0.089713134 -0.078991815 0.10033981
0.07212043 -0.03343319 -0.016038643 -0.105132885 -0.080390595 0.031088183 -0.038916796 0.012234396
-0.045900904 -0.054195452 -0.03791745 -0.10259131 0.11189739 -0.00067512324 0.018720897 0.09030689
-0.006424435 -0.02145144 -0.071236365 -0.0011769714 0.05857975 0.0645373 -0.044057056 -0.078350596
0.09486547 0.09478102 -0.06832053 0.034018952 0.04857084 0.08972613 -0.08342057 0.08378756
-0.08002275 0.089477405 -0.049576532 -0.0660105 0.086544216 -0.062062375 -0.027653748 0.065973066
-0.079038285 -0.027629191 0.064251326 -0.025297575 0.013904667 0.026070403 0.0496729 0.09153997
-0.09267135 -0.09212824 -0.07472649 -0.085391514 0.0151290735 -0.040468093 -0.0712836 0.08143274
0.10768477 0.015515308 0.04557222 0.07450051 0.040891703 -0.06530501 0.07422021 0.11496067
-0.048613317 -0.08950498 -0.08659588 -0.06550404 -0.049897343 0.070086546 -0.060888115 -0.050033823
0.048858628 -0.065162085 0.06880888 0.047349133 0.03783881 -0.105938904 -0.06405829 0.07233567
-0.0039528697 0.09803253 0.08976123 0.0043283952 -0.08946621 -0.07728338 0.049993724 -0.0074713537
0.051006135 -0.010561964 0.0849617 -0.092358336 -0.024304258 0.019835196 0.049228784 0.10089534
-0.07037105 -0.008320413 0.034776982 0.011418827 -0.06382818 0.06668285 0.08518728 0.055249915
0.07878414 0.03884717 -0.081254855 0.028224118 0.07125035 0.0671375 0.0020597412 0.03578997
-0.115439095 0.10609116 -0.058796853 0.091313 0.052122593 0.022639342 0.098114945 0.07200335
0.082439974 -0.05264117 -0.061989833 0.043979395 0.109963916 -0.05648547 -0.047219314 -0.026839651
0.0118303485 -0.034392618 -0.026827814 0.013321963 0.08878604 -0.05488912 0.0021727665 -0.030188922
0.039001767 0.011853062 -0.08386745 0.020074667 -0.04784611 -0.088595934 -0.017192516 0.014501825
-0.085664846 0.078285225 0.091221265 0.08831306 -0.07017641 0.03612877 0.003202286 -0.098530084
0.033608615 -0.10504559 -0.07218592 0.020536445 0.047292322 -0.042118587 0.089645 0.111352526
0.022120796 -0.04586331 -0.09828409 -0.0051980745 -0.087844715 -0.0830767 -0.101041056 0.052748892
0.07015356 -0.026443245 0.066541046 -0.068504155 0.07055883 0.0907857 0.032549594 0.06630661
0.10925402 0.0675753 0.11515646 -0.058505323 -0.04816853 0.044044916 -0.07253488 0.08502205
0.0013157236 -0.03443068 0.101260185 -0.09884218 0.06443048 0.1020493 0.05181935 0.09063255
0.0053542946 0.0012707255 -0.016445195 -0.017711889 0.0957964 -0.048545472 -0.015231802 0.016385304
0.10170189 0.02289365 0.082264826 -0.023184853 -0.026028585 -0.060138483 -0.11127801 0.08337842
0.08399869 0.05109971 0.01948654 -0.03268273 -0.10754749 -0.09569809 0.061499547 0.014189729
0.093633205 -0.084704705 -0.09337946 0.050246026 -0.092598 0.06740663 -0.033942267 -0.046422232
-0.0359338 0.07035958 0.09242792 0.06994799 0.041223098 -0.04742776 -0.110089615 0.002755347
0.094791315 -0.024413098 0.036966003 -0.052735195 0.01775906 -0.03513 0.03871738 0.07442575

conv1.bias f4 [6]
00000000: cd68 443d 1773 b33d 4ad6 94bd ad36 513d
00000010: b3ca b73d 28eb cc3d
0.04795151 0.08762186 -0.07267435 0.051077534 0.08974209 0.1000579

conv2.weight f4 [16, 6, 5, 5]
00000000: 566b ffbc e133 993d 7a98 5c3d 9363 24bd
00000010: e06e cd3c e914 3dbd efb7 c23b 6254 b03c
00000020: 81b3 60bd 1161 2f3c 82da 49bd 04af cc3c
00000030: b965 5d3c a737 9abd 4f0a 353d 012a 2f3d
00000040: d6e4 13bd a57b 53bc aa50 7e3b c0af 393d
00000050: 7e25 b3bc 1947 a2bd 1692 213c 861b 8dbd
00000060: f1cc 5a3d 7c03 fe3c fede 82bd 50df 2dbd
00000070: 496c 2bbd 9386 dfbc a5a4 0c3d 9550 7e3d
00000080: 5af6 2ebd ccad b43b cc5f 203d 616a 24bd
00000090: 77b0 cc3b c3ae 48bd d5b2 393d 7f6f 9dbd
000000a0: f2cd 063d b187 d5bc def4 ba3c d57e 113d
000000b0: b120 5db9 7eb9 9b3d 8e57 c9bb 1485 d03b
000000c0: 621d 73bd cbf7 6db8 4de9 2c3d 6469 c43c
000000d0: 5f48 1f3d 1a47 60bc 98b1 943d 27d3 9abc
000000e0: 4cc3 9fba 7334 2cbb 03b4 c53a 96b7 303c
000000f0: 62ba 853d 7b41 96ba 3a0b 773d 76d1 893d
00000100: 2290 933d e755 83bc ecc5 63bd f133 0a3b
00000110: e9ca 2d3d db16 853d 7fc4 1dbb 5123 933c
00000120: abb0 c2bb 6860 9bbd b13d 893d 2e1c 29bd
00000130: aaef 8cbd 62d4 a5bd 338b 34bd 0cbc a13d
00000140: 0833 a83c ca67 ec3b 8cc7 033d 918c 953c
00000150: 6d45 2a3d 8658 a33d 1a91 ef3b 4d2e 38bd
00000160: e22c 993d a6c2 6dbd 7a95 413d 22a3 2cbd
00000170: a27d 8fbc f2cd 903c 5a60 143d 3ba0 8a3c
00000180: 5a75 813b b85c 88bc ebe4 97bc 929c 72bc
00000190: f3c9 083c 4bc3 e0bc 6627 2dbd 68d9 703d
000001a0: 9e10 9d3d fc03 b23c 3f25 a53d 19be 65bd
000001b0: 322b 373d 60e6 ccbc b137 833c b732 803c
000001c0: cebe 163d e8d0 1d3d b863 70bc ad86 d2bc
000001d0: b1cc 69bd 966b ec3c 4875 f9bc 9fc1 883d
000001e0: 919b a5bd 18e5 3cbd bc3a 0d3d 5334 a7bc
000001f0: 7fc0 1e3d fd88 743d d342 0f3c 75e5 093d
00000200: abce df3c 6724 a13d 16a2 66bd 7b83 18bc
00000210: dc85 7ebc a3fb 81bd 9f22 20bd c983 97bd
00000220: 989d 00bd 435e a3bb 425e 5abd 849e 7ebd
00000230: 228c a0bd 95c3 09bd f09e 9e3d e7b2 8b3d
00000240: 03c7 a23d 5f2e 333c 9608 8bbd 088b 3bbd
00000250: b504 f93b df49 823d 19b5 b03b b72d 883d
00000260: bd0d 003d d672 92bd 2f00 0e3c 8540 38bb
00000270: b2ce 54bc fc1c 1f3d bb10 9c3d fc65 44bc
00000280: 836e 093b 388e 413d 7419 8d3d 1db1 89bd
00000290: 4acf 8e3c da0b a1bd 8d8b 6fbd 2043 653d
000002a0: 5233 1cbd cafe 50bd ab72 6b3d 74a5 85bd
000002b0: 2a0d 8bbd f50d 87bd f1c8 6bbc dad0 cd3c
000002c0: 60b7 01bd 1289 c7bc 8111 363c 38c0 213d
000002d0: 037a 463c 8aa5 913d bd3e 88bd c57d 9e3d
000002e0: 001c 443d 0486 ac3c d23d 1c3d 32a5 283d
000002f0: 11e0 babc 4143 723d 0ca2 97bd f22d 84bd
00000300: c0ef 68bd 741f e9bb 760f 463b 6822 c83c
00000310: dc8f 8f3c 6e69 363d 223a 923d 3ec7 dc3c
00000320: 8747 1c3d 5edf 7e3d bb5d 6ebc 2d89 683d
00000330: 9115 12bd dc35 8cbd c3b3 a4bd 9458 94bd
00000340: 6368 813d 996f 333d 4a02 d1bc 55ed 9e3d
00000350: 6312 69bc 5e46 34bd 74f1 52bb 19b2 4cbc
00000360: b263 7cbd cfd0 d83c c89f 3c3d ba12 69bd
00000370: 7541 82bc d48b 75bd fb87 553d f2bf 8f3d
00000380: ce3f 41bd cb3b e03b 1f1c 5a3b 6333 c63b
00000390: 19f2 dbbb 13a0 ebbb 0005 353c e853 973d
000003a0: 62ab 9e3d 6118 d8bc 5a7b 983d 6106 6fbc
000003b0: a931 e9bc b416 853d a542 73bc c0b5 0c3d
000003c0: ceae 0fbd 6e55 a53d e4e5 723d 79bb e03c
000003d0: a6be 923d ca7f 233d 22d9 fa3b 124a 3bbd
000003e0: 91ec d3bc 2426 243b bd44 b93b 7e09 96bd
000003f0: f1c5 4c3d 0e08 dfbc 07c4 6dbc ec31 953d
-0.031179111 0.07480598 0.05385635 -0.040134024 0.025077283 -0.04616252 0.0059423367 0.021524612
-0.05485869 0.010704295 -0.04928065 0.024985798 0.013513022 -0.07530146 0.044199284 0.042764667
-0.036106907 -0.012907897 0.0038805404 0.045333624 -0.021868464 -0.07923717 0.00986149 -0.06890015
0.053418104 0.03100752 -0.06390189 -0.042449296 -0.041851316 -0.02728585 0.034336705 0.062088568
-0.042715408 0.0055138823 0.03915386 -0.040140513 0.006246622 -0.04899479 0.045336563 -0.07687282
0.03291125 -0.02606568 0.02282184 0.035521347 -0.00021088381 0.07603739 -0.0061444705 0.0063635204
-0.059354194 -5.673598e-05 0.04221468 0.023976035 0.038887378 -0.013688827 0.07260436 -0.018899513
-0.001218894 -0.002627638 0.0015083555 0.010785958 0.0652969 -0.0011463606 0.06031344 0.06729405
0.072052255 -0.016032172 -0.055608675 0.0021088088 0.04242984 0.064985 -0.002407342 0.017961176
-0.0059414706 -0.075867474 0.0670122 -0.04128664 -0.0688165 -0.080971494 -0.044078063 0.07897195
0.020532146 0.007214521 0.032172725 0.018255504 0.041570116 0.07975869 0.0073109986 -0.04496603
0.07479264 -0.05804696 0.047261693 -0.042147763 -0.017515961 0.017676327 0.0362247 0.016922107
0.003950757 -0.016645774 -0.018541774 -0.014807837 0.00834893 -0.027436873 -0.0422739 0.058801085
0.07669185 0.021730416 0.08063745 -0.056089494 0.04471893 -0.025012195 0.016017767 0.015649183
0.03680306 0.038529307 -0.014672212 -0.025698984 -0.057079975 0.028859895 -0.030451432 0.06677555
-0.080863126 -0.04611692 0.03447984 -0.020410692 0.038757797 0.059700955 0.0087439595 0.033666093
0.027320227 0.07868271 -0.05630692 -0.009308691 -0.015534844 -0.06346824 -0.039095517 -0.07398183
-0.031400293 -0.004985602 -0.053312548 -0.06216289 -0.07839228 -0.033633787 0.07745159 0.06821232
0.07948115 0.010936349 -0.06788747 -0.045786887 0.007599438 0.06361746 0.0053926823 0.066493444
0.0312631 -0.071508095 0.008667036 -0.0028114629 -0.012988733 0.038846 0.076203786 -0.011987206
0.002097041 0.04725477 0.068896204 -0.06723235 0.017432828 -0.07863589 -0.058482695 0.05597222
-0.03813488 -0.051024236 0.057482403 -0.06525698 -0.0678962 -0.06594459 -0.01439117 0.025124002
-0.03166902 -0.024357352 0.011112572 0.039489955 0.012114051 0.07111652 -0.066525914 0.077388324
0.047878265 0.021059997 0.038144894 0.041173168 -0.022811921 0.05914617 -0.07403955 -0.06454076
-0.05686927 -0.007114345 0.0030221618 0.024430469 0.017524652 0.04453414 0.07139994 0.026950475
0.03815415 0.06222474 -0.014548714 0.056771446 -0.0356651 -0.0684621 -0.08042099 -0.072434574
0.06318738 0.0438076 -0.025513787 0.07760111 -0.014225575 -0.04401242 -0.0032187374 -0.012493634
-0.061618514 0.026466755 0.046050817 -0.056902625 -0.015900353 -0.059947804 0.052131634 0.070190325
-0.04717999 0.0068430654 0.0033280922 0.0060486062 -0.00671221 -0.007190713 0.011048555 0.07389051
0.077475324 -0.026378812 0.074454024 -0.014588923 -0.028466063 0.06498471 -0.014847432 0.034353018
-0.035078816 0.08072935 0.059301272 0.027433144 0.071652696 0.03991679 0.007655279 -0.045724936
-0.02586964 0.0025047148 0.005653946 -0.07326029 0.04999346 -0.02722552 -0.014512069 0.072849125

conv2.bias f4 [16]
00000000: 6cc5 29bc 0574 f63c 333e c4bc 2596 283d
00000010: a710 14bd 06cb 50bd bc45 9d3c 91c1 41bd
00000020: 8b20 ff3a 098d bcbc fa97 263d 2f2e 663d
00000030: 3507 0e3c 605e 15bd 4eec 5dbd 5276 9abc
-0.01036201 0.03008462 -0.02395544 0.041158814 -0.036148693 -0.05097487 0.019198291 -0.04730374
0.0019464655 -0.02301647 0.04067228 0.056196388 0.0086687105 -0.036466956 -0.054180436 -0.018855248

fc1.weight f4 [120, 400]
00000000: 4bc9 113d 8dfd 89bc eacc 37bd d339 ebbc
00000010: 8d45 3bbc 1061 0cbd 0342 b53c 9aa0 643b
00000020: 3a10 03bd e727 d13c d0c5 0bbd da96 013c
00000030: f344 963c 57f2 d2bc d777 dcbc 47ca cfbc
00000040: 6dc9 92bc 7da8 42bd 3703 c63c efbe 4abd
00000050: e75e 4abc 4d94 a7bc 973e ebbc 1ad5 ed3b
00000060: 1a92 563c 6785 26bd a052 48bc 674e f139
00000070: 2a53 2ebd 07f7 603c 73c2 b9bc bfbf 25bd
00000080: 2db9 57bc 1046 ea3c 4384 b53c 670d 533b
00000090: aa7d 2c3d 5afe aebc 0014 1dbd e735 d3bc
000000a0: 9ada c13c 9f41 373d d79d 85bc d290 3ebd
000000b0: 500c 0e3d 2d11 bbbc 5a18 e33b f704 ad3c
000000c0: 936c 723c 833f d0bc cd76 093b f77d b53c
000000d0: adf3 f13c f0bd 9d3c 232d d5bc 87a4 36bc
000000e0: 9d1f 263d ed59 3d3c ddfd a73c 1738 82bc
000000f0: 42fe 053d 6a81 f3bc 1a0b 3ebb af6b 2b3d
00000100: 3ac1 033d c0ea bbbb df1a 18bd 8be3 153d
00000110: 33f2 6b3b 5a46 7d3c a7f3 edbb 3377 2fbd
00000120: bdb0 02bd fa58 2cbd dd64 c43c 98c7 3a3d
00000130: 8d1a 1f3c dbd3 243d 82e7 463d 58ff 2c3d
00000140: effc 0a3d 5de8 b33c 122f 433d e726 fabb
00000150: 1336 a03c d564 1c3d d08e d5bc dd7a 9cbc
00000160: 9d45 953c ff65 3c3d 4513 483d 858a 09bd
00000170: abb6 0fbd f35b d3bc 1dc8 893c f384 0d3c
00000180: da3a a43b 172f 29bd f2d9 393d 3fc8 1e3d
00000190: cd27 dd3c 6702 133b 338c febb 8030 0c3c
000001a0: d3e3 873c d731 ea3c 078d 303d 1f06 4a3d
000001b0: ff32 2e3d 1aff 0f3b aa4a d63c 2aba 32bd
000001c0: 2086 68bc 8083 1cbb 639c 9dbc 00ad afbb
000001d0: 270a cd3b 5ae3 c6bc 0069 f23a 72a3 473d
000001e0: 8ac3 253d 3397 283b adb4 51bc 7a3e f23c
000001f0: b3e9 4bbc e7bb 7e3b 003a 693b 7343 91bc
00000200: 3b3c 38bd cb93 013d 572d b5bc 53ad 25bc
00000210: 4d92 69bb ea00 abbc 7abf 55bc baae 223c
00000220: 2d85 55bc dac9 fabc c0cb a43b 9744 22bd
00000230: ed8c 15bc 453e 29bd ba77 a03c 9a04 04bc
00000240: 43d7 f43c 0f5d 27bd e740 20bb 3a45 d53c
00000250: 07e1 003d 6b00 24bd 1d79 bbbc 8de6 96bc
00000260: ed06 d0bc 77c9 3dbd 5a15 11bd d0e5 b7bc
00000270: 8015 36bd 5d3c 8abc f358 c43c 3aea 053d
00000280: 220b 3ebd 9543 323d bb3c 20bd c774 45bc
00000290: 6545 1b3d aa8c 2e3d 3d13 df3c 67e6 d4bc
000002a0: 1ae6 23bd 78db 2d3d 77af 8dbc 757c 25bd
000002b0: 807c 80bb 7a36 19bc 2720 913c 3f05 01bd
000002c0: 9abe 153b b39d 053c 80d0 083d 5b1b 3abd
000002d0: 0acc 01bd 23b9 833c 7adb c0bc 2721 f4bc
000002e0: 4396 4c3d ed4a 67bc a7df 3b3c 2a5a b03c
000002f0: 5d40 893c 9ade aaba 82d2 393d b063 c03c
00000300: a79d 2d3d 135e 603c d342 4d3c aaeb 0a3d
00000310: 4a8c a4bc 101a 94bc 1af5 2e3d e0cd e8bc
00000320: 9803 343d eddb f83c 673e e1b9 85a3 41bd
00000330: 6d67 b2bc 5aaa 613c 23e9 3abd 00a5 bd3c
00000340: 0fb1 23bd fa4f 25bd fafd 2d3d cb1e 233d
00000350: b0c0 f33c 20a4 03bc 90f1 af3c 8d58 b23c
00000360: 3d16 abbc 9b01 27bd 02a5 3abd 0a24 443d
00000370: 47b9 0d3d 2abe 143d 6724 123d 5d13 f43c
00000380: a7ee d7bb cf82 41bd 8d2f 953b 73e8 783c
00000390: e0c6 31bc 1d80 9abc 1a33 04bb 3a67 b13c
000003a0: 9a4b b5bc 9a44 cbbc 9300 c3bc 50fe df3c
000003b0: c74e a43c 87b2 d1bc 5f80 003d da24 29bc
000003c0: efbf 163d 0d07 0ebd 472e 07bc 803a 21bd
000003d0: ede5 643c 5a87 dcbc 7352 f63c 9d43 92bc
000003e0: cd72 0c3b 73e3 c23c 4d12 da3b 3ff0 1f3d
000003f0: 9aa3 683c da28 9abc d397 6d3c 67b7 d0bb
0.03559236 -0.016844535 -0.044873156 -0.028714096 -0.011430156 -0.034272254 0.022126203 0.0034885765
-0.031997897 0.025531722 -0.034124196 0.007909501 0.018343424 -0.025750322 -0.026912613 -0.025365008
-0.017918313 -0.047523964 0.024171455 -0.049498495 -0.012351728 -0.020456458 -0.028716369 0.0072580697
0.013096357 -0.040654566 -0.012226731 0.00046025516 -0.04255978 0.013730771 -0.022675728 -0.040466066
-0.013166708 0.028597862 0.022157794 0.0032204033 0.04211203 -0.021361519 -0.03834915 -0.025782539
0.023663808 0.044740316 -0.016310615 -0.04652483 0.03467971 -0.022835338 0.006930393 0.021120531
0.014796394 -0.02542091 0.0020975352 0.022154791 0.029535139 0.019255608 -0.0260225 -0.011147625
0.040557493 0.0115570845 0.020506794 -0.015895886 0.032713182 -0.029724795 -0.0028998316 0.041850742
0.032166697 -0.0057347715 -0.037135 0.036593955 0.0036002516 0.015458668 -0.0072617116 -0.042838287
-0.031906832 -0.042077042 0.023973877 0.045600504 0.00971092 0.040241104 0.048560627 0.042235702
0.033932623 0.021961385 0.04765231 -0.007634032 0.019557035 0.0381821 -0.026069075 -0.019101555
0.01822167 0.04599571 0.0488465 -0.03357937 -0.035086315 -0.02580068 0.016819054 0.008637655
0.0050118985 -0.041304674 0.045373864 0.03876519 0.026996518 0.0022431852 -0.007768178 0.008556485
0.016588127 0.028588219 0.043103244 0.049322244 0.042529102 0.002197212 0.02615865 -0.04363457
-0.014192134 -0.002388209 -0.01923961 -0.0053611994 0.006257314 -0.024278332 0.0018494427 0.048739858
0.040469684 0.0025724887 -0.012799424 0.029570807 -0.012445855 0.0038869323 0.003558755 -0.017732358
-0.044979315 0.031635087 -0.022116346 -0.0101121245 -0.003564018 -0.02087446 -0.01304614 0.009929353
-0.01303224 -0.030613828 0.0050291717 -0.039616194 -0.009127838 -0.04131915 0.01958834 -0.008057738
0.029887801 -0.040860232 -0.0024452747 0.026033986 0.031464603 -0.04003946 -0.0228849 -0.018420482
-0.025393927 -0.04633471 -0.035420753 -0.02244845 -0.044454098 -0.016874487 0.023968196 0.03269408
-0.046397336 0.043521482 -0.039120417 -0.012051768 0.037907977 0.042614616 0.027230853 -0.02598877
-0.040014364 0.04244563 -0.017295582 -0.040401895 -0.0039210916 -0.009351367 0.017715527 -0.031499144
0.0022849203 0.008155274 0.033401966 -0.045436244 -0.031688727 0.016079491 -0.023542155 -0.029800965
0.04994799 -0.014116985 0.011466897 0.021527369 0.016754324 -0.0013036311 0.04536677 0.023485035
0.042386677 0.013694304 0.012528139 0.033916153 -0.020086426 -0.018078834 0.042714216 -0.028418481
0.04394874 0.030378306 -0.00042961838 -0.047275085 -0.021777833 0.013773525 -0.045632493 0.023149967
-0.039963778 -0.040359475 0.04247854 0.03982429 0.029754966 -0.008034736 0.02147749 0.02177074
-0.020884627 -0.040773015 -0.04556752 0.047885932 0.034600522 0.036314167 0.035679247 0.02979439
-0.006589729 -0.04724389 0.0045527876 0.015192139 -0.010850638 -0.018859917 -0.002017206 0.021655668
-0.022130776 -0.024812985 -0.023803985 0.027342945 0.020057095 -0.025597824 0.031372424 -0.0103237275
0.036804136 -0.034674693 -0.0082507795 -0.03936243 0.013970834 -0.02692001 0.030068612 -0.017854506
0.0021430731 0.023790097 0.0066550137 0.039047476 0.014199162 -0.018818308 0.01450153 -0.0063695195

fc1.bias f4 [120]
00000000: 15ec 24bd b7cf 823c 6ab2 b7bc f80f 15bd
00000010: 7b42 46bd 8ace d63c cd61 dc3b 1a58 163b
00000020: 070b 88bc 3074 e4bc 0db6 25bd 604f d13c
00000030: f316 96bb f382 0fbd cd78 19ba 875a 3d3d
00000040: af39 383d 4a1f c23c 8741 f33c b30c 04bc
00000050: 0012 2c3b 6a9c dcbc 17c6 99bc cde2 bb3b
00000060: 6732 bcba 5369 61bc c053 82bc 1a31 c7bb
00000070: 0053 de3c 6a73 ea3c 60b4 fa3c 2792 c53c
00000080: fd5f f3bc d24e 373d d370 3f3c f776 81bc
00000090: 9a2a 5f3b 3396 ca3b 7f4b 443d 0a90 30bd
000000a0: 6d6f 053d 1d48 10bd 9f48 003d 5776 37bd
000000b0: 0061 e1ba 1d97 c33c c76d 55bc 0738 343c
000000c0: b0ee 3abd 2a35 48bd f0b7 83bc e783 a5bb
000000d0: cd72 923b e7ba 633c 1d04 963c cd88 d7ba
000000e0: 5d4a 0ebd 6089 0e3d 803f 433b cd5f 593b
000000f0: 67ea 973b da62 483c 7712 e33c 6304 23bd
00000100: 5a1b 313d 08c0 32bd e8a2 2fbd 40e4 08bc
00000110: 9ad6 d23a 5389 f4bc b5e3 29bd 5ae0 09bd
00000120: 9798 493d 609c 6c3c 9ab7 c7bc 87ed c33c
00000130: 9347 3b3d a824 32bd 339e c1ba 1d11 123d
00000140: ea17 c43c 5a94 d1bc 33a9 913a 8bd2 473d
00000150: f3db 5c3c 6378 aabc 5705 cc3c 3d52 823c
00000160: dd2b b43c 3830 0fbd 8a88 a0bc f3d5 3b3c
00000170: 1a5b 083b 603b 2f3d 07a9 2d3d 1a3a 7d3b
00000180: 1d79 bd3c cd2b 233b da03 9dbc 5d2d 113d
00000190: 7ab4 49bc 5a2f d33c b7e3 11bd d2fb 383d
000001a0: 23ee c0bc e749 51bb 1a0b ffbb c20d 20bd
000001b0: 4f66 113d 07fd 44bc 3a7e 2bbd 97db fdbc
000001c0: 4d9c f2bb 606c 2c3d f0bb e63c 9041 35bd
000001d0: 8ba7 13bd 47f2 21bc 672b b0ba 0711 5c3c
-0.040264208 0.015968187 -0.022423942 -0.036392182 -0.048403244 0.026221532 0.006725526 0.0022940696
-0.01660682 -0.027887434 -0.04045682 0.025550544 -0.0045803725 -0.035036992 -0.00058544875 0.04622891
0.044976886 0.02369656 0.029694332 -0.008059668 0.0026255846 -0.026930053 -0.018771214 0.005733824
-0.0014358283 -0.013758021 -0.015909076 -0.0060788514 0.027139187 0.028619487 0.030603588 0.024117542
-0.029708857 0.044752903 0.011684614 -0.015803797 0.0034052492 0.006182456 0.04792356 -0.043106116
0.032576967 -0.035225023 0.031319257 -0.044790592 -0.0017195046 0.023875767 -0.013026661 0.010999686
-0.045637786 -0.048878826 -0.01607892 -0.0050511244 0.0044692517 0.013899541 0.018312508 -0.0016443968
-0.034738887 0.03479898 0.0029792488 0.0033168674 0.0046360972 0.012230599 0.027718766 -0.039799105
0.043238975 -0.043640167 -0.04287997 -0.0083552 0.0016085685 -0.029850638 -0.041476924 -0.033661224
0.049217787 0.01444158 -0.02437954 0.023916973 0.045722555 -0.04349199 -0.0014771878 0.03566085
0.023937184 -0.025583435 0.0011113047 0.048784774 0.013480174 -0.020809358 0.02490489 0.015908355
0.021993572 -0.034958094 -0.019596357 0.011464584 0.0020806254 0.042781234 0.042397525 0.0038639368
0.02312904 0.0024897933 -0.019166876 0.035443652 -0.012311095 0.025779415 -0.035617556 0.04516203
-0.023551052 -0.0031934918 -0.007783306 -0.03907562 0.03549796 -0.012023217 -0.041868426 -0.030988498
-0.0074038864 0.042095542 0.028165787 -0.04425198 -0.036048453 -0.009884424 -0.0013440669 0.013431794

fc2.weight f4 [84, 120]
00000000: 7eda 973c 8f58 9dbd 586f 9f3d 359e 963a
00000010: 16cb 243d 5267 92bd 260b 81bd 0d94 a1bd
00000020: cb54 a53d b65f a13d f966 a43d e974 81bc
00000030: dd35 003d d36d 163c 7e95 b73d b2ce b03b
00000040: 6266 aa3c ede1 2abd bc5d 75bc aab9 ac3c
00000050: 509d abbd 358b a03c 1634 12bd a544 dd3b
00000060: b9da ba3d 6ee5 5fbd 1e8a 3ebc 59fe 923d
00000070: ad34 ba3d 4eda e33c ce4e 7bbd 2c0a ad3d
00000080: 826a 3bbd ea80 873b f23e 5fbd 0b82 75bd
00000090: 6377 79bd 687e 2cbd 3b88 8d3d 3d3a 9a3d
000000a0: f313 5cbd 9883 c6bc e530 80bd b629 7cbd
000000b0: 3b3f 4d3d cc1f 943d 7bd1 8dbd 0d23 a5bc
000000c0: 1345 2b3d 94b5 8abd 7f26 563d 4a45 ad3d
000000d0: 2e11 01bb cdae ef3b f473 2cbd c078 223d
000000e0: eb0a babd a979 763d dff8 3b3d a48b 9d3b
000000f0: 817b 9c3d d520 6abd 3eab acbd 262c 91bd
00000100: 9b12 883b b864 163d 1b92 b8bc 323b 133d
00000110: c3df a0bd efd9 61bd 8715 473d 8bf1 103d
00000120: 4d6b ff3c 838c 5ebd b256 95bd fbbe 903d
00000130: 0477 be3c 1613 8fbd 1e82 8dbd e501 6c3d
00000140: e98f 9c3d e822 1f3d e9e1 89bc 2bfe 0ebc
00000150: 2787 f03b 7e7f 6cbd 17e3 57bd 9443 63bd
00000160: 95c9 10bd 09ae 763c fe99 34bc 72ba 46bd
00000170: 5ccf 3ebd 301b 48bd dec6 9a3d 502d 18bd
00000180: cfa3 803d 5b0d 393d 80b9 4e3d a9aa 89bd
00000190: 6798 413c 6520 25bd a9ff 57bd f1fd a1bd
000001a0: fa54 1bbd dc59 86bd daa5 19bd 7d0e 81bd
000001b0: 7e04 a63d 918e ba3d 6684 babc 37bd 89bd
000001c0: 14d0 3e3d 050e a8bd 26e0 47bd bfdb 1abd
000001d0: 5670 8a3d d484 abbd ae4f a1bd afc7 a33d
000001e0: 094c 663d 4a49 09bd d6a3 c93b e96f 63bd
000001f0: 9961 8a3c ca39 923d c854 b03c ab6b f93c
00000200: 823f 19bd 7c50 5fbd 037b 8a3d e05f a1bd
00000210: b35a 8dbd c269 6d3d 28e3 10bd 63f7 4cbd
00000220: a5fe 80bd 913a 81bd e5e5 a93c 7259 b8bd
00000230: a69a 823d 389d 2dbc 9772 a3bd dab6 20bd
00000240: ae0f ba3d 121b ea38 272e 85bd 754c b7bd
00000250: 19e2 113d 4af4 7fbd 306e 27bd 9ea6 fcbc
00000260: 5fd4 cd38 f2ea 983d cb21 fcbc 6025 153c
00000270: efa9 03bb c5b5 84bc cc01 b6bc 0d0b 20bd
00000280: 1b15 0bbd 07ad 12bd 7f15 17bd 67d6 073d
00000290: 4464 84bd f4b9 423d d86c 3dbc 48f6 83bd
000002a0: 5ad3 923d c2a3 5e3d 427b 68bd ae67 94bd
000002b0: b74c 093d a52e dabc dbe4 6f3d 6a4c ad3d
000002c0: 1109 823d 93a8 883d cdf1 85bd b2ce 333c
000002d0: bb0f 1d3d b68d 223d 7fc7 1ebc 3f80 6cbd
000002e0: 9049 93bc 86e9 8bbd cc08 5abd b236 5b3c
000002f0: 15ae ddbb e745 653c 58ef a2bd 796a 8e3d
00000300: 2dcd b53d 8ee5 b33d 15e2 8ebd 7d8b 4abd
00000310: 3875 2fbd d8e3 a03d 148e 223d 4abb 2a3d
00000320: 9189 883d d0bc 093d a80f b1bd 49ea 5d3c
00000330: f180 763d 3be4 9d3d 3815 92bd 0738 8b3d
00000340: 0b33 e6bc 5200 23bd 788f 913d dd6c 55bd
00000350: fae8 f73b c919 b3bc 4ba9 b8bc 26ce 89bc
00000360: f963 3cbc aae9 84bd ad70 3cbd 7adf dcbc
00000370: d2c4 99bc d127 713c dade 853d 5fb7 9ebd
00000380: c56b 82bd de6b 3ebd 10ea ed3c ba5f 343d
00000390: 04bc fa3c 959d 30bb 950b 2d3d 4d55 123b
000003a0: 86de 993d 80ba 9b3d 037b 00bc 4b0c 87bd
000003b0: d270 94bd 453c f9bc 9177 8c3d 8d44 92bc
000003c0: f0fa b0bd fbcb 86bd 81e3 7fbd b037 463d
000003d0: 1f2b b0bd e16c 833d 2c8e bc3c 4632 133d
000003e0: cfe4 41b7 4514 ba3d a5fc d6bc 57dc 08bd
000003f0: 7ab1 553d 658e de3c b47f 86bd bf2b 76bd
0.018536802 -0.07682907 0.07784909 0.0011491241 0.04023274 -0.07148613 -0.063009545 -0.078895666
0.080728136 0.078795835 0.08027453 -0.015802817 0.031301368 0.009181458 0.0896406 0.0053957338
0.020800773 -0.041719366 -0.014975961 0.021084625 -0.08379614 0.01959763 -0.035694204 0.006752568
0.09123749 -0.05466216 -0.011629609 0.07177419 0.09092078 0.027814057 -0.06135445 0.08449206
-0.04575587 0.004135241 -0.05450339 -0.05993847 -0.06090487 -0.042112738 0.069107495 0.07530639
-0.053729963 -0.02423267 -0.06259326 -0.061563216 0.05010913 0.07232627 -0.06924721 -0.020158315
0.04181392 -0.067729145 0.052282806 0.084604815 -0.0019694078 0.007314539 -0.04210277 0.039665937
-0.09084114 0.060174618 0.04589164 0.004807906 0.07640744 -0.057160217 -0.08431099 -0.07088499
0.0041526086 0.036717147 -0.022530606 0.035945125 -0.07855179 -0.05513948 0.048604514 0.035386603
0.031179095 -0.05433322 -0.072919264 0.07067677 0.02325011 -0.06986062 -0.069095835 0.057618994
0.07644636 0.03885165 -0.016831355 -0.008727591 0.00734033 -0.057738774 -0.052706804 -0.05548437
-0.035348494 0.015056142 -0.011023043 -0.04851765 -0.046584472 -0.048854053 0.07557462 -0.03715259
0.06281244 0.045178752 0.050469875 -0.06722004 0.011816121 -0.040314097 -0.05273405 -0.079097636
-0.037922837 -0.06560108 -0.037511684 -0.063015915 0.081063256 0.09109224 -0.02276821 -0.06725543
0.046585158 -0.08205799 -0.04879775 -0.037807222 0.06759708 -0.08374944 -0.07876526 0.07997071
0.056224857 -0.03351716 0.006153564 -0.055526648 0.016892241 0.07139929 0.021524802 0.030446848
-0.03741408 -0.054520115 0.06761744 -0.07879615 -0.06902065 0.057962187 -0.035372883 -0.050040614
-0.062985696 -0.06309999 0.020739505 -0.09001435 0.06377153 -0.010596566 -0.07980841 -0.03923688
0.09085022 0.00011163032 -0.065029435 -0.0895013 0.035616014 -0.06248883 -0.040876567 -0.030841168
9.814719e-05 0.07466687 -0.030777832 0.009103149 -0.0020090302 -0.016199956 -0.022217654 -0.03907304
-0.033955675 -0.035809543 -0.036885735 0.033163454 -0.06464437 0.04754062 -0.011561595 -0.06443459
0.07169218 0.05435539 -0.056758173 -0.07246338 0.033520427 -0.02663357 0.058567863 0.084618405
0.063493855 0.06672778 -0.065402605 0.010974573 0.03834508 0.039685927 -0.009691118 -0.057739493
-0.017979413 -0.068316504 -0.053231046 0.01337974 -0.006765137 0.013993717 -0.079558074 0.06953902
0.08877025 0.087840185 -0.069767155 -0.049449433 -0.042836398 0.07855958 0.039686278 0.04168252
0.06666864 0.03362733 -0.08645564 0.013544627 0.06018156 0.07709547 -0.071329534 0.06797796
-0.028100511 -0.039795227 0.071074426 -0.052105773 0.007565615 -0.021862881 -0.022541663 -0.016821932
-0.011498445 -0.064898804 -0.046005893 -0.02696203 -0.018770609 0.014718966 0.06536646 -0.07749819
-0.06368212 -0.04648959 0.029042274 0.044036604 0.030607231 -0.0026949395 0.042247374 0.0022328675
0.07513146 0.076039314 -0.007841828 -0.065941416 -0.07248081 -0.030424247 0.06858743 -0.017854953
-0.086416125 -0.06581875 -0.062472824 0.04839295 -0.08601975 0.064172514 0.023017012 0.035936616
-1.155697e-05 0.09085897 -0.026243517 -0.033413257 0.052171208 0.027167508 -0.06567326 -0.060100313

fc2.bias f4 [84]
00000000: 125b 863d 4be3 d03c 7a31 5e3d 1020 09bd
00000010: 7b78 8d3d 7048 933d 5377 0a3b 7ff4 853d
00000020: deba a33d e8a0 49bd d8d8 4d3d 7b69 a53d
00000030: e699 883d 1b78 8fbd d619 a13d 82ad 19bd
00000040: 29bc 60bd 3f0f 6dbd f9ba 9e3d 2a38 11bd
00000050: 1439 b23d 8c52 9dbd 7eeb 523c b208 733d
00000060: 2c81 a2bd 023e b83c c72b d13c 0f78 9bbd
00000070: 89c0 263d 8f59 55bd 4851 8dbd a46f cfbc
00000080: d16d da3b f8e7 0fbd 21a5 d83c daf5 b93b
00000090: f76e 4ebd c10a 59bd f588 89bd cf65 fbbc
000000a0: ff9c 9bbd a51d 53bd 40f5 d6bc 61d8 883c
000000b0: 6eb4 83bd 2835 8b3c 51fb 11bd 0b6e 6e3d
000000c0: 71e2 51bd 051c 71bd efc6 1abc 6fad 9bbd
000000d0: 0a62 28bd d7f4 7dbc b9b5 d5bc 8d5c 563c
000000e0: 07ef 03bd 4518 17bd cc60 a9bc f230 b0bd
000000f0: 6200 b6bb 9cf8 14bd 6de6 71bb f51a 55bd
00000100: 69b5 bebc 500b abbd bdbf 8a3d 9952 7f3d
00000110: f35e a93c bd47 82bc f4e0 f33c 0e0f a7bd
00000120: 007e 85bd 9788 9f3c fce5 1b3c 07f5 b8bd
00000130: b1e9 443d 553b 60bc cbfe 7dbd 5c49 29bd
00000140: a640 0f3d c2fc 21bc a867 afbd 89d0 6dbd
0.06560339 0.025499007 0.054246403 -0.033477843 0.069077455 0.07191551 0.0021128252 0.065407746
0.079946265 -0.049225718 0.050255626 0.080767594 0.06669979 -0.0700533 0.07866256 -0.037518986
-0.054866944 -0.057875868 0.07750506 -0.035453953 0.08702293 -0.0768176 0.0128735285 0.059334464
-0.07934794 0.022490505 0.02553357 -0.07591259 0.04071096 -0.052087363 -0.06900269 -0.02532179
0.006665923 -0.035133332 0.026445927 0.0056750597 -0.050398793 -0.05298877 -0.067155756 -0.030688195
-0.07598304 -0.051541943 -0.026239991 0.01670474 -0.064308986 0.01699312 -0.035640065 0.058210414
-0.051241342 -0.058864612 -0.0094468435 -0.07601439 -0.041109122 -0.015500269 -0.026087629 0.013083589
-0.032210376 -0.03688838 -0.02067604 -0.086030856 -0.005554245 -0.036369905 -0.0036911026 -0.05202766
-0.023279862 -0.08351767 0.067748524 0.06233463 0.020675158 -0.015903348 0.029770352 -0.08157168
-0.06518173 0.01947431 0.009515282 -0.0903111 0.048074428 -0.013686021 -0.062010568 -0.041329727
0.034973763 -0.009886922 -0.08564693 -0.058060203

fc3.weight f4 [10, 84]
00000000: b5b9 913d 2c14 6fbd 4bf7 843c 3e25 a03d
00000010: 504a 4e3c 12b4 923d b368 80bd d7b9 d83d
00000020: d7f9 b43c 0c8b c43b 6fe8 65bd 2790 85bd
00000030: 9801 03bd c27f a2bd 8e12 603d 822b da3c
00000040: 0718 84bd 6ea7 b0bd 3950 2a3d 9c43 d5bb
00000050: a447 953d 6715 4c3c 2071 c9bd 0231 973c
00000060: 9512 243b 6d4f 6d3d 9988 693d a47c a6bd
00000070: 79ed b13d 98bf 74bb 68d1 c7bd c237 0a3d
00000080: 25c9 3abd 2369 c3bd 5883 c73d b8cf 3a3d
00000090: b862 c8bc f324 c6bd d4b4 b4bc c0fd 32bd
000000a0: 3699 4abc 55d6 48bd f8db a63d 465d b9bd
000000b0: eea1 c0bd c984 633d ea8b 893c 64b6 de3d
000000c0: 4a5d f33c fddb 933d facf 9a3d 615f a93c
000000d0: c4cf 413a 91b2 273d 77cf 04bd a706 64bd
000000e0: 5346 c7bd 18d4 63bd 4320 ee3c 10e3 85bd
000000f0: b63c 31bd 9e9c 723d 29a0 efbc 24a2 5dbd
00000100: 85de 0a3d 507a a53d 68f6 cdbc d2d0 10bd
00000110: 2e26 42bb cd2f b6bd 5ea2 cd3d 3b13 7c3c
00000120: 8e23 a1bc 0270 7fbd fbb1 f53c 40ad 83bd
00000130: abf7 86bd eecc a2bd ae22 64bd a52d d9bd
00000140: 1322 92bd 093c 81bd 58cf 91bd d359 48bc
00000150: c127 903c 04e6 b3bd bf53 9bbc 24d4 bcbd
00000160: 3b69 7e3d ad44 c23d 7a2b fdbb 3d0b ac3d
00000170: 6c30 cfbc 0f28 4c3a 46a3 ee3c e5a8 603d
00000180: 1493 dabd a447 f0bc 9a46 bb3d 61f6 753d
00000190: 66e7 1b3c db20 f03b 9480 b53d e744 f4bc
000001a0: 600b 623d a5c1 7cbc 6fa3 a9bc 0bda 95bd
000001b0: 7b1b 10bd 53ed 813d b33c b9bd 325f 9ebc
000001c0: da42 983d 456c b1bd 31b3 7abd f68f 4fbd
000001d0: 9a78 863d 1658 a53d a6ea 753d 152a b2bd
000001e0: 8cc3 04bc f8ca babd 1e32 68bb 158f debd
000001f0: e13e d1bd 9220 d5bd 9ecd 89bd 2b8a fabb
00000200: 92a6 de3d b200 8dbd c474 1f3c 509b b03c
00000210: f052 ae3d 73dd 563d 44fb 5e3d f23b 543d
00000220: d519 bdbd 477f c1bd 5ab4 93bd 896b 9f3d
00000230: dc70 aabc 6406 9c3d e16a 1fbd 5bca 67bc
00000240: 6147 3d3d 7fb2 9a3d 296c 763d 5ac4 6cbd
00000250: d59f 82bd bdcb e1bb fb27 be3d 002d 693d
00000260: 4d40 3d3d b287 6ebb befa 0c3d f3ef 87bd
00000270: 28c8 d43d 6c94 53bd 28b1 6a3d a706 a43d
00000280: edf9 c53c 5e27 543d a809 9d3d 7baa 83bd
00000290: dec7 9bbd a01f 10bc 66d9 96bd 5584 22bb
000002a0: 52d1 873d ab94 233c 6d76 cabd b760 bebd
000002b0: 68c2 18bd a6a1 503c 8071 b73c c892 e13b
000002c0: 2696 bdbd 275d c6bd 7f0f 3f3d 5e59 053d
000002d0: 2960 b6bd ce8f 6c3d a05f 4f3d 3ca3 b4bc
000002e0: c7fa 3e3d 6e35 c63d 6508 c2bb 37a1 46bd
000002f0: b2a0 c23d 4b5e 533d 509d a63d 42e0 c93d
00000300: 8b91 a0bd a556 a2bc 6fdc c2bd a8f7 94bd
00000310: e97c 80bd 9ab9 fa3c 781d a33c 0c20 9c3d
00000320: 3f0f 87bd feec f2bc a59b aebb da95 883d
00000330: 019a 84bc b124 2dbc 103d 93bd 0529 82bd
00000340: 36af a2bb 0828 29bb 75db 92bd f86c e43c
00000350: a744 843b 3b79 883b 6140 f23c 7b0c 44bc
00000360: 7095 5a3d b023 bd3c 9153 e6bb ecfa 743d
00000370: 3cfe 88ba 6fc1 a43d 14a4 2d3d 7b10 35bc
00000380: 504d bf3d b240 9dbd 4b75 94bd e28e 4b3d
00000390: 43f1 413d bb67 4abd 2958 6f3d ad94 553a
000003a0: 158f f8bc 28b0 da3c 664a d7bd 9b5f 14bc
000003b0: 03ab a2bc 0030 4fbd 86f9 9f3c a91f df3d
000003c0: 0c83 4abd e0c7 023d ddc2 9ebb 9c45 953c
000003d0: 651b 963d 452a 8cbd 8f66 cc3d e370 2e3d
000003e0: f190 cbbc 7fca 58bd 905a bfbc 46c6 fe3a
000003f0: 68fc 63bd ac51 d03d ae0c a4bd 2a0a 31bd
0.07115499 -0.058368847 0.0162312 0.078196034 0.01259096 0.07163252 -0.0626997 0.10582321
0.02209179 0.005998021 -0.05612987 -0.065216355 -0.03198394 -0.07934524 0.054705195 0.026632074
-0.06449895 -0.08625685 0.041580413 -0.006508304 0.07289055 0.012456275 -0.0983603 0.018455986
0.002503549 0.057937074 0.057015035 -0.08129242 0.086878724 -0.0037345644 -0.09756738 0.03374458
-0.045601983 -0.095415376 0.09741849 0.045608252 -0.024461135 -0.09675016 -0.022058882 -0.043699026
-0.01236563 -0.049032528 0.081474245 -0.090509936 -0.09405886 0.055546556 0.016790349 0.10874632
0.02970757 0.07219694 0.075592 0.020675363 0.0007393325 0.04094178 -0.032424416 -0.055670407
-0.0973021 -0.05562219 0.029068118 -0.06537449 -0.04327079 0.059231393 -0.029251175 -0.054109707
0.033903617 0.0807997 -0.02514191 -0.035355397 -0.0029624808 -0.08895836 0.10040735 0.015385444
-0.019670274 -0.06236268 0.029992094 -0.06429529 -0.06590208 -0.079492435 -0.055697136 -0.10604409
-0.071354054 -0.06310279 -0.07119626 -0.012228447 0.017597081 -0.087841064 -0.018960832 -0.0922015
0.062112074 0.09485755 -0.00772613 0.08400581 -0.025291644 0.00077879516 0.02913059 0.05484857
-0.10672584 -0.029331036 0.091443256 0.06004942 0.009515619 0.0073281354 0.08862415 -0.029818011
0.05518663 -0.015427028 -0.020707814 -0.07316979 -0.035182457 0.06344094 -0.090447806 -0.019332502
0.07434626 -0.08663229 -0.061206046 -0.0506744 0.06565972 0.08073442 0.06003823 -0.08699433
-0.008103263 -0.091207445 -0.0035430263 -0.108671345 -0.10217071 -0.10406603 -0.067286715 -0.0076458654
0.108716145 -0.06884898 0.009732429 0.021558434 0.08511913 0.052457284 0.054438844 0.05181498
-0.09233443 -0.09448104 -0.07212134 0.077841826 -0.020805769 0.076184064 -0.038920287 -0.014147366
0.04621065 0.07553577 0.060161743 -0.057804443 -0.06378142 -0.0068907426 0.092849694 0.05692768
0.0462039 -0.0036396799 0.034418814 -0.066375636 0.10389739 -0.051655218 0.057297856 0.08009081
0.024167025 0.051795356 0.076678574 -0.06429001 -0.07606481 -0.0087966025 -0.07365684 -0.0024798114
0.066317216 0.009984176 -0.09885869 -0.09295791 -0.037294775 0.0127338525 0.022392988 0.0068839528
-0.09257154 -0.09685736 0.046645638 0.03255593 -0.0890506 0.05775433 0.050628304 -0.022050492
0.04662588 0.0967816 -0.005921411 -0.04849359 0.095033064 0.051603597 0.08135474 0.09857227
-0.0784026 -0.019816706 -0.095147006 -0.07273799 -0.06273825 0.03060608 0.019911513 0.076233
-0.06594705 -0.029654022 -0.005328613 0.06669207 -0.016186716 -0.01056783 -0.07189381 -0.0635548
-0.0049647344 -0.0025811214 -0.07170764 0.027883992 0.0040365043 0.0041648424 0.029571714 -0.011965866
0.05336517 0.023088306 -0.007029005 0.05980961 -0.0010451744 0.08044707 0.042392805 -0.0110512925
0.09340918 -0.07678355 -0.07248934 0.04969681 0.047349226 -0.04941533 0.058433685 0.00081474596
-0.030341664 0.026695326 -0.10512237 -0.009055997 -0.019856935 -0.050582886 0.019528162 0.108947106
-0.049441382 0.031928897 -0.004845007 0.018221669 0.07329444 -0.06844 0.09980499 0.042588126
-0.024849387 -0.05292749 -0.023358613 0.0019437752 -0.055660635 0.10171828 -0.08010231 -0.043222584

fc3.bias f4 [10]
00000000: f2cf 4dbc bf7d b7bc 2f9b a93d 055f 073d
00000010: 759d 5ebc 7618 853d b434 adbc 3844 8a3d
00000020: 1dfe 083d 567e 9f3d
-0.012561785 -0.022398828 0.08281552 0.033049602 -0.013587345 0.06498806 -0.021143295 0.06751293
0.033445466 0.077877685
