FL/cnn-img/outputs/2025-03-18/18-11-21/model_state_acc_0.2836_round_4.pth (torch, 251962 bytes, 10 tensors)

conv1.weight f4 [6, 3, 5, 5]
0	0xbdd537b4	-0.10411015
1	0xbe5bae94	-0.21453315
2	0xbe184265	-0.14869078
3	0x3c2e776f	0.010648592
4	0xbdb73a45	-0.08946661
5	0x3e0ba500	0.13637161
6	0xbdc3f6e7	-0.09568577
7	0xbe778627	-0.24172269
8	0xbea4ffbe	-0.32226366
9	0xbe5ce813	-0.21572904
10	0x3ea840a9	0.32861832
11	0x3e89139e	0.2677278
12	0xbd475ab4	-0.048670486
13	0xbe941ffc	-0.28930652
14	0xbeeceb5b	-0.46273312
15	0x3eeb7509	0.45987728
16	0x3eb2b9c0	0.3490734
17	0xbdb0a958	-0.0862605
18	0xbebd4865	-0.36969295
19	0xbeea15f8	-0.45719886
20	0x3e4dc18d	0.20093365
21	0x3e54d6ba	0.20785037
22	0xbdde2e1b	-0.10848638
23	0xbe788cfb	-0.2427253
24	0xbe962b67	-0.29329988
25	0xbe71e660	-0.23623037
26	0xbec008f4	-0.3750683
27	0xbec40e2d	-0.38292065
28	0xbdeb1396	-0.11478345
29	0xbe63194a	-0.22177616
30	0x3e174cae	0.14775345
31	0x3d2c5cd2	0.042080708
32	0xbe76930a	-0.24079528
33	0xbebac59d	-0.36478892
34	0xbedfb956	-0.43696088
35	0x3ec85bf6	0.3913266
36	0x3eabe3f1	0.33572343
37	0xbd1569ec	-0.036477968
38	0xbedac73c	-0.4273013
39	0xbef34796	-0.47515553
40	0x3f18222f	0.5942716
41	0x3f011759	0.5042625
42	0xbd0b70c7	-0.0340431
43	0xbe845a43	-0.25850114
44	0xbe820191	-0.2539182
45	0x3f149e2d	0.5805386
46	0x3e99a650	0.300097
47	0x3e32f082	0.17474559
48	0xbe50dab7	-0.20395933
49	0xbd449ebf	-0.048002955
50	0xbd543ec7	-0.05181768
51	0xbe31db96	-0.17368922
52	0x3d533321	0.051562432
53	0xbd3ae71a	-0.045630552
54	0xbc78132a	-0.015141288
55	0x3eabd103	0.335579
56	0x3da4cb87	0.08046632
57	0x3b999820	0.004687324
58	0x3c965df8	0.018355355
59	0xbdccf185	-0.10007004
60	0x3f04cecd	0.5187805
61	0x3effd896	0.4996993
62	0x3e64d545	0.22346981
63	0x3cfdc492	0.030977521
64	0xbe2df61c	-0.16988415
65	0x3f06d027	0.52661365
66	0x3f0a92e2	0.54130375
67	0x3e5eda99	0.21763076
68	0x3d24d31c	0.040240392
69	0xbcba30c1	-0.022728326
70	0x3f0b73e0	0.54473686
71	0x3f2aa41b	0.66656655
72	0x3edcd4e2	0.43131167
73	0x3e326be9	0.17423977
74	0x3e48e06a	0.19616857
75	0x3c91c8a9	0.017795878
76	0x3d03d120	0.03218186
77	0xbd450be8	-0.048107058
78	0x3dbf5006	0.09341435
79	0x3d922de4	0.07137659
80	0xbea008db	-0.31256756
81	0xbeac3e1a	-0.3364113
82	0xbeb6e8db	-0.3572453
83	0xbeaabcde	-0.3334722
84	0xbebc9088	-0.3682902
85	0xbeedd378	-0.464504
86	0xbf247a83	-0.6424944
87	0xbf24adc1	-0.6432763
88	0xbf06576f	-0.52477163
89	0xbf1e141e	-0.61749446
90	0xbec427be	-0.3831157
91	0xbee3eb19	-0.44515303
92	0xbef2c373	-0.4741474
93	0xbf1b1dac	-0.6059215
94	0xbf0911fc	-0.53543067
95	0xbe2684c8	-0.1626159
96	0xbe9f19e2	-0.31074435
97	0xbe7a07e0	-0.24417067
98	0xbe63db22	-0.22251561
99	0xbea52345	-0.3225347
100	0x3df4032c	0.119146675
101	0x3e7ac0ba	0.24487582
102	0x3ed45607	0.41471884
103	0x3eb7de02	0.35911566
104	0x3e9fa4fc	0.3118056
105	0x3d0ad658	0.03389582
106	0x3e6931f3	0.2277296
107	0x3d2dccc0	0.042431593
108	0x3dd6adc1	0.1048236
109	0x3d3d4881	0.046211723
110	0xbe5c3d97	-0.2150787
111	0xbe1229d6	-0.14273772
112	0xbea62a29	-0.3245404
113	0xbe8084d4	-0.2510134
114	0xbe6bfe18	-0.23046148
115	0xbe8fed88	-0.2811091
116	0xbeb40ecb	-0.35167536
117	0xbe7cda1d	-0.24692579
118	0xbe613009	-0.2199098
119	0xbe86396d	-0.26215687
120	0xbe1d233c	-0.15345472
121	0xbe693e03	-0.22777562
122	0xbeca18c4	-0.3947202
123	0xbe8ac726	-0.27105063
124	0xbe8d6a52	-0.27620178
125	0x3f5b7502	0.85725415
126	0x3f6f914f	0.935811
127	0x3f7fe7c5	0.9996303
128	0x3f556f31	0.8337279
129	0x3f659bd5	0.89690906
130	0x3f1fc744	0.6241343
131	0x3f6c32bb	0.9226491
132	0x3f611e05	0.8793643
133	0x3f551fe3	0.8325178
134	0x3f401142	0.75026333
135	0x3ecf5638	0.40495467
136	0x3ef7eef6	0.484245
137	0x3ea7cad4	0.32771933
138	0x3ea34b88	0.31893563
139	0x3ec81503	0.3907853
140	0x3ebcdbca	0.36886436
141	0x3e64b191	0.22333361
142	0x3e42ff12	0.19042614
143	0x3e54070b	0.20705812
144	0x3e74973a	0.23885813
145	0x3e55207e	0.20813176
146	0x3e4da8fe	0.20083997
147	0x3e4307e4	0.19045979
148	0x3e8c4896	0.2739913
149	0x3d8c17ea	0.06840499
150	0x3e345b68	0.17612994
151	0x3dfb34dc	0.122659415
152	0x3e3bbe61	0.18334343
153	0x3e020838	0.12698448
154	0xbd07c473	-0.033146333
155	0x3ea6d151	0.3258157
156	0x3e9e2866	0.30890197
157	0x3e924ab4	0.2857262
158	0x3ea708f2	0.32624012
159	0x3ea5fae8	0.3241799
160	0x3ed29e8e	0.41136593
161	0x3f2de466	0.67926633
162	0x3f41987f	0.75623316
163	0x3f26ff4c	0.652333
164	0x3ec8caaf	0.39217135
165	0x3e5a8a26	0.21341762
166	0x3e391750	0.180753
167	0x3cef564e	0.029215958
168	0x3da6f821	0.081527956
169	0xbdc16121	-0.09442354
170	0xbef16ef7	-0.47154972
171	0xbeeae92a	-0.45881015
172	0xbef21b4c	-0.4728645
173	0xbf0bb8f0	-0.5457907
174	0xbeab7af7	-0.33492252
175	0xbe071ba6	-0.13194141
176	0xbe901ab2	-0.28145367
177	0xbeb15345	-0.34633842
178	0xbec1e2d8	-0.3786838
179	0xbe90df9b	-0.28295597
180	0xbe8b260d	-0.27177468
181	0xbe906af2	-0.28206593
182	0xbe87a721	-0.26494697
183	0xbd866796	-0.06562726
184	0xbc4aea0e	-0.012384905
185	0xbd50eaff	-0.05100536
186	0x3dcf977a	0.10136314
187	0x3d9110c3	0.07083275
188	0x3e5711d7	0.21002899
189	0x3e44a98e	0.19205305
190	0xbe5edbba	-0.21763507
191	0xbe4c4b60	-0.19950628
192	0xbe31b4fe	-0.173542
193	0xbe55c14d	-0.2087452
194	0xbe085a0d	-0.13315602
195	0xbf2af95d	-0.6678675
196	0xbf3c1bca	-0.734799
197	0xbf28a263	-0.6587278
198	0xbf3737f2	-0.7156974
199	0xbef8522c	-0.48500192
200	0x3d9e4165	0.07727317
201	0xbbafcad8	-0.005364757
202	0x3e092fa3	0.13397078
203	0xbd8f0390	-0.06983101
204	0x3d8ccd39	0.068750806
205	0x3e6040f3	0.21899776
206	0x3e197cb0	0.14988971
207	0x3e6a521d	0.22882886
208	0x3e288e2e	0.16460487
209	0x3e358d0c	0.17729586
210	0x3e7dab85	0.24772461
211	0x3e921fb7	0.28539822
212	0x3efa25d7	0.48856995
213	0x3eb12a57	0.34602615
214	0x3eacb69d	0.33733073
215	0x3e1f0390	0.15528703
216	0x3e684939	0.22684182
217	0x3e03bbf4	0.12864667
218	0x3e4742b4	0.19459039
219	0x3dbfcae2	0.09364869
220	0xbe27ebb5	-0.16398509
221	0xbe8cce91	-0.27501348
222	0xbeb527c7	-0.3538191
223	0xbdd73718	-0.10508555
224	0xbd5ce991	-0.053933684
225	0x3e346891	0.17618014
226	0x3d95a8c7	0.07307582
227	0xbe23b3d4	-0.15986568
228	0xbe8eec25	-0.2791454
229	0xbe9e6570	-0.30936766
230	0x3e636a1c	0.22208446
231	0x3e2572ed	0.16157122
232	0x3d972a32	0.07381095
233	0xbe8bfa1c	-0.27339256
234	0xbecb4e15	-0.3970801
235	0x3e2e94a2	0.17048886
236	0x3d87ea8e	0.06636535
237	0x3e2381ac	0.15967435
238	0xbe0ab42f	-0.13545297
239	0xbeb0b9d9	-0.3451679
240	0xbc807397	-0.015680118
241	0x3e11c619	0.14235725
242	0x3e1f6609	0.15566267
243	0x3d18e682	0.037329204
244	0xbddf80ec	-0.10913262
245	0xbd7ef4c3	-0.06224514
246	0xbd64d8aa	-0.05587069
247	0x3d842549	0.06452424
248	0x3e08057d	0.13283344
249	0x3b96e468	0.004604865
250	0x3e02d196	0.12775263
251	0xbc683e6c	-0.014175039
252	0xbda56e49	-0.08077676
253	0xbe2d5d4c	-0.16930121
254	0xbe290a5f	-0.16507863
255	0x3e5d2207	0.21595012

conv1.bias f4 [6]
0	0xbf9c206f	-1.2197398
1	0xbf01339d	-0.5046938
2	0xbfa2b787	-1.2712258
3	0xbf97a49b	-1.1847109
4	0xbf95a9a4	-1.1692395
5	0xbf80d6b6	-1.0065525

conv2.weight f4 [16, 6, 5, 5]
0	0xbe019f35	-0.12658389
1	0xbb8e9b88	-0.004352037
2	0xbc4abafa	-0.01237368
3	0xbde5e6e1	-0.11225677
4	0xbcee28bf	-0.029072164
5	0xbe265c49	-0.16246141
6	0xbcd512dc	-0.02600997
7	0xbd1d1191	-0.03834683
8	0xbdc5a6a3	-0.09650924
9	0xbd41793f	-0.04723477
10	0xbe315449	-0.17317308
11	0xbd8e9448	-0.06961876
12	0xbd3ff1e3	-0.04686154
13	0xbe1c0e31	-0.15239789
14	0xbcd1ddf9	-0.02561854
15	0xbd0e215b	-0.03469978
16	0xbde1db55	-0.110281624
17	0xbdbf482b	-0.09339937
18	0xbdd1a974	-0.10237399
19	0xbd73dc51	-0.059536282
20	0xbd9a760f	-0.07542049
21	0xbe25a2bb	-0.16175358
22	0xbd836903	-0.06416514
23	0xbe228d7b	-0.15874283
24	0xbd1bd10f	-0.03804117
25	0xbcbabc7f	-0.02279496
26	0xbe0b095a	-0.13577786
27	0xbe07e8af	-0.13272355
28	0xbe1ea6d9	-0.15493335
29	0xbde7fdd5	-0.113277115
30	0xbd7746bb	-0.06037019
31	0xbd1b701f	-0.037948724
32	0xbe202897	-0.15640484
33	0xbdd2eb54	-0.102987915
34	0xbd6dbaff	-0.05803966
35	0xbe122685	-0.14272507
36	0xbdceb850	-0.100937486
37	0xbe04d4fd	-0.12971874
38	0xbd37fb5d	-0.044917453
39	0xbe3768ae	-0.17911026
40	0xbd9e90e5	-0.0774248
41	0xbdeeb10a	-0.11654861
42	0xbd5faee8	-0.054610163
43	0xbd7f5b49	-0.062342916
44	0xbe04ce8b	-0.12969415
45	0xbd3f8639	-0.046758864
46	0xbdf520ef	-0.11969172
47	0xbdcdf8dc	-0.10057232
48	0xbe42f68d	-0.19039364
49	0xbddafb92	-0.106925145
50	0xbc9db762	-0.019252483
51	0xbdadf43a	-0.08493848
52	0xbd866a3b	-0.065632306
53	0xbdf5d5fb	-0.12003704
54	0xbcf8a199	-0.030350493
55	0xbde1eb97	-0.11031263
56	0xbdbb9ae7	-0.09160405
57	0xbdc7935c	-0.097449034
58	0xbdb53799	-0.08848495
59	0xbd958ea7	-0.073025994
60	0xbd7d6e7a	-0.061872937
61	0xbdc16915	-0.09443871
62	0xbd0aa541	-0.033849005
63	0xbc7a787f	-0.015287518
64	0xbc992094	-0.018692292
65	0xbde1ba87	-0.110219054
66	0xbdf7d61b	-0.12101384
67	0xbdd37334	-0.103247076
68	0xbd3d1351	-0.046161
69	0xbc7f1c63	-0.015570733
70	0xbdee44df	-0.1163423
71	0xbd84184d	-0.064499475
72	0xbdee418f	-0.11633598
73	0xbe2b946b	-0.16755836
74	0x3b95fe80	0.004577458
75	0xbde8f2f5	-0.113744654
76	0xbe2f8ef7	-0.1714438
77	0xbe3220ec	-0.17395371
78	0xbde8088b	-0.113297544
79	0x3bcb8185	0.0062105083
80	0xbd69cf75	-0.057082612
81	0xbdb6ce0b	-0.08926018
82	0xbd701752	-0.05861599
83	0xbd92190b	-0.07133683
84	0xbd825d5d	-0.06365464
85	0x3cf49ce9	0.029859977
86	0xbdb9d9bd	-0.090747334
87	0xbe1c7aed	-0.15281267
88	0xbcbca657	-0.023028536
89	0xbe05aef6	-0.13055024
90	0xbd73e06c	-0.059540197
91	0xbe268e5a	-0.1626524
92	0xbe0521bc	-0.1300115
93	0xbd9de44f	-0.07709562
94	0xbd1c1345	-0.038104314
95	0xbd4fc950	-0.050729096
96	0xbddbb135	-0.10727159
97	0xbdbdd381	-0.09268857
98	0xbdcd64a9	-0.10028965
99	0xbdc55adb	-0.0963647
100	0xbd7aab15	-0.061198313
101	0xbdd1944c	-0.102333635
102	0xbe0ee319	-0.13953818
103	0xbd675da5	-0.05648579
104	0xbd418152	-0.04724247
105	0xbd880451	-0.06641448
106	0xbc9ef20b	-0.019402524
107	0xbe11078c	-0.14163035
108	0xbd185bb5	-0.037196834
109	0xbe09c075	-0.13452323
110	0xbd87a30d	-0.06622896
111	0xbd47c951	-0.048775975
112	0x3cb4a0ae	0.022049274
113	0xbd116fec	-0.035507128
114	0xbdeab93f	-0.11461114
115	0xbdab3291	-0.08359254
116	0xbdd2d4da	-0.102945045
117	0xbd8e0ee2	-0.069364324
118	0xbe1163ba	-0.14198199
119	0xbcc37a31	-0.023861976
120	0xbe4af916	-0.19821581
121	0xbe0d191a	-0.13779107
122	0xbd092355	-0.03348096
123	0xbdb94901	-0.090471275
124	0xbd26ed14	-0.04075344
125	0x3c553319	0.013012671
126	0xbda4e5df	-0.08051657
127	0xbd71408d	-0.05889945
128	0xbd000fcb	-0.03126506
129	0x3cbba2e5	0.022904823
130	0xbe3cc043	-0.18432717
131	0xbdf1b19f	-0.11801457
132	0xbdcf48aa	-0.101212814
133	0xbe3196b1	-0.1734264
134	0xbe2b7d2b	-0.16746967
135	0xbe3e3a4b	-0.18576925
136	0xbe1fceae	-0.15606186
137	0xbdff0d8b	-0.12453755
138	0xbe3190fa	-0.1734046
139	0xbe1480ce	-0.1450226
140	0xbe3b9451	-0.18318297
141	0xbe37fd1e	-0.1796765
142	0xbc10cfce	-0.008838607
143	0x3ac20b04	0.0014804308
144	0xbae9c2c3	-0.0017834533
145	0xbda86b6f	-0.08223616
146	0xbe475f14	-0.19469863
147	0xbe4e136c	-0.20124596
148	0xbdc7343d	-0.097267605
149	0xbc7fa9ff	-0.015604495
150	0xbde97867	-0.11399918
151	0x3e9c47fe	0.30523676
152	0x3e4b0703	0.19826894
153	0xbeb13bdd	-0.34615985
154	0xbcd33d5d	-0.025786096
155	0xbe839c70	-0.2570529
156	0x3c0fa882	0.008768203
157	0x3ebe0326	0.37111777
158	0xbd614b67	-0.05500355
159	0xbe643db3	-0.22289161
160	0xbed4f297	-0.4159133
161	0xbe42c346	-0.19019803
162	0x3ecde3a0	0.40212727
163	0xbe75976a	-0.23983541
164	0xbe4afd4f	-0.19823192
165	0xbed1e376	-0.4099385
166	0xbec7b0c9	-0.39002064
167	0x3d5f3b7b	0.054500084
168	0xbe870c62	-0.26376635
169	0xbeab9ae3	-0.33516607
170	0x3e123bbb	0.14280598
171	0xbf1f1a17	-0.62149185
172	0xbf05b1aa	-0.5222422
173	0xbf03caa6	-0.5148109
174	0xbe8fb6fd	-0.28069296
175	0x3c38fb14	0.01129033
176	0xbeef9643	-0.46794328
177	0xbf0188a2	-0.5059911
178	0xbea0eb42	-0.31429487
179	0x3d1e9e55	0.038725216
180	0xbea98653	-0.33110294
181	0xbe5b24ab	-0.21400706
182	0xbec5754e	-0.3856606
183	0xbe1e04d5	-0.15431531
184	0x3cc95294	0.02457551
185	0xbe49d039	-0.19708337
186	0xbe3a5728	-0.1819731
187	0xbdf4b027	-0.11947661
188	0xbe8516f2	-0.25994068
189	0xbe37aa91	-0.1793616
190	0xbeda9434	-0.42691195
191	0xbedc4cbd	-0.43027297
192	0xbee0b804	-0.43890393
193	0xbefd60b5	-0.49487844
194	0xbeda8256	-0.42677563
195	0x3ba882a2	0.005142526
196	0xbecb6789	-0.3972743
197	0xbec9979e	-0.39373487
198	0xbea9e08f	-0.33179137
199	0xbec13dbe	-0.37742418
200	0xbef149e6	-0.47126693
201	0xbee50803	-0.44732675
202	0xbef8a3fe	-0.48562616
203	0xbec14e30	-0.37754965
204	0xbe61bc38	-0.22044456
205	0xbee74df5	-0.45176664
206	0xbf1f135d	-0.6213892
207	0xbf211645	-0.62924606
208	0xbe83f1ea	-0.25770503
209	0xbe870a57	-0.26375076
210	0x395aa400	0.00020851195
211	0xbdcc9c32	-0.099907294
212	0xbe72ac8b	-0.23698632
213	0xbea4d0ca	-0.32190543
214	0xbe9468ef	-0.28986308
215	0x3b076d02	0.002066434
216	0xbe9dd315	-0.30825105
217	0xbec992bb	-0.3936976
218	0xbeba96e2	-0.3644324
219	0xbec56c5a	-0.38559228
220	0xbe4a089b	-0.19729845
221	0xbed31177	-0.41224262
222	0xbea7e303	-0.32790384
223	0xbe89ffc9	-0.2695296
224	0xbea1c807	-0.3159792
225	0xbcfc432e	-0.030793753
226	0xbdc4915b	-0.09598037
227	0xbe8657f7	-0.26238987
228	0xbe058f72	-0.13043001
229	0xbe8458b9	-0.2584894
230	0xbe92d46d	-0.28677693
231	0xbdbfb2ff	-0.09360313
232	0xbe6b6d4d	-0.22990914
233	0xbea72f30	-0.3265319
234	0xbe6a9234	-0.22907335
235	0xbeb4a043	-0.3527852
236	0xbe3a966c	-0.18221444
237	0x3bc57368	0.0060257204
238	0xbe70f8dc	-0.23532432
239	0xbe414f29	-0.18877853
240	0xbe9e55fd	-0.3092498
241	0xbe006136	-0.12537083
242	0x3d1b8317	0.037966814
243	0xbe564db3	-0.20928077
244	0xbd0e7d48	-0.034787446
245	0xbe3e0c0f	-0.18559287
246	0xbe4c111d	-0.19928403
247	0xbe761c96	-0.24034342
248	0xbea33c05	-0.3188173
249	0xbe5594d9	-0.20857562
250	0xbea155bc	-0.31510723
251	0xbee518f4	-0.447456
252	0xbe80ceac	-0.25157678
253	0xbe99067b	-0.29887757
254	0xbe40086f	-0.18753217
255	0xbe9ef006	-0.31042498

conv2.bias f4 [16]
0	0xbd9cee6e	-0.07662664
1	0x3f313539	0.69221836
2	0x3f592cb2	0.84833825
3	0x3f34968f	0.70542234
4	0x3d092515	0.03348263
5	0x3d1dfcc0	0.03857112
6	0x3f178d3b	0.59199876
7	0x3ea2a42c	0.31765878
8	0xbddb73d4	-0.10715452
9	0xbe096ab5	-0.13419612
10	0x3f795968	0.9740205
11	0x3f4e94db	0.80695885
12	0xbeed7be5	-0.46383587
13	0xbde0642e	-0.10956608
14	0xbdd307a0	-0.10304189
15	0x3d92cbd3	0.07167783

fc1.weight f4 [120, 400]
0	0x3d0496c8	0.03237036
1	0xbd27c087	-0.040955093
2	0xbd7f6e6e	-0.062361173
3	0xbd44c28e	-0.048037104
4	0xbcec8d39	-0.028875934
5	0xbd8628a7	-0.065507226
6	0xbca99835	-0.02070246
7	0xbcdb8f39	-0.026801692
8	0xbd844ca9	-0.06459934
9	0xbb80ae63	-0.0039270385
10	0xbd1cb617	-0.038259592
11	0xbbe2ddef	-0.006923429
12	0x3b625b11	0.0034539143
13	0xbd541df3	-0.051786374
14	0xbd5b6a1e	-0.053567998
15	0xbd3c7db5	-0.04601832
16	0xbcc72e3d	-0.02431404
17	0xbd90f737	-0.070784025
18	0x3ac5abb5	0.001508108
19	0xbd7d6139	-0.061860297
20	0xbd0daee7	-0.034590628
21	0xbd14af4a	-0.03629998
22	0xbd0d7abe	-0.034540884
23	0xbc15425b	-0.009110059
24	0x3bb48961	0.005509541
25	0xbdb7662c	-0.089550346
26	0xbd5dc631	-0.05414409
27	0xbd8526fc	-0.06501576
28	0xbdbeaf84	-0.09310821
29	0xbc3d8637	-0.011567644
30	0xbd1b75a8	-0.037954003
31	0xbd37f368	-0.044909865
32	0xbd9e445e	-0.07727884
33	0xbd38d4e3	-0.0451249
34	0xbd44683a	-0.04795096
35	0xbd2667fa	-0.040626504
36	0x3ba8c770	0.005150728
37	0xbd39aa69	-0.04532853
38	0xbd957444	-0.072975665
39	0xbd28539b	-0.041095357
40	0xbd7dbe31	-0.06194896
41	0xbcd0b23a	-0.02547561
42	0xbdbaa1d9	-0.09112901
43	0xbdf0b5f4	-0.11753455
44	0xbc78e4ea	-0.015191296
45	0xbdfd1447	-0.12357383
46	0xbdd4d6d1	-0.103925355
47	0xbd0f8f60	-0.035048842
48	0xbd70d178	-0.058793515
49	0xbdbe2d56	-0.09285991
50	0xbdbcca64	-0.092182904
51	0x3c2c164e	0.010503365
52	0xbc9d63ec	-0.019212686
53	0x3caf8c7e	0.021429297
54	0xbce046b7	-0.02737747
55	0xbd98ebb9	-0.074668355
56	0x3dac0692	0.08399691
57	0x3a865951	0.0010250007
58	0xbceb5464	-0.028726764
59	0xbdc4e36e	-0.09613691
60	0xbcfea9bb	-0.031086793
61	0xbdc72828	-0.09724456
62	0x3ca45e62	0.020064536
63	0x3d2bd333	0.041949462
64	0x3c6e5691	0.014547006
65	0xbd8adf87	-0.06780916
66	0xbde4e4d5	-0.11176459
67	0xbce6c55c	-0.02817028
68	0xbd9e7a74	-0.077382
69	0xbc5ff514	-0.013669271
70	0xbdbe2f75	-0.092863955
71	0xbe03592c	-0.12826985
72	0xbdc15e20	-0.09441781
73	0xbda28a34	-0.079365164
74	0x3c8d2ba4	0.017232724
75	0xbdb8f806	-0.09031682
76	0xbdf8d7c6	-0.121505305
77	0xbd914c53	-0.07094636
78	0xbe05fa8c	-0.13083857
79	0xbd8a2c6b	-0.06746753
80	0xbdb9a02c	-0.090637535
81	0xbe002f34	-0.12518007
82	0xbda80184	-0.08203414
83	0xbe0e2e57	-0.13884865
84	0xbe050a39	-0.12992181
85	0xbda86008	-0.082214415
86	0xbdbd8e42	-0.09255649
87	0xbe1f98d2	-0.1558564
88	0xbd8e2f6f	-0.06942641
89	0xbe0113d7	-0.12605225
90	0xbd92e93e	-0.07173394
91	0xbdc96299	-0.09833259
92	0xbe2d0722	-0.16897252
93	0xbe11f773	-0.1425455
94	0xbdb03955	-0.08604685
95	0xbe060001	-0.13085939
96	0xbe050b43	-0.12992577
97	0xbe0ca615	-0.1373523
98	0xbd23f971	-0.040032808
99	0xbcd29fd2	-0.025710974
100	0x3d36f520	0.044667363
101	0x3c69a23c	0.014259871
102	0xbc77163f	-0.0150809875
103	0xbc6f0e28	-0.014590777
104	0x3c7036b8	0.0146614835
105	0x3ca9e384	0.02073837
106	0x3d935c55	0.07195345
107	0x3cd7842c	0.026308142
108	0xbc824e66	-0.015906524
109	0xbc6a1583	-0.014287355
110	0xbb02b354	-0.0019943314
111	0xbdbb2284	-0.09137443
112	0xbd9c1634	-0.076214224
113	0xbd04034f	-0.032229718
114	0xbd1104d3	-0.03540499
115	0xbd3149aa	-0.043283142
116	0xbcbb65e2	-0.02287573
117	0xbd960116	-0.07324426
118	0xbcdbcf52	-0.026832256
119	0x3d302048	0.042999536
120	0x3bc5f354	0.00604097
121	0xbd38e964	-0.045144454
122	0xbd4ccfbf	-0.05000281
123	0x3c60086e	0.013673885
124	0xbd1eeeb0	-0.03880185
125	0xbd82ede0	-0.06393027
126	0xbd48f56b	-0.049062174
127	0xbd9545bb	-0.07288691
128	0xbdb67556	-0.08909099
129	0xbb9af5f5	-0.0047290274
130	0xbd959520	-0.07303834
131	0xbdb78b22	-0.08962084
132	0xbd68e7d7	-0.056861725
133	0xbd8a6201	-0.06756974
134	0xbd6bc627	-0.05756202
135	0xbcb86b8b	-0.022512218
136	0xbdb4c4fa	-0.08826633
137	0xbdbca507	-0.09211164
138	0xbdd277b6	-0.10276739
139	0xbdf50d47	-0.11965423
140	0xbd6cd13f	-0.05781674
141	0xbdc2e507	-0.0951634
142	0x3d7b170e	0.061301284
143	0x3b5b4e86	0.0033463552
144	0xbbc208a4	-0.00592144
145	0xbdb4ca4b	-0.08827647
146	0xbd5e3100	-0.05424595
147	0xbce9680c	-0.028491996
148	0xbcb3beca	-0.021941561
149	0xbdb53920	-0.08848786
150	0xbdf5992a	-0.11992104
151	0xbd6ee652	-0.05832512
152	0xbd9ea4ed	-0.07746301
153	0xbdb62116	-0.088930294
154	0xbda945fd	-0.08265302
155	0xbdc2abfd	-0.095054604
156	0xbdd5ad55	-0.10433451
157	0xbcb0e9a7	-0.02159579
158	0xbca54c40	-0.02017796
159	0xbd78bfa8	-0.060729653
160	0xbdfdaf71	-0.123869784
161	0xbccf31fe	-0.025292393
162	0xbdcc8fd6	-0.09988372
163	0xbcf8368e	-0.030299451
164	0xbd08f398	-0.033435434
165	0xbd04bf92	-0.03240926
166	0xbd064143	-0.032777082
167	0xbd975774	-0.07389727
168	0xbdc2d137	-0.09512561
169	0xbcef7ac1	-0.029233338
170	0xbd945800	-0.07243347
171	0xbda22dff	-0.07918929
172	0xbda47909	-0.08030898
173	0xbd9b70cf	-0.07589876
174	0xbd20f25e	-0.03929364
175	0xbdade0ee	-0.084901676
176	0xbcc617b4	-0.024181224
177	0xbc879edb	-0.01655524
178	0xbd12d1fc	-0.035844788
179	0xbe1b3034	-0.15155107
180	0xbdfbe316	-0.122991726
181	0xbd6fbf77	-0.058532204
182	0xbddd1c0a	-0.10796364
183	0xbd77627c	-0.060396656
184	0xbd431525	-0.047627587
185	0xbdbffdf2	-0.09374608
186	0x3a367792	0.00069605664
187	0x3c488d64	0.012240741
188	0xbc22a92a	-0.009928027
189	0xbd3624f6	-0.044468842
190	0xbd261b85	-0.04055359
191	0xbca394b1	-0.019968363
192	0xbd5a17ee	-0.053245477
193	0xb9320424	-0.00016976945
194	0xbcc69cfb	-0.024244776
195	0xbd868d00	-0.06569862
196	0xbd8fb636	-0.07017176
197	0xbdf8783e	-0.121323094
198	0x3c237421	0.009976418
199	0xbda27230	-0.07931936
200	0x3c2abff9	0.010421746
201	0x3b9eec91	0.0048499783
202	0xbd29edb3	-0.041486453
203	0xbdd4bd7a	-0.10387702
204	0xbd72d125	-0.059281487
205	0xbc70aea5	-0.014690076
206	0xbda2ea63	-0.07954862
207	0xbc477b23	-0.012175354
208	0xbda99e85	-0.08282188
209	0xbd746733	-0.05966873
210	0x3ca98543	0.020693427
211	0x3c4909a0	0.012270361
212	0xbba9106a	-0.0051594274
213	0xbd4ac184	-0.049500957
214	0xbc046fb7	-0.0080832755
215	0x3c1d6ca6	0.009608423
216	0xbd2c0a31	-0.042001907
217	0xbd72ab3d	-0.059245337
218	0xbda53687	-0.08067041
219	0x3b4877eb	0.0030589055
220	0xbc05027e	-0.00811827
221	0xbbe241a3	-0.006904797
222	0x3c11e9a1	0.008905799
223	0x398eebfa	0.00027260167
224	0xbd28b713	-0.04119022
225	0xbdd1b1a3	-0.1023896
226	0xbcd0290f	-0.025410203
227	0xbc579b81	-0.013159634
228	0xbd2e0032	-0.042480655
229	0xbd1a63a3	-0.037692677
230	0xbd2e0921	-0.042489175
231	0xbc8cd266	-0.01719017
232	0xbd105d9f	-0.035245534
233	0xbd4700ed	-0.048584867
234	0xbd79eb17	-0.061015215
235	0x3c4a2224	0.012337241
236	0xbc24e7f5	-0.0100650685
237	0xbd4798ad	-0.048729587
238	0x3b9428b7	0.004521455
239	0xbd2f4500	-0.042790413
240	0xbba0db39	-0.004908946
241	0xbda7202f	-0.081604354
242	0xbcadb587	-0.021204723
243	0xbd4f4a67	-0.050608065
244	0xbc57484e	-0.013139797
245	0xbd5de7d0	-0.05417615
246	0xbc0a5a13	-0.008444327
247	0xbd525fdd	-0.051360954
248	0xbbcc57b7	-0.0062360424
249	0x3c203805	0.009778981
250	0xbd67d435	-0.05659886
251	0xbcf5897d	-0.029972786
252	0xbd932de0	-0.07186484
253	0xbe1a892e	-0.15091392
254	0xbd6b284c	-0.057411477
255	0xbcd5ec3a	-0.026113618

fc1.bias f4 [120]
0	0xbe801f4f	-0.25023887
1	0xbe306cd7	-0.17229019
2	0xbe6b68fb	-0.22989266
3	0xbea7f2b9	-0.3280237
4	0xbeb7bfc5	-0.35888496
5	0xbe2fc3d2	-0.17164543
6	0xbbe171b1	-0.006880008
7	0xbea46393	-0.3210722
8	0xbea89d17	-0.3293235
9	0xbe963e3c	-0.29344356
10	0xbe8200cd	-0.25391236
11	0x3eb3b7ef	0.35101268
12	0xbe69879a	-0.22805634
13	0xbeacd3e7	-0.3375542
14	0xbe5bd844	-0.21469218
15	0xbe897b00	-0.26851654
16	0x3ee17501	0.4403458
17	0x3ec62193	0.3869749
18	0xbe492b73	-0.19645481
19	0xbe92c0fb	-0.28662857
20	0x3c682e2f	0.014171167
21	0xbe98ec3a	-0.29867727
22	0xbe659d8b	-0.22423379
23	0xbe8944ca	-0.26810294
24	0xbe0dd28c	-0.13849849
25	0xbe8e4ee8	-0.27794576
26	0xbe97f821	-0.29681495
27	0xbe93e4f1	-0.28885606
28	0xbe253cb4	-0.16136438
29	0xbe2a30dd	-0.16620202
30	0xbe857224	-0.26063645
31	0x3f060517	0.52351516
32	0xbe75f3ef	-0.24018835
33	0xbe2133c3	-0.15742402
34	0xbeaca2ab	-0.33717856
35	0xbe8cc5cc	-0.27494657
36	0xbe340300	-0.1757927
37	0xbe970872	-0.2949863
38	0x3ea8e38f	0.32986113
39	0xbe8328f9	-0.25617197
40	0xbcd4c413	-0.025972402
41	0xbe75045d	-0.23927446
42	0xbe04b554	-0.12959796
43	0xbeabd7cd	-0.3356308
44	0xbe7927c0	-0.2433157
45	0x3e3d1813	0.18466215
46	0xbe817570	-0.2528491
47	0x3ebb6621	0.36601356
48	0xbe8e00aa	-0.27734882
49	0xbea8e63f	-0.32988164
50	0xbe477ab0	-0.19480395
51	0xbe932c52	-0.2874475
52	0xbdf751fd	-0.12076185
53	0x3e80198a	0.25019485
54	0x3f0fa762	0.5611478
55	0xbe8489f3	-0.25886497
56	0xbe86c247	-0.26320097
57	0x3e90d55f	0.2828779
58	0xbe463cbe	-0.19359109
59	0xbe5e8b44	-0.21732813
60	0xbdb7c1ee	-0.08972536
61	0xbd800165	-0.06250266
62	0xbda87745	-0.08225874
63	0xbeacf060	-0.33777142
64	0xbc84982d	-0.016185844
65	0xbeac6f98	-0.3367889
66	0xbe97d707	-0.2965624
67	0xbe169a51	-0.14707305
68	0xbea5a2e1	-0.3235083
69	0xbe586c1c	-0.2113499
70	0xbe9fdcc5	-0.3122312
71	0xbe81fc5c	-0.25387847
72	0xbe2c22c2	-0.16810134
73	0xbdb1f795	-0.08689801
74	0xbe98e805	-0.29864517
75	0x3ea844ec	0.32865083
76	0x3e67fb8b	0.2265455
77	0xbe88cbd5	-0.26718011
78	0xbe6a0c2b	-0.22856204
79	0x3d0ae122	0.03390611
80	0xbe5bcc8a	-0.21464744
81	0xbea0aea7	-0.3138325
82	0xbe8afd3a	-0.27146322
83	0x3e314fca	0.17315593
84	0xbe817d43	-0.2529088
85	0xbec68efb	-0.3878096
86	0xbe8f3200	-0.27967834
87	0xbe634483	-0.22194104
88	0xbc7925cf	-0.015206768
89	0xbea13765	-0.31487575
90	0xbeaac369	-0.3335221
91	0xbdbe096e	-0.09279142
92	0x3d9074c8	0.07053524
93	0xbc903f1c	-0.017608218
94	0xbe4947ea	-0.1965634
95	0xbd312049	-0.04324368
96	0xbea61bc4	-0.32443058
97	0x3d0d9cd9	0.03457341
98	0xbdca078d	-0.098647214
99	0x3ec494af	0.38394687
100	0xbe9b64b1	-0.3035026
101	0xbead405a	-0.3383816
102	0xbeaaa50c	-0.33329046
103	0xbe4503a3	-0.19239669
104	0xbec106d3	-0.3770052
105	0xbde4d398	-0.11173171
106	0xbec53de0	-0.3852377
107	0xbea2282f	-0.31671283
108	0xbe27c1f5	-0.16382582
109	0xbe835f3d	-0.256586
110	0xbea168dc	-0.31525314
111	0xbe03a5e7	-0.12856255
112	0xbe61f4c7	-0.22066031
113	0xbd6619a5	-0.0561768
114	0x3ed0db14	0.40792143
115	0xbe957926	-0.2919399
116	0xbec1f8c0	-0.37885094
117	0xbe43f406	-0.19136056
118	0xbe90a69b	-0.2825211
119	0x3df7291d	0.120683886

fc2.weight f4 [84, 120]
0	0x3c6c012c	0.014404576
1	0xbd8cb3da	-0.068702415
2	0x3cc968c1	0.024586083
3	0xbd211fee	-0.03933709
4	0x3d0d615d	0.03451668
5	0x3cbb96c9	0.022899048
6	0xbedd7862	-0.43255907
7	0xbe148f24	-0.14507729
8	0x3be85c7f	0.0070911045
9	0x3d42d613	0.04756744
10	0x3d3007b8	0.04297611
11	0xbe5524ff	-0.20814894
12	0x3db676bb	0.08909365
13	0x3db4e4ec	0.08832726
14	0xbc80ff9d	-0.015746886
15	0xbd1d69e6	-0.03843107
16	0xbdeffc63	-0.11718061
17	0xbe89c773	-0.2690998
18	0xbc7c53d8	-0.015400849
19	0xbd0a14ff	-0.03371143
20	0xbe19d63c	-0.1502313
21	0xbd7cb664	-0.06169738
22	0xbd508556	-0.05090841
23	0xbd46630a	-0.048434295
24	0x3d5b8d89	0.053601775
25	0xbe04f443	-0.12983803
26	0xbc5b092e	-0.013368888
27	0x3d3f76b7	0.046744075
28	0x3dc7165d	0.09721062
29	0x3d33d3dc	0.043903217
30	0xbdb1da0d	-0.08684168
31	0x3e0b853b	0.13625042
32	0xbd7260a0	-0.05917418
33	0xbd1066ed	-0.035254408
34	0xbd6de74c	-0.05808191
35	0xbd3889fb	-0.045053463
36	0xbd8c97f7	-0.068649225
37	0xbd88eabc	-0.06685397
38	0x3ced18e3	0.028942531
39	0x3d00d8c8	0.03145674
40	0xbe12d71c	-0.1433987
41	0x3c8b764d	0.017024184
42	0xbe3cd97f	-0.18442343
43	0xbd0bab57	-0.03409895
44	0xbd2cec51	-0.042217556
45	0x3d52565a	0.051351883
46	0xbde773f2	-0.11301412
47	0x3c102bcb	0.008799504
48	0x3d76d558	0.060262054
49	0xbdab7a09	-0.08372886
50	0x3ae9b2c0	0.0017829761
51	0x3dbbb0fa	0.09164615
52	0xbd99cc85	-0.07509712
53	0xbe76a1c1	-0.24085142
54	0xbd4bbef5	-0.049742658
55	0xbd179ebb	-0.03701661
56	0xbd67c7f9	-0.056587193
57	0xbe0d4885	-0.13797195
58	0x3d6fd61d	0.058553804
59	0x3d8791b6	0.06619589
60	0xb8bd8380	-9.036716e-05
61	0xbe3ebb18	-0.18626058
62	0xbdca44b2	-0.09876384
63	0xbe398b7e	-0.18119618
64	0xbe84c811	-0.2593389
65	0xbaf6c6a0	-0.0018827505
66	0x3bd077e2	0.0063619474
67	0xbbb740ed	-0.0055924566
68	0xbe0a0014	-0.13476592
69	0xbcb9187f	-0.022594688
70	0x3b821ae3	0.0039704903
71	0x3c63b523	0.013898167
72	0xbe31a722	-0.17348912
73	0x3ce6eb52	0.028188381
74	0xbe21f073	-0.1581438
75	0xbd2d73fb	-0.042346936
76	0x3cfb7dc9	0.030699627
77	0xbd5079cf	-0.050897416
78	0xbe20aacd	-0.15690155
79	0xbe7a4239	-0.24439324
80	0x3e2d4cfd	0.169239
81	0xbcdacee7	-0.026709987
82	0xbd862ec2	-0.06551887
83	0xbdb5a799	-0.08869857
84	0xbca1fda5	-0.019774267
85	0xbe100be9	-0.14067043
86	0xbddd3780	-0.108016014
87	0xbd996914	-0.07490745
88	0xbd84d06d	-0.064850666
89	0x3c48282a	0.012216607
90	0xbd83ff9c	-0.06445238
91	0xbe3ddafc	-0.18540567
92	0xbdb036d6	-0.08604209
93	0xbd7a2095	-0.06106623
94	0xbd04717e	-0.032334797
95	0xbc8214d3	-0.01587907
96	0xbc7345ce	-0.014848186
97	0x3dba9397	0.09110182
98	0x3c55d93d	0.013052282
99	0xbec6aa7c	-0.38801944
100	0xbbc3adb9	-0.005971637
101	0xbe28215f	-0.1641898
102	0xbdb55f95	-0.088561215
103	0xbe0cc2e0	-0.13746214
104	0xbde8c21c	-0.113651484
105	0xbe0eb29d	-0.13935323
106	0xbcfcb34c	-0.030847214
107	0xbe20476e	-0.15652248
108	0x3dc63063	0.09677198
109	0x3daff227	0.08591109
110	0xbd6ddd3c	-0.058072314
111	0xbd9e1c36	-0.077202246
112	0x3daca882	0.08430578
113	0xbe0b9bd4	-0.13633662
114	0xbd5c17e6	-0.05373373
115	0xbdf619fd	-0.120166756
116	0xbd66e23e	-0.056368105
117	0xbdaebdc6	-0.0853229
118	0xbcd5a6e4	-0.026080556
119	0x3e077721	0.13229038
120	0x3cc98c17	0.024602933
121	0xbdb19a2f	-0.08671986
122	0xbd2d741d	-0.042347062
123	0xbdffd984	-0.1249266
124	0x3bae793c	0.005324511
125	0x3a3ae807	0.00071299117
126	0xbeaa0c28	-0.332124
127	0xbc1e29a3	-0.009653482
128	0xbdf1cd39	-0.11806721
129	0xbdb3bef7	-0.08776658
130	0x3c91d8ca	0.017803568
131	0xbe7c2107	-0.24621974
132	0xbdb62947	-0.08894592
133	0x3d4fa226	0.050691746
134	0xbda4a636	-0.08039515
135	0xbe45c502	-0.19313434
136	0xbe754fbe	-0.239562
137	0xbe80a938	-0.25129104
138	0xbd77bf82	-0.06048537
139	0xbe13f767	-0.14449845
140	0xbde45e62	-0.111508146
141	0xbdc8617f	-0.09784221
142	0xbde12b70	-0.10994613
143	0xbe02f672	-0.12789324
144	0xbd3fae90	-0.046797335
145	0xbd7dc758	-0.061957687
146	0xbe1223ad	-0.14271422
147	0xbdb96425	-0.09052304
148	0xbd31fe64	-0.043455496
149	0xbe096ab7	-0.13419615
150	0xbd6ee5c4	-0.05832459
151	0xbe57c057	-0.21069466
152	0xbbe8aa2a	-0.0071003633
153	0x3ca391fc	0.019967072
154	0xbdf35a1e	-0.11882423
155	0xbd44fdd2	-0.048093624
156	0x3d328de0	0.043592334
157	0xbd8f7db9	-0.070064016
158	0xbe51dc84	-0.20494276
159	0xbd968de5	-0.07351283
160	0xbcbbf295	-0.02294282
161	0xbd412f4b	-0.047164243
162	0xbe0cf091	-0.13763644
163	0xbc37255c	-0.011178341
164	0xbd7b0108	-0.06128028
165	0xbb33712c	-0.0027380688
166	0xbd29867a	-0.041388012
167	0xbe6cdad7	-0.23130356
168	0x3d4bb094	0.049728945
169	0x3cd1402a	0.025543291
170	0xbdc97e5d	-0.09838555
171	0xbd376700	-0.044775963
172	0xbd1c3685	-0.03813793
173	0xbe774d33	-0.24150543
174	0xbd734f4c	-0.059401795
175	0x3d10420e	0.035219245
176	0xbcdf00f9	-0.027222143
177	0xbdcc3b00	-0.09972191
178	0xbdbd9f2d	-0.09258876
179	0xbd8fe32b	-0.07025751
180	0xbd5648bc	-0.05231546
181	0xbdb89224	-0.09012249
182	0xbd83ea0f	-0.064411275
183	0xbdb147df	-0.086562864
184	0xbdf15892	-0.117844716
185	0xbd1e474b	-0.03864221
186	0xbd73e6d1	-0.059546296
187	0xbd1bfe8e	-0.03808456
188	0xbd0c100c	-0.03419499
189	0x3c482f1c	0.012218263
190	0xbda49fd4	-0.08038297
191	0x3cec9c83	0.028883224
192	0x3d234b61	0.03986681
193	0x3d3ccbad	0.046092678
194	0xbdefe098	-0.1171276
195	0xbe749971	-0.23886658
196	0xbe3add69	-0.18248524
197	0x3d57097b	0.052499276
198	0xb9f79690	-0.0004722369
199	0xbe3d8c4e	-0.18510553
200	0xbbd29826	-0.006426829
201	0xbcabbc93	-0.020963943
202	0xbdfef7d7	-0.124496154
203	0xbe058090	-0.13037324
204	0xbcf5d01e	-0.030006465
205	0x3cfb8b38	0.030706033
206	0xbe276c9c	-0.16350025
207	0xbd040074	-0.032226995
208	0xbd97fb41	-0.0742097
209	0xbdeba5db	-0.11506244
210	0x3dfe3d6e	0.124140605
211	0xbd8c81e9	-0.06860716
212	0xbd39d83f	-0.045372244
213	0xbe50cc5a	-0.20390454
214	0xbdefe18c	-0.117129415
215	0xbd29b221	-0.041429643
216	0xbd8ef45e	-0.06980203
217	0xbe145226	-0.14484462
218	0xbd7643e4	-0.06012334
219	0xbe080704	-0.13283926
220	0xbd8a41b5	-0.06750814
221	0xbd037812	-0.03209693
222	0x3d73d7ad	0.059531856
223	0xbd9a46db	-0.07533046
224	0xbe02865e	-0.1274657
225	0xbdee4d6f	-0.11635863
226	0xbc5d51ff	-0.013508319
227	0x3bbe3bf6	0.0058054877
228	0xbc5b1472	-0.013371574
229	0xbe0c65e5	-0.13710745
230	0xbd12bdd7	-0.035825577
231	0xbda3f214	-0.08005157
232	0xbd1b52fb	-0.037920933
233	0x3ba1dafb	0.0049394346
234	0xbdc8c57a	-0.09803291
235	0xbd9b8b87	-0.07594972
236	0xbda8d224	-0.08243206
237	0xbd8415af	-0.06449448
238	0x3dac1169	0.08401758
239	0xbe04448f	-0.12916778
240	0xbd455ae0	-0.04818237
241	0xbe0bccfa	-0.13652411
242	0xbda8473f	-0.08216714
243	0xbccf7c2b	-0.025327763
244	0xbd89eb94	-0.06734386
245	0x3e178206	0.14795694
246	0xbe878f7a	-0.2647665
247	0xbd60636c	-0.054782316
248	0xbc1ac934	-0.009447385
249	0x3d6a5d67	0.05721798
250	0xbd3c1ff2	-0.045928903
251	0xbdfaae3e	-0.12240265
252	0x3d0fa16f	0.035066064
253	0x3cafcf19	0.021461057
254	0xbdd611e5	-0.10452632
255	0xbd883fe2	-0.0665281

fc2.bias f4 [84]
0	0x3c4f25cf	0.012643292
1	0xbdcde9be	-0.100543484
2	0x3e989c86	0.29806918
3	0xbeb309d5	-0.3496844
4	0x3d73105c	0.059341773
5	0x3e372dbd	0.17888542
6	0xbe2bdc43	-0.16783242
7	0x3e9a2fc4	0.30114567
8	0x3f0d61cb	0.55227345
9	0xbea4f6a1	-0.32219413
10	0x3deb9a0d	0.11503992
11	0x3d9752a2	0.07388808
12	0x3ecc90ca	0.39954215
13	0xbe97a595	-0.29618517
14	0x3eb9d255	0.36293283
15	0xbeca24f6	-0.39481324
16	0xbea020eb	-0.31275114
17	0xbedb9ebc	-0.42894542
18	0xbe7851d5	-0.24249966
19	0xbeb9e833	-0.36309966
20	0x3f05c1b1	0.52248675
21	0xbeaad040	-0.33362007
22	0xbe2f9927	-0.17148267
23	0x3eaf9229	0.342912
24	0xbec72954	-0.38898718
25	0xbe8be04c	-0.27319562
26	0xbd2a8438	-0.04163
27	0xbe858557	-0.26078293
28	0xbe981e95	-0.29710832
29	0xbe97f024	-0.296754
30	0xbee6f607	-0.4510958
31	0xbeb727c8	-0.35772538
32	0xbe8d3f1b	-0.27587208
33	0xbea8f41a	-0.32998735
34	0x3e8cc79f	0.2749605
35	0xbc834578	-0.016024336
36	0xbe60ad5b	-0.2194113
37	0xbed81da2	-0.42210108
38	0xbeab2e86	-0.33433932
39	0xbe845e42	-0.25853163
40	0xbea67e5f	-0.32518288
41	0xbecdbd5d	-0.40183535
42	0xbeb413d8	-0.3517139
43	0xbe01f92a	-0.12692705
44	0xbea1f4b9	-0.3163202
45	0xbe42c0cc	-0.19018859
46	0xbea2cbdf	-0.31796166
47	0xbc9c1be7	-0.019056274
48	0xbe9fab63	-0.31185445
49	0xbea6ddf3	-0.3259121
50	0xbe772217	-0.24134098
51	0xbee09047	-0.43860075
52	0xbe8f8069	-0.28027657
53	0xbe55fcdb	-0.20897238
54	0x3c54cd18	0.012988351
55	0xbe7c1f24	-0.24621254
56	0xbea5f7d9	-0.32415655
57	0xbee6f7db	-0.45110974
58	0xbe210407	-0.15724193
59	0xbefb84c9	-0.49124745
60	0xbe3d16e2	-0.1846576
61	0x3e358028	0.17724669
62	0xbe0c9a4f	-0.13730739
63	0xbebb98fc	-0.36640155
64	0xbdb606ed	-0.0888804
65	0xbeedbc07	-0.46432516
66	0x3d8fac54	0.07015291
67	0xbe76d207	-0.24103557
68	0xbe955ab8	-0.29170775
69	0xbe7d4b38	-0.24735725
70	0xbe2cd82b	-0.16879337
71	0xbead9700	-0.33904266
72	0xbeba214d	-0.3635353
73	0x3df36f5b	0.11886474
74	0xbea42146	-0.32056636
75	0xbeadfcf8	-0.33982062
76	0xbe2be829	-0.16787781
77	0xbec81745	-0.39080253
78	0xbebc5eb0	-0.3679099
79	0xbec1119b	-0.37708744
80	0x3ea75592	0.32682472
81	0xbdf4ecdb	-0.11959239
82	0xbeb7a34f	-0.35866782
83	0xbeb2cc23	-0.3492137

fc3.weight f4 [10, 84]
0	0xbdcc3157	-0.09970348
1	0xbf0a8c8a	-0.54120696
2	0xbe7ee9c7	-0.24893866
3	0xbe441711	-0.19149424
4	0xbec39311	-0.3819814
5	0xbf11428e	-0.5674218
6	0xbf05233c	-0.5200689
7	0x3e6dba2f	0.23215555
8	0xbd29d40d	-0.041461993
9	0xbebc90f3	-0.36829337
10	0xbf39db32	-0.7260009
11	0xbe5aca5a	-0.21366253
12	0xbdbc6557	-0.091990165
13	0xbe23872b	-0.15969531
14	0x3d00f0f3	0.031479787
15	0xbe154e12	-0.14580563
16	0xbeb07384	-0.3446313
17	0xbeec5241	-0.46156505
18	0xbe94efdf	-0.29089257
19	0xbe28bfe3	-0.16479449
20	0xbe9abef4	-0.3022381
21	0xbeb34212	-0.35011345
22	0xbedf1a6f	-0.43574855
23	0x3e435f62	0.19079354
24	0xbd97cc04	-0.0741196
25	0xbe332d78	-0.17497814
26	0xbe907910	-0.28217363
27	0xbe3c631d	-0.18397184
28	0xbe8bdf9f	-0.27319047
29	0xbe32ab87	-0.17448245
30	0xbe7c2d7d	-0.24626727
31	0xbe12b2e4	-0.14326054
32	0xbe8f3a95	-0.27974382
33	0xbe14e3b9	-0.14539994
34	0xbe93ff28	-0.28905606
35	0xbe8498eb	-0.25897917
36	0xbe822c75	-0.25424543
37	0xbea49c6b	-0.32150587
38	0xbe946eff	-0.28990933
39	0xbeba4149	-0.36377934
40	0xbe7e7caf	-0.2485225
41	0xbef0ff2e	-0.47069687
42	0xbe555ba5	-0.20835741
43	0xbf1d9186	-0.61550176
44	0xbe94373c	-0.2894839
45	0xbe8669e1	-0.26252654
46	0xbe3bb9fe	-0.18332669
47	0xbe55f941	-0.20895864
48	0xbe6fd0bb	-0.23419468
49	0xbe7d768a	-0.2475225
50	0xbe111e26	-0.14171657
51	0xbe792d65	-0.24333723
52	0xbe76575d	-0.24056764
53	0xbe43aff8	-0.19110096
54	0xbec8002e	-0.39062637
55	0xbe46ce1e	-0.19414565
56	0xbee4692b	-0.44611487
57	0xbeb5b776	-0.35491532
58	0xbf307fc8	-0.6894498
59	0xbec7991a	-0.38983995
60	0xbe524b62	-0.20536569
61	0xbf17936b	-0.59209317
62	0xbecf04b9	-0.4043329
63	0xbedd073d	-0.43169585
64	0xbe903ad2	-0.28169876
65	0xbe1353d3	-0.14387445
66	0xbecf435f	-0.40481088
67	0xbef1b6be	-0.47209734
68	0xbe5182d8	-0.20460069
69	0xbf09a65f	-0.5376949
70	0xbda031ec	-0.07822022
71	0xbe1ba1aa	-0.15198389
72	0xbe949564	-0.29020226
73	0xbef16771	-0.47149232
74	0xbea9ff53	-0.3320261
75	0xbe757e71	-0.23974015
76	0xbe9f27be	-0.31085008
77	0xbf0defab	-0.5544383
78	0xbe78179f	-0.2422776
79	0xbee9d2ce	-0.45668644
80	0xbf22611a	-0.63429415
81	0xbf0378bb	-0.51356095
82	0xbeb20dc2	-0.3477612
83	0xbe80ba25	-0.25142017
84	0xbf0bf547	-0.5467114
85	0xbf3ac159	-0.72951275
86	0xbf0fffa1	-0.56249434
87	0xbeba45da	-0.36381418
88	0xbec277f3	-0.3798214
89	0xbc8a3780	-0.016872168
90	0xbeb49224	-0.35267746
91	0x3e615778	0.22006023
92	0xbeb5af50	-0.35485315
93	0xbe96eb78	-0.29476523
94	0xbe736903	-0.23770528
95	0x3d45fbd0	0.04833585
96	0xbee05cb9	-0.43820742
97	0xbe4da550	-0.20082593
98	0x3ecac330	0.3960204
99	0xbe514d88	-0.20439732
100	0xbe9d7ebb	-0.3076075
101	0xbecd0a75	-0.4004704
102	0xbe9e06b3	-0.30864486
103	0xbe4f2e24	-0.20232445
104	0xbee93abc	-0.45552623
105	0xbea59b74	-0.32345164
106	0xbeb83165	-0.35975185
107	0xbe1fe5fe	-0.15615079
108	0xbdf5ae9e	-0.11996196
109	0xbe72f7be	-0.23727319
110	0xbf148681	-0.58017737
111	0xbe1f062c	-0.15529698
112	0xbe5da7f1	-0.21646096
113	0xbe6bbe37	-0.2302178
114	0xbe6b2ef0	-0.22967124
115	0xbea0cf56	-0.31408185
116	0xbddb5b31	-0.10710753
117	0x3c918e6c	0.017768107
118	0xbeca7b09	-0.39546993
119	0xbf206cbe	-0.6266593
120	0xbe8a36f5	-0.26995054
121	0xbec00912	-0.3750692
122	0xbe728ce0	-0.23686552
123	0xbec16a6f	-0.37776515
124	0xbed94dd2	-0.42442185
125	0xbf06c29f	-0.5264072
126	0xbebae394	-0.36501753
127	0xbeb92c82	-0.3616677
128	0xbe164a9b	-0.14676897
129	0xbecfc848	-0.4058249
130	0xbe761339	-0.2403077
131	0xbe9d45d9	-0.30717352
132	0xbeb4164a	-0.35173255
133	0xbe8c1891	-0.27362493
134	0xbe13c38b	-0.14430062
135	0xbe6bba8b	-0.23020379
136	0xbee0b660	-0.4388914
137	0xbecfa512	-0.40555626
138	0xbf750bd7	-0.9572119
139	0xbe97cd4e	-0.29648823
140	0xbee41286	-0.44545382
141	0xbe6e9288	-0.23298085
142	0xbf1378b6	-0.57606065
143	0xbea48a38	-0.32136703
144	0xbe5214aa	-0.20515695
145	0xbe77a988	-0.24185765
146	0xbee8a3d5	-0.45437494
147	0xbead0f50	-0.33800745
148	0xbf1c17eb	-0.60973996
149	0xbea10a7c	-0.3145331
150	0xbe80e67c	-0.25175846
151	0xbe6fea21	-0.23429157
152	0xbdff239c	-0.12457964
153	0xbed31fbc	-0.4123515
154	0xbe147bca	-0.14500347
155	0xbe5ec746	-0.21755704
156	0xbe5634ca	-0.20918575
157	0xbf1e4aed	-0.6183308
158	0xbeb2131c	-0.34780204
159	0xbe1435bf	-0.14473628
160	0xbe949420	-0.2901926
161	0xbe2380c9	-0.15967096
162	0xbe5c4575	-0.21510871
163	0xbebba9e0	-0.36653042
164	0xbf3baebc	-0.733135
165	0xbec48060	-0.38379192
166	0xbef4e1eb	-0.47828612
167	0xbe4fae6e	-0.20281383
168	0xbebceec4	-0.36900914
169	0xbe974a18	-0.29548717
170	0xbf399efc	-0.72508216
171	0xbebbefd6	-0.36706418
172	0xbf2d4540	-0.6768379
173	0xbe3c1656	-0.18367895
174	0xbef4a55e	-0.47782415
175	0xbea0705a	-0.31335717
176	0xbeca7c31	-0.39547876
177	0xbf037845	-0.5135539
178	0xbf0c9181	-0.5490952
179	0xbe2f933f	-0.17146014
180	0xbef2bd73	-0.47410163
181	0xbe28648b	-0.16444604
182	0xbec77f66	-0.38964385
183	0xbeb799b3	-0.3585945
184	0xbe542b6b	-0.20719688
185	0xbee48d66	-0.44639128
186	0xbefeae69	-0.4974244
187	0xbe85e3b7	-0.26150295
188	0xbec555b6	-0.38541955
189	0xbea6d94d	-0.32587662
190	0xbea100ce	-0.31445926
191	0xbdbf17d4	-0.09330717
192	0xbe82ae88	-0.25523782
193	0xbea10b6b	-0.31454024
194	0xbf164614	-0.5870068
195	0xbe8c5aa2	-0.27412897
196	0xbf07345a	-0.5281426
197	0xbe12ab98	-0.1432327
198	0xbe99b8a2	-0.30023676
199	0xbe6e0b1e	-0.23246428
200	0xbe8edfdf	-0.27905175
201	0xbea71d8b	-0.32639727
202	0xbc9347e7	-0.017978622
203	0xbefc5e10	-0.49290514
204	0xbe5feb8d	-0.21867199
205	0xbed11f51	-0.40844205
206	0xbea42aba	-0.32063848
207	0xbedf226b	-0.43580946
208	0xbea01249	-0.3126395
209	0xbf0fe0ee	-0.5620259
210	0xbed5e503	-0.41776285
211	0xbf15dd78	-0.5854106
212	0xbe59a823	-0.21255545
213	0xbe72ea94	-0.23722297
214	0xbe694573	-0.22780399
215	0xbf2f3aa1	-0.68448836
216	0xbea19cef	-0.31565043
217	0xbea5cbe2	-0.32382113
218	0xbe962502	-0.2932511
219	0xbe88fac4	-0.2675382
220	0xbecc0691	-0.3984876
221	0xbe4a5cec	-0.1976201
222	0xbe844d40	-0.25840187
223	0xbefc7d40	-0.49314308
224	0xbe1e26ac	-0.1544444
225	0xbf13a28e	-0.57669914
226	0xbf2426b3	-0.6412155
227	0xbedfda9f	-0.43721482
228	0xbe3d6010	-0.18493676
229	0xbeac57cb	-0.3366073
230	0xbedbcd60	-0.42930126
231	0xbee9b59f	-0.45646378
232	0xbf24d9ff	-0.64395136
233	0xbe871ee6	-0.2639076
234	0xbf4d0c4b	-0.8009688
235	0xbf25f0d5	-0.64820606
236	0xbeacbd4c	-0.33738172
237	0xbeddd6aa	-0.43327838
238	0xbe44fe7a	-0.192377
239	0xbdf0ac10	-0.11751568
240	0xbf1f7323	-0.6228506
241	0x3ea5bae1	0.3236914
242	0xbf03b29b	-0.51444405
243	0xbe308707	-0.17239009
244	0xbe14b031	-0.14520337
245	0xbf142e52	-0.5788318
246	0xbe3dd93b	-0.18539898
247	0xbe9393c2	-0.28823668
248	0xbd92f4be	-0.07175587
249	0xbeb1bd2e	-0.34714645
250	0xbeba7d86	-0.36423892
251	0xbe9ee312	-0.31032616
252	0xbf2b61f1	-0.6694632
253	0xbeb2b9ba	-0.34907323
254	0xbea13761	-0.31487563
255	0xbebd6990	-0.369946

fc3.bias f4 [10]
0	0x3dff42a4	0.124638826
1	0xbea94cea	-0.33066493
2	0x3e53ddae	0.20690033
3	0xbdb535de	-0.08848165
4	0x3d7fc8a1	0.062447194
5	0x3d9b7d58	0.07592267
6	0x3c138dcc	0.009005975
7	0xbe1ed95e	-0.15512607
8	0x3e5669cb	0.20938794
9	0x3db8db8f	0.090262525
