FL/cnn-img/outputs/2025-03-18/18-11-21/model_state_acc_0.1699_round_2.pth (torch, 251962 bytes, 10 tensors)

conv1.weight f4 [6, 3, 5, 5]
000000 71 e1 34 bc 28 2d 03 bd be 4a 13 bd c4 06 9e 3d
       -0.011040078 -0.032025486 -0.03595995 0.07716134
000010 8a d8 63 bc b4 53 88 3c 26 0d bf bd b7 48 d0 bd
       -0.013906607 0.016641475 -0.0932868 -0.10170119
000020 1a c4 ec bd 5b 90 eb 3b 87 57 ae 3c 45 60 24 3d
       -0.11560841 0.0071888394 0.02128197 0.040130872
000030 ae ef e1 3a 3c d0 59 bc 30 47 1f be aa 4c 22 3e
       0.0017237568 -0.013294276 -0.155545 0.15849558
000040 cf 20 87 3d 6d d6 fd bd 0e 71 1a be 52 c6 3f be
       0.065980546 -0.12394414 -0.1508219 -0.18727997
000050 40 5c 98 39 ca aa 68 3c e9 aa 09 be 56 75 b5 bd
       0.0002906043 0.014200876 -0.13444103 -0.08860271
000060 91 a5 db bd a8 cc a5 bd 61 0e 13 be 3d e4 3f be
       -0.10724939 -0.08095676 -0.14360954 -0.1873941
000070 0a db 84 3d 7e d7 0c bd fd 14 5a 3d c8 a3 65 3d
       0.06487091 -0.034385197 0.053242672 0.056064397
000080 3d 9f 79 bd 34 46 b8 bd 0f 6c 1a be 4c 86 72 3d
       -0.060942877 -0.08997765 -0.15080284 0.059210107
000090 f8 0a ab 3d 2c 7d 0a 3d ee cf f2 bd 22 54 0f be
       0.083517015 0.03381078 -0.11856066 -0.13996938
0000a0 d9 74 5c 3e bb 5c 1e 3e 77 3d bc bd ea 6a 1b bd
       0.21528949 0.15465061 -0.09191411 -0.037943758
0000b0 47 29 cd 3c 4c b2 8c 3e dc 34 39 3c 72 99 a6 3d
       0.025044097 0.2747978 0.011304107 0.08134736
0000c0 fd f2 b0 bd ee 6a fc 3d 98 a0 f4 bc be 8d f9 bd
       -0.08640096 0.12325083 -0.029861733 -0.12185238
0000d0 be dd 4c 3d 48 77 96 bd 89 e2 1a bd 25 3c 08 3e
       0.050016157 -0.0734697 -0.037813697 0.13304193
0000e0 17 c1 98 bd f7 b9 db bc e9 19 60 3d d0 d0 5a bd
       -0.07458704 -0.026822073 0.05471221 -0.053421795
0000f0 80 43 d0 3d d9 64 be 3d bc 9e 9d 3d b2 f8 ad 3d
       0.101691246 0.09296579 0.07696292 0.084947005
000100 4a b8 ba bd 79 c7 90 3d 22 aa 40 3d 0a 0f 21 bd
       -0.091171816 0.070692964 0.04703725 -0.039320983
000110 ec 03 a6 3c 48 4b 27 3b 72 72 18 3e ed 1f 72 3e
       0.020265542 0.002552705 0.14887407 0.23644991
000120 3c 36 30 3e 36 00 9c 3d 57 cf 0d 3e 5e e5 07 3d
       0.17208189 0.07617228 0.13848625 0.033177726
000130 3a 8c 3a 3b 88 f7 b9 bd 5a 13 42 3d 41 02 8e 3d
       0.002846493 -0.09080416 0.047381736 0.06934024
000140 0d e2 64 be cc 80 78 be de 47 73 be 2d ae 59 be
       -0.22351857 -0.24267882 -0.23757884 -0.21257849
000150 30 7e 5b be f4 d1 5c be 39 22 a6 be 5e 97 97 be
       -0.21434855 -0.21564466 -0.32447985 -0.29607671
000160 35 e6 4c be 73 2f 9f be 03 8b 35 be 8b fd 41 be
       -0.20009692 -0.31090888 -0.1772881 -0.18944375
000170 2c 55 38 be 76 65 a1 be d4 78 85 be 9f 43 99 bd
       -0.1800124 -0.3152272 -0.26068747 -0.07483601
000180 e9 d7 1e be ab 23 33 bd 82 32 78 bc c2 be db bd
       -0.1551205 -0.043735188 -0.015148761 -0.107297435
000190 fb 07 db bb 28 f4 cf 3c 93 4f 30 3e e6 3c f8 3d
       -0.006684301 0.025384977 0.17217855 0.121209905
0001a0 05 6e 16 3e aa 29 fd bc fc 4b dd 3d 37 c1 7f bd
       0.14690407 -0.030903656 0.108055085 -0.062440123
0001b0 44 23 45 3c de 39 b0 3c 57 03 b7 bd 68 9f be 3b
       0.012032334 0.021511968 -0.08936184 0.0058173425
0001c0 80 2d 26 be 49 c6 d6 bd 12 9a 90 bd cc 79 1c be
       -0.16228294 -0.10487039 -0.070606366 -0.15280837
0001d0 22 14 53 be 14 57 a2 bd cb 5a 59 bd f2 49 b3 bd
       -0.20613149 -0.07926765 -0.053065103 -0.08754338
0001e0 4a 03 96 bd a0 08 de bd b2 e5 6f be bb e2 bb bd
       -0.07324846 -0.10841489 -0.23427466 -0.09174105
0001f0 7d 10 96 bd 80 75 f8 3e 90 22 e3 3e a8 b8 00 3f
       -0.07327364 0.48527145 0.44362307 0.50281763
000200 6f 52 b7 3e e6 ed 06 3f 32 7d 97 3e 6c 93 fe 3e
       0.3580508 0.52706754 0.29587704 0.4972185
000210 51 50 f2 3e ec 1d e9 3e 72 68 f3 3e d1 3e 90 3e
       0.47326902 0.4553064 0.47540623 0.28172925
000220 82 f5 b0 3e 42 f0 56 3e ce e9 50 3e 01 49 9f 3e
       0.34562308 0.20990089 0.2040169 0.31110385
000230 d2 b7 84 3e ea f5 ee 3d 42 bc e3 3d 7c 9a 11 3e
       0.25921494 0.11667998 0.11119892 0.14219087
000240 a2 69 48 3e 61 50 b5 3d e6 e8 d2 3d 67 b2 08 3e
       0.19571546 0.08853222 0.10298328 0.13349305
000250 ae 1e 7a 3e 5f 72 a1 3d 68 79 41 3c a2 07 ce bc
       0.24425766 0.07883143 0.011808731 -0.025150124
000260 5f 25 3a 3d 8a 35 3c 3c cb bc c8 bd 8f ba 89 3d
       0.045445796 0.011487374 -0.098016344 0.06725036
000270 86 86 6c bc 55 3d 3f bd c1 45 23 3d fa 63 c3 3d
       -0.01443637 -0.04668935 0.039861444 0.095405534
000280 d2 9f 29 3d c1 87 38 3e b3 8f 68 3e 51 13 4d 3e
       0.041412182 0.18020536 0.22711067 0.200269
000290 a3 ed 8a 3d 7e 8a d7 3d 64 c7 46 3d 84 de 9d bd
       0.06783607 0.10524462 0.048529997 -0.07708457
0002a0 10 ab a1 3c 72 a5 d4 bd a2 7c 56 be 05 38 18 be
       0.01973489 -0.10383119 -0.20945981 -0.1486512
0002b0 35 98 0f be 65 f1 67 be 4c e0 9d bd 52 bb 5b 3b
       -0.14022906 -0.22650678 -0.07708797 0.00335284
0002c0 4a 62 dc bd be 08 2e be d6 25 58 be c2 aa ea bd
       -0.10760935 -0.16995522 -0.21108183 -0.11458351
0002d0 41 f2 13 be 63 f6 37 be 3b 2e 41 be e4 24 09 3a
       -0.14447881 -0.17965083 -0.18865292 0.00052316324
0002e0 b5 72 66 3d 6e 32 af bc 0b f9 05 3d 90 fc 79 bd
       0.056261737 -0.021386351 0.03270821 -0.061031878
0002f0 6a aa b0 3d 33 77 13 3e 5f 19 9a bc 8d ff 1e 3b
       0.08626254 0.1440094 -0.018810926 0.0024261207
000300 80 bf 0b 3d 46 a8 55 bc f0 f8 7a 3d cb 38 91 be
       0.034118176 -0.013040608 0.06127256 -0.28363642
000310 b2 38 9f be 77 14 6a be 99 bb a2 be b4 60 12 be
       -0.31097943 -0.22859369 -0.3178375 -0.14294702
000320 ec 90 f5 3d b8 1e 7b 3d b3 b8 58 3e b9 8c 41 3c
       0.11990532 0.061308593 0.21164207 0.011813336
000330 7e a7 24 3e 80 2c 8a 3e a2 cc 39 3e 5e 4d 79 3e
       0.16079518 0.26987076 0.18144467 0.2434592
000340 f8 21 3a 3e ab 40 51 3e 8c 85 57 3e 5c 87 37 3e
       0.1817702 0.20434825 0.21047038 0.17922729
000350 8c 59 ab 3e d4 18 4d 3e 2a 6f 85 3e 3f 3d 53 3e
       0.33466756 0.20029002 0.26061374 0.20628832
000360 fa e2 8b 3e 2c fb 39 3e b6 2c 78 3e 6a 45 27 3e
       0.27321607 0.1816222 0.24235806 0.16335073
000370 f0 b2 0e 3c 08 76 9a bd 19 63 17 be c4 1e a3 3d
       0.008709654 -0.07542044 -0.14783897 0.079648525
000380 5e 2b db 3d b3 43 1e 3d f5 df e0 bc f2 e7 f3 bd
       0.10701631 0.03863878 -0.027450541 -0.119094744
000390 ab bd 4b be 11 9d 5d be f7 a9 d9 3d 6d 8f 32 3d
       -0.19896571 -0.21641947 0.10628121 0.043593813
0003a0 36 a5 95 3d 0c e4 2c be bb 4a 5c be 28 78 ad 3d
       0.07306902 -0.16883868 -0.21512882 0.084701836
0003b0 29 d5 14 bd cb 7b cd 3d 69 3b b6 bd 3e 2d 2e be
       -0.036336098 0.10033377 -0.0889805 -0.17009446
0003c0 21 16 f3 bb 68 f4 f2 3d 8a 57 06 3e d0 42 21 3d
       -0.0074184095 0.11863023 0.13119331 0.039370358
0003d0 b8 b6 dd bc f6 a5 a2 bc 83 6d 68 bd fc 4e 42 3d
       -0.027064666 -0.019854527 -0.056745064 0.047438607
0003e0 ea f6 d7 3d ae 4f 12 bc 95 41 f0 3c 18 32 b3 bd
       0.10545142 -0.00893013 0.029328147 -0.08749789
0003f0 fc a8 a0 bc f0 23 83 bd 1c 92 d5 bc 4c f9 02 3e
       -0.019611828 -0.06403339 -0.026070647 0.12790412

conv1.bias f4 [6]
000000 bc 9d 17 bf cf c9 9b be ef af 40 bf 1b 9b 17 bf
       -0.5922506 -0.30427405 -0.75268453 -0.5922105
000010 9b a9 14 bf fb b9 f5 be
       -0.580713 -0.47993454

conv2.weight f4 [16, 6, 5, 5]
000000 38 9f 01 be 86 9b 8e bb f4 ba 4a bc de e6 e5 bd
       -0.12658393 -0.004352036 -0.012373675 -0.11225675
000010 b4 28 ee bc 51 5c 26 be d2 12 d5 bc 8f 11 1d bd
       -0.029072143 -0.16246153 -0.02600995 -0.038346823
000020 a3 a6 c5 bd 39 79 41 bd 41 54 31 be 48 94 8e bd
       -0.09650924 -0.047234748 -0.17317297 -0.06961876
000030 e2 f1 3f bd 2d 0e 1c be f4 dd d1 bc 5f 21 0e bd
       -0.046861537 -0.15239783 -0.02561853 -0.034699794
000040 51 db e1 bd 32 48 bf bd 7e a9 d1 bd 48 dc 73 bd
       -0.110281594 -0.09339942 -0.10237406 -0.05953625
000050 10 76 9a bd b8 a2 25 be 00 69 83 bd 80 8d 22 be
       -0.0754205 -0.16175354 -0.064165115 -0.1587429
000060 0e d1 1b bd 87 bc ba bc 50 09 0b be b2 e8 07 be
       -0.038041167 -0.022794975 -0.13577771 -0.1327236
000070 dd a6 1e be c9 fd e7 bd b5 46 77 bd 21 70 1b bd
       -0.15493341 -0.113277026 -0.060370166 -0.03794873
000080 a3 28 20 be 5f eb d2 bd 10 bb 6d bd 82 26 12 be
       -0.15640502 -0.102988 -0.058039725 -0.14272502
000090 53 b8 ce bd 05 d5 04 be 5c fb 37 bd a7 68 37 be
       -0.10093751 -0.12971886 -0.04491745 -0.17911015
0000a0 e1 90 9e bd ff b0 ee bd f9 ae 5f bd 47 5b 7f bd
       -0.07742477 -0.11654853 -0.054610226 -0.06234291
0000b0 90 ce 04 be 30 86 3f bd fa 20 f5 bd d2 f8 cd bd
       -0.12969422 -0.04675883 -0.119691804 -0.10057224
0000c0 94 f6 42 be 94 fb da bd 59 b7 9d bc 3a f4 ad bd
       -0.19039375 -0.10692516 -0.019252466 -0.08493848
0000d0 38 6a 86 bd fa d5 f5 bd 8c a1 f8 bc a4 eb e1 bd
       -0.06563228 -0.120037034 -0.030350469 -0.11031273
0000e0 e2 9a bb bd 55 93 c7 bd 93 37 b5 bd a8 8e 95 bd
       -0.09160401 -0.09744898 -0.088484906 -0.073026
0000f0 6b 6e 7d bd 0d 69 c1 bd 3d a5 0a bd 72 78 7a bc
       -0.06187288 -0.09443865 -0.03384899 -0.015287505
000100 8d 20 99 bc 91 ba e1 bd 2c d6 f7 bd 2c 73 d3 bd
       -0.01869228 -0.11021913 -0.12101397 -0.10324702
000110 4b 13 3d bd 53 1c 7f bc df 44 ee bd 45 18 84 bd
       -0.046160977 -0.015570718 -0.1163423 -0.064499415
000120 98 41 ee bd 75 94 2b be 7e fe 95 3b ed f2 e8 bd
       -0.11633605 -0.1675585 0.004577457 -0.113744594
000130 f6 8e 2f be e8 20 32 be 83 08 e8 bd 3d af 8a 3c
       -0.17144379 -0.17395365 -0.113297485 0.016929263
000140 6a cf 69 bd 04 ce b6 bd 62 17 70 bd 09 19 92 bd
       -0.05708257 -0.08926013 -0.05861605 -0.07133681
000150 82 ef 6f bd f8 9c f4 3c c9 d9 b9 bd ee 7a 1c be
       -0.05857802 0.029860005 -0.09074742 -0.15281269
000160 5a a6 bc bc fc ae 05 be 71 e0 73 bd 5f 8e 26 be
       -0.023028541 -0.13055032 -0.059540216 -0.16265248
000170 b9 21 05 be 4e e4 9d bd 42 13 1c bd 43 c9 4f bd
       -0.13001145 -0.07709561 -0.038104303 -0.050729048
000180 35 b1 db bd 81 d3 bd bd a2 64 cd bd e1 5a c5 bd
       -0.10727159 -0.09268857 -0.1002896 -0.096364744
000190 09 ab 7a bd 43 94 d1 bd 14 e3 0e be 9c 5d 67 bd
       -0.061198268 -0.10233357 -0.13953811 -0.056485757
0001a0 a4 6c 26 bd 51 04 88 bd 0c f2 9e bc 93 07 11 be
       -0.04063095 -0.06641448 -0.019402526 -0.14163046
0001b0 b2 5b 18 bd 78 c0 09 be 11 a3 87 bd 57 c9 47 bd
       -0.037196822 -0.13452327 -0.06622899 -0.048775997
0001c0 b4 a0 b4 3c ee 6f 11 bd 34 b9 ea bd 94 32 ab bd
       0.022049285 -0.035507135 -0.11461106 -0.083592564
0001d0 dc d4 d2 bd e2 0e 8e bd ba 63 11 be 33 7a c3 bc
       -0.10294506 -0.069364324 -0.14198199 -0.02386198
0001e0 0d f9 4a be 22 19 0d be 55 23 09 bd f7 48 b9 bd
       -0.19821568 -0.13779119 -0.03348096 -0.0904712
0001f0 18 ed 26 bd 0e 33 55 3c ea e5 a4 bd 99 40 71 bd
       -0.040753454 0.013012661 -0.08051665 -0.058899496
000200 cd 0f 00 bd 7a ae dd 3c 41 c0 3c be 95 b1 f1 bd
       -0.03126507 0.027060736 -0.18432714 -0.11801449
000210 b5 48 cf bd aa 96 31 be 25 7d 2b be 56 3a 3e be
       -0.1012129 -0.1734263 -0.16746958 -0.18576941
000220 ae ce 1f be 7c 0d ff bd f6 90 31 be d7 80 14 be
       -0.15606186 -0.12453744 -0.17340454 -0.14502273
000230 54 94 3b be 16 fd 37 be cf cf 10 bc 12 0b c2 3a
       -0.18318301 -0.17967638 -0.008838608 0.0014804325
000240 b5 c2 e9 ba 7b 6b a8 bd 21 5f 47 be 66 13 4e be
       -0.0017834516 -0.08223625 -0.19469883 -0.20124587
000250 33 34 c7 bd f8 a9 7f bc 2c 40 b9 bc 30 df 25 3c
       -0.09726753 -0.015604489 -0.022613607 0.010124013
000260 4f 80 41 bd 38 15 5f be 3b 68 e0 bd 2d 30 84 bd
       -0.047241505 -0.21785438 -0.109573804 -0.06454501
000270 37 74 1b be ca 39 51 bd 47 af df bc c0 99 12 be
       -0.15181051 -0.051080503 -0.027305258 -0.14316463
000280 6c 3b 1e be b6 f7 dd bd ab 51 88 bb 77 35 45 be
       -0.15452355 -0.10838263 -0.004160126 -0.19258676
000290 f3 0a de bd b5 b1 41 be a2 16 30 be 75 b7 93 bd
       -0.10841932 -0.18915446 -0.17196134 -0.07212726
0002a0 51 e7 47 be fc 21 29 be dc 2c cf 3c 11 23 6b be
       -0.19521834 -0.1651687 0.025289945 -0.22962596
0002b0 be 93 7f be 36 d3 48 be 2e ad e5 bd 1e d0 cc bd
       -0.24958703 -0.1961182 -0.11214672 -0.10000633
0002c0 0d 20 35 be f5 f2 25 be 1b 3e 17 be e0 48 29 bd
       -0.17688008 -0.16205962 -0.14769785 -0.041329265
0002d0 28 72 b7 bd 51 b8 53 bd cf 43 4b be fc c0 47 bd
       -0.089573205 -0.05168945 -0.19850086 -0.04876803
0002e0 2d 07 ce bc 65 99 ef bd 0a 6a ca bd f4 4a d3 bd
       -0.025149906 -0.116991796 -0.098835066 -0.103170305
0002f0 cc ec 31 be 65 2a 71 bd 28 7a 52 be 45 bb 47 be
       -0.17375487 -0.05887832 -0.20554411 -0.19505031
000300 da 0e 5d be 54 a1 2a be 89 21 0b be 4e a8 0b bd
       -0.21587697 -0.16663104 -0.13587011 -0.034096055
000310 ec 53 e9 bd 06 22 08 be 90 31 8d bd 75 30 01 be
       -0.1139296 -0.13294229 -0.06894219 -0.12616141
000320 a8 77 8a bd d3 c3 bd bd 40 14 11 be 24 6d d0 bd
       -0.06761104 -0.09265866 -0.14167881 -0.10177067
000330 4c 3c 34 be 0a f7 10 be 60 ac 4b be db ac 44 be
       -0.17601126 -0.14156738 -0.19889975 -0.19206564
000340 ea 2d c0 bc 1c 47 7a bd c2 36 93 bd b0 6b bb bc
       -0.023459394 -0.06110297 -0.071881786 -0.022878498
000350 38 f3 e4 bd 60 78 08 be 3b fa f0 bd b2 e8 53 bd
       -0.11179203 -0.1332717 -0.11766478 -0.051735587
000360 af 78 3a be eb ec d7 bd 20 49 9a bd 6e f4 17 be
       -0.182101 -0.105432354 -0.07533479 -0.14839336
000370 9c d7 35 bc 7f bb 11 be bf 31 83 bd 36 d4 ac bd
       -0.011098769 -0.1423168 -0.06405973 -0.084389135
000380 2e a1 35 be 56 37 65 bd c5 65 8d bd 51 3e d8 bd
       -0.17737266 -0.055960976 -0.069041766 -0.10558761
000390 ec bf f4 bd 22 8a 48 be bc 18 bf bd 18 b1 1e bd
       -0.11950669 -0.19583943 -0.093308896 -0.03874311
0003a0 22 ee 2b bc 61 70 2b be f1 16 6d bd c9 ed da bd
       -0.010493787 -0.16742088 -0.057883207 -0.10689885
0003b0 eb c5 19 be 6a 34 96 bc 57 16 3d be 3a fd 07 be
       -0.15016906 -0.01833554 -0.18465553 -0.13280192
0003c0 cb cf 2b be 62 a3 f9 bc 86 c4 3b bd bb 29 e4 bd
       -0.16778485 -0.030473415 -0.045841716 -0.11140772
0003d0 da 7b 98 bc 2f 42 06 bd fa 32 d7 bd c8 61 64 be
       -0.018613745 -0.03277796 -0.1050777 -0.22302926
0003e0 a3 54 30 be aa 96 d1 bd b9 b9 53 be ec d4 7b be
       -0.17219786 -0.10233815 -0.20676316 -0.24592942
0003f0 76 06 ac bd c7 5f 42 be 2f 56 2b be fe 5a db bd
       -0.0839967 -0.18981849 -0.16732095 -0.10710715

conv2.bias f4 [16]
000000 1e 2a 7d bd 24 e1 fd 3d b5 aa be 3d 8a f7 09 3f
       -0.061807744 0.12396458 0.093099035 0.5389334
000010 b9 22 b2 bd ae 2a 14 bd 3a 46 9a 3d 67 3f af 3d
       -0.08698029 -0.036173515 0.07532926 0.08557015
000020 2b 3c d5 bd cb 10 e4 bd 39 e6 59 3e 22 b0 1a 3f
       -0.10411867 -0.111360155 0.21279229 0.6042501
000030 62 69 3f 3c 6c 55 a2 bd 67 eb 91 bd 40 16 62 bd
       0.01168284 -0.07926449 -0.071249776 -0.055197

fc1.weight f4 [120, 400]
000000 d3 96 04 3d 86 c0 27 bd 72 6e 7f bd 96 c2 44 bd
       0.0323704 -0.04095509 -0.06236119 -0.048037134
000010 35 8d ec bc ab 28 86 bd 2e 98 a9 bc 2f 8f db bc
       -0.028875927 -0.065507255 -0.020702448 -0.026801674
000020 ae 4c 84 bd 64 ae 80 bb 17 b6 1c bd f8 dd e2 bb
       -0.06459938 -0.003927039 -0.038259592 -0.0069234334
000030 11 5b 62 3b f0 1d 54 bd 21 6a 5b bd b5 7d 3c bd
       0.0034539143 -0.051786363 -0.05356801 -0.04601832
000040 40 2e c7 bc 35 f7 90 bd aa ab c5 3a 28 61 7d bd
       -0.024314046 -0.07078401 0.0015081067 -0.061860234
000050 e8 ae 0d bd 51 af 14 bd b7 7a 0d bd 62 42 15 bc
       -0.03459063 -0.036300007 -0.034540858 -0.009110065
000060 60 89 b4 3b 31 c9 bd bd 54 a9 4d bd e2 79 4b bd
       0.0055095404 -0.0926689 -0.050210312 -0.049676783
000070 76 02 c4 bd 43 de e1 bb 19 cd 63 bd 72 1c 48 bd
       -0.09570782 -0.0068929507 -0.05561552 -0.048855253
000080 7f 4c 86 bd 7f c8 02 bd c1 38 38 bd 32 ad c0 bc
       -0.06557559 -0.03192949 -0.044976 -0.023520086
000090 88 48 72 3c 02 29 0b bd 5d 0f 4f bd 18 a9 cb bc
       0.014787801 -0.033974655 -0.05055176 -0.024860904
0000a0 e9 fa 3b bd df 10 62 bb ec 13 99 bd 3e f5 dd bd
       -0.045893583 -0.003449492 -0.07474503 -0.10837792
0000b0 d1 54 ad 3b 8d ab b4 bd 1d c5 a7 bd c1 28 fd bc
       0.005289652 -0.08821783 -0.08191893 -0.030903222
0000c0 7d d8 13 bd 2a 89 93 bd 24 9b 81 bd ba 4b 45 3c
       -0.03609513 -0.07203896 -0.06328419 0.01204198
0000d0 85 7f b8 bc 39 b7 8f 3c 52 2d bb bc c1 67 7d bd
       -0.022521744 0.017543422 -0.022848759 -0.061866526
0000e0 f2 68 95 3d 22 45 b5 38 da 57 f5 bc f3 3e a9 bd
       0.07295407 8.6436296e-05 -0.029949117 -0.0826396
0000f0 1b 30 71 bc e4 da cb bd 52 df 0a 3c bb 6b ec 3c
       -0.014720942 -0.099538594 0.008476095 0.028859964
000100 c4 c6 bc ba 03 7c 8d bd b1 1f db bd 96 b7 36 bc
       -0.0014402498 -0.06908419 -0.10699404 -0.011152169
000110 e7 c6 80 bd 56 7d 2b bc 40 b9 6e bd cf 6c cb bd
       -0.062879376 -0.010466894 -0.058282137 -0.09932863
000120 b1 9f b4 bd 4f 34 c7 bd 54 06 88 3c 97 fe 6d bd
       -0.08819521 -0.09726774 0.01660458 -0.058104124
000130 57 ae ea bd ff da 95 bd 77 e1 f4 bd 9a 2f ee bc
       -0.11459034 -0.07317161 -0.119570665 -0.029075433
000140 f6 34 8a bd 6c 20 e0 bd 73 55 9f bd 02 73 fa bd
       -0.06748383 -0.10943684 -0.0777997 -0.12228967
000150 18 67 cb bd ad 9d a4 bd e7 e4 a5 bd 4d d1 1b be
       -0.09931773 -0.08037887 -0.081003 -0.1521656
000160 73 0d 11 bd d3 f7 aa bd 4f 19 5e bd db 3c aa bd
       -0.035413217 -0.0834805 -0.054223355 -0.083123885
000170 13 4d 19 be a2 dc fd bd 77 c3 7a bd a9 aa e5 bd
       -0.14970808 -0.12395598 -0.061221566 -0.112141915
000180 99 7b e2 bd 76 88 fc bd 33 87 ea bc 67 63 44 3b
       -0.11058731 -0.12330715 -0.028628921 0.0029966475
000190 55 20 35 3d 0a b2 b2 3b 1c 61 8b bc 01 88 5e bc
       0.044220287 0.005453353 -0.017014079 -0.013582231
0001a0 24 94 38 bb a0 f4 93 3c 67 8a 62 3d 6c 23 b1 3c
       -0.002816447 0.018060982 0.055307772 0.021623336
0001b0 44 16 a3 bb 19 77 c9 bb d1 4d 00 bc 3e 0b b6 bd
       -0.0049770195 -0.0061482308 -0.007831053 -0.08888863
0001c0 1b 2e 84 bd af b5 28 bd f6 02 c0 bc 19 06 17 bd
       -0.064541064 -0.041188892 -0.023438912 -0.03687105
0001d0 1f 13 c3 bc 06 73 9a bd f5 e5 ca bc 7b 0c 39 3d
       -0.023812829 -0.0754147 -0.024767855 0.045177918
0001e0 66 86 c0 3b e4 13 18 bd cf 29 63 bd 36 1a 34 3c
       0.0058753965 -0.037128344 -0.055459794 0.010992577
0001f0 72 d0 11 bd 5c bb 46 bd 0f 54 1b bd 6c 9a 62 bd
       -0.03559918 -0.048518524 -0.03792196 -0.05532305
000200 61 6e a8 bd 29 7c 1c bb e7 54 b1 bd 34 bd 9a bd
       -0.08224178 -0.0023877716 -0.08658772 -0.07555619
000210 5f 3b 7b bd 9c 8e 8b bd d1 f0 6c bd 0b 2a 0e bd
       -0.061335918 -0.0681431 -0.057846848 -0.034708064
000220 c1 10 94 bd 40 b7 8d bd 4f 8f 86 bd 6d 51 f0 bd
       -0.07229758 -0.06919718 -0.06570303 -0.11734281
000230 34 72 4a bd df e5 ab bd 72 78 3b 3d ec 2a 59 3c
       -0.04942532 -0.08393454 0.045769162 0.013254862
000240 2b 89 07 bc 15 7b 9a bd 91 4f 57 bd 7c 10 36 bc
       -0.0082724495 -0.07543007 -0.052566115 -0.011112329
000250 b7 29 1c bc 07 e5 e6 bd 41 b5 cb bd af 04 3e bd
       -0.00953143 -0.11274152 -0.09946681 -0.046391185
000260 00 5d 5a bd 79 a4 9a bd c3 9a 63 bd 2b b1 bd bd
       -0.053311348 -0.07550902 -0.055567514 -0.09262308
000270 ab 39 aa bd ff 9e 2b bc 3d 92 6a bc c4 ab 0f bd
       -0.083117805 -0.010474919 -0.0143170925 -0.035075918
000280 ea 51 00 be 91 ef 34 bc 5e 90 a9 bd 7a 2b 08 bd
       -0.12531248 -0.011043445 -0.08279489 -0.033244587
000290 03 a3 8f bc c0 9a 09 bc f4 a0 89 bc 7e 84 81 bd
       -0.017533785 -0.008398712 -0.016800381 -0.06324099
0002a0 1f 5f b2 bd 92 3e 04 bc b5 13 0f bd 42 bb 73 bd
       -0.08709549 -0.008071559 -0.034930903 -0.059504755
0002b0 1a 07 a2 bd 94 7e 9a bd 2e 3c ab bc 82 ab 91 bd
       -0.07911511 -0.07543674 -0.02090272 -0.07112791
0002c0 81 c3 a2 bc 73 87 d7 ba ba 68 0e bd 3a fc 0d be
       -0.019868614 -0.0016443565 -0.034767844 -0.13865748
0002d0 92 3f dd bd 8b 00 22 bd 6f 5a af bd f0 89 a2 bd
       -0.10803141 -0.0395513 -0.08562171 -0.07936466
0002e0 66 ad f3 bb e0 00 95 bd d3 a0 90 3c 7c 30 bc 3c
       -0.007436442 -0.072755575 0.017654812 0.022972338
0002f0 e1 a1 a5 bc b6 0d 29 bd 55 b3 b1 bc ac 8a 03 bc
       -0.020218791 -0.04127284 -0.021691957 -0.008028667
000300 49 5f ed bc 11 bc f0 3b df 81 d7 bc d4 de 18 bd
       -0.0289761 0.007346638 -0.026307045 -0.03732188
000310 65 12 84 bd cd 30 cb bd 82 d3 a4 3c 84 ed 73 bd
       -0.06448821 -0.099214174 0.020120386 -0.059552684
000320 02 c0 2a 3c 8b ec 9e 3b af ed 29 bd 72 bd d4 bd
       0.010421755 0.0048499755 -0.04148644 -0.10387696
000330 37 d1 72 bd a4 ae 70 bc 63 ea a2 bd 19 7b 47 bc
       -0.059281554 -0.014690075 -0.07954862 -0.012175345
000340 89 9e a9 bd 43 67 74 bd 3c 85 a9 3c a1 09 49 3c
       -0.08282191 -0.05966879 0.020693414 0.012270362
000350 6b 10 a9 bb 8e c1 4a bd b8 6f 04 bc a7 6c 1d 3c
       -0.005159428 -0.049500994 -0.008083276 0.009608424
000360 32 0a 2c bd 3c ab 72 bd 7c 36 a5 bd e0 77 48 3b
       -0.04200191 -0.059245333 -0.08067033 0.003058903
000370 82 02 05 bc 9c 41 e2 bb 9e e9 11 3c fb eb 8e 39
       -0.008118274 -0.006904794 0.008905796 0.0002726017
000380 1c b7 28 bd 9f b1 d1 bd 07 29 d0 bc 7b 9b 57 bc
       -0.04119025 -0.10238957 -0.025410188 -0.013159628
000390 34 00 2e bd a5 63 1a bd 23 09 2e bd 6b d2 8c bc
       -0.042480662 -0.037692685 -0.042489182 -0.017190179
0003a0 a4 5d 10 bd f3 00 47 bd 07 eb 79 bd 31 22 4a 3c
       -0.035245553 -0.04858489 -0.061015155 0.012337253
0003b0 f2 e7 24 bc a7 98 47 bd b8 28 94 3b 01 45 2f bd
       -0.010065066 -0.048729565 0.0045214556 -0.042790417
0003c0 34 db a0 bb 37 20 a7 bd 7c b5 ad bc 5f 4a 4f bd
       -0.0049089435 -0.08160441 -0.021204703 -0.050608035
0003d0 55 48 57 bc d1 e7 5d bd 12 5a 0a bc e7 5f 52 bd
       -0.013139804 -0.054176155 -0.008444326 -0.05136099
0003e0 b2 57 cc bb 0d 38 20 3c bf 21 36 bd a2 27 ba bc
       -0.00623604 0.009778989 -0.044465777 -0.022723977
0003f0 ba b0 8b bd eb c3 1a be 13 93 74 bd 51 da 36 bd
       -0.06820817 -0.151138 -0.059710573 -0.044641796

fc1.bias f4 [120]
000000 14 19 6e be 89 8b ae bd 48 c1 21 be b9 45 82 be
       -0.23251754 -0.08522708 -0.15796387 -0.2544382
000010 57 5a 91 be 64 43 e3 bd 03 b8 d0 bd 2f b9 3e be
       -0.28389236 -0.11096838 -0.101913475 -0.1862533
000020 3d 36 95 be 1e 79 86 be f8 18 73 be b3 bf 53 3d
       -0.29142943 -0.2626428 -0.23739994 0.05169649
000030 e0 e4 59 be f6 51 94 be 91 d5 ee bd 8e ea 2b be
       -0.21278715 -0.2896878 -0.11661828 -0.16788694
000040 e7 3f 05 3e 7b 0f 30 3e 2b 51 be bd cb f6 77 be
       0.13012658 0.17193405 -0.09292825 -0.24215238
000050 e6 16 99 bc dc 7e 78 be 2e 0b 3d be 24 74 51 be
       -0.018687677 -0.24267143 -0.18461296 -0.2045446
000060 2f 7f 10 be b4 ae 5e be 94 85 1a be de db 6d be
       -0.14111017 -0.21746331 -0.15090019 -0.23228404
000070 06 81 15 be 94 db a8 bd 85 c8 12 be 63 77 f1 3d
       -0.146 -0.08245006 -0.14334305 0.11790349
000080 a9 f5 0e be 7c 92 87 bd fc 1d 77 be 42 a3 1c be
       -0.139609 -0.066197366 -0.24132532 -0.15296653
000090 90 35 08 be 1c f8 3b be f6 fe 27 bc 75 50 35 be
       -0.13301682 -0.18356365 -0.0102536585 -0.17706473
0000a0 f8 6e 24 bd 64 7c 43 be d7 61 1d be 7d 30 82 be
       -0.04014489 -0.1909042 -0.15369354 -0.2542762
0000b0 1c 5e 70 be f7 71 07 bd 72 2a 43 be 6e 76 a1 3d
       -0.234734 -0.03306767 -0.1905916 0.07883917
0000c0 85 9a 22 be 18 cd 8d be a6 aa 05 be f2 83 20 be
       -0.15879257 -0.27695537 -0.13053378 -0.15675333
0000d0 d4 ea d6 bd c5 ef d7 3d 41 a3 03 3e 27 bc 1e be
       -0.10494009 0.10543779 0.12855245 -0.15501462
0000e0 31 fc 4b be dc 8a 28 3e da 88 18 be 0c 78 17 be
       -0.19920422 0.1645922 -0.14895955 -0.14791888
0000f0 9b b0 05 be 34 b8 1e bd 99 47 86 bd 04 d7 94 be
       -0.13055651 -0.03874989 -0.06556625 -0.29070294
000100 f3 33 d8 3d 9e 0a 89 be dc 06 51 be 28 33 23 be
       0.105567835 -0.26765913 -0.20412773 -0.15937483
000110 86 0d 3b be 8d 7a 2b be 61 63 84 be 0d 54 47 be
       -0.18266878 -0.16745968 -0.2585707 -0.19465657
000120 ac df bb bc ef a1 bf bd 29 06 3d be df 7d e6 3d
       -0.022933803 -0.09357058 -0.18459381 0.11254477
000130 bb f1 16 bc 1c c7 65 be 5c 26 3a be 7d c9 0c bd
       -0.0092129065 -0.22439235 -0.18178695 -0.03437184
000140 a7 b4 11 be 02 51 58 be 96 16 6f be 2a 78 9a bb
       -0.1422907 -0.21124652 -0.2334846 -0.0047140317
000150 c4 cd 56 be 1f 85 a6 be 71 f2 2e be 9c 9b 2c be
       -0.20976931 -0.32523438 -0.17084672 -0.16856235
000160 7f d0 c8 bc bd eb 73 be c8 f9 55 be 0c fc 3e bd
       -0.024513481 -0.23820396 -0.20896065 -0.04662709
000170 51 bf 5f bd b8 61 fa bc f9 46 f3 bd bf 29 bf bd
       -0.054625813 -0.030564174 -0.11878771 -0.09334134
000180 80 50 79 be 47 b0 af bd 96 5d ef bd 2e d6 17 3e
       -0.24347115 -0.08578544 -0.11687772 0.14827797
000190 bc f0 6c be 8e 9f 84 be ee ca 8a be 03 13 20 be
       -0.23138708 -0.2590298 -0.27107948 -0.15632252
0001a0 5b 58 86 be 35 20 b2 bd 83 c8 8c be 9a 43 80 be
       -0.26239285 -0.08697549 -0.27496728 -0.25051576
0001b0 e4 8f 9f bd a3 48 3c be 7c 91 75 be 08 89 aa bd
       -0.07791117 -0.18387084 -0.23981279 -0.08326918
0001c0 36 67 18 be c8 a6 14 bd 3c e3 cc bb a6 d4 91 be
       -0.14883122 -0.036291867 -0.0062526744 -0.2848255
0001d0 fd 9e a0 be d6 e5 02 be bb c1 25 be d9 c5 71 bd
       -0.31371298 -0.12782988 -0.16187184 -0.059026573

fc2.weight f4 [84, 120]
000000 bc 25 1d 3c c0 ce f8 bd 24 de 8e bc 52 f8 47 bd
       0.009591516 -0.121488094 -0.01743991 -0.0488208
000010 c8 fb fd 3c 46 0c 85 bc ab e3 80 be 2e bd 2d be
       0.031003848 -0.016241204 -0.25173697 -0.16966698
000020 f3 0a 0b bc c1 65 dd 3c 7b b6 dd 3c ca 64 b7 bd
       -0.008486497 0.02702606 0.027064553 -0.08954771
000030 72 04 8a 3d eb 62 5f 3d ca a7 93 3b b9 ac 9c bd
       0.06739129 0.054537695 0.004506086 -0.07650132
000040 e8 63 7e bc 40 8e 37 be d4 d6 2a bd 01 0f 05 bd
       -0.015526749 -0.17925358 -0.041708782 -0.032485012
000050 b7 3e 1b be 09 d3 5e bd b3 35 b2 bd b2 db 12 bd
       -0.15160643 -0.054400478 -0.087016486 -0.03585405
000060 09 34 19 3d 64 47 db bd f5 f5 6c bd 80 fb 49 3d
       0.03740314 -0.10706976 -0.05785175 0.049312115
000070 4b bf c9 3d 92 36 70 3c 5f 3f a9 bd 43 a2 d0 3d
       0.09850939 0.014661448 -0.0826404 0.10187199
000080 7f 26 a6 bd 94 f4 27 bd 23 1d fa bd 74 79 ae bd
       -0.08112811 -0.041004732 -0.12212589 -0.08519259
000090 0d 5b d7 bd 2d ed cc bd 1b ae be 3b a5 a9 c6 3c
       -0.105154134 -0.10006175 0.005819095 0.024250815
0000a0 7c e7 e3 bd 1a e4 f0 bb f3 36 0d be 7d fd 10 bd
       -0.111281365 -0.0073514106 -0.13790493 -0.035397995
0000b0 6a f3 19 bd e2 06 83 3d fa 6d 30 be e5 98 9d 3c
       -0.037585653 0.06397797 -0.17229453 0.019237945
0000c0 cd 37 ee 3c 1d 2a d6 bd eb d1 27 bc fc 79 d1 3d
       0.029079342 -0.10457251 -0.010242919 0.10228345
0000d0 aa 70 e1 bd 6e 75 92 bc cd 10 11 bd 5f b6 14 bd
       -0.11007817 -0.01787826 -0.035416413 -0.036306735
0000e0 1f 38 fa bd 95 a9 51 bd 95 22 24 3d 49 2c 90 3d
       -0.122177355 -0.051187117 0.040072042 0.07039697
0000f0 7f 58 7d 3c 21 97 1b be fa 0e dc bd e4 e1 46 be
       0.015462994 -0.1519437 -0.10745044 -0.19422108
000100 e8 59 f6 bd 8c 60 13 bc aa 68 3c 3c 5d bb 15 bd
       -0.12028867 -0.008995187 0.011499563 -0.036555637
000110 b3 81 0f be 36 82 02 bd 58 68 6d bc 48 13 8f 3a
       -0.1401432 -0.03186246 -0.0144902095 0.001091578
000120 04 46 e6 bd 68 77 99 bd 5a 14 f2 bd 75 bf b6 bb
       -0.11243823 -0.07493478 -0.11820288 -0.0055770227
000130 ef ec 88 3c 46 e4 57 bd b9 cc 20 be 79 d1 fd bd
       0.016714541 -0.052707933 -0.15703095 -0.12393469
000140 0e 43 07 3e dc 11 47 bc 60 51 ba bd 2f de ba bd
       0.13209173 -0.012150254 -0.09097552 -0.091244094
000150 62 b0 92 bd 1a 0a 02 be ee 85 a6 bd 2b cb d5 bd
       -0.071625486 -0.12699166 -0.08131014 -0.10439142
000160 7a 77 fa bc ee 7a da 3b e1 6d 95 bd f0 3e 3a be
       -0.030574549 0.0066674864 -0.07296348 -0.18188071
000170 2b d9 46 bd db f5 ad bd e9 11 cd bc 18 1b 71 bc
       -0.04854695 -0.08494159 -0.025032954 -0.014715932
000180 c7 14 5d bc d8 c1 36 3d 29 07 0a 3d 14 de 66 be
       -0.013493723 0.044618458 0.033698235 -0.22545654
000190 31 b5 93 bc bc 56 31 be 3d 87 b8 bd 16 9c fe bd
       -0.018030735 -0.17318243 -0.0901017 -0.12432115
0001a0 0f c4 d3 bd e7 42 01 be 8a 66 30 bd 80 55 20 be
       -0.103401296 -0.12623177 -0.04306654 -0.15657616
0001b0 0e 0f 0a 3d 17 bb 88 3d 88 e9 8d bc a7 e4 9b bd
       0.033705764 0.066763096 -0.01732327 -0.07611971
0001c0 2e ce 40 3d 43 28 a2 bd 9b c3 b9 bd d2 1b f0 bd
       0.04707163 -0.079178356 -0.09070512 -0.11724056
0001d0 8d da 9f bc 05 d0 f5 bd ef 8c 2c bd 9d b2 ac 3d
       -0.019513393 -0.12002567 -0.042126592 0.08432505
0001e0 e3 10 ca 3c 9a f9 ad bd 4f 19 0e bd 79 30 03 be
       0.024666255 -0.08494873 -0.034692105 -0.1281146
0001f0 a2 6a dd 3b d7 ae 4b bb 2c 45 ee bd 1a 2a cd bc
       0.0067570964 -0.0031079554 -0.11634287 -0.02504449
000200 eb 06 e3 bd d3 43 c2 bd 5e 4a a2 3c d5 1d 30 be
       -0.11085304 -0.09485593 0.019810852 -0.1719888
000210 c0 57 d5 bd 45 d9 86 3d 17 85 75 bd 31 2e 2d be
       -0.104171276 0.065844096 -0.059941377 -0.16912152
000220 aa b6 5b be 14 66 4e be 4b f0 e8 bc 98 d1 0e be
       -0.214564 -0.20156127 -0.028434893 -0.13947141
000230 dd 87 be bd 5a 3f d8 bd 59 ef e7 bd 2e 68 02 be
       -0.093032576 -0.10558958 -0.11324949 -0.12735054
000240 74 09 6c 3c 00 a3 8a bd ae 7a cf bd 80 39 e5 bd
       0.014406551 -0.06769371 -0.10130821 -0.11192608
000250 0a 50 2d bd 07 6d 07 be 4a 54 98 bd 20 1d 1a be
       -0.04231266 -0.13225184 -0.07437952 -0.15050173
000260 c6 e4 87 bc 80 51 82 37 65 bf fc bd fd 90 58 bd
       -0.01658858 1.5535159e-05 -0.12341193 -0.052872647
000270 82 6f 5a bc d8 3d 78 bd a7 33 12 be 91 49 90 bd
       -0.01333225 -0.060605854 -0.14277516 -0.07045282
000280 8a df 84 bd fb a4 11 bd ba c1 d4 bd e3 cc d8 bc
       -0.06487949 -0.03555773 -0.10388513 -0.026464885
000290 ee d8 bc bd b8 b4 2f bd 98 30 1e bd bb c1 f9 bd
       -0.092210636 -0.042896956 -0.03862056 -0.12195154
0002a0 a4 93 7d 3d bb 5a d1 3c cb c7 d0 bd 18 92 42 bd
       0.06190838 0.025555959 -0.101943575 -0.047502607
0002b0 01 95 f7 bc c7 52 f0 bd 38 52 fa 3c a2 7f 6e 3c
       -0.030222418 -0.117345385 0.030556783 0.014556797
0002c0 d6 14 8f bb 8d 83 5a 3b e0 59 9f bd 53 c9 27 bd
       -0.0043664975 0.003334257 -0.07780814 -0.040963482
0002d0 9d 20 07 bc c4 3b 9c bd 89 a9 8c bd e9 65 a0 bd
       -0.008247522 -0.07628587 -0.06868274 -0.07831938
0002e0 19 82 9d bd fe 0b 2a bd fd b7 5b bd 69 e6 68 bd
       -0.0769083 -0.041515343 -0.05364226 -0.05686036
0002f0 dc c8 12 bd 6b 25 29 bc b1 51 a4 bd 01 19 09 3d
       -0.035836086 -0.010323863 -0.08023394 0.03347111
000300 75 97 ce 3c 22 71 0e 3d c1 9a de bd 32 74 dd bd
       0.025218705 0.03477586 -0.10869361 -0.10813178
000310 42 16 50 be 5a 4d 77 3d 84 55 93 ba c1 d5 89 bc
       -0.2032099 0.060376503 -0.0011240696 -0.016825559
000320 3c 76 1a 3c 48 ab 85 bc 0d 8c 01 be 50 8b ce bd
       0.009427603 -0.016317025 -0.12651081 -0.100851655
000330 ef 61 21 bd 4d 24 12 3d 10 82 ed bd 51 1e f8 bc
       -0.039400037 0.03567915 -0.11597073 -0.030287893
000340 10 87 d1 bd 83 ae 01 be fa c2 bc 3d e0 2d c0 bd
       -0.10230839 -0.12664227 0.09216876 -0.0938375
000350 27 ee 0d bd 44 56 35 be 4a 81 d4 bd 67 12 01 bd
       -0.034650948 -0.17708689 -0.103762224 -0.03151169
000360 13 86 46 bd 87 1d cf bd c5 9b af bd 37 cf 3a bd
       -0.048467707 -0.10113054 -0.085746326 -0.04560777
000370 12 1c 95 bd 9b 1f 53 bd 04 e8 63 3d 36 99 84 bd
       -0.072807446 -0.051543813 0.05564119 -0.06474535
000380 af 2b 04 be 54 4b b6 bd 0d 90 17 bc f5 82 25 3a
       -0.12907289 -0.089010864 -0.009250653 0.00063137646
000390 95 bd 26 3c 4b 06 07 be 5d 73 82 bc 30 8c 80 3b
       0.010177036 -0.13185994 -0.01592415 0.0039229617
0003a0 0e 50 0a bd 9b a6 ec 3c ef 80 8a bd 10 f5 8d bd
       -0.033767752 0.028888037 -0.067628734 -0.069315076
0003b0 8b 3e 15 be 84 93 5d bd 1c 31 9f 3d ac 22 29 bd
       -0.1457464 -0.05409576 0.07773039 -0.04129283
0003c0 28 18 b6 bd c8 6b 05 be d6 5a 99 bd a7 75 28 3c
       -0.08891326 -0.13029397 -0.07488029 0.010281957
0003d0 e8 ab 9d bd 09 46 c9 3d 38 07 56 bd ec 1c a3 bd
       -0.07698804 0.09827811 -0.052252978 -0.07964501
0003e0 aa 5e 45 bc b7 d0 34 3d 4b 15 87 bd 70 91 df bc
       -0.012046495 0.04414436 -0.06595858 -0.02729103
0003f0 53 0a 94 3b 3b 90 0e 3a 9e 8f 95 bd 28 1a 02 be
       0.0045178323 0.0005438362 -0.073027834 -0.1270529

fc2.bias f4 [84]
000000 5a 23 c9 bb 26 32 9e bd ee 57 31 3c 6d 2b 24 be
       -0.0061382474 -0.07724409 0.010824187 -0.1603219
000010 03 8f f0 3b ee 29 f6 3d eb 53 39 bd 6a c3 1b 3e
       0.007341267 0.12019716 -0.045246046 0.15211263
000020 85 1d 16 3e cd 77 88 be 17 74 a9 3b 3a 83 39 3d
       0.14659698 -0.266539 0.0051713097 0.045291163
000030 66 d9 24 3d 47 2f 90 be 7f 23 9d 3e 47 40 81 be
       0.04024639 -0.2816107 0.30691144 -0.25244352
000040 00 0c 47 be 7a 61 5b be 42 4b 97 bd 08 ab a1 be
       -0.19438171 -0.21423903 -0.07387401 -0.315758
000050 74 43 ae 3d a9 a6 6b be 58 08 0c be b2 21 1c 3e
       0.085089594 -0.23012795 -0.13675058 0.15247229
000060 98 60 af be 81 b9 0f be be 65 26 bd f2 d9 72 be
       -0.34253383 -0.14035608 -0.040624373 -0.23715952
000070 c4 91 23 be 95 fc 73 be e5 09 79 be 79 56 7f be
       -0.15973574 -0.23826821 -0.2432018 -0.2493533
000080 82 f6 51 be 19 21 76 be 86 b0 82 3c 82 8e 85 bd
       -0.20504192 -0.24036063 0.015953314 -0.06521322
000090 e4 2f 4e be 98 9d 80 be 70 56 7b be a6 a0 56 be
       -0.20135456 -0.25120234 -0.24544692 -0.2095972
0000a0 84 b8 89 be da 6d 8d be 15 be 58 be dd b6 0a be
       -0.26898587 -0.27622873 -0.2116626 -0.1354632
0000b0 1f 1f 8c be 60 34 3b bd 74 56 58 be 88 38 50 bc
       -0.27367494 -0.045704246 -0.21126729 -0.012708791
0000c0 0b 7a 6c be 1d ec 6f be 8f 75 30 be 06 dc a3 be
       -0.2309343 -0.23429914 -0.17232345 -0.32003802
0000d0 bf e6 2b be 42 c4 10 be d1 6d 58 bd dd 13 db bd
       -0.16787241 -0.14137366 -0.052839104 -0.10697148
0000e0 b4 29 4b be 9d 3b 84 be 00 ab 9a bd 9b 2e a3 be
       -0.19840127 -0.2582673 -0.07552147 -0.31871495
0000f0 99 99 12 be 9b 32 62 bd a7 ba 87 bd 27 7d 94 be
       -0.14316405 -0.055224042 -0.06627398 -0.29001734
000100 cd 11 b7 bc bb 08 a3 be 6d cd ff bb 57 0e 94 bd
       -0.022347355 -0.31842598 -0.007806471 -0.072292976
000110 80 ab 3d be 9c 32 2a be 7f 7f db bd 25 36 90 be
       -0.18522453 -0.16620868 -0.10717677 -0.2816631
000120 0e e8 2b be 78 3d 0c 3e 2d 45 03 be 56 5b 92 be
       -0.1678774 0.13695323 -0.12819357 -0.2858531
000130 03 80 dc bd 2f 24 3e be e6 04 8e be f0 db 71 be
       -0.10766604 -0.1856849 -0.27738112 -0.23619056
000140 4d cc 50 bc 85 a1 37 bd d7 5a 77 be 8a fb 54 be
       -0.012744022 -0.04483177 -0.24155746 -0.2079908

fc3.weight f4 [10, 84]
000000 04 87 4d bc be 82 93 be fa dd ba bd 49 cf 80 bd
       -0.012544397 -0.28810686 -0.0912437 -0.062895365
000010 84 21 1c be 5a 72 84 be 88 d5 97 be e3 2e c1 3d
       -0.1524716 -0.25868493 -0.296551 0.09432771
000020 f4 1d 30 3c 0c 1f 5e be c9 68 5a be 61 ed 3a be
       0.010749329 -0.21691531 -0.21329035 -0.18254615
000030 45 0b 3d bd d4 62 48 be e8 10 d6 3d 96 c7 9f bd
       -0.046153326 -0.1956895 0.10452443 -0.0780174
000040 5f 12 9b be 98 bc c5 be 15 a9 dd bd ba be 2b be
       -0.30287454 -0.38620448 -0.108232655 -0.16771975
000050 fe 7e 5f bd bc 1b 6b be e7 c1 7a be e8 12 52 3d
       -0.05456447 -0.22959799 -0.2448803 0.05128756
000060 07 41 c4 bd 71 1d b8 bd fe e4 b0 bc ba e4 4e be
       -0.095827155 -0.089899905 -0.021593567 -0.2020444
000070 68 97 87 bd 31 9e 45 be 05 34 72 be 4a 17 bf bd
       -0.06620675 -0.19298626 -0.23652656 -0.09330614
000080 62 58 8d be 64 aa 1c be c6 48 a5 bd 66 47 b3 bd
       -0.27606493 -0.15299374 -0.08070521 -0.087538525
000090 56 8b e6 bd 2a 31 88 be 5f 6c 2f be 24 79 57 be
       -0.11257045 -0.2660001 -0.17131184 -0.21042305
0000a0 68 7c 37 be b1 fd 83 be 1c a3 5b bd 6e af ae be
       -0.17918551 -0.2577949 -0.05362235 -0.34118217
0000b0 c1 ab 93 be a0 70 c4 bd ca 31 f9 bd 64 f0 fe 3c
       -0.28841975 -0.09591794 -0.121677 0.031120487
0000c0 3a ee ca bd a8 85 0c bd 5b 0c 33 bd 09 d5 83 be
       -0.09908719 -0.034307152 -0.043712955 -0.2574847
0000d0 e8 60 14 be 5d 03 a6 bd a6 c0 a0 be 4e c6 0d be
       -0.14490092 -0.0810611 -0.3139698 -0.13845178
0000e0 a0 62 b4 be 21 ef 6f be 60 21 d6 be e7 02 b0 be
       -0.35231495 -0.23431064 -0.41822338 -0.34377214
0000f0 9e 0b 37 be c7 38 db be 2a 15 3b be 72 07 70 be
       -0.17875525 -0.42816755 -0.18269792 -0.2344034
000100 2a 34 2e be c8 5d 7a bd be cf 3e be 4f 9a f9 bd
       -0.17012087 -0.061124593 -0.18633935 -0.12187635
000110 c3 17 0a be f7 6b d4 be 29 08 ed 3c e7 42 07 be
       -0.13485627 -0.4148862 0.028934555 -0.13209115
000120 82 00 1e be 3b 66 d6 be ca 8d ed bd 3f 98 73 be
       -0.15429881 -0.4187487 -0.1159931 -0.23788546
000130 8c ed 6f be 0c 8a a4 be 4f 60 80 be c0 a2 ac be
       -0.2343046 -0.3213657 -0.25073478 -0.33717918
000140 98 69 a7 be 08 e9 a6 be 10 d8 19 be 7a c8 42 be
       -0.3269775 -0.32599664 -0.15023828 -0.19021788
000150 6e 88 1e be f5 f0 aa be 1e 35 2f be 5c cb 82 be
       -0.15481731 -0.3338696 -0.17110106 -0.25545776
000160 f9 d9 c3 bd d1 27 b9 3d bc fd 0c bc 8c 6f bc 3d
       -0.09563059 0.090407975 -0.008605417 0.092009634
000170 2d cd 1d be d4 c0 57 be 59 4b b9 bd e8 1b c2 bc
       -0.154103 -0.21069652 -0.090475745 -0.023694947
000180 e6 8c 9b be 99 07 67 be 57 2e 88 3e 99 aa df bd
       -0.30380934 -0.22561492 0.26597854 -0.10921211
000190 a6 91 13 be 15 a3 65 be 90 fe b1 bd a9 c6 05 be
       -0.14411029 -0.22425492 -0.08691132 -0.13064064
0001a0 17 ef cd bd 43 38 65 be 0f 1b 3f be b1 b3 24 be
       -0.100553684 -0.22384743 -0.18662666 -0.16084172
0001b0 58 2a ec bd 28 a2 0c be 28 5a 88 be e7 20 ca bd
       -0.11531514 -0.13733733 -0.26631284 -0.09869557
0001c0 38 7f d7 bd 15 ef 82 be 7d 00 27 be 0e 0e 22 be
       -0.10522312 -0.2557303 -0.1630878 -0.15825674
0001d0 1d a3 dc bd bc b2 2b 3d 2b 74 05 be 07 70 a7 be
       -0.10773299 0.0419185 -0.13032596 -0.32702658
0001e0 c1 0f 21 be 54 b4 7c be 6e e6 3e be 96 00 88 be
       -0.15728666 -0.24678165 -0.1864259 -0.26562947
0001f0 ea 91 94 be 9f c6 aa be 8c 7c 8a be 4d 44 52 be
       -0.29017574 -0.3335466 -0.27048147 -0.20533867
000200 0c f8 bc bd 20 d6 af be 79 0b 60 be 7e eb 1a bd
       -0.09226999 -0.34343052 -0.21879376 -0.03782224
000210 04 a9 ed bd 0b 1b 9d bd a9 bb 16 be 0a 2b 52 be
       -0.11604503 -0.07671174 -0.14720024 -0.2052423
000220 51 0d 95 be 02 a5 9c be ca 9a 15 bf 03 75 0c be
       -0.29111722 -0.3059464 -0.58439314 -0.13716511
000230 4e ef 98 be 64 f1 8b bc 13 4b 90 be 09 11 78 be
       -0.29870075 -0.017082877 -0.28182277 -0.24225248
000240 32 2c 47 be c2 04 eb bc 65 22 1d be 76 7f 45 be
       -0.19450453 -0.028688792 -0.15345152 -0.19286904
000250 08 2d a4 be 41 05 42 be fa e9 00 be ae e1 5f bc
       -0.32065606 -0.18947317 -0.12589255 -0.013664646
000260 b5 2b 9f bd 93 22 93 be d0 b7 b8 bd 30 6a 60 be
       -0.07772008 -0.28737316 -0.090194345 -0.21915507
000270 c5 a6 1c bd fe 3c a1 be d0 e6 b7 bd 58 d8 1c be
       -0.03824498 -0.31491846 -0.08979571 -0.15316904
000280 c8 d9 16 be b1 dd dc bd 25 fb b9 bd 78 15 a8 be
       -0.14731514 -0.10784472 -0.09081105 -0.3282888
000290 bb 94 de be 4b cc 81 be bc e3 92 be 4b 7c 13 be
       -0.43472847 -0.25351176 -0.28689373 -0.14402883
0002a0 bf e3 a3 bd 26 18 50 be c5 69 87 be f7 1c 88 be
       -0.080024235 -0.20321712 -0.26447883 -0.26584598
0002b0 33 d4 42 be 15 a0 16 be 04 bd 11 be de 88 66 be
       -0.1902626 -0.14709504 -0.1423226 -0.22513148
0002c0 d1 18 a5 be 63 1c 93 be d0 e2 f2 bd 8a 99 2d bd
       -0.32245496 -0.28732595 -0.11859667 -0.042382754
0002d0 c1 f6 97 be 75 a2 29 be d7 88 75 be c9 aa 54 be
       -0.29680446 -0.16565879 -0.23977982 -0.20768274
0002e0 12 a4 f8 bd 29 bc 52 be cb 1d 96 be 30 6e 66 be
       -0.12140669 -0.2057959 -0.29319605 -0.2250297
0002f0 0b 80 d5 3b 0e 2a 11 be 55 89 5a be d9 54 8e 3b
       0.006515508 -0.14176199 -0.2134145 0.0043436107
000300 38 7e 84 be c6 2a 63 be d0 b7 b1 be ce fd 93 be
       -0.25877547 -0.22184286 -0.3471055 -0.28904575
000310 ca 8d 9d be 67 28 2b be 06 75 3c be d6 c6 2a be
       -0.3077224 -0.16714631 -0.18404016 -0.16677412
000320 99 f7 5e be 0a 20 6d be 78 75 a2 bd ed 19 b2 bd
       -0.21774139 -0.23156753 -0.07932562 -0.08696351
000330 0a c4 37 be 93 7d 7d be 04 b5 64 be f0 2f 89 be
       -0.17945877 -0.24754934 -0.22334677 -0.26794386
000340 14 a1 4c be 50 f3 6a be 55 e1 88 be af ac 58 be
       -0.19983321 -0.22944379 -0.26734415 -0.21159624
000350 80 58 20 be bc f0 fe bd 4a 38 dc bd cf ea 55 be
       -0.1565876 -0.1244826 -0.10752924 -0.20890354
000360 9d 20 07 be de 5a 33 be f9 3e 44 be 54 5f 52 be
       -0.13196035 -0.17515132 -0.19164647 -0.20544177
000370 89 b9 76 be d0 21 08 be 65 34 77 bd 9f 76 85 be
       -0.24094214 -0.13294148 -0.0603527 -0.26067063
000380 ee 2a 01 be f1 01 c1 be db 78 99 be 12 09 3e be
       -0.12614033 -0.37696794 -0.29975018 -0.18558148
000390 fa 4b 23 be 42 3e 75 be c8 c2 82 bd 8c 34 66 be
       -0.15946952 -0.2394953 -0.06384808 -0.22480983
0003a0 2d 6b a4 be a1 54 40 be 6d 00 bc be e0 b6 98 be
       -0.3211302 -0.18782283 -0.36719075 -0.29827023
0003b0 22 9c 62 be d8 f2 98 be 56 cf ea bd 1d 91 9a bd
       -0.22129872 -0.29872775 -0.114653274 -0.075472094
0003c0 0d bb a6 be 54 60 22 3e 71 38 56 be 80 fc 2e be
       -0.32564583 0.15857059 -0.20919968 -0.17088509
0003d0 48 77 9e bd 03 76 a5 be 9f 01 8a bd 67 6f 8e be
       -0.07737595 -0.32316598 -0.067385904 -0.27819368
0003e0 b5 44 1d be 7d 88 02 be b1 7c 28 be a2 24 6d be
       -0.15358241 -0.12747379 -0.16453816 -0.23158506
0003f0 3c 6d 95 be a1 2e 82 3c 6c 8b 5b be 6a ca 4b be
       -0.29184902 0.015891375 -0.21439904 -0.19901434

fc3.bias f4 [10]
000000 2b 54 0a 3e d9 3e 1a be cf 2a 1b 3e 4f 74 1e bd
       0.1350867 -0.15063037 0.15153049 -0.03868514
000010 23 82 d4 3c 23 d6 b6 bb 3a 3f 08 3c ac 10 2a be
       0.02594096 -0.0055797263 0.008315856 -0.16607922
000020 55 55 3b 3e 90 3d 62 3d
       0.1829427 0.05523449
