FL/cnn-img/outputs/2025-03-18/18-11-21/model_state_acc_0.3207_round_6.pth (torch, 251962 bytes, 10 tensors)

conv1.weight f4 [6, 3, 5, 5]
-0.16574655 -0.26752627 -0.18831208 -0.011419738 -0.13143946 0.16227062 -0.08362113 -0.28300884
-0.37365243 -0.26789495 0.43492618 0.3800694 -0.037792612 -0.3786829 -0.5483007 0.53094506
0.4417119 -0.0069267116 -0.44310483 -0.5473397 0.22635363 0.21306673 -0.07816242 -0.31785408
-0.38997787 -0.3630973 -0.490919 -0.47976872 -0.18445861 -0.3079401 0.14994593 0.01757811
-0.3210783 -0.4487003 -0.5271177 0.4932767 0.43454337 -0.058201633 -0.5436193 -0.5868866
0.65280294 0.5858435 0.0062998603 -0.36456078 -0.37025276 0.59513634 0.28823742 0.16947483
-0.30727902 -0.16398968 -0.08177851 -0.16811666 0.103471234 0.041268967 0.04091101 0.37864065
0.14357191 0.05302415 0.07600586 -0.05620942 0.61136276 0.6457001 0.32301137 0.055727143
-0.14949878 0.56639737 0.6601705 0.3694543 0.08018215 0.0015240358 0.5343911 0.67538863
0.52601266 0.21746993 0.22745815 -0.06359283 0.015202935 -0.050750937 0.07258899 0.011832976
-0.3902479 -0.41300094 -0.44661686 -0.41287908 -0.44633117 -0.5410409 -0.7602794 -0.78448147
-0.64314955 -0.72571665 -0.42063734 -0.5118426 -0.56787133 -0.7033972 -0.63352334 -0.15703358
-0.35175067 -0.31695083 -0.30556795 -0.40742332 0.05971331 0.27851635 0.48112684 0.40530035
0.30262202 -0.016440941 0.21024925 0.028157493 0.1008339 0.021119524 -0.26405287 -0.2062815
-0.40056816 -0.30485344 -0.28894424 -0.3024065 -0.376619 -0.2910105 -0.26816866 -0.32433587
-0.15512404 -0.25854656 -0.4534534 -0.34233916 -0.3561477 0.8650032 1.0619382 1.1627741
0.97825843 0.98079294 0.66479415 1.0281929 0.996692 0.95456403 0.8404523 0.45412034
0.5474859 0.3767608 0.39016736 0.44636545 0.43267232 0.2998184 0.25220174 0.26535493
0.27932492 0.28290752 0.26774114 0.23972984 0.31568578 0.10046236 0.22639702 0.18795373
0.25433666 0.17917018 -0.022215959 0.3889294 0.43526736 0.4383294 0.467791 0.35837185
0.46601406 0.845433 0.959928 0.8377738 0.45807415 0.21683638 0.16103415 -0.021332374
0.04449404 -0.1033506 -0.5766321 -0.6790698 -0.7587319 -0.7846555 -0.4409991 -0.16914937
-0.3136365 -0.3757369 -0.4107955 -0.3314732 -0.32614517 -0.28723863 -0.2428744 -0.037295558
-0.056149002 -0.11795932 0.12954868 0.14568408 0.2799073 0.1770766 -0.31482702 -0.30022153
-0.28341955 -0.29121083 -0.176372 -0.8121318 -0.9551637 -0.91494894 -0.9212731 -0.5761981
0.045096774 -0.036479037 0.10307173 -0.098078705 0.027667165 0.18344608 0.15600929 0.25811836
0.19544867 0.14992398 0.21855807 0.33694312 0.5846623 0.43924457 0.3567134 0.122223526
0.1997723 0.10781745 0.19665089 0.11154172 -0.21849146 -0.37905318 -0.47618914 -0.1859394
-0.061491933 0.20179725 0.11089664 -0.15238059 -0.26609462 -0.30381262 0.24482006 0.19190443
0.077944696 -0.27678934 -0.41926026 0.21187837 0.0939246 0.15328641 -0.12557697 -0.38301852
-0.013834617 0.14336161 0.148215 0.08067564 -0.10245491 -0.08637318 -0.0810545 0.05764684
0.17433372 0.036434975 0.1334049 0.024124779 -0.07542416 -0.17274992 -0.19995706 0.2275206
00000000: 77b9 29be 34f9 88be e2d4 40be da19 3bbc
00000010: 1198 06be 452a 263e 8e41 abbd 89e6 90be
00000020: 5f4f bfbe 8729 89be a5ae de3e 7598 c23e
00000030: 6dcc 1abd bae2 c1be 6f5d 0cbf 04ec 073f
00000040: 1028 e23e 78f9 e2bb a3de e2be 741e 0cbf
00000050: 3fc9 673e 2a2e 5a3e 9e13 a0bd c5bd a2be
00000060: 2eab c7be e4e7 b9be bc59 fbbe 3fa4 f5be
00000070: b8e2 3cbe 53aa 9dbe 6d8b 193e f8ff 8f3c
00000080: 6064 a4be 0cbc e5be 30f1 06bf c38e fc3e
00000090: 787c de3e d664 6ebd a22a 0bbf 333e 16bf
000000a0: 181e 273f d7f9 153f 0f6f ce3b b6a7 babe
000000b0: c591 bdbe db5a 183f db93 933e cf8a 2d3e
000000c0: ad53 9dbe e9ec 27be 7e7b a7bd c626 2cbe
000000d0: bae8 d33d a609 293d 4e92 273d 30dd c13e
000000e0: 8404 133e da2f 593d f6a8 9b3d d93b 66bd
000000f0: 4582 1c3f 9a4c 253f bf61 a53e 2542 643d
00000100: 3516 19be 6bff 103f ef00 293f 1d29 bd3e
00000110: 8a36 a43d 28c2 c73a dbcd 083f 45e6 2c3f
00000120: c4a8 063f 70b0 5e3e caea 683e f53c 82bd
00000130: bb15 793c 37e0 4fbd 89a9 943d 19df 413c
00000140: 93ce c7be dc74 d3be f7aa e4be e364 d3be
00000150: 8585 e4be a881 0abf aca1 42bf c7d3 48bf
00000160: 73a5 24bf 91c8 39bf c75d d7be 1e08 03bf
00000170: 0460 11bf d711 34bf 962e 22bf 69cd 20be
00000180: aa18 b4be 6147 a2be 6773 9cbe ca99 d0be
00000190: f295 743d b299 8e3e 4256 f63e 8783 cf3e
000001a0: 46f1 9a3e 27af 86bc 944b 573e 8baa e63c
000001b0: 0182 ce3d da02 ad3c f031 87be 753b 53be
000001c0: 4517 cdbe c015 9cbe 80f0 93be 06d5 9abe
000001d0: 35d4 c0be 54ff 94be 674d 89be 5a0f a6be
000001e0: d6d8 1ebe 3760 84be 0b2b e8be 1447 afbe
000001f0: fe58 b6be da70 5d3f 97ed 873f c8d5 943f
00000200: 256f 7a3f 3f15 7b3f f32f 2a3f d39b 833f
00000210: 3527 7f3f 4f5e 743f e227 573f 7682 e83e
00000220: 0928 0c3f cbe6 c03e 04c4 c73e 038a e43e
00000230: 3a87 dd3e cc81 993e 9620 813e 9adc 873e
00000240: ad03 8f3e 41d9 903e 5e15 893e bd7b 753e
00000250: 91a1 a13e 36bf cd3d 9fd4 673e f176 403e
00000260: 6a38 823e 6378 373e 3efe b5bc c121 c73e
00000270: 5ddb de3e b66c e03e 4d82 ef3e 847c b73e
00000280: 6599 ee3e 4c6e 583f d7bd 753f 5878 563f
00000290: b288 ea3e 5b0a 5e3e 23e6 243e 3bc1 aebc
000002a0: 623f 363d 7ba9 d3bd 299e 13bf 85d7 2dbf
000002b0: 413c 42bf 2fdf 48bf a2ca e1be 7e35 2dbe
000002c0: f794 a0be 9660 c0be ca53 d2be dbb6 a9be
000002d0: 80fc a6be f110 93be 11b4 78be 3ac3 18bd
000002e0: 7ffc 65bd a894 f1bd 69a8 043e 352e 153e
000002f0: 0250 8f3e 9153 353e 0231 a1be a3b6 99be
00000300: 5e1c 91be 9619 95be dd9a 34be dfe7 4fbf
00000310: 9c85 74bf 183a 6abf 8ed8 6bbf b881 13bf
00000320: 65b7 383d 0b6b 15bd 4517 d33d 7ddd c8bd
00000330: 40a6 e23c 4ad9 3b3e e6c0 1f3e 1728 843e
00000340: b223 483e ac85 193e b0cd 5f3e cf83 ac3e
00000350: 6eac 153f aae4 e03e 24a3 b63e 5450 fa3d
00000360: 1c91 4c3e 65cf dc3d da5e 493e fc6f e43d
00000370: 3abc 5fbe 4213 c2be 10cf f3be e666 3ebe
00000380: f7de 7bbd f0a3 4e3e c71d e33d a809 1cbe
00000390: 8e3d 88be 548d 9bbe 1cb2 7a3e 9882 443e
000003a0: 78a1 9f3d 55b7 8dbe 48a9 d6be a5f6 583e
000003b0: 8a5b c03d 1df7 1c3e 4097 00be 011b c4be
000003c0: 97aa 62bc 63cd 123e acc5 173e 4539 a53d
000003d0: e1d3 d1bd 6ce4 b0bd e7ff a5bd 181f 6c3d
000003e0: 8a84 323e d73c 153d 4b9b 083e 54a1 c53c
000003f0: fb77 9abd 5be5 30be 8bc1 4cbe 29fb 683e

conv1.bias f4 [6]
-1.7067181 -0.74348176 -1.5725031 -1.5311861 -1.653878 -1.5204471
00000000: bd75 dabf d254 3ebf c847 c9bf e8fd c3bf
00000010: 46b2 d3bf 039e c2bf

conv2.weight f4 [16, 6, 5, 5]
-0.12658389 -0.004352037 -0.0123736905 -0.11225677 -0.029072164 -0.16246141 -0.026009975 -0.03834683
-0.09650924 -0.04723477 -0.17317308 -0.06961876 -0.04686154 -0.15239789 -0.02561854 -0.03469978
-0.110281624 -0.09339937 -0.10237396 -0.059536282 -0.07542049 -0.16175358 -0.06416514 -0.15874283
-0.03804117 -0.02279496 -0.13577788 -0.13272355 -0.15493335 -0.11327713 -0.06037019 -0.037948724
-0.15640484 -0.102987885 -0.05803965 -0.14272507 -0.100937486 -0.12971872 -0.044917453 -0.17911027
-0.0774248 -0.11654868 -0.054610148 -0.062342916 -0.12969413 -0.046758864 -0.119691715 -0.1005724
-0.19039364 -0.106925145 -0.019252485 -0.08493848 -0.065632336 -0.12003704 -0.030350497 -0.11031256
-0.09160405 -0.09744912 -0.08848495 -0.073025994 -0.06187297 -0.09443871 -0.033849005 -0.015287519
-0.018692294 -0.11021905 -0.12101382 -0.10324716 -0.046161 -0.015570735 -0.1163423 -0.06449948
-0.11633597 -0.16755836 0.004577458 -0.113744654 -0.1714438 -0.17395371 -0.11329762 0.006210503
-0.05708262 -0.08926018 -0.058615956 -0.07133683 -0.0636546 0.029859971 -0.090747334 -0.15281267
-0.023028536 -0.13055022 -0.059540197 -0.16265236 -0.1300115 -0.07709562 -0.038104314 -0.050729137
-0.10727159 -0.09268857 -0.10028965 -0.0963647 -0.06119832 -0.10233372 -0.13953818 -0.056485828
-0.04724246 -0.06641448 -0.019402524 -0.14163034 -0.037196834 -0.13452323 -0.06622896 -0.048775975
0.022049274 -0.035507128 -0.11461116 -0.08359254 -0.102945045 -0.069364324 -0.14198199 -0.023861976
-0.19821598 -0.13779105 -0.03348096 -0.090471275 -0.040753428 0.013012671 -0.08051657 -0.058899447
-0.03126506 0.02290483 -0.18432717 -0.11801458 -0.101212785 -0.1734264 -0.16746967 -0.18576907
-0.15606186 -0.124537565 -0.1734046 -0.14502259 -0.18318297 -0.17967652 -0.008838607 0.0014804305
-0.0017834535 -0.08223616 -0.19469859 -0.20124613 -0.09726767 -0.015604495 -0.28031242 0.35136735
0.38931003 -0.37899396 -0.06918363 -0.3974979 0.08815192 0.6748289 -0.19130127 -0.342826
-0.51425 -0.2753901 0.68199855 -0.3790106 -0.3807449 -0.5436399 -0.6790199 0.12395946
-0.35350382 -0.565487 0.3266027 -0.8664017 -0.69113326 -0.6889692 -0.53018224 0.08779516
-0.50464505 -0.6846041 -0.46418494 -0.003136862 -0.4161368 -0.31943238 -0.2876239 -0.027730644
0.008813055 -0.36858088 -0.2970061 0.001295411 -0.21469146 -0.18651237 -0.58463407 -0.59179497
-0.4434415 -0.6033976 -0.38995883 0.009320319 -0.43532807 -0.39923918 -0.38793865 -0.47689685
-0.65932626 -0.7392502 -0.794883 -0.585767 -0.4576084 -0.63672954 -0.9026555 -0.8846497
-0.35305086 -0.4109632 0.18695971 -0.10815118 -0.38802737 -0.438625 -0.33470148 0.120419584
-0.32528213 -0.56674975 -0.58264947 -0.41482434 -0.42259216 -0.64169854 -0.52900356 -0.4873284
-0.3885258 -0.04686806 -0.13530365 -0.20110157 -0.068750635 -0.1853586 -0.46061152 -0.23715352
-0.27940953 -0.4495224 -0.13457148 -0.48104867 -0.23721357 0.15004197 -0.2982869 -0.13142103
-0.28534058 -0.15740918 0.17597857 -0.30721873 0.0024062973 -0.2723099 -0.34063563 -0.32117456
-0.46229577 -0.30340725 -0.2609571 -0.44645017 -0.16273913 -0.2373483 -0.15934934 -0.15536016
00000000: 359f 01be 889b 8ebb 05bb 4abc e1e6 e5bd
00000010: bf28 eebc 495c 26be df12 d5bc 9111 1dbd
00000020: a3a6 c5bd 3f79 41bd 4954 31be 4894 8ebd
00000030: e3f1 3fbd 310e 1cbe f9dd d1bc 5b21 0ebd
00000040: 55db e1bd 2b48 bfbd 70a9 d1bd 51dc 73bd
00000050: 0f76 9abd bba2 25be 0369 83bd 7b8d 22be
00000060: 0fd1 1bbd 7fbc babc 5b09 0bbe afe8 07be
00000070: d9a6 1ebe d7fd e7bd bb46 77bd 1f70 1bbd
00000080: 9728 20be 50eb d2bd fcba 6dbd 8526 12be
00000090: 50b8 cebd fcd4 04be 5dfb 37bd af68 37be
000000a0: e590 9ebd 13b1 eebd e4ae 5fbd 495b 7fbd
000000b0: 8ace 04be 3986 3fbd ee20 f5bd e7f8 cdbd
000000c0: 8df6 42be 92fb dabd 63b7 9dbc 3af4 adbd
000000d0: 3f6a 86bd fbd5 f5bd 9ba1 f8bc 8deb e1bd
000000e0: e79a bbbd 6793 c7bd 9937 b5bd a78e 95bd
000000f0: 836e 7dbd 1569 c1bd 41a5 0abd 8178 7abc
00000100: 9520 99bc 86ba e1bd 18d6 f7bd 3f73 d3bd
00000110: 5113 3dbd 651c 7fbc df44 eebd 4e18 84bd
00000120: 8e41 eebd 6b94 2bbe 80fe 953b f5f2 e8bd
00000130: f78e 2fbe ec20 32be 9508 e8bd 7a81 cb3b
00000140: 77cf 69bd 0bce b6bd 4917 70bd 0b19 92bd
00000150: 585d 82bd e69c f43c bdd9 b9bd ed7a 1cbe
00000160: 57a6 bcbc f5ae 05be 6ce0 73bd 578e 26be
00000170: bc21 05be 4fe4 9dbd 4513 1cbd 5bc9 4fbd
00000180: 35b1 dbbd 81d3 bdbd a964 cdbd db5a c5bd
00000190: 17ab 7abd 5794 d1bd 19e3 0ebe af5d 67bd
000001a0: 4f81 41bd 5104 88bd 0bf2 9ebc 8b07 11be
000001b0: b55b 18bd 75c0 09be 0da3 87bd 51c9 47bd
000001c0: aea0 b43c ec6f 11bd 41b9 eabd 9132 abbd
000001d0: dad4 d2bd e20e 8ebd ba63 11be 317a c3bc
000001e0: 21f9 4abe 1919 0dbe 5523 09bd 0149 b9bd
000001f0: 11ed 26bd 1933 553c dfe5 a4bd 8c40 71bd
00000200: cb0f 00bd e9a2 bb3c 43c0 3cbe a1b1 f1bd
00000210: a648 cfbd b196 31be 2b7d 2bbe 3f3a 3ebe
00000220: aece 1fbe 8d0d ffbd fa90 31be cd80 14be
00000230: 5194 3bbe 1ffd 37be cecf 10bc 010b c23a
00000240: c5c2 e9ba 6f6b a8bd 115f 47be 7713 4ebe
00000250: 4634 c7bd ffa9 7fbc 1c85 8fbe 6ce6 b33e
00000260: a553 c73e 7f0b c2be 26b0 8dbd d884 cbbe
00000270: fe88 b43d 96c1 2c3f 7be4 43be e486 afbe
00000280: e3a5 03bf eeff 8cbe 7597 2e3f ad0d c2be
00000290: fff0 c2be fc2b 0bbf 40d4 2dbf 75de fd3d
000002a0: 74fe b4be c2c3 10bf 7838 a73e 80cc 5dbf
000002b0: 1cee 30bf 4960 30bf 06ba 07bf f3cd b33d
000002c0: 6b30 01bf 3742 2fbf a6a9 edbe d093 4dbb
000002d0: e20f d5be a48c a3be 7143 93be 602b e3bc
000002e0: a264 103c a2b6 bcbe 2f11 98be c8ca a93a
000002f0: 14d8 5bbe 19fd 3ebe 94aa 15bf e07f 17bf
00000300: c40a e3be 4478 1abf afa8 c7be 40b4 183c
00000310: 52e3 debe 1469 ccbe e59f c6be d32b f4be
00000320: 9bc9 28bf 803f 3dbf 747d 4bbf d3f4 15bf
00000330: a64b eabe b500 23bf 6e14 67bf 6778 62bf
00000340: 15c3 b4be c569 d2be 5e72 3f3e 5e7e ddbd
00000350: 86ab c6be 7593 e0be fe5d abbe 8b9e f63d
00000360: 618b a6be 8316 11bf 8428 15bf db63 d4be
00000370: 005e d8be 5b46 24bf c76c 07bf 1c83 f9be
00000380: dbec c6be b9f8 3fbd 0a8d 0abe 92ed 4dbe
00000390: 22cd 8cbd a5ce 3dbe 46d5 ebbe 5fd8 72be
000003a0: c40e 8fbe cd27 e6be 1bcd 09be 034c f6be
000003b0: 1de8 72be 9aa4 193e 10b9 98be 3c93 06be
000003c0: 2918 92be df2f 21be ba33 343e c64b 9dbe
000003d0: f8b2 1d3b 346c 8bbe cb67 aebe fe70 a4be
000003e0: 08b2 ecbe 3258 9bbe 2b9c 85be 1e95 e4be
000003f0: 16a5 26be 6f0b 73be 792c 23be bc16 1fbe

conv2.bias f4 [16]
-0.07662662 0.9241527 1.0651028 0.71491575 0.23616114 -0.005114869 0.5737603 0.29079583
-0.10715459 -0.13419612 1.244518 0.80030715 -0.9585057 -0.25378543 -0.1068555 0.10903802
00000000: 6bee 9cbd 4595 6c3f 4a55 883f b804 373f
00000010: 3ad4 713e a29a a7bb f4e1 123f 31e3 943e
00000020: de73 dbbd b56a 09be 5e4c 9f3f eee0 4c3f
00000030: a160 75bf 2af0 81be 0ed7 dabd 534f df3d

fc1.weight f4 [120, 400]
0.032370355 -0.040955093 -0.062361173 -0.048037063 -0.028875934 -0.065507196 -0.02070246 -0.026801692
-0.064599335 -0.0039270385 -0.038259592 -0.0069234287 0.0034539143 -0.051786374 -0.053567998 -0.04601832
-0.02431404 -0.070784025 0.001508108 -0.061860304 -0.034590628 -0.036299977 -0.034540888 -0.009110059
0.005509541 -0.099642456 -0.07091226 -0.08917831 -0.09949608 -0.007463947 -0.035961833 -0.04085663
-0.06421079 -0.054713912 -0.062741585 -0.03864178 0.001058059 -0.057842627 -0.08697581 -0.048495796
-0.07663214 -0.029843122 -0.1157093 -0.13121617 -0.01903234 -0.13766718 -0.124269016 -0.04688541
-0.06667269 -0.09779827 -0.0951251 -0.010865828 -0.03068171 0.007032473 -0.046678964 -0.062445246
0.07517889 0.0027572669 -0.031813286 -0.114303105 -0.027676895 -0.10613581 0.01561942 0.038941536
-0.0010693748 -0.08050368 -0.122781016 -0.05052061 -0.09077687 -0.02032278 -0.09523545 -0.13335368
-0.09655601 -0.09202062 0.010565406 -0.10183653 -0.11126469 -0.082055666 -0.15067175 -0.07343036
-0.09610978 -0.12615547 -0.09454347 -0.13434096 -0.12142429 -0.08738549 -0.08588303 -0.16154541
-0.085273966 -0.14278305 -0.078822866 -0.09476331 -0.17399356 -0.15970267 -0.118645795 -0.14052814
-0.14366406 -0.16464671 -0.044430643 -0.04461293 0.046100758 0.008559337 -0.015105521 -0.015707547
0.017331576 0.019661639 0.07610569 0.015893787 -0.02528056 -0.013030155 -0.013586229 -0.09740431
-0.08036956 -0.04429589 -0.048025604 -0.046986073 -0.026894141 -0.086219385 -0.02869111 0.043025427
0.0031655147 -0.05398551 -0.0594288 0.017936472 -0.016876742 -0.0770915 -0.066942506 -0.068404235
-0.10001164 -0.005445205 -0.090698875 -0.09423087 -0.050111957 -0.07036479 -0.07884165 -0.04556998
-0.09911677 -0.10047383 -0.10344294 -0.13058731 -0.06493504 -0.09779887 0.06927807 -0.0023080104
-0.006135258 -0.086291835 -0.05117373 -0.019952685 -0.029479036 -0.085261606 -0.12479272 -0.06233784
-0.078409865 -0.09386874 -0.094438486 -0.09488361 -0.109855555 -0.042869814 -0.041515302 -0.08685042
-0.12727717 -0.034089196 -0.121839955 -0.02617524 -0.043753378 -0.04009661 -0.045009986 -0.09378803
-0.11874644 -0.026453488 -0.07047467 -0.1144151 -0.08267077 -0.069728784 -0.057347286 -0.07905679
-0.042219564 -0.024913175 -0.03688009 -0.1563707 -0.12828985 -0.058816154 -0.114235304 -0.07584699
-0.048520103 -0.09231364 -0.012860084 -0.00025314058 -0.019205144 -0.071228415 -0.04182087 -0.029451072
-0.04837291 -0.008062643 -0.039647363 -0.08709952 -0.071843445 -0.12973672 0.0007501347 -0.08091177
0.0104217455 0.0048499783 -0.041486457 -0.103877105 -0.059281476 -0.014690076 -0.07954862 -0.012175363
-0.082821876 -0.05966872 0.020693427 0.012270361 -0.0051594274 -0.049500916 -0.0080832755 0.009608423
-0.042001907 -0.059245337 -0.08067041 0.0030589055 -0.00811827 -0.006904802 0.008905799 0.00027260167
-0.041190214 -0.1023896 -0.025410203 -0.013159634 -0.042480655 -0.037692677 -0.042489175 -0.017190168
-0.035245534 -0.048584867 -0.061015222 0.012337231 -0.0100650685 -0.048729587 0.004521455 -0.042790413
-0.004908946 -0.081604354 -0.021204723 -0.050608065 -0.013139797 -0.05417615 -0.008444327 -0.05136095
-0.0062360424 0.009778981 -0.06933867 -0.03785995 -0.071470276 -0.14965048 -0.06362132 -0.026387418
00000000: c796 043d 87c0 27bd 6e6e 7fbd 83c2 44bd
00000010: 398d ecbc a328 86bd 3598 a9bc 398f dbbc
00000020: a84c 84bd 63ae 80bb 17b6 1cbd eedd e2bb
00000030: 115b 623b f31d 54bd 1e6a 5bbd b57d 3cbd
00000040: 3d2e c7bc 37f7 90bd b5ab c53a 3b61 7dbd
00000050: e7ae 0dbd 49af 14bd bf7a 0dbd 5b42 15bc
00000060: 6189 b43b 5811 ccbd 723a 91bd 1ea3 b6bd
00000070: 9ac4 cbbd 2094 f4bb b74c 13bd 4859 27bd
00000080: f280 83bd b21b 60bd a97e 80bd d846 1ebd
00000090: 92ae 8a3a 64ec 6cbd 6020 b2bd 87a3 46bd
000000a0: 50f1 9cbd 9079 f4bc fff8 ecbd 885d 06be
000000b0: b6e9 9bbc a0f8 0cbe c180 febd ea0a 40bd
000000c0: b18b 88bd 764a c8bd f3d0 c2bd 9606 32bc
000000d0: 3658 fbbc a970 e63b 7132 3fbd 96c6 7fbd
000000e0: 64f7 993d 43b3 343b a64e 02bd bf17 eabd
000000f0: a8ba e2bc bb5d d9bd 99e8 7f3c 2981 1f3d
00000100: 442a 8cba 1ddf a4bd 9d74 fbbd b3ee 4ebd
00000110: 39e9 b9bd f57b a6bc ce0a c3bd de8d 08be
00000120: 28bf c5bd 4f75 bcbd 861a 2d3c ac8f d0bd
00000130: bede e3bd cd0c a8bd b249 1abe a862 96bd
00000140: 34d5 c4bd e62e 01be 02a0 c1bd ad90 09be
00000150: 4cad f8bd 2af7 b2bd 71e3 afbd 296c 25be
00000160: 1ea4 aebd b835 12be e26d a1bd 4413 c2bd
00000170: 5e2b 32be 1989 23be 91fc f2bd 9ce6 0fbe
00000180: ac1c 13be 2699 28be e8fc 35bd 0cbc 36bd
00000190: 26d4 3c3d 763c 0c3c 267d 77bc 1dad 80bc
000001a0: f3fa 8d3c 7211 a13c 4ddd 9b3d b033 823c
000001b0: 2d19 cfbc 6e7c 55bc c698 5ebc e97b c7bd
000001c0: cc98 a4bd 9b6f 35bd 7fb6 44bd 7874 40bd
000001d0: 1a51 dcbc ca93 b0bd 9e09 ebbc 6e3b 303d
000001e0: 8674 4f3b e91f 5dbd 9d6b 73bd 82ef 923c
000001f0: 1841 8abc 26e2 9dbd 2719 89bd 8517 8cbd
00000200: e7d2 ccbd b16d b2bb 55c0 b9bd 1dfc c0bd
00000210: 3242 4dbd 6a1b 90bd bb77 a1bd 96a7 3abd
00000220: bcfd cabd 39c5 cdbd e4d9 d3bd aeb8 05be
00000230: aafc 84bd c64a c8bd a9e1 8d3d fd41 17bb
00000240: 460a c9bb c6b9 b0bd 8c9b 51bd d073 a3bc
00000250: 057e f1bc a39d aebd 5393 ffbd f755 7fbd
00000260: 5a95 a0bd 413e c0bd f768 c1bd 5752 c2bd
00000270: f3fb e0bd 4298 2fbd f30b 2abd a2de b1bd
00000280: f254 02be 1da1 0bbd 3a87 f9bd 756d d6bc
00000290: be36 33bd 583c 24bd 645c 38bd f013 c0bd
000002a0: 5531 f3bd fcb4 d8bc 0655 90bd 7752 eabd
000002b0: 4b4f a9bd f7cd 8ebd fde4 6abd 87e8 a1bd
000002c0: 6cee 2cbd b716 ccbc 940f 17bd a41f 20be
000002d0: 6a5e 03be 35e9 70bd 33f4 e9bd ab55 9bbd
000002e0: 04bd 46bd ef0e bdbd 1ab3 52bc f4b7 84b9
000002f0: 1b54 9dbc 34e0 91bd 5c4c 2bbd 6043 f1bc
00000300: ac22 46bd 2d19 04bc 4665 22bd 3c61 b2bd
00000310: a822 93bd b4d9 04be b0a4 443a 12b5 a5bd
00000320: f8bf 2a3c 91ec 9e3b b4ed 29bd 85bd d4bd
00000330: 22d1 72bd a5ae 70bc 63ea a2bd 2c7b 47bc
00000340: 849e a9bd 3067 74bd 4385 a93c a009 493c
00000350: 6a10 a9bb 79c1 4abd b76f 04bc a66c 1d3c
00000360: 310a 2cbd 3dab 72bd 8736 a5bd eb77 483b
00000370: 7e02 05bc ad41 e2bb a1e9 113c faeb 8e39
00000380: 12b7 28bd a3b1 d1bd 0f29 d0bc 819b 57bc
00000390: 3200 2ebd a363 1abd 2109 2ebd 65d2 8cbc
000003a0: 9f5d 10bd ed00 47bd 19eb 79bd 1922 4a3c
000003b0: f5e7 24bc ad98 47bd b728 943b 0045 2fbd
000003c0: 39db a0bb 2f20 a7bd 87b5 adbc 674a 4fbd
000003d0: 4e48 57bc d0e7 5dbd 135a 0abc dc5f 52bd
000003e0: b757 ccbb 0538 203c 6f01 8ebd 0913 1bbd
000003f0: 025f 92bd fa3d 19be e54b 82bd 6d2a d8bc

fc1.bias f4 [120]
-0.24565537 -0.12396106 -0.30126825 -0.34180728 -0.35427132 -0.21564162 0.08565555 -0.41765618
-0.3414583 -0.2876121 -0.30855414 0.4271794 -0.24813655 -0.36754018 -0.24417026 -0.27763206
0.39075726 0.42820922 -0.24043599 -0.33497873 0.06883792 -0.30449727 -0.2531212 -0.28709257
-0.2272359 -0.2901817 -0.36466804 -0.30949834 -0.17884928 -0.1583694 -0.28876385 0.60018283
-0.16323377 -0.1766496 -0.36437166 -0.32176474 -0.21045041 -0.3290764 0.5273367 -0.38222498
-0.054201707 -0.25209638 -0.11878253 -0.34073067 -0.29628134 0.22400078 -0.2574111 0.36568993
-0.31683028 -0.3421577 -0.24074031 -0.22816467 -0.13239552 0.23171324 0.7022185 -0.26467392
-0.238319 0.23816742 -0.21132144 -0.2294593 -0.075626746 -0.1811931 -0.021134663 -0.38706788
-0.18903019 -0.32554963 -0.26960403 -0.22350116 -0.3309416 -0.17640847 -0.34895316 -0.20264788
-0.17111698 -0.027073607 -0.31356665 0.33989772 0.30548716 -0.28059137 -0.2405838 0.08399404
-0.22525711 -0.32034585 -0.27832133 0.44412372 -0.26858532 -0.40715554 -0.25598183 -0.24812847
0.06148141 -0.3302143 -0.40584338 -0.013196008 0.18695748 -0.006565377 -0.23014025 -0.0772762
-0.31241244 0.15593895 -0.140456 0.4357998 -0.32666528 -0.33546692 -0.32340178 -0.18208474
-0.3745103 -0.120342925 -0.39379036 -0.33261418 -0.16833363 -0.2848695 -0.35944313 -0.16600233
-0.21991244 -0.08128166 0.5902783 -0.29431412 -0.42572844 -0.20685394 -0.3279714 0.357591
00000000: 158d 7bbe 4cdf fdbd d53f 9abe 5d01 afbe
00000010: 0d63 b5be 28d1 5cbe 2d6c af3d 08d7 d5be
00000020: 9fd3 aebe e541 93be cffa 9dbe 42b7 da3e
00000030: 8217 7ebe 3a2e bcbe c507 7abe ca25 8ebe
00000040: 5611 c83e 3d3e db3e da34 76be 5582 abbe
00000050: e5fa 8c3d 11e7 9bbe 1a99 81be ccfd 92be
00000060: 87b0 68be b292 94be c5b5 babe 9176 9ebe
00000070: 4424 37be 972b 22be dbd8 93be 95a5 193f
00000080: c126 27be a2e3 34be ec8e babe 59be a4be
00000090: 5080 57be b47c a8be 8aff 063f feb2 c3be
000000a0: 9c02 5ebd c712 81be 4144 f3bd 4074 aebe
000000b0: 30b2 97be 7660 653e 63cb 83be b63b bb3e
000000c0: 9437 a2be 4b2f afbe a184 76be 00a4 69be
000000d0: b192 07be 3c46 6d3e 97c4 333f 5783 87be
000000e0: e509 74be 29e2 733e a664 58be 61f7 6abe
000000f0: 32e2 9abd af8a 39be 9a22 adbc c32d c6be
00000100: 2191 41be 71ae a6be 8a09 8abe 7ddd 64be
00000110: 2d71 a9be 6ca4 34be fda9 b2be ed82 4fbe
00000120: 4a39 2fbe 78c9 ddbc cf8b a0be 1307 ae3e
00000130: d068 9c3e aca9 8fbe 9a5b 76be 1105 ac3d
00000140: cda9 66be 5f04 a4be 2280 8ebe 2f64 e33e
00000150: 0484 89be b176 d0be 0d10 83be 6415 7ebe
00000160: eed3 7b3d d911 a9be b4ca cfbe 1234 58bc
00000170: c871 3f3e 6022 d7bb e3a9 6bbe fc42 9ebd
00000180: 86f4 9fbe 76ae 1f3e b3d3 0fbe 2721 df3e
00000190: ac40 a7be 52c2 abbe eb94 a5be 6c74 3abe
000001a0: d0bf bfbe 5a76 f6bd e49e c9be 684c aabe
000001b0: a75f 2cbe 6ada 91be ee08 b8be 84fc 29be
000001c0: ba30 61be 0077 a6bd 7b1c 173f 57b0 96be
000001d0: 14f9 d9be 85d1 53be deeb a7be 2b16 b73e

fc2.weight f4 [84, 120]
0.043322593 -0.07949914 0.14608012 -0.0063143703 0.021357095 0.03015368 -0.5277078 -0.11179916
0.021685075 0.068588905 0.06501351 -0.3296592 0.09357899 0.09070272 0.014329925 -0.0050741406
-0.14166301 -0.31040573 -0.015831957 0.010561752 -0.17675124 -0.004049865 -0.04806248 -0.02959803
0.016757566 -0.06752164 0.008789573 0.040262166 0.108212434 0.10246369 -0.051485267 0.23466884
-0.0050981436 -0.008327034 -0.05544956 -0.004282423 -0.01868661 -0.037595242 0.04045253 0.065215185
-0.08492357 0.10182604 -0.18530478 -0.025806166 -0.00017323036 0.0889073 -0.11838329 -0.15183045
0.11070566 -0.08570254 0.069311805 0.11315652 -0.11306803 -0.43455735 -0.15163198 -0.063017495
0.0135503 -0.26723793 0.0376536 0.06959081 -0.0058287336 -0.14883491 -0.11619338 -0.171799
-0.3527409 0.035138503 0.04729435 0.031636234 -0.11362077 0.01418786 0.011672193 -0.0077423193
-0.3537235 0.09590289 -0.13702258 -0.058826257 -0.06112484 -0.033203796 -0.15028132 -0.29055977
0.24826764 -0.016674427 -0.047802765 -0.030159708 -0.02620079 -0.13853332 -0.11227575 0.009614457
0.03139299 0.026430711 -0.05012571 -0.17383063 -0.08446976 0.06519111 -0.043572795 -0.01825267
-0.0034232794 0.22475144 0.043776594 -0.36724108 -0.005970738 -0.11182646 -0.090897515 -0.09533196
-0.10339995 -0.120214134 -0.03444112 -0.14531513 0.09539404 0.110982746 -0.029912207 -0.14877038
0.077185534 -0.12122477 -0.041588224 -0.12776949 -0.079564415 -0.08737979 0.0022728762 0.2314292
0.02082061 -0.09841155 0.024741989 -0.13797016 0.0046974523 -0.0063990992 -0.48590505 -0.01705608
-0.1216281 -0.09204631 0.0190924 -0.28335693 -0.09220012 0.04965507 -0.112247296 -0.1807722
-0.28743368 -0.19877182 -0.07679791 -0.14035356 -0.12015497 -0.069922216 -0.11739675 -0.12971948
-0.12284959 -0.028338917 -0.15646438 -0.095767535 -0.04650191 -0.15196946 -0.06288664 -0.278452
2.9651856e-05 0.021705285 -0.11581144 -0.038507972 0.03942876 -0.06867447 -0.18636589 -0.036494516
0.012402071 -0.048115116 -0.1447848 -0.010930131 -0.05023976 0.005329381 -0.0288387 -0.22359653
0.035285566 0.023659471 -0.091622636 -0.028591467 -0.06274383 -0.33089638 -0.13857357 0.037585247
-0.010453809 -0.26952702 -0.07307096 -0.07924714 -0.08269082 -0.057634432 -0.028012658 -0.12134156
-0.15742424 -0.04251179 -0.120499104 -0.023617765 -0.017908568 0.000344228 -0.08575226 0.04384663
0.12009032 0.037033502 -0.1070375 -0.30127376 -0.24131699 0.056037605 0.007790148 -0.29060462
0.026247712 -0.02096395 -0.1122587 -0.18916725 -0.041898336 0.025697261 -0.17350243 0.015133223
-0.04866614 -0.10825954 0.14729895 -0.09437196 -0.08277933 -0.12789062 -0.12277926 0.030877203
-0.033062413 -0.15382625 -0.06658715 -0.1911861 -0.067508206 -0.03683336 0.04804448 -0.096511416
-0.15037434 -0.10065836 -0.0064284676 0.011914728 -0.006257965 -0.13940239 -0.05123628 -0.121629715
-0.044120364 -0.008169351 -0.14144145 -0.06103393 -0.08124578 -0.06449447 0.08934888 -0.1394122
-0.015556468 -0.096869506 -0.078088015 -0.03532819 -0.034120917 0.15068795 -0.5532372 -0.07881328
-0.016820932 0.06606138 -0.026698316 -0.19101726 0.03284038 0.07692675 -0.112211786 -0.046908304
00000000: 0873 313d 72d0 a2bd 0796 153e c7e8 cebb
00000010: 13f5 ae3c da04 f73c dc17 07bf f5f6 e4bd
00000020: e6a4 b13c 5778 8c3d ce25 853d 17c9 a8be
00000030: 57a6 bf3d 59c2 b93d 10c8 6a3c fa44 a6bb
00000040: 1c10 11be 80ed 9ebe 05b2 81bc 330b 2d3c
00000050: 47fe 34be bbb4 84bb 2add 44bd 9177 f2bc
00000060: 2a47 893c c948 8abd 2402 103c f1e9 243d
00000070: 7b9e dd3d 7cd8 d13d 37e2 52bd 074d 703e
00000080: 540e a7bb 1d6e 08bc 141f 63bd 9153 8cbb
00000090: a914 99bc 78fd 19bd 8db1 253d 8a8f 853d
000000a0: 69ec adbd 2c8a d03d 89c0 3dbe 7467 d3bc
000000b0: 2ca5 35b9 0815 b63d f072 f2bd 7179 1bbe
000000c0: a6b9 e23d d084 afbd 59f3 8d3d 9bbe e73d
000000d0: 3690 e7bd 4d7e debe 6a45 1bbe 510f 81bd
000000e0: 1402 5e3c 69d3 88be a93a 1a3d a085 8e3d
000000f0: f6fe bebb 2e68 18be cbf6 edbd 14ec 2fbe
00000100: 759a b4be 64ed 0f3d b8b7 413d ff94 013d
00000110: 02b2 e8bd 3374 683c ba3c 3f3c 48b3 fdbb
00000120: 3f1b b5be bc68 c43d a64f 0cbe cdf3 70bd
00000130: 0a5e 7abd b400 08bd 59e3 19be 40c4 94be
00000140: df39 7e3e cf98 88bc d5cc 43bd 7e11 f7bc
00000150: 0aa3 d6bc aedb 0dbe d4f0 e5bd f585 1d3c
00000160: f095 003d 3885 d83c 9e50 4dbd a800 32be
00000170: 7bfe acbd eb82 853d 6379 32bd a086 95bc
00000180: 1959 60bb 3e25 663e 164f 333d 0607 bcbe
00000190: 2ea6 c3bb 4505 e5bd 7a28 babd 673d c3bd
000001a0: 5ac3 d3bd d432 f6bd 2212 0dbd 7dcd 14be
000001b0: f35d c33d ec4a e33d 720a f5bc 4357 18be
000001c0: 7313 9e3d b144 f8bd 6a58 2abd 01d6 02be
000001d0: abf2 a2bd 2df4 b2bd 89f4 143b c7fb 6c3e
000001e0: fc8f aa3c ff8b c9bd b6af ca3c 0d48 0dbe
000001f0: 16ed 993b 89af d1bb 8cc8 f8be 31b9 8bbc
00000200: 2718 f9bd c782 bcbd aa67 9c3c 2914 91be
00000210: 6bd3 bcbd 1d63 4b3d e9e1 e5bd 591c 39be
00000220: 822a 93be d78a 4bbe 3948 9dbd d8b8 0fbe
00000230: cf13 f6bd 6133 8fbd b56d f0bd 2fd5 04be
00000240: 9198 fbbd 0427 e8bc 3338 20be c521 c4bd
00000250: c978 3ebd e29d 1bbe b6ca 80bd 4391 8ebe
00000260: e0bc f837 48cf b13c 8c2e edbd 89ba 1dbd
00000270: 0d80 213d 33a5 8cbd b3d6 3ebe 467b 15bd
00000280: 0e32 4b3c 5b14 45bd 7742 14be 4b14 33bc
00000290: 35c8 4dbd 17a2 ae3b 233f ecbc 7df6 64be
000002a0: 9987 103d 82d1 c13c a6a4 bbbd a738 eabc
000002b0: d67f 80bd 406b a9be 3be6 0dbe fdf2 193d
000002c0: 7446 2bbc 72ff 89be 3aa6 95bd 534c a2bd
000002d0: ce59 a9bd 1512 6cbd cd7a e5bc ec81 f8bd
000002e0: d233 21be d820 2ebd 3cc8 f6bd 0b7a c1bc
000002f0: fdb4 92bc 8079 b439 e29e afbd 8698 333d
00000300: eaf1 f53d 71b0 173d 7a36 dbbd 8e40 9abe
00000310: cd1b 77be b087 653d 7f44 ff3b 21ca 94be
00000320: 7105 d73c 97bc abbc e4e7 e5bd 0fb5 41be
00000330: 979d 2bbd 1083 d23c 9faa 31be 56f1 773c
00000340: 2556 47bd 2db7 ddbd 89d5 163e 1646 c1bd
00000350: 3688 a9bd c2f5 02be b173 fbbd 30f2 fc3c
00000360: 746c 07bd a184 1dbe d85e 88bd 4ac6 43be
00000370: be41 8abd 94de 16bd 4aca 443d c7a7 c5bd
00000380: bbfb 19be f825 cebd e5a5 d2bb fe35 433c
00000390: 9e0f cdbb 80bf 0ebe 22dd 51bd 0019 f9bd
000003a0: 8eb7 34bd bed8 05bc 07d6 10be b7fe 79bd
000003b0: 3064 a6bd ad15 84bd 8cfc b63d 12c2 0ebe
000003c0: 8ee0 7ebc 8563 c6bd 9cec 9fbd 4bb4 10bd
000003d0: 60c2 0bbd f14d 1a3e f4a0 0dbf db68 a1bd
000003e0: 0dcc 89bc 304b 873d 6db6 dabc 079a 43be
000003f0: a283 063d c68b 9d3d 4bcf e5bd ec22 40bd

fc2.bias f4 [84]
-0.090444855 -0.20686989 0.893445 -0.47452235 0.25538182 0.12155138 -0.4059548 0.014491865
0.78139037 -0.50625205 0.112263985 -0.10858056 0.4311614 -0.34858406 -0.007271018 -0.65449727
-0.46634594 -0.5541339 -0.41050532 -0.4407642 1.1616719 -0.54451627 -0.33015382 0.30081594
-0.50431484 -0.5180662 0.15081665 -0.36237714 -0.653815 -0.39146993 -0.5700216 -0.5180663
-0.39309683 -0.45405474 0.48421574 0.17847243 -0.3650206 -0.5960303 -0.49793288 -0.36768594
-0.5554772 -0.66227984 -0.5780448 -0.45830694 -0.41812196 -0.3525413 -0.4375462 -0.102772295
-0.48308682 -0.63746816 -0.36638412 -0.67058295 -0.448602 -0.25552127 0.07631136 -0.51748
-0.41891286 -0.6369372 -0.34474692 -0.68776476 -0.31495923 0.22017063 -0.33112344 -0.53523153
-0.31653607 -0.6640697 0.17757535 -0.60881835 -0.4302835 -0.38158095 -0.31010482 -0.4098078
-0.6418094 0.28493282 -0.6647286 -0.55009395 -0.26190487 -0.56762546 -0.45641097 -0.5699834
0.42786458 -0.13945466 -0.5188191 -0.5115292
00000000: 273b b9bd b3d5 53be d0b8 643f 98f4 f2be
00000010: 68c1 823e eeef f83d 4fd9 cfbe 4a6f 6d3c
00000020: 3309 483f bc99 01bf a9ea e53d 7c5f debd
00000030: 30c1 dc3e 9c79 b2be b841 eebb 228d 27bf
00000040: e5c4 eebe b8db 0dbf c12d d2be d8ab e1be
00000050: aab1 943f 6b65 0bbf ec09 a9be 8c04 9a3e
00000060: c71a 01bf fd9f 04bf ae6f 1a3e 7f89 b9be
00000070: 6b60 27bf bf6e c8be f0ec 11bf fe9f 04bf
00000080: fd43 c9be dd79 e8be 20eb f73e 7ac1 363e
00000090: fbe3 babe 7195 18bf 0ff1 febe 5541 bcbe
000000a0: c133 0ebf 2c8b 29bf befa 13bf 35a7 eabe
000000b0: 1514 d6be 4b80 b4be 0e06 e0be 487a d2bd
000000c0: 2857 f7be 1d31 23bf b396 bbbe 53ab 2bbf
000000d0: 29af e5be afd3 82be 2149 9c3d 9279 04bf
000000e0: bf7b d6be 510e 23bf ab82 b0be 5a11 30bf
000000f0: 5642 a1be 6974 613e 0389 a9be ef04 09bf
00000100: 0411 a2be 7900 2abf 50d6 353e 85db 1bbf
00000110: 1e4e dcbe 945e c3be 0fc6 9ebe 54d2 d1be
00000120: 9f4d 24bf b7e2 913e a72b 2abf f5d2 0cbf
00000130: 6518 86be e74f 11bf b3ae e9be 6fea 11bf
00000140: 1111 db3e 34cd 0ebe 54d1 04bf 94f3 02bf

fc3.weight f4 [10, 84]
-0.28436926 -0.9462181 -0.36223158 -0.31861335 -0.4042736 -0.7162813 -0.93461 0.28047287
-0.073862426 -0.6301423 -0.8040125 -0.34937337 -0.12780377 -0.26044223 -0.14564553 -0.24223194
-0.6009334 -0.78017914 -0.43927154 -0.26527584 -0.3663766 -0.67265195 -0.6881108 0.2570775
-0.114193924 -0.4108894 -0.6443647 -0.20257221 -0.5414828 -0.29661217 -0.3299541 -0.34786335
-0.36086363 -0.37456977 -0.39134476 -0.5426326 -0.33722788 -0.43780994 -0.3501987 -0.6408064
-0.45525312 -0.71101874 -0.2709092 -0.83106273 -0.36074623 -0.5374089 -0.39009166 -0.42559966
-0.3308471 -0.6342647 -0.32119358 -0.4843315 -0.4846518 -0.35692003 -0.4441172 -0.46071893
-0.6280484 -0.46825597 -1.1637045 -0.69214004 -0.36628643 -0.7422434 -0.7349325 -0.44418094
-0.5382242 -0.2822072 -0.6497272 -0.775615 -0.46581936 -0.7273435 -0.30754614 -0.2329028
-0.55217844 -0.5090971 -0.71478933 -0.5185576 -0.40970498 -0.79125196 -0.3373584 -0.5246882
-0.8685077 -0.741871 -0.49493 -0.32954583 -0.89399254 -1.290091 -0.6242109 -0.4787531
-0.49237594 -0.043119967 -0.7711623 0.16286685 -0.52615994 -0.575415 -0.24737594 0.04359939
-0.61360776 -0.3433307 0.45474258 -0.3840238 -0.5356614 -0.61544186 -0.5585071 -0.22162376
-0.68592405 -0.60244906 -0.7124467 -0.25533083 -0.17272317 -0.45255116 -1.0666996 -0.19817205
-0.49033487 -0.36953956 -0.3076436 -0.47418827 -0.30553088 -0.18248501 -0.50952464 -1.0394738
-0.444348 -0.54828006 -0.3190196 -0.6722689 -0.6580155 -0.82593286 -0.6663293 -0.50631505
-0.27005547 -0.7800503 -0.45705745 -0.6401105 -0.44309127 -0.44280964 -0.29587337 -0.4512312
-0.58736706 -0.5809549 -1.081906 -0.5610769 -0.6312718 -0.44248584 -1.1592436 -0.69064003
-0.4345078 -0.40626135 -0.92739254 -0.6266606 -0.91738725 -0.48475352 -0.2827505 -0.5697882
-0.3532658 -0.4786098 -0.346289 -0.3201089 -0.39229593 -0.7667518 -0.6715651 -0.43999445
-0.49234423 -0.39109597 -0.2400732 -0.46642762 -0.9767348 -0.8149627 -0.69295555 -0.45314115
-0.70089096 -0.52348936 -0.7501585 -0.6267295 -0.7812624 -0.14954762 -1.0135394 -0.3017379
-0.4587271 -0.7481376 -0.6431678 -0.07897442 -0.3915832 -0.30020604 -0.45141226 -0.5730439
-0.37441856 -0.802548 -0.7167678 -0.24962308 -0.43169805 -0.80115026 -0.62498516 -0.20281222
-0.34582114 -0.55345756 -0.91042244 -0.3313278 -0.85599667 -0.3179161 -0.46378872 -0.43596092
-0.34818494 -0.53416747 0.043452427 -0.7704799 -0.403517 -0.6036021 -0.313057 -0.65073246
-0.5334531 -1.0077544 -0.6666011 -1.0689193 -0.29779875 -0.6055331 -0.30466774 -1.0918798
-0.4478986 -0.9782107 -0.4944082 -0.4585526 -0.6263372 -0.37897778 -0.3937018 -0.80232066
-0.37614682 -0.7536369 -0.91346127 -0.6684157 -0.37715814 -0.42318812 -0.8734673 -0.6384229
-1.0452058 -0.38841087 -1.0591493 -1.219331 -0.57080823 -0.5462214 -0.45790443 -0.2675857
-0.88509685 0.3979018 -1.0382959 -0.58023167 -0.36846045 -0.78499687 -0.24978763 -0.4068609
-0.07693745 -0.6382649 -0.5629796 -0.4249026 -0.9091913 -0.6541997 -0.30173647 -0.41894287
00000000: d998 91be 593b 72bf 6b76 b9be 4a21 a3be
00000010: f3fc cebe 365e 37bf 9a42 6fbf 249a 8f3e
00000020: 2f45 97bd 0151 21bf c3d3 4dbf 11e1 b2be
00000030: fede 02be af58 85be 1a24 15be a60b 78be
00000040: c5d6 19bf d2b9 47bf 33e8 e0be 3cd2 87be
00000050: b795 bbbe eb32 2cbf 0828 30bf a99f 833e
00000060: 81de e9bd 1860 d2be 16f5 24bf 176f 4fbe
00000070: 9e9e 0abf 8ddd 97be beef a8be 251b b2be
00000080: 1ec3 b8be 9cc7 bfbe 575e c8be f8e9 0abf
00000090: 22a9 acbe a028 e0be 3e4d b3be e30b 24bf
000000a0: f016 e9be 5305 36bf 9cb4 8abe 87c0 54bf
000000b0: bbb3 b8be a193 09bf 18ba c7be 33e8 d9be
000000c0: cb64 a9be 2c5f 22bf 7c73 a4be 4cfa f7be
000000d0: 4824 f8be 39be b6be 5463 e3be 5ae3 ebbe
000000e0: c8c7 20bf 3fbf efbe 45f4 94bf 1730 31bf
000000f0: e589 bbbe aa03 3ebf 8924 3cbf af6b e3be
00000100: 10c9 09bf 767d 90be 8654 26bf b48e 46bf
00000110: e07f eebe 2f33 3abf b076 9dbe 127e 6ebe
00000120: 915b 0dbf 3054 02bf 6ffc 36bf 31c0 04bf
00000130: dac4 d1be 7d8f 4abf 3dba acbe f751 06bf
00000140: 8556 5ebf 42eb 3dbf 7767 fdbe 3bba a8be
00000150: b2dc 64bf b421 a5bf 49cc 1fbf 201f f5be
00000160: b318 fcbe 909e 30bd e46a 45bf 91c6 263e
00000170: 6bb2 06bf 664e 13bf 1e50 7dbe 4695 323d
00000180: 6615 1dbf 0bc9 afbe 05d4 e83e c49e c4be
00000190: 1b21 09bf 998d 1dbf 52fa 0ebf 57f1 62be
000001a0: b898 2fbf 1a3a 1abf e862 36bf b9ba 82be
000001b0: 58de 30be c9b4 e7be 9d89 88bf 9ded 4abe
000001c0: 2c0d fbbe 4a34 bdbe 7683 9dbe cec8 f2be
000001d0: 8b6e 9cbe 5add 3abe 3570 02bf 7a0d 85bf
000001e0: 9581 e3be 155c 0cbf 8956 a3be d119 2cbf
000001f0: b473 28bf 5670 53bf 8f94 2abf dd9d 01bf
00000200: b644 8abe 60b1 47bf 6f03 eabe 48de 23bf
00000210: dcdc e2be f2b7 e2be b77c 97be c707 e7be
00000220: b05d 16bf 76b9 14bf e57b 8abf bca2 0fbf
00000230: 079b 21bf 818d e2be 1862 94bf c9cd 30bf
00000240: ce77 debe 7d01 d0be 9969 6dbf d46c 20bf
00000250: e4d9 6abf 9d31 f8be acc4 90be a4dd 11bf
00000260: 41df b4be 580c f5be cb4c b1be 50e5 a3be
00000270: 03db c8be d949 44bf b1eb 2bbf f446 e1be
00000280: 8b14 fcbe bb3d c8be c0d5 75be 9acf eebe
00000290: 4b0b 7abf 65a1 50bf 8965 31bf 1e02 e8be
000002a0: 976d 33bf 6603 06bf 630a 40bf 5871 20bf
000002b0: d000 48bf 0323 19be a9bb 81bf 647d 9abe
000002c0: 47de eabe f285 3fbf a5a6 24bf 57bd a1bd
000002d0: 987d c8be 9bb4 99be 821f e7be 01b3 12bf
000002e0: cab3 bfbe c973 4dbf 187e 37bf 319d 7fbe
000002f0: 8707 ddbe 2f18 4dbf 07ff 1fbf 02ae 4fbe
00000300: 780f b1be 65af 0dbf 7211 69bf cca3 a9be
00000310: 9922 5bbf e6c5 a2be b775 edbe 4536 dfbe
00000320: 4c45 b2be 33bf 08bf 2cfb 313d 2c3e 45bf
00000330: c899 cebe ab85 1abf 0249 a0be 6796 26bf
00000340: 6290 08bf 19fe 80bf 5fa6 2abf 59d2 88bf
00000350: 1479 98be 3804 1bbf 69fd 9bbe b8c2 8bbf
00000360: f752 e5be 046c 7abf 1223 fdbe 68c7 eabe
00000370: a257 20bf 6009 c2be 4893 c9be e364 4dbf
00000380: 5196 c0be 59ee 40bf 99d8 69bf 4b1d 2bbf
00000390: df1a c1be 1dac d8be 8e9b 5fbf af6f 23bf
000003a0: 4ec9 85bf cadd c6be 3492 87bf 0a13 9cbf
000003b0: 7d20 12bf 2ad5 0bbf 7372 eabe fe00 89be
000003c0: b595 62bf c9b9 cb3e e1e6 84bf 108a 14bf
000003d0: d9a6 bcbe 8ef5 48bf 54c8 7fbe 1250 d0be
000003e0: 6291 9dbd 5465 23bf 6e1f 10bf d58c d9be
000003f0: c3c0 68bf a279 27bf 347d 9abe ae7f d6be

fc3.bias f4 [10]
0.040387683 -0.40609854 0.21069728 -0.082617916 0.21736161 0.3290546 -0.19508818 -0.15313008
0.2572154 -0.06134362
00000000: 8e6d 253d 26ec cfbe 07c1 573e 9533 a9bd
00000010: 0b94 5e3e d879 a83e 32c5 47be 22ce 1cbe
00000020: bdb1 833e 7343 7bbd
