FL/cnn-img/outputs/2025-03-18/18-11-21/model_state_acc_0.205_round_3.pth (torch, 251948 bytes, 10 tensors)

conv1.weight f4 [6, 3, 5, 5]
00000000: ea90 fcbc 4b37 c3bd 78ae 75bd f745 903d
00000010: 70d7 3ebd 2086 a43d c1ff 8cbd 61e1 0ebe
00000020: fa47 53be 705e d5bd 050b 3b3e 62d0 1c3e
00000030: 0363 4abc b9b9 13be 792a 9abe faee a23e
00000040: bbdb 4f3e ca72 f7bd d769 85be 377d 9ebe
00000050: daa8 bc3d fec7 e93d 5657 0abe 5d56 32be
00000060: 5fb2 46be 7ca7 10be 3c61 7ebe 247c 8abe
00000070: 48fd 6abc 9a2c 0abe bc12 c83d d5c5 7a3d
00000080: 90af 07be 1c61 66be 9fb2 97be 7072 663e
00000090: 9712 4b3e c485 363b 7d2c 89be c28b 95be
000000a0: fa36 d23e f013 a53e 8e2f a8bd b6ff 15be
000000b0: 1657 c4bd c627 d73e 901d 283e 67dc f23d
000000c0: 4f51 18be fa31 3a3d 3ed4 d9bc 9595 0bbe
000000d0: f367 793d 855a 72bd 13fa 26bd 3224 763e
000000e0: 55f7 903c defa 263b 38d1 053d e48c a5bd
000000f0: 4ab8 ac3e cb70 9e3e 1c82 2c3e f465 913d
00000100: 9ab4 dfbd b3a6 ab3e a02b a93e 0f66 da3d
00000110: 93ef 6c3d 57fe dc3c dcb0 c03e 2b8b 023f
00000120: 735a ad3e a324 273e 0792 523e 345a 313d
00000130: 6f39 b73c e220 71bd 30c1 993d d15d 993d
00000140: 61fa 91be 829f a3be 5a96 a2be 4140 93be
00000150: a307 9ebe 62bd c2be 0374 08bf aa92 01bf
00000160: 1e31 c6be 0a58 00bf f9de a5be 49dc b7be
00000170: 3359 b6be 53c2 f4be 162f d8be 8897 0bbe
00000180: ce69 7cbe c832 1dbe a997 f3bd 846c 5cbe
00000190: 0e2a c33d e295 253e 9a79 a83e 4ce8 893e
000001a0: e5c7 803e 3f07 403c d9e2 2f3e f809 8a3b
000001b0: 2728 963d 4a04 2b3d 81b1 2dbe 5a44 b5bd
000001c0: 46a7 80be e76d 34be 0a8d 28be c57e 85be
000001d0: 64f5 a0be 7e70 3bbe d26e 11be 97b1 42be
000001e0: dd37 1ebe 9a64 49be 07ad acbe ed53 45be
000001f0: c411 3fbe 2a81 3e3f 710e 3f3f f497 4f3f
00000200: f816 263f 1d06 423f b85b 003f 4e2e 3e3f
00000210: e39b 363f 59e1 2e3f 3c9b 253f bebd b23e
00000220: fe32 d63e f9ff 8d3e 5e81 8f3e 9234 b63e
00000230: ec4c 953e cb24 203e 859d 173e ebd0 3c3e
00000240: db68 5e3e 179a 023e 2e08 153e 54a4 253e
00000250: 8591 883e ad88 9d3d b63c 043e 1cfb 8c3d
00000260: 3115 083e 4f94 c33d 67bb 4cbd edab 803e
00000270: 7339 3d3e cb07 1c3e da48 633e 1198 7d3e
00000280: 33dc 9c3e 9886 013f 8908 0e3f de21 f93e
00000290: e7e2 943e 996e 563e 50a5 403e 75dd 253d
000002a0: 4c29 d03d e7f7 87bd 5d4f aabe d9a8 90be
000002b0: 5823 8fbe ef85 b9be 6d25 57be 4b46 d2bd
000002c0: 9377 7fbe 5d17 a2be 8a8b acbe 1e5b 73be
000002d0: 896b 6cbe 7699 8cbe a2a5 8ebe 4dac 94bd
000002e0: 90da b2bb ccd5 35bd f9df 653d 0286 80bc
000002f0: 60e7 073e db08 243e d34d 29be 429f 03be
00000300: 5eee d3bd 0492 15be d774 a0bd c781 09bf
00000310: 4fae 13bf 19f6 fabe e735 0fbf c822 c1be
00000320: bf66 b53d 0e11 9c3b 158c 143e 825d 3fbd
00000330: 8c91 cc3d b2a5 7b3e 3445 193e f247 5b3e
00000340: aefb 223e 1518 3a3e fe9f 7d3e c723 7f3e
00000350: a151 d63e e057 8f3e a46f 9d3e cb72 2b3e
00000360: 4921 7a3e 28d0 113e b755 4d3e 9f69 e03d
00000370: 7fbc e1bd 278a 57be 73d6 91be 999b 41bd
00000380: 46ce 87bc ff21 b03d b402 d03a 9194 3ebe
00000390: 5b3d 99be 6fa5 a7be 7d47 283e 37d7 d03d
000003a0: 3bb3 293d 07da 84be 3278 b6be c7dc e33d
000003b0: 34e4 1c3c 019d dd3d 3bcd 0ebe cb4f 9dbe
000003c0: 362f 14bd 2341 f23d 878b 043e a7bb 9c3c
000003d0: 56fe e0bd 5b6f 6ebd 44bb 7dbd 673c 4d3d
000003e0: d163 e73d 6333 d6bc da5b 753d e94c 8abd
000003f0: bb8b a2bd 4e1c 14be c091 00be 29ee 363e
-0.03083082 -0.09532031 -0.05998084 0.07044595 -0.046592176 0.08033395 -0.06884719 -0.13953163
-0.20632926 -0.10418403 0.18265922 0.15313867 -0.012352708 -0.14426316 -0.3011053 0.3182295
0.20298664 -0.12082441 -0.26057312 -0.30954906 0.092118934 0.114150986 -0.13509879 -0.17415757
-0.1940398 -0.1412639 -0.2484178 -0.27047837 -0.0143426135 -0.13493577 0.09769198 0.061223824
-0.13250566 -0.22497982 -0.29628465 0.22504592 0.1983131 0.0027850727 -0.26791754 -0.2920819
0.4105757 0.32241774 -0.08212195 -0.14648327 -0.09586923 0.42022532 0.16417527 0.11858445
-0.14874767 0.045457818 -0.026590463 -0.1363128 0.06089015 -0.059168357 -0.040765833 0.24037245
0.017696062 0.0025479118 0.03267023 -0.080835134 0.3373435 0.3094543 0.16846508 0.07099524
-0.10923119 0.3352562 0.33041096 0.106639974 0.057845663 0.026976747 0.37634933 0.50993603
0.3385807 0.1632257 0.20563518 0.043298915 0.022366254 -0.05886925 0.07507551 0.07488597
-0.28511336 -0.31957632 -0.31755334 -0.2875996 -0.308652 -0.38035113 -0.5330202 -0.50614417
-0.38709348 -0.50134337 -0.32396677 -0.35910252 -0.3561493 -0.47804508 -0.42223424 -0.13632023
-0.24649736 -0.15351403 -0.11894161 -0.2152577 0.09529506 0.16170457 0.32905275 0.2693504
0.25152507 0.011720478 0.1717638 0.004212614 0.07331877 0.041752137 -0.16962244 -0.08850928
-0.2512762 -0.1762005 -0.16460052 -0.2607328 -0.31437218 -0.18304631 -0.14202431 -0.19013058
-0.15450998 -0.19667283 -0.3372576 -0.19270296 -0.18659121 0.7441584 0.7463141 0.8109124
0.648788 0.7579058 0.5013995 0.74289405 0.71331614 0.68312603 0.64689994 0.34910387
0.4183578 0.27734354 0.28028387 0.35586983 0.2916025 0.15639035 0.14806183 0.18439071
0.21719687 0.12754093 0.14553902 0.16175967 0.26673523 0.076920845 0.12913784 0.06883833
0.13289334 0.09549772 -0.04998341 0.2513117 0.18478946 0.15237348 0.2219576 0.2476504
0.3063675 0.50596 0.55481774 0.4865865 0.29079363 0.20940627 0.18813062 0.0404944
0.10164127 -0.066390805 -0.33263674 -0.2825382 -0.27956653 -0.36234996 -0.2101037 -0.102673136
-0.24947958 -0.3165845 -0.3370021 -0.23765227 -0.23087896 -0.2746083 -0.27860743 -0.07259426
-0.0054581836 -0.044393346 0.0561218 -0.0156889 0.13271856 0.16019003 -0.16533594 -0.12853721
-0.10348199 -0.14606482 -0.078347854 -0.5371365 -0.5768785 -0.49015883 -0.55941623 -0.37721848
0.08857488 0.0047627753 0.14506562 -0.046720035 0.09988698 0.24574926 0.14967805 0.21414164
0.1591632 0.18173249 0.24768063 0.24915992 0.41859153 0.2799673 0.30749238 0.16743009
0.2442676 0.14239562 0.20052229 0.109576456 -0.11022281 -0.21048795 -0.28483924 -0.04726753
-0.016577851 0.08600234 0.0015869946 -0.18611361 -0.29929623 -0.32743403 0.1643352 0.10197299
0.041430693 -0.25947592 -0.35638577 0.11126094 0.009575892 0.10820962 -0.13945477 -0.3072494
-0.036177836 0.1182883 0.1294385 0.019132448 -0.10986011 -0.058211666 -0.06194617 0.050106432
0.11298335 -0.02614755 0.05990205 -0.06752951 -0.07936808 -0.14463922 -0.12555599 0.17864288

conv1.bias f4 [6]
00000000: 3f41 76bf c163 d3be 2c7b 84bf 103d 7cbf
00000010: 6b9c 69bf ee58 45bf
-0.9619331 -0.41287044 -1.0350089 -0.98530674 -0.912543 -0.7708882

conv2.weight f4 [16, 6, 5, 5]
00000000: 369f 01be 889b 8ebb f7ba 4abc e1e6 e5bd
00000010: bc28 eebc 4c5c 26be d412 d5bc 9111 1dbd
00000020: a3a6 c5bd 3c79 41bd 4554 31be 4894 8ebd
00000030: e3f1 3fbd 300e 1cbe f9dd d1bc 5c21 0ebd
00000040: 55db e1bd 2d48 bfbd 7ca9 d1bd 4fdc 73bd
00000050: 0f76 9abd bba2 25be 0269 83bd 7b8d 22be
00000060: 0fd1 1bbd 82bc babc 5609 0bbe b0e8 07be
00000070: daa6 1ebe cdfd e7bd b946 77bd 2070 1bbd
00000080: 9b28 20be 5ceb d2bd 08bb 6dbd 8526 12be
00000090: 51b8 cebd 01d5 04be 5dfb 37bd ac68 37be
000000a0: e490 9ebd 07b1 eebd f1ae 5fbd 495b 7fbd
000000b0: 8ece 04be 3686 3fbd f120 f5bd d9f8 cdbd
000000c0: 8ff6 42be 93fb dabd 5fb7 9dbc 3af4 adbd
000000d0: 3a6a 86bd fbd5 f5bd 92a1 f8bc 9aeb e1bd
000000e0: e69a bbbd 5993 c7bd 9637 b5bd a78e 95bd
000000f0: 766e 7dbd 1269 c1bd 40a5 0abd 7878 7abc
00000100: 9120 99bc 8aba e1bd 24d6 f7bd 3273 d3bd
00000110: 4f13 3dbd 5a1c 7fbc df44 eebd 4918 84bd
00000120: 9141 eebd 6f94 2bbe 80fe 953b f3f2 e8bd
00000130: f78e 2fbe ec20 32be 8908 e8bd 8c81 cb3b
00000140: 6dcf 69bd 08ce b6bd 5617 70bd 0b19 92bd
00000150: 635d 82bd f19c f43c c1d9 b9bd ed7a 1cbe
00000160: 57a6 bcbc f9ae 05be 6de0 73bd 5b8e 26be
00000170: bb21 05be 4fe4 9dbd 4513 1cbd 4cc9 4fbd
00000180: 35b1 dbbd 81d3 bdbd a764 cdbd dd5a c5bd
00000190: 0eab 7abd 4994 d1bd 18e3 0ebe a35d 67bd
000001a0: 5981 41bd 5104 88bd 0bf2 9ebc 8f07 11be
000001b0: b55b 18bd 76c0 09be 0ea3 87bd 53c9 47bd
000001c0: b1a0 b43c ec6f 11bd 37b9 eabd 9132 abbd
000001d0: dbd4 d2bd e20e 8ebd ba63 11be 317a c3bc
000001e0: 13f9 4abe 1e19 0dbe 5523 09bd fe48 b9bd
000001f0: 15ed 26bd 1633 553c e3e5 a4bd 9040 71bd
00000200: cb0f 00bd dea2 bb3c 43c0 3cbe 98b1 f1bd
00000210: b248 cfbd ae96 31be 287d 2bbe 4e3a 3ebe
00000220: aece 1fbe 820d ffbd f990 31be d180 14be
00000230: 5194 3bbe 1bfd 37be cecf 10bc 0d0b c23a
00000240: bbc2 e9ba 736b a8bd 1d5f 47be 6913 4ebe
00000250: 3a34 c7bd fda9 7fbc 0e95 eabc 860f 233e
00000260: 5289 1f3d 1ae0 8abe e267 7bbd d1e9 dabd
00000270: 8c6e 8cbd 25ae 0a3e ec44 2dbd b9c3 59be
00000280: 2737 8ebe 2cfc 31be 0555 473e 15de 39be
00000290: 1d99 16be 07b3 8abe 47e6 adbe df1c 0dbd
000002a0: 71ad 89be f6ff 9fbe 4199 a23d ca14 d0be
000002b0: d95b c8be e386 d1be 8f36 87be d6f5 4cbd
000002c0: 6482 b1be 0e94 b3be dbae 7abe 6629 a2bc
000002d0: 4ccd 5cbe 6602 53be 5c98 adbe 6935 5fbd
000002e0: cd86 41bb 03ba 01be aeea 4ebe 2ee4 07be
000002f0: 9311 28be d9b8 dcbd 32f3 99be 3232 b2be
00000300: a1d1 c7be 3e78 c3be 93d3 9bbe e7db 933b
00000310: d074 56be 806a 81be 3c72 48be 7587 82be
00000320: 1733 62be c67d 80be bbb3 98be c0d9 4cbe
00000330: e4c9 26be 92f2 74be 76a7 dabe 455d c5be
00000340: c09f 0dbe 5975 35be c215 60bd df89 60bd
00000350: 826c 14be 1988 5cbe 5826 3bbe aee6 bbbc
00000360: 9a7c 8abe 414c 83be 5da8 43be aed4 9ebe
00000370: c7f3 e7bd a056 64be 9a89 04be 0d33 17be
00000380: 540d 5ebe 0d15 cebc 4cdc 53bd 5451 58be
00000390: dbba 3cbe f370 6ebe c38d c3bd 5bfc 66bc
000003a0: 9b0f dabd 79bd 65be fc60 24be 7f7a 6fbe
000003b0: 3315 debd 98c3 52bd 45df 39be d98d 3fbe
000003c0: 1c16 94be fb49 a5bd cf13 22bd ed02 1dbe
000003d0: b734 3abd a4d0 e6bd 3f22 50be a3ba 89be
000003e0: 2af1 5fbe 6811 39be c6bd 9bbe 6bb6 d1be
000003f0: 465f 2ebe d855 33be fb70 3abe 4028 84be
-0.1265839 -0.004352037 -0.012373677 -0.11225677 -0.029072158 -0.16246146 -0.026009955 -0.03834683
-0.09650924 -0.04723476 -0.17317303 -0.06961876 -0.04686154 -0.15239787 -0.02561854 -0.034699783
-0.110281624 -0.09339938 -0.10237405 -0.059536275 -0.07542049 -0.16175358 -0.06416513 -0.15874283
-0.03804117 -0.022794966 -0.1357778 -0.13272357 -0.15493336 -0.113277055 -0.06037018 -0.037948728
-0.1564049 -0.102987975 -0.058039695 -0.14272507 -0.10093749 -0.1297188 -0.044917453 -0.17911023
-0.077424794 -0.11654859 -0.054610197 -0.062342916 -0.1296942 -0.046758853 -0.11969174 -0.100572295
-0.19039367 -0.10692515 -0.019252477 -0.08493848 -0.0656323 -0.12003704 -0.03035048 -0.110312656
-0.09160404 -0.09744901 -0.08848493 -0.073025994 -0.061872922 -0.09443869 -0.033849 -0.015287511
-0.018692287 -0.11021908 -0.12101391 -0.10324706 -0.046160992 -0.015570724 -0.1163423 -0.064499445
-0.116335995 -0.16755842 0.004577458 -0.11374464 -0.1714438 -0.17395371 -0.11329753 0.0062105116
-0.057082582 -0.08926016 -0.058616005 -0.07133683 -0.06365468 0.029859992 -0.090747364 -0.15281267
-0.023028536 -0.13055028 -0.0595402 -0.16265242 -0.13001148 -0.07709562 -0.038104314 -0.05072908
-0.10727159 -0.09268857 -0.100289635 -0.096364714 -0.061198287 -0.10233361 -0.13953817 -0.056485783
-0.047242496 -0.06641448 -0.019402524 -0.1416304 -0.037196834 -0.13452324 -0.06622897 -0.048775982
0.02204928 -0.035507128 -0.11461108 -0.08359254 -0.10294505 -0.069364324 -0.14198199 -0.023861976
-0.19821577 -0.13779113 -0.03348096 -0.09047125 -0.040753443 0.013012668 -0.0805166 -0.058899462
-0.03126506 0.02290481 -0.18432717 -0.118014514 -0.101212874 -0.17342636 -0.16746962 -0.18576929
-0.15606186 -0.12453748 -0.17340459 -0.14502265 -0.18318297 -0.17967646 -0.008838607 0.0014804319
-0.0017834523 -0.08223619 -0.19469877 -0.20124592 -0.09726758 -0.015604493 -0.028635528 0.1592389
0.03894932 -0.271241 -0.061378367 -0.10689128 -0.06857023 0.13542993 -0.042302057 -0.21266069
-0.27776453 -0.17381352 0.19466026 -0.18151124 -0.14706846 -0.27089712 -0.3396475 -0.03445136
-0.26890138 -0.3124997 0.07939387 -0.4064086 -0.39132574 -0.40923223 -0.26408812 -0.050039135
-0.34669793 -0.35073894 -0.24480765 -0.019795131 -0.2156269 -0.20606384 -0.33905303 -0.054494295
-0.002952981 -0.12668614 -0.2020671 -0.13270637 -0.16412954 -0.107774444 -0.30068356 -0.3480392
-0.39027122 -0.38177675 -0.30434856 0.0045122984 -0.20942998 -0.25276566 -0.19574827 -0.2549397
-0.22089802 -0.25095958 -0.29824623 -0.2000494 -0.16287953 -0.23920658 -0.42705888 -0.38547722
-0.13830471 -0.17720546 -0.05470825 -0.054818984 -0.14494517 -0.21536292 -0.18276346 -0.022937145
-0.27048188 -0.25644115 -0.19107194 -0.31021637 -0.11325794 -0.2229867 -0.12943116 -0.14765568
-0.21684772 -0.025156522 -0.051723763 -0.21124774 -0.18430655 -0.23285274 -0.09548523 -0.014098252
-0.10647508 -0.2243556 -0.16052622 -0.23386572 -0.10843887 -0.051456064 -0.18151577 -0.18706454
-0.28923118 -0.08070751 -0.039569672 -0.15333147 -0.04546043 -0.11270264 -0.20325564 -0.26900205
-0.2186934 -0.18073046 -0.30418223 -0.40959486 -0.17028531 -0.17513216 -0.18207161 -0.25811958

conv2.bias f4 [16]
00000000: 71ee 9cbd 5301 f63e 6ebd 0a3f 1a1a 343f
00000010: 95d2 b8bd 5e39 103d 4501 fb3e bcb7 9c3e
00000020: cf73 dbbd b46a 09be 0f9e 2d3f 3dad 493f
00000030: 0d89 26be 6822 ccbd 7b93 cfbd 5460 35bc
-0.076626666 0.48047885 0.54195297 0.7035233 -0.0902454 0.03521096 0.49024406 0.30608928
-0.10715448 -0.1341961 0.67819303 0.78779966 -0.16263218 -0.099675 -0.101355515 -0.01107033

fc1.weight f4 [120, 400]
00000000: cc96 043d 87c0 27bd 6f6e 7fbd 91c2 44bd
00000010: 398d ecbc a828 86bd 3298 a9bc 368f dbbc
00000020: ac4c 84bd 63ae 80bb 17b6 1cbd f2dd e2bb
00000030: 115b 623b f31d 54bd 1f6a 5bbd b57d 3cbd
00000040: 3d2e c7bc 37f7 90bd b2ab c53a 3061 7dbd
00000050: e7ae 0dbd 4daf 14bd bb7a 0dbd 5e42 15bc
00000060: 6189 b43b 0203 c4bd 99ce 4bbd 8759 92bd
00000070: 03c3 bbbd 292a 4ebc c3dd 3ebd 2e9a 19bd
00000080: e1cc 8ebd 8790 22bd 84ba 37bd 61b5 dbbc
00000090: 62d6 a03c 591d 17bd 3f22 84bd eded 42bd
000000a0: abb2 57bd 7388 85bc d88a b2bd 89dd d1bd
000000b0: d63c 57bb 19af ebbd 8d45 c2bd 681f 0abd
000000c0: 2030 3abd d769 b4bd 60ce abbd dcf0 cc3b
000000d0: c92a bfbc 5af3 f63c 2f4b 06bd 5b27 85bd
000000e0: 9c42 a23d 4a22 2aba 8df6 08bd c662 cebd
000000f0: 397f d2bc 2282 c5bd 7a97 9f3c 1206 133d
00000100: 186d 933c f0c6 8ebd 24a8 eabd d010 e7bc
00000110: 71ce 9dbd 60d3 93bb a436 acbd dd42 f2bd
00000120: f460 d1bd a4a1 a0bd c38f 813c fe77 b1bd
00000130: eba8 e9bd 429e 8fbd c70e f0bd ee02 40bd
00000140: fa45 a2bd 831a e8bd 8582 a7bd 5cbe 07be
00000150: 56c4 fcbd c3a6 81bd 5fb9 a2bd 2cf7 11be
00000160: e2c3 73bd 24a9 edbd 43e3 66bd 1e3d adbd
00000170: e0a2 21be 26b6 0cbe 644c 90bd 3c6f f6bd
00000180: 5bc3 f2bd 5a86 02be 2440 dbbc 7073 aabb
00000190: e415 293d cb7e b33b 921a 8abc 0b0f 4fbc
000001a0: 5bfe 803b aa43 6c3c 5b12 713d 4569 8f3c
000001b0: 5993 16bc 4cbd 26bc d4a8 aebb 879a bebd
000001c0: 7bb8 8cbd 8a44 2fbd d24b f2bc 0d03 17bd
000001d0: 6d0f c3bc 3feb 92bd 39f4 afbc b4cf 273d
000001e0: 7ed8 1b3c 902c 1fbd c883 66bd 73f5 3c3c
000001f0: 7f1e 0bbd da6b 78bd e2cc 4abd a2a8 6ebd
00000200: 61a8 a0bd af9d 5a3b ec4a adbd 0539 a5bd
00000210: ff29 80bd 31c7 99bd 0e9f 5ebd 9eba bdbc
00000220: c64e 9fbd 43e5 9fbd 5fb9 b1bd d10d e5bd
00000230: ffce 4cbd ad98 bfbd deaa 5b3d 7859 703c
00000240: 267c 3cbc 59b0 a6bd b682 59bd 4096 06bd
00000250: 56eb 6dbc 9792 c1bd d558 f3bd b161 5dbd
00000260: 1fd6 8cbd 0fe7 a3bd ec93 9dbd 957d d2bd
00000270: 0596 c4bd 4ed4 8abc 7514 5bbc 053d 84bd
00000280: d1db eebd c8db 80bc 79f8 b1bd 4634 dfbc
00000290: 710a e4bc 2c18 9dbc 5f92 62bc 0755 80bd
000002a0: 9983 b2bd 8124 55bc f03d 78bd 325d 94bd
000002b0: f985 acbd dd69 92bd feee 8ebc 127e b8bd
000002c0: 412e fcbc 4fb3 a3bc b65e 33bd 5911 14be
000002d0: 8241 f7bd a7e9 41bd 8b1b cbbd 1afc 95bd
000002e0: 5a21 30bd 049f acbd b68a d63b 5c95 cf3c
000002f0: 721c 3ebc 3b04 23bd ae64 03bd 4aae 63bc
00000300: c81b 2fbd 501c 4b3b ed49 a9bc a165 6cbd
00000310: f724 85bd 43b4 f9bd a946 633c 0a19 85bd
00000320: fcbf 2a3c 8eec 9e3b b0ed 29bd 78bd d4bd
00000330: 2ed1 72bd a5ae 70bc 63ea a2bd 207b 47bc
00000340: 879e a9bd 3c67 74bd 4085 a93c a009 493c
00000350: 6a10 a9bb 87c1 4abd b76f 04bc a66c 1d3c
00000360: 310a 2cbd 3dab 72bd 8336 a5bd e877 483b
00000370: 7f02 05bc a141 e2bb a1e9 113c faeb 8e39
00000380: 16b7 28bd a3b1 d1bd 0c29 d0bc 7f9b 57bc
00000390: 3200 2ebd a363 1abd 2109 2ebd 69d2 8cbc
000003a0: a05d 10bd ef00 47bd 0eeb 79bd 2822 4a3c
000003b0: f5e7 24bc ab98 47bd b728 943b 0045 2fbd
000003c0: 39db a0bb 3220 a7bd 83b5 adbc 644a 4fbd
000003d0: 4f48 57bc d0e7 5dbd 135a 0abc e05f 52bd
000003e0: b757 ccbb 0838 203c a6be 80bd 8802 14bd
000003f0: d6de 96bd dfb0 1ebe 3979 70bd e811 14bd
0.032370374 -0.040955093 -0.062361177 -0.048037115 -0.028875934 -0.06550723 -0.020702455 -0.026801687
-0.064599365 -0.0039270385 -0.038259592 -0.0069234306 0.0034539143 -0.051786374 -0.053568 -0.04601832
-0.02431404 -0.070784025 0.0015081076 -0.061860263 -0.034590628 -0.036299992 -0.034540873 -0.009110061
0.005509541 -0.09570886 -0.049757574 -0.07145982 -0.09168055 -0.012583294 -0.046598207 -0.037500553
-0.06972671 -0.039688613 -0.04485561 -0.026819887 0.019633476 -0.036893222 -0.064518444 -0.047590185
-0.052660625 -0.016300416 -0.087178886 -0.102473326 -0.0032842658 -0.115080066 -0.09485922 -0.033721358
-0.04545605 -0.0880925 -0.08388972 0.0062542986 -0.023335831 0.030145336 -0.032786544 -0.06501647
0.07922861 -0.0006490095 -0.033438254 -0.10077433 -0.02569543 -0.096439615 0.01948141 0.03589446
0.017996356 -0.06971538 -0.114578515 -0.028206259 -0.07705391 -0.004511282 -0.08408859 -0.118291594
-0.102235705 -0.078433305 0.015815621 -0.08665465 -0.11409172 -0.07012607 -0.117215686 -0.046877794
-0.07923503 -0.11333182 -0.081791915 -0.1325621 -0.123421356 -0.063306354 -0.07945513 -0.14254445
-0.05951298 -0.11604527 -0.056369077 -0.08458923 -0.15784788 -0.13741359 -0.0704582 -0.12032935
-0.11853667 -0.12746564 -0.026763983 -0.0052017495 0.041280642 0.0054777614 -0.016858373 -0.012637864
0.0039365715 0.014420429 0.058855396 0.017506251 -0.009190404 -0.010176968 -0.0053301845 -0.093068175
-0.06871124 -0.042789973 -0.02957717 -0.036868144 -0.023811067 -0.07173776 -0.02147876 0.040969566
0.009512065 -0.038860857 -0.05627802 0.011533129 -0.03396463 -0.06064973 -0.049511798 -0.05826629
-0.07844616 0.0033358147 -0.08461556 -0.08067516 -0.0625801 -0.07508696 -0.054350905 -0.023160275
-0.07778697 -0.078074 -0.08677935 -0.11184276 -0.050002094 -0.093552925 0.05362975 0.0146697685
-0.011504209 -0.081391044 -0.05310317 -0.032858133 -0.0145214405 -0.09451788 -0.11882178 -0.054048244
-0.06876778 -0.08003055 -0.076942295 -0.10277859 -0.095989265 -0.016946938 -0.013371577 -0.06456951
-0.116630204 -0.0157298 -0.086899705 -0.027246606 -0.02783701 -0.019176565 -0.013828843 -0.06266218
-0.087165065 -0.0130091915 -0.060605943 -0.07244338 -0.08423991 -0.07149098 -0.017447945 -0.09008421
-0.030783774 -0.019982962 -0.043791495 -0.14459743 -0.120730415 -0.04734197 -0.09917363 -0.07323475
-0.043000557 -0.08428767 0.0065472974 0.025339775 -0.011603462 -0.039798956 -0.032078438 -0.013896534
-0.042751104 0.0030992217 -0.020665133 -0.05771411 -0.06501191 -0.12192585 0.013871827 -0.064989164
0.010421749 0.004849977 -0.041486442 -0.10387701 -0.05928152 -0.014690076 -0.07954862 -0.012175351
-0.0828219 -0.059668764 0.020693421 0.012270361 -0.0051594274 -0.04950097 -0.0080832755 0.009608423
-0.042001907 -0.059245337 -0.08067038 0.0030589048 -0.008118271 -0.006904796 0.008905799 0.00027260167
-0.04119023 -0.1023896 -0.025410198 -0.013159632 -0.042480655 -0.037692677 -0.042489175 -0.017190175
-0.035245538 -0.048584875 -0.06101518 0.012337245 -0.0100650685 -0.04872958 0.004521455 -0.042790413
-0.004908946 -0.08160438 -0.021204716 -0.050608054 -0.013139798 -0.05417615 -0.008444327 -0.051360965
-0.0062360424 0.009778984 -0.06286363 -0.036135226 -0.07366721 -0.15497158 -0.058709357 -0.03614989

fc1.bias f4 [120]
00000000: 7420 89be e6fe f1bd 7caf 4fbe ce56 9ebe
00000010: 7b08 95be 1aa9 19be b05d 39bd 0a4e 8fbe
00000020: 74f5 9dbe dad7 91be 7f40 80be 10ea 923e
00000030: a841 65be 14ec 9fbe b8aa 36be 28b3 5abe
00000040: 2cca d23e 3990 bf3e aad2 10be 96c2 8cbe
00000050: df4d babc da8e 82be 7e93 78be 81c2 84be
00000060: 4d44 49be a8c4 76be 7d2d 4bbe 02ca 87be
00000070: 47b8 27be 5029 0dbe 3ae2 70be 56ae e53e
00000080: 7c5a 42be 2114 e6bd c281 9ebe 0125 69be
00000090: 5766 36be 269c 84be 60af 9d3d 38f1 4dbe
000000a0: d0da c4bc da58 71be 52a8 1fbe 7069 a2be
000000b0: 2115 74be d141 993d d6da 7cbe f049 b93e
000000c0: 9cd9 7ebe cc5c a2be 4d45 2abe 3091 74be
000000d0: f472 02be d6be 8a3e 2b25 d63e 3243 59be
000000e0: 7790 85be b7a0 aa3e 2ede 41be 8211 4ebe
000000f0: eee5 02be e8a8 c5bd 91ea 6abd 8ab9 a8be
00000100: de8d b83d 8543 a0be 83d3 8cbe 4bec 23be
00000110: 74ed 85be b265 3dbe d30b 91be 54c5 70be
00000120: 87d4 d8bd fa85 cbbd a89b 8cbe 8bb1 a33e
00000130: 9f0b d03d 15cd 75be 2a9e 43be 5851 9c3c
00000140: 4762 4dbe 804c 91be 2ef8 81be e834 1e3c
00000150: 7e0c 70be 3fa4 b1be 5554 68be 153c 5fbe
00000160: e0a3 b5bc ad95 91be 2bbf 9cbe 8a83 d3bd
00000170: f4e2 acbc dd1f 04bd 019d 1abe 9680 5bbd
00000180: 341d 8ebe 3f29 59bd 1d1a edbd 2ceb c43e
00000190: 4211 98be fe16 a6be b714 a5be a8c1 43be
000001a0: 7bb5 aabe 5186 d5bd acf4 c4be f217 96be
000001b0: 272e c5bd 28c1 5fbe 4673 92be a92f 71bd
000001c0: fbeb 4cbe ce28 64bd d25f c13d 815d 8fbe
000001d0: c517 c2be 0568 0fbe 02c4 5bbe 6ec1 f4bc
-0.26782572 -0.11816196 -0.20281786 -0.30925602 -0.29108033 -0.15005913 -0.045255363 -0.27989227
-0.30851328 -0.28484994 -0.25049207 0.286942 -0.22388327 -0.312348 -0.17838562 -0.21357405
0.4116987 0.3741472 -0.14142862 -0.27492207 -0.02274221 -0.25499612 -0.24275014 -0.25929645
-0.19654961 -0.24098456 -0.19841571 -0.26521307 -0.1637889 -0.1378529 -0.23523799 0.4485957
-0.1897983 -0.11234308 -0.30958372 -0.22768022 -0.17812477 -0.25900382 0.07699466 -0.20111549
-0.02403012 -0.2356905 -0.15591553 -0.31721067 -0.23836185 0.074832566 -0.24692854 0.36189222
-0.24887699 -0.31711423 -0.16627999 -0.2388351 -0.12739164 0.2709872 0.41825232 -0.21217039
-0.2608678 0.3332574 -0.18932411 -0.20123866 -0.12783024 -0.09651357 -0.057352606 -0.32954055
0.09011434 -0.31301513 -0.2750512 -0.16008107 -0.26157725 -0.18495825 -0.28329334 -0.23512775
-0.105874114 -0.099376634 -0.27462506 0.31971392 0.101584665 -0.24004014 -0.19103304 0.019081756
-0.20057021 -0.28378677 -0.2538466 0.0096561685 -0.23442265 -0.34695622 -0.2268842 -0.21800263
-0.022172868 -0.28434506 -0.306146 -0.103278235 -0.021104313 -0.03225695 -0.15098955 -0.053589426
-0.27756655 -0.05301785 -0.11577246 0.38460672 -0.29700667 -0.32439417 -0.32242367 -0.19116843
-0.33341584 -0.104260094 -0.3846792 -0.29315144 -0.096279435 -0.21851027 -0.28603572 -0.058883343
-0.20011894 -0.055702977 0.094421044 -0.28001025 -0.3790876 -0.14004524 -0.2146149 -0.02987739

fc2.weight f4 [84, 120]
00000000: 9424 e23b 21e0 b0bd 0036 f0bc 64fc 11bd
00000010: 151d d33c ff35 373b 216b a0be 2ced 2ebe
00000020: c4fd be3b 10d6 423d 24f5 093d f75f 07be
00000030: 9412 993d d019 ab3d c1b3 c7bc 38c7 40bd
00000040: 4013 42bd 32c8 74be 4aba 09bd 3e80 debc
00000050: aaf7 26be 1da5 3abd be68 a7bd 12c6 10bd
00000060: 1040 3e3d 643a f5bd 111d 0bbd 97dc 4a3d
00000070: c627 d23d ec18 203d 6ac7 7ebd bbbb be3d
00000080: 3752 62bd 6f1c 0abd 2b6f c8bd 6469 7abd
00000090: 5bb8 d5bd f29b 9fbd f5b2 8a3c 7461 cb3c
000000a0: e06b 0ebe 2e32 acbc 3363 16be 0d42 d5bc
000000b0: d229 0fbd da47 f13c 8a15 03be 7db9 cb3c
000000c0: 5a4a 0a3d ccaf c3bd 106e 7bbb 8b38 843d
000000d0: 6d23 9dbd 7225 06be d454 45bd 5c4c 9bbc
000000e0: 2db9 d5bd 1f67 4abd 8185 863d fed4 a33d
000000f0: bc51 213c 4b11 14be de3b f8bd 4f15 39be
00000100: 76a8 3fbe 92d9 82bb 66f5 2bbb 82f0 b13a
00000110: 8d54 03be a50b 13bd 9ee0 adbc 3e38 1bbc
00000120: 2413 24be 40c4 b3bc 4d1a 11be 3687 cabc
00000130: 2065 173d 4ee4 57bd 347b 23be 4143 4fbe
00000140: a356 043e 266a bebc 4902 b4bd b2bf ddbd
00000150: 22b1 41bd e7f5 0dbe 4cf5 d3bd 6835 b1bd
00000160: 9e63 3cbd a93a f43a d0a8 6cbd 244b 3bbe
00000170: 3fa6 72bd 8074 a2bd 56a0 14bc 0fab 873b
00000180: a88f a2bc adee f73c a699 703c 87fc a0be
00000190: b55b 4dbb 9a5f 40be 9bba bebd 743b fabd
000001a0: 23af c0bd 594e eabd 72e8 17bd 7a80 25be
000001b0: 8196 303d d80b c03d 4109 eb3a f3f0 8ebd
000001c0: 2123 a93d 75ec d7bd 2902 e6bd 997d f8bd
000001d0: 4c46 dbbc a0ba b5bd 9918 02bd 8260 a03d
000001e0: 138c c93c 26ab 8ebd e2b3 3abd 03ed f8bd
000001f0: d739 173c a37d 67bc ae2f 60be ed6e bdbc
00000200: ef06 e3bd 2c46 babd a622 723c 88eb 53be
00000210: c3bb c7bd 01e1 5c3d c83c 8bbd 3024 43be
00000220: c554 72be 0585 46be 9b72 7ebd 98d1 0ebe
00000230: 7341 d2bd b4f4 b6bd 0505 d4bd 505f 04be
00000240: 7428 673c 1215 93bd e5df fabd 3014 d3bd
00000250: 60fe 31bd a74d edbd 788c a1bd 75c4 19be
00000260: 7858 e93b e009 cf3b e7c4 f8bd 44fe 30bd
00000270: c181 973c 8955 76bd 3b5c 48be 704c 90bd
00000280: ee6f 59bd 9d84 38bd f4c2 adbd f8c1 87bc
00000290: e495 6abd 39aa 2cbd adf9 06bd 683c 4bbe
000002a0: 9339 643d e594 993c a82f b7bd f19e 11bd
000002b0: bcba 3bbd 36f1 26be 8a20 6aba 5d19 683c
000002c0: de32 30bc 5609 80bd 91fb a1bd fd4c 4dbd
000002d0: f4aa dbbc 5853 51bd c355 e2bd 8e15 afbd
000002e0: 006d c4bd 1c10 31bd f4e9 70bd f44b 2abd
000002f0: 0683 e8bc df65 103b bdf7 a6bd 7224 953c
00000300: 1c7f 4d3c a2b0 493c cdfa f8bd 62f8 35be
00000310: ab2c 6bbe 5db3 5a3d 4672 c8bb a951 b3bd
00000320: 2e66 55bb 7208 8abc b588 09be 371a edbd
00000330: 79b5 17bd 45c5 043d 99c3 16be 8c24 a9bc
00000340: cae0 9ebd 87ae 01be a87d fb3d 488b d1bd
00000350: 062e 56bd 1213 3abe ae8d e7bd 8b35 6abc
00000360: 79ec 86bd e1aa 07be 99cc c8bd f1bc b0bd
00000370: 2c4d 88bd c467 bebc 3d55 853d 90ee 73bd
00000380: a96e 11be e40d c4bd 44d7 26bc 45a2 93ba
00000390: 3672 843a 2fb6 10be ca5c 8dbc a21c 93bc
000003a0: efe2 01bd fbe0 9c3c 6c3d bdbd 3926 9fbd
000003b0: 24e7 d0bd 8adb 89bd 4b75 b53d bcb7 98bd
000003c0: 1fc8 77bd 1175 fcbd f01d a4bd 50c4 44bc
000003d0: c39d 9abd 5e7d f23d 509a 31be 9b9c a4bd
000003e0: e57e f4bb ba1f 693d 7a07 8bbd d054 6abd
000003f0: 3c39 ed3b 0e25 173c a72e 91bd 57d2 eebd
0.006901333 -0.08636499 -0.029322624 -0.03564109 0.025770703 0.0027955768 -0.31331733 -0.17082661
0.005828591 0.047567427 0.03368105 -0.13220201 0.074742466 0.08354533 -0.024377706 -0.04706499
-0.04738164 -0.23904493 -0.033624925 -0.02716076 -0.16305414 -0.04556762 -0.08174275 -0.035345145
0.046447814 -0.11974028 -0.033963267 0.049526777 0.102614924 0.039086267 -0.062201895 0.093131505
-0.055254187 -0.033718523 -0.097868286 -0.061135665 -0.10435554 -0.07793416 0.016931036 0.024826743
-0.13908339 -0.021020021 -0.14686279 -0.026032472 -0.034951992 0.029453207 -0.12801185 0.024868721
0.033762313 -0.09555015 -0.0038365163 0.06456097 -0.076727726 -0.13100222 -0.0481766 -0.01895731
-0.1043571 -0.04941475 0.065684326 0.079996094 0.009846147 -0.14459722 -0.12120794 -0.18074535
-0.18716606 -0.0039932216 -0.0026238798 0.0013575705 -0.12825222 -0.035899777 -0.02122527 -0.009473858
-0.16022927 -0.021944165 -0.14170189 -0.024722677 0.036961675 -0.052707963 -0.15964967 -0.20240499
0.12923674 -0.023243975 -0.08789498 -0.108275786 -0.047288068 -0.13863336 -0.10349521 -0.086527646
-0.04599344 0.0018633205 -0.05777818 -0.18290383 -0.059240576 -0.07932377 -0.00907143 0.004140265
-0.019843891 0.030265177 0.01468507 -0.31442663 -0.003133518 -0.18786469 -0.09312936 -0.12218371
-0.09408405 -0.11440725 -0.03708691 -0.16162291 0.04311228 0.09377259 0.0017931835 -0.06979551
0.082586534 -0.105431475 -0.11230881 -0.12133331 -0.026766919 -0.088734865 -0.03176174 0.078309074
0.024602925 -0.06966238 -0.045581706 -0.121545814 0.009230099 -0.014129075 -0.21893188 -0.023124183
-0.11085307 -0.090954155 0.014778769 -0.20695317 -0.097526096 0.053925518 -0.067987025 -0.19056773
-0.2366515 -0.1938668 -0.062121015 -0.13947141 -0.1026639 -0.08933392 -0.1035252 -0.12926984
0.014108766 -0.07181753 -0.12249736 -0.10306585 -0.04345548 -0.11587077 -0.078881204 -0.15016349
0.007121142 0.006318316 -0.12146931 -0.043211237 0.018494489 -0.060140166 -0.19566433 -0.07045829
-0.05308526 -0.045048345 -0.0848445 -0.016571984 -0.057271853 -0.042154524 -0.032952953 -0.19847262
0.05571897 0.018747756 -0.089446366 -0.03555197 -0.04583238 -0.16302952 -0.00089312403 0.014166203
-0.010754315 -0.06251781 -0.079093106 -0.05012225 -0.026814915 -0.051104873 -0.11051514 -0.08549033
-0.095911026 -0.043228254 -0.058816865 -0.04157634 -0.02838279 0.0022033376 -0.08152721 0.018205855
0.012542512 0.012310179 -0.121572115 -0.17770532 -0.22966258 0.05339371 -0.006117138 -0.0875581
-0.0032562125 -0.01684973 -0.13431056 -0.11577266 -0.0370383 0.032414693 -0.14723052 -0.02064731
-0.07757719 -0.12664233 0.122798264 -0.10231644 -0.052289985 -0.18171337 -0.1130632 -0.014294992
-0.06588072 -0.13248779 -0.09804649 -0.08629788 -0.06655344 -0.023242839 0.065103985 -0.059553683
-0.1420237 -0.09572962 -0.010183159 -0.001126357 0.0010104838 -0.14131998 -0.01725616 -0.01795799
-0.03171056 0.019150248 -0.09240231 -0.07770962 -0.102003366 -0.06731327 0.088602625 -0.074569196
-0.060493585 -0.12327016 -0.080135226 -0.012009695 -0.07549622 0.11840318 -0.17344022 -0.080376826
-0.007461416 0.056915022 -0.067885354 -0.05720979 0.007239489 0.009225143 -0.07088976 -0.11661213

fc2.bias f4 [84]
00000000: ece8 9cba 80c0 eebd 5063 863d 3f77 9fbe
00000010: 9192 7b3c 85f0 583e d51b c6bd 3cb2 a93e
00000020: e047 9a3e 7d1f a1be 790c c03c cfb5 033e
00000030: bfec 833e d202 92be 5d05 e93e 330d 98be
00000040: a95f 79be 2db7 adbe 556c 06be 38ce b7be
00000050: e884 323e 8b38 9fbe 33cf 2bbe 7a89 b13e
00000060: 4497 bcbe 17ec 48be cdcf 76bd 7deb 75be
00000070: 571b 77be 20f9 89be cd0b a2be bf50 98be
00000080: 1711 60be cc3a 98be 2863 173e af3c a0bd
00000090: a0db 58be 7bce a5be fc67 7ebe 83df 43be
000000a0: 3bb4 9dbe 1fe0 b2be 562c 9bbe 456b f9bd
000000b0: 7c17 9abe 822d e4bd 92c0 9cbe dd21 0e3c
000000c0: 89ff 8abe 142a 8bbe 47fa 4dbe 0bf1 c9be
000000d0: 411b 5ebe c308 1fbe a30e 83bd 5349 43be
000000e0: ee24 85be e3a3 aebe ee31 1ebe 460b ccbe
000000f0: 41a5 26be 412b 973d fa6c ffbd efb5 b5be
00000100: ca72 82bd 4c53 ddbe 8ed5 06bd dee3 24be
00000110: 15d5 6abe 9ff9 6bbe f8db 10be 55a3 9abe
00000120: 7ecd 96be 8fe4 e13d 57da 5fbe 493f aebe
00000130: 8c84 16be 1023 87be 026f 98be d552 9bbe
00000140: f14c 1c3e 957d b8bd a032 8bbe b001 95be
-0.0011971272 -0.1165781 0.06561911 -0.31145665 0.015354768 0.21185501 -0.09673277 0.33143795
0.3013296 -0.31469336 0.023443447 0.12862323 0.2576656 -0.28517777 0.45511904 -0.2969757
-0.24352898 -0.33928815 -0.13127263 -0.3589952 0.17433512 -0.31097826 -0.16778259 0.346752
-0.36834157 -0.19621311 -0.060256768 -0.24015613 -0.24131523 -0.2694788 -0.31649628 -0.29749104
-0.2188152 -0.29732358 0.14783919 -0.078240745 -0.2117753 -0.32384095 -0.24844354 -0.19128232
-0.30801567 -0.34936616 -0.30307263 -0.12178663 -0.30096042 -0.111414924 -0.3061567 0.008675066
-0.27148083 -0.2718054 -0.20115004 -0.39441714 -0.21690084 -0.15530686 -0.06399276 -0.1907094
-0.26004738 -0.3410941 -0.15448734 -0.3985235 -0.16273977 0.07381297 -0.124719575 -0.35490367
-0.063695505 -0.43227613 -0.032918505 -0.1610255 -0.22932847 -0.23044442 -0.14146411 -0.30202737
-0.29453653 0.11029922 -0.21860634 -0.34032658 -0.14699 -0.26393938 -0.29772192 -0.30336633
0.15263726 -0.09008328 -0.2718706 -0.2910285

fc3.weight f4 [10, 84]
00000000: e911 23be 523e debe f692 41be bfcb 5ebd
00000010: 8f70 86be a60c f1be 6e50 c7be c1f9 8f3e
00000020: 22af 31bd 7085 60be b84c eabe f03e 49be
00000030: d481 3cbd bcc2 32be 3edf b33d b391 adbd
00000040: 1b31 8fbe 52dd d1be 4e5f 19be 6af7 13be
00000050: dbbf 41be 25a7 8fbe 09f4 babe 6a7a 1b3e
00000060: 4007 81bd 0d41 9abd 3ab1 1ebe 664b 2bbe
00000070: f87d c8bd 4398 49be 46f7 81be d531 fdbd
00000080: 7b6a 78be 2d59 32be 2929 6bbe d50b 07be
00000090: f1ce 26be a427 78be 73e5 5abe 281c 91be
000000a0: 47e4 4abe 8418 9fbe da47 febd a679 c2be
000000b0: da2f 79be 5db9 0dbe 8c55 37be f8e2 05be
000000c0: e028 e4bd 5258 f2bd 5492 11bd c256 74be
000000d0: 6591 93be 06cf febd 14bf a5be 5e1b 84be
000000e0: e506 a9be e603 9dbe ef31 03bf 0380 9ebe
000000f0: 9672 6cbe c815 19bf c094 89be 9ec9 53be
00000100: c1fe 5abe 6b6a dabd f479 96be 8e49 75be
00000110: 71ad 32be 3a15 02bf 3872 b53b adf2 92bd
00000120: 5d13 7ebe 2eee 05bf 1676 5dbe 2481 53be
00000130: 51ac 84be 3edb c7be 5d1c 89be fc69 d7be
00000140: 12c6 10bf 8c8c 92be 98c3 30be d009 5fbe
00000150: f8ae ccbe 6755 08bf 57d2 92be f218 aebe
00000160: 61ae 84be 0634 aa3c 9620 febd 9249 2f3e
00000170: 56b2 6ebe 15ba 77be 9458 4cbe 1d7f 0b3e
00000180: 959f d0be c9e0 4dbe dd4b a53e 5c22 d4bd
00000190: a075 2cbe d5ff 96be 0c82 47be 09c9 1bbe
000001a0: d20d 7fbe 0bc9 95be 2daf 4cbe 440f eebd
000001b0: cab3 e7bd 9b7c abbd a0dc c9be 4bc7 9ebd
000001c0: 6fd4 12be 5e73 9bbe 3c55 7fbe 45ac 4ebe
000001d0: 96ee aebd 7b57 3abd 6c38 9ebe c568 c9be
000001e0: 5d8f 56be adc0 acbe 2b77 26be 10c2 97be
000001f0: d8a2 b4be 9e72 d4be cdba d8be c4ee 86be
00000200: 33cb 79bd 1508 c9be ba63 54be 0e6f 90be
00000210: 12c0 26be ccbd f9bd 8a89 20be 08f8 37be
00000220: 8ddc b1be e496 a0be fc30 46bf bb98 1ebe
00000230: 7cb4 b5be ca98 b5bd 73f3 adbe 213c 6fbe
00000240: f7f9 98be 3028 67be 9901 5bbe 6e60 60be
00000250: 1a60 e6be 5b18 88be b333 33be a9ab dcbd
00000260: cafb e3bd 47b2 9ebe 09d7 b4bd 6ec1 55be
00000270: 9e56 19be e072 20bf 5a20 4fbe e97a 23be
00000280: 9fbc 42be ec1f 12be 8f1a d2bd 3947 b4be
00000290: b4fe 25bf 52d9 9cbe 662f a4be eaa3 71be
000002a0: 25a0 6fbe c9e3 70be b3e6 d3be b01a bcbe
000002b0: 7b74 b4be fefa d0bd bb03 7cbe b5fc 90be
000002c0: 76d8 e9be 5f48 b1be 3470 dbbe e855 55be
000002d0: bb6e f4be bca3 14be 81a0 8cbe a89a 6bbe
000002e0: 733e 31be 6eea 94be dbbf c0be 508e 85be
000002f0: 27ef 4bbe 4054 9dbe 45f4 5abe a9a7 65bd
00000300: 13a1 6cbe c2a6 5dbe 047b e6be 2f92 8bbe
00000310: e0b5 cbbe 9064 26be 219c 9dbe ffb1 15be
00000320: e04b 55be ced2 9ebe 43a9 c1bd badb 6ebe
00000330: 2bcb 59be 7b05 c7be fc69 53be 3a47 abbe
00000340: ab6f 51be 3229 a1be d0a9 dbbe 19ec a2be
00000350: 5ddf 22be dee7 6bbe 5c75 03be 75dc 02bf
00000360: 388c 08be d84e 62be f0b2 52be f042 21be
00000370: be79 97be 8622 46be 8bfe 35be 8df3 aebe
00000380: 591d 64be 3e74 c7be f568 f8be d74a 75be
00000390: 3d50 3ebe f65c 87be 48e5 5ebe 90be 80be
000003a0: dddc 03bf b363 39be 18f9 09bf b11d e5be
000003b0: 5376 82be e2e0 c3be 3c66 bdbd 4753 8dbd
000003c0: b0cd 00bf 18e6 893e 97f4 eabe 02b1 2abe
000003d0: 1691 17be 092c 07bf 5e9c 2dbd 338f 85be
000003e0: 0cb2 e3bd 1864 5bbe 296a 63be 3ffc 73be
000003f0: 0541 cebe 1256 15be 0fa6 b7be 767a a9be
-0.15924801 -0.43406922 -0.18903717 -0.054393526 -0.2625775 -0.47079962 -0.3892855 0.28120235
-0.04337991 -0.21925902 -0.45761657 -0.19652915 -0.04602225 -0.17457098 0.087828144 -0.084750555
-0.27967152 -0.40989166 -0.14977762 -0.1444985 -0.18920843 -0.2805721 -0.3651431 0.15183416
-0.06300211 -0.07531939 -0.15497294 -0.16727981 -0.09789652 -0.1968699 -0.25383967 -0.1236302
-0.24259369 -0.1741683 -0.2296492 -0.13188107 -0.1628988 -0.24233872 -0.2137659 -0.28341794
-0.19813643 -0.3107339 -0.12416048 -0.37983435 -0.2433466 -0.13840242 -0.17903727 -0.13074863
-0.11140609 -0.11833252 -0.03553994 -0.2386122 -0.28821865 -0.1244183 -0.32372344 -0.2580213
-0.33013073 -0.30667037 -0.5124807 -0.3095704 -0.23090586 -0.5979886 -0.268713 -0.2068238
-0.21386243 -0.10664829 -0.29389918 -0.2395384 -0.17448975 -0.5081364 0.0055372976 -0.07175193
-0.24812074 -0.5231656 -0.21627077 -0.20654732 -0.25912717 -0.39034456 -0.26779452 -0.42073047
-0.5655223 -0.28622854 -0.17262113 -0.21781087 -0.3997724 -0.53255314 -0.28676102 -0.34003407
-0.2591429 0.02077676 -0.12408559 0.17117909 -0.23310217 -0.24192078 -0.19955665 0.13622709
-0.4074675 -0.2010528 0.32284442 -0.10358116 -0.16841745 -0.2949206 -0.19483203 -0.15213408
-0.24907616 -0.29254946 -0.199887 -0.116240054 -0.11313589 -0.08373376 -0.39426136 -0.07752856
-0.1433885 -0.30361456 -0.24934858 -0.20182903 -0.085416004 -0.045493584 -0.3090242 -0.39337745
-0.20953126 -0.3374075 -0.16256396 -0.29640245 -0.3528049 -0.41493696 -0.42330018 -0.2635404
-0.0609848 -0.3926398 -0.20741168 -0.28209728 -0.16284207 -0.12194404 -0.15677467 -0.1796571
-0.3473858 -0.3136512 -0.77418494 -0.1548795 -0.3548926 -0.08867033 -0.339748 -0.23362781
-0.29878208 -0.22573924 -0.21387328 -0.21911785 -0.44995195 -0.26581082 -0.1750019 -0.10774929
-0.11132009 -0.3099539 -0.08830077 -0.20874569 -0.14974448 -0.62675285 -0.20227185 -0.15964855
-0.19017266 -0.1426999 -0.10258972 -0.3521059 -0.6484177 -0.30634552 -0.32067412 -0.23597685
-0.23400934 -0.23524393 -0.41386947 -0.3673911 -0.35245118 -0.10204123 -0.24610798 -0.283178
-0.4567296 -0.34625527 -0.42859042 -0.20833552 -0.4774073 -0.14515585 -0.27466205 -0.23008215
-0.17308979 -0.29085106 -0.37646374 -0.26085138 -0.19915448 -0.3072834 -0.21382244 -0.056068096
-0.2310832 -0.21645644 -0.45015728 -0.27259967 -0.39787197 -0.16249299 -0.3078318 -0.14618681
-0.20829725 -0.31020206 -0.09456112 -0.23326007 -0.21268909 -0.3887137 -0.20645899 -0.3345278
-0.20452754 -0.31476742 -0.42902994 -0.31820753 -0.15905519 -0.23037669 -0.12837738 -0.5111764
-0.13334739 -0.22100389 -0.20576072 -0.15748191 -0.2958507 -0.19349107 -0.17772882 -0.3417019
-0.2227682 -0.38955873 -0.48517576 -0.2395433 -0.18585296 -0.2643811 -0.21767151 -0.25145388
-0.51508886 -0.18104438 -0.5389571 -0.44749215 -0.254809 -0.3825751 -0.09248015 -0.069006495
-0.50313854 0.2693336 -0.45889732 -0.16669086 -0.1480144 -0.5280157 -0.04238545 -0.26085815
-0.11117944 -0.21424901 -0.22208466 -0.23826693 -0.4028398 -0.14583614 -0.3586888 -0.33101243

fc3.bias f4 [10]
00000000: b12c 343e d661 3dbe 2322 283e fd94 23bd
00000010: 90f5 e3bc dd88 733d a4fc 60bd 1ecd 5cbe
00000020: c43c 7b3e 8b55 693d
0.17595173 -0.18494353 0.16419272 -0.03993701 -0.027827054 0.059456695 -0.054928437 -0.21562621
0.24534899 0.056966346
