FL/cnn-img/outputs/2025-03-18/18-20-35/model_state_acc_0.2386_round_8.pth (torch, 251962 bytes, 10 tensors)

conv1.weight f4 [6, 3, 5, 5]
0	0x3f3c4dc6	0.7355617
1	0x3f395b0e	0.72404563
2	0x3f3dbb65	0.74114066
3	0x3f25bd42	0.6474191
4	0x3f219932	0.6312438
5	0x3f250f6a	0.64476645
6	0x3f3082cf	0.689496
7	0x3f3f6bae	0.7477368
8	0x3f45420a	0.7705389
9	0x3f360588	0.7110219
10	0x3f2f8329	0.6855951
11	0xbe8b486d	-0.27203694
12	0x3edc27f6	0.42999238
13	0x3f1bf2b3	0.60917205
14	0x3f3dbab3	0.74113005
15	0xbde2eaf0	-0.11079967
16	0xbf1a7c1a	-0.60345614
17	0xbf1c0f7a	-0.60961115
18	0x3f00625f	0.501501
19	0x3f4032e8	0.75077677
20	0xbf4c0d2a	-0.79707587
21	0xbf22041b	-0.63287514
22	0xbf41ffaa	-0.7578074
23	0x3ce38984	0.027775533
24	0x3f3db574	0.74105
25	0xbf42382d	-0.7586697
26	0xbf26b69d	-0.65122396
27	0xbf056dad	-0.52120477
28	0xbf0a11c0	-0.53933334
29	0xbe76ad9c	-0.24089664
30	0xbf131c50	-0.57465076
31	0xbf34c630	-0.7061491
32	0xbf207114	-0.62672544
33	0xbe57123e	-0.21003053
34	0x3ed736d8	0.4203403
35	0x3d380447	0.044925954
36	0xbf2153c5	-0.6301845
37	0xbf0e11c7	-0.55495876
38	0x3e3d3fa1	0.18481304
39	0x3ecb750e	0.39737743
40	0x3df4f1cf	0.11960184
41	0xbf19d621	-0.6009236
42	0xbee1f046	-0.44128627
43	0x3edfe412	0.4372869
44	0x3edfbbc4	0.4369794
45	0x3dc0d28a	0.09415157
46	0xbf345317	-0.70439285
47	0xbe08811e	-0.13330504
48	0x3f087c94	0.5331509
49	0x3f28c12e	0.6591977
50	0xbf1c6ac6	-0.61100423
51	0xbf30f55e	-0.691244
52	0xbf050730	-0.5196409
53	0xbf25c7a2	-0.6475774
54	0xbf29f9cb	-0.6639678
55	0xbef86546	-0.48514766
56	0xbf28814e	-0.65822303
57	0xbf1cdf18	-0.61277914
58	0xbf0e2e77	-0.5553965
59	0xbebe4ace	-0.37166446
60	0xbecc0047	-0.39843962
61	0xbf45ad5d	-0.77217656
62	0xbf3b2fb8	-0.7311969
63	0xbf0a5416	-0.54034555
64	0xbd8213ce	-0.06351434
65	0xbe9cfbc3	-0.3066083
66	0xbf2fd9f6	-0.68691957
67	0xbf3b026c	-0.7305057
68	0xbe8cdc4d	-0.27511826
69	0x3e962c0a	0.29330474
70	0xbe61f582	-0.2206631
71	0xbf1a4e0b	-0.60275334
72	0xbf2454f3	-0.6419212
73	0xbdf1df75	-0.11810199
74	0x3f1db96a	0.61611044
75	0x3ecd98a2	0.40155512
76	0x3ecbc23d	0.3979663
77	0x3e023cea	0.1271855
78	0xbebe98a4	-0.3722583
79	0xbe212540	-0.15736866
80	0x3f2b9fb0	0.6704054
81	0x3f1f8146	0.6230663
82	0x3ef89974	0.48554575
83	0xbf263615	-0.6492627
84	0xbf1dd665	-0.61655265
85	0x3f1bf19f	0.6091556
86	0x3f44ab86	0.76824224
87	0x3f0eceda	0.5578438
88	0xbf4187d7	-0.755979
89	0xbede1b64	-0.43380272
90	0x3f237e68	0.63864756
91	0x3f21906f	0.63111013
92	0x3f05141b	0.51983804
93	0xbeb904fa	-0.3613661
94	0xbef32a08	-0.47493005
95	0x3f102f86	0.56322515
96	0xbe803736	-0.25042123
97	0xbe1ee13b	-0.15515606
98	0xbdcd9b52	-0.100393906
99	0xbe8f30f3	-0.27967033
100	0x3eee2898	0.46515346
101	0x3e802ff9	0.250366
102	0xbe4e9412	-0.20173672
103	0xbf080cd4	-0.53144574
104	0x3e14a0b0	0.14514422
105	0x3f387e3f	0.72067636
106	0x3ecc49f6	0.39900178
107	0xbe14c930	-0.14529872
108	0xbf32eeb1	-0.69895464
109	0xbf09a1ed	-0.53762704
110	0x3f2babc3	0.6705896
111	0x3ea7a98a	0.32746536
112	0x3e7061d7	0.23474823
113	0xbf384748	-0.71983767
114	0xbeda2096	-0.42602986
115	0x3f2e5e9f	0.6811313
116	0x3eafdc97	0.34347984
117	0x3e20c4df	0.157001
118	0x3b9098dc	0.0044127535
119	0xbb409d90	-0.002939079
120	0x3f38cf2a	0.7219111
121	0x3e4451f8	0.19171894
122	0x3daf28b3	0.08552685
123	0x3f3d9def	0.7406911
124	0x3ed64102	0.41846472
125	0xbd9731cd	-0.073825456
126	0xbed3ab64	-0.41341698
127	0xbf11f538	-0.570148
128	0xbf022919	-0.5084396
129	0xbe8c951c	-0.2745751
130	0xbb716dd0	-0.0036839135
131	0xbe8cd449	-0.2750571
132	0xbf008528	-0.5020318
133	0xbf38e25a	-0.72220385
134	0xbf153a9f	-0.58292574
135	0x3e2ea9e8	0.17057002
136	0xbe369f24	-0.17834145
137	0xbf10b62e	-0.56527984
138	0xbf2a5117	-0.66529983
139	0xbf09b8a7	-0.5379738
140	0x3d4e2bd1	0.050334755
141	0xbe9d8100	-0.30762482
142	0xbf203ee3	-0.6259596
143	0xbf2e6f9a	-0.6813904
144	0xbf2c4a3e	-0.67300785
145	0x3bb4ff00	0.0055235624
146	0xbf3d4161	-0.73927885
147	0xbf102c3c	-0.56317496
148	0xbeb8d21d	-0.36097804
149	0xbec06539	-0.37577227
150	0x3f3031ff	0.6882629
151	0x3f0e1fed	0.55517465
152	0x3f2ee8fd	0.6832426
153	0x3f1e524f	0.6184434
154	0xbdde755a	-0.10862227
155	0x3f3ffb7e	0.7499312
156	0x3f3ea65e	0.74472606
157	0x3f375109	0.71608025
158	0x3ed57cf1	0.41696885
159	0x3f00dfb1	0.50341326
160	0x3f36ae48	0.7135968
161	0x3f1f969d	0.6233919
162	0xbf391246	-0.7229351
163	0xbf4655ac	-0.77474475
164	0x3f313568	0.69222116
165	0x3f02e0f1	0.51124483
166	0x3f277db6	0.65426195
167	0xbf2232e0	-0.6335888
168	0xbf4b9d2f	-0.7953672
169	0x3f2b2a58	0.66861486
170	0xbe352285	-0.1768895
171	0xbefe6b3f	-0.49691197
172	0xbf23b21e	-0.6394366
173	0xbf2be63a	-0.6714817
174	0xbe93dcde	-0.28879446
175	0xbe1b3171	-0.15155579
176	0xbe4fb33b	-0.20283215
177	0x3eaca15b	0.33716854
178	0x3e19b9f2	0.15012339
179	0xbeadde75	-0.33958784
180	0x3f05d275	0.52274257
181	0x3e94ab34	0.29036868
182	0xbdf39ea8	-0.11895496
183	0xbe831888	-0.25604653
184	0x3f131184	0.574486
185	0x3f2ad248	0.66727114
186	0x3f471b31	0.77775866
187	0xbf032857	-0.5123343
188	0xbf046d31	-0.5172911
189	0x3f4eb8f4	0.80750966
190	0x3f175305	0.5911105
191	0x3f2d05c3	0.67586917
192	0xbf022c0d	-0.50848466
193	0xbeebdc95	-0.46066728
194	0x3f53473e	0.8253058
195	0x3f182647	0.59433407
196	0x3f2df0d7	0.6794562
197	0x3f20c41e	0.6279925
198	0x3e864662	0.26225573
199	0x3f2534cc	0.64533687
200	0xbf34d613	-0.7063915
201	0xbf51b8c7	-0.8192257
202	0xbf1b4eaf	-0.60666937
203	0xbf2ff2b9	-0.6872974
204	0xbf4624ad	-0.7739971
205	0xbf1ea53d	-0.61970884
206	0xbf474e63	-0.77853984
207	0xbf24426b	-0.64163846
208	0xbf1aae9e	-0.60422695
209	0xbf2ff79d	-0.687372
210	0xbf3baa6d	-0.73306924
211	0xbf18e248	-0.5972028
212	0xbf3c1d18	-0.73481894
213	0xbf39314a	-0.72340834
214	0xbeea5120	-0.45765018
215	0xbeb8587a	-0.36005002
216	0xbf0ea562	-0.55721104
217	0xbf3f5edf	-0.74754137
218	0xbf335e02	-0.7006532
219	0xbedfe921	-0.4373255
220	0xbf17b7c1	-0.5926476
221	0xbf34d730	-0.7064085
222	0xbf42f0c8	-0.76148653
223	0xbf352403	-0.70758075
224	0xbee12845	-0.43976036
225	0x3f3664a2	0.71247303
226	0x3f27be44	0.655247
227	0x3f2086da	0.6270577
228	0x3edb1f7a	0.42797452
229	0x3f119ad8	0.568769
230	0x3f305adf	0.6888866
231	0x3f477ea4	0.77927613
232	0x3f4a2906	0.78968847
233	0x3f4a0f98	0.78930044
234	0x3f0864c8	0.5327878
235	0x3f1974c9	0.59943825
236	0x3f1339b7	0.5750994
237	0x3f29be88	0.6630635
238	0x3f01dc4a	0.5072676
239	0x3e87e099	0.26538542
240	0x3f1e37f8	0.6180415
241	0x3be1b0ac	0.006887516
242	0xbf36d19d	-0.71413594
243	0xbaae7150	-0.0013308916
244	0x3e4de036	0.20105061
245	0x3f36b341	0.7136727
246	0xbf298cd6	-0.66230524
247	0xbf1b6227	-0.60696644
248	0xbf2f598d	-0.6849602
249	0xbf3793d6	-0.71709955
250	0xbe7ccb60	-0.24686956
251	0xbe79f0c6	-0.24408254
252	0xbf3f7d97	-0.7480101
253	0xbf1c38f0	-0.6102438
254	0xbe066195	-0.13123162
255	0x3ec7f2db	0.39052472

conv1.bias f4 [6]
0	0xbf43074e	-0.7618302
1	0xbf33ac73	-0.7018501
2	0xbf1c6d21	-0.6110402
3	0xbf1dc943	-0.61635226
4	0xbf3b45ed	-0.73153573
5	0xbf429f51	-0.7602435

conv2.weight f4 [16, 6, 5, 5]
0	0xbf253055	-0.64526874
1	0xbf41023f	-0.7539405
2	0xbf202c3f	-0.62567514
3	0xbefe55f9	-0.49674967
4	0xbef5b411	-0.47988942
5	0xbf382e98	-0.71946096
6	0xbf184d11	-0.59492594
7	0xbf21d87e	-0.63220966
8	0xbf319b52	-0.69377625
9	0xbf11d8e6	-0.56971586
10	0xbf440a46	-0.76578176
11	0xbf1b4a83	-0.6066057
12	0xbf28dc20	-0.65960884
13	0xbf26bd41	-0.6513253
14	0xbf3c93fa	-0.73663294
15	0xbf373b32	-0.715747
16	0xbf1e7681	-0.6189957
17	0xbf2e1256	-0.6799673
18	0xbf090286	-0.53519475
19	0xbf280f39	-0.6564823
20	0xbf212bf4	-0.6295769
21	0xbf099b4b	-0.53752583
22	0xbede8ea4	-0.434682
23	0xbebc2611	-0.36747792
24	0xbf14f4ea	-0.5818621
25	0xbf3ef915	-0.7459882
26	0xbf0e1551	-0.55501276
27	0xbf235982	-0.63808453
28	0xbf246f27	-0.64232105
29	0xbf212cd5	-0.62959033
30	0xbf356b3c	-0.7086675
31	0xbf229ae5	-0.635176
32	0xbf22d82a	-0.6361109
33	0xbef983fb	-0.48733506
34	0xbf25442d	-0.64557153
35	0xbf197b64	-0.59953904
36	0xbf2c8e0f	-0.67404264
37	0xbf0817ae	-0.5316113
38	0xbee47241	-0.4461842
39	0xbf1cc9d2	-0.61245453
40	0xbf359f36	-0.7094606
41	0xbf274dc2	-0.65353024
42	0xbf083555	-0.5320638
43	0xbf0e1e64	-0.5551512
44	0xbf22a39f	-0.63530916
45	0xbf00cd65	-0.5031341
46	0xbeb4cf9a	-0.35314637
47	0xbe9a38d5	-0.30121484
48	0xbe40bd46	-0.18822202
49	0xbf08a1f8	-0.53372145
50	0xbf31fa87	-0.695229
51	0xbf2aca2a	-0.6671473
52	0xbf3193ae	-0.69365966
53	0xbf296dc0	-0.6618309
54	0xbf14551f	-0.57942384
55	0xbf22cdcc	-0.6359527
56	0xbf2b52cd	-0.6692322
57	0xbf1d2217	-0.6138014
58	0xbf3a0c24	-0.72674775
59	0xbf2df193	-0.6794674
60	0xbf20f49c	-0.62873244
61	0xbf39ebc2	-0.7262536
62	0xbf1f06c7	-0.62119716
63	0xbf2bf843	-0.6717569
64	0xbf2d10c3	-0.676037
65	0xbf28894b	-0.6583449
66	0xbf01cdf1	-0.50704867
67	0xbf33b55b	-0.701986
68	0xbf03bbd8	-0.514585
69	0xbf2da039	-0.67822605
70	0xbedcd0b3	-0.43127975
71	0xbe8f0528	-0.2793362
72	0xbec33192	-0.38123757
73	0xbee7303b	-0.45153984
74	0xbf0d3452	-0.5515796
75	0xbf24f8db	-0.64442223
76	0xbf2afc3d	-0.66791135
77	0xbf250bae	-0.64470947
78	0xbf113d29	-0.5673395
79	0xbe00bf0f	-0.12572883
80	0xbf2ab124	-0.66676545
81	0xbf3897af	-0.7210645
82	0xbf3fed5b	-0.7497155
83	0xbf3d9c77	-0.7406687
84	0xbef528a2	-0.47882563
85	0xbf248b80	-0.6427536
86	0xbf159bb1	-0.5844069
87	0xbf2298fe	-0.635147
88	0xbf15e598	-0.5855346
89	0xbf2e601d	-0.6811541
90	0xbf37851b	-0.7168748
91	0xbf3a486f	-0.72766775
92	0xbef4dbc4	-0.47823918
93	0xbf1e4e31	-0.6183806
94	0xbf208af2	-0.62712014
95	0xbf2853ef	-0.6575307
96	0xbec0c890	-0.37653017
97	0xbeeda9c0	-0.4641857
98	0xbf2b2be9	-0.66863877
99	0xbef1f96d	-0.4726061
100	0xbef7640a	-0.4831851
101	0xbf2a072d	-0.664172
102	0xbce7dec2	-0.028304461
103	0x3e921a6c	0.28535783
104	0x3ed2b465	0.41153255
105	0x3e298fa7	0.16558705
106	0x3d23264f	0.039831456
107	0x3e79b8e6	0.2438694
108	0x3efe0f26	0.49620932
109	0x3f219872	0.6312324
110	0xbeb1c779	-0.34722498
111	0xbf22782f	-0.63464636
112	0xbf29ffb2	-0.66405785
113	0xbf22bcb9	-0.6356922
114	0xbf21fa91	-0.6327296
115	0xbde4486e	-0.11146627
116	0xbee82c76	-0.4534642
117	0xbeefe6c1	-0.4685574
118	0xbf27aa14	-0.65493894
119	0xbf22547f	-0.6341018
120	0xbf0a817d	-0.54103833
121	0xbf40a658	-0.7525382
122	0xbf0c7ca4	-0.54877687
123	0xbf244ccc	-0.6417968
124	0xbea0dbc5	-0.3141767
125	0xbf3f3852	-0.7469531
126	0xbf255ca1	-0.64594465
127	0xbf181a94	-0.59415555
128	0xbdfa298a	-0.12214954
129	0xbdc7d0d6	-0.09756629
130	0xbf0d0f17	-0.5510115
131	0xbf35367f	-0.7078628
132	0xbf1d3fa4	-0.6142523
133	0xbf16180f	-0.5863046
134	0xbf25ab79	-0.6471477
135	0xbf0b837c	-0.54497504
136	0xbf29d6bc	-0.66343284
137	0xbedccf02	-0.43126684
138	0xbee7b62b	-0.4525617
139	0xbe9a8e27	-0.3018658
140	0xbec57097	-0.38562462
141	0xbee917ca	-0.45525962
142	0xbeaf8a9b	-0.34285435
143	0xbee2273f	-0.44170567
144	0xbe8818ec	-0.26581514
145	0xbebdbf07	-0.37059805
146	0xbf19189a	-0.59803164
147	0xbee4e59d	-0.4470643
148	0xbeb400b6	-0.35156792
149	0x3d1242cc	0.035708234
150	0xbe9309ea	-0.287185
151	0xbe9fefec	-0.31237733
152	0xbeca3c26	-0.39499015
153	0xbeae0d6f	-0.33994624
154	0xbeb75ff1	-0.35815385
155	0xbebf292c	-0.373361
156	0xbe89f46e	-0.26944298
157	0xbebc0850	-0.36725092
158	0xbe914cf0	-0.2837901
159	0xbec9ee44	-0.39439595
160	0xbea95e6a	-0.33079845
161	0xbec40480	-0.38284683
162	0xbec00535	-0.37503973
163	0xbea600d6	-0.32422513
164	0xbecb0ab8	-0.39656615
165	0xbec7675c	-0.38946044
166	0xbe940427	-0.28909418
167	0xbea1f25f	-0.31630227
168	0xbeb42e94	-0.35191786
169	0xbecee03a	-0.40405446
170	0xbed3e438	-0.41385055
171	0xbe9e8630	-0.30961752
172	0xbed35681	-0.41276935
173	0xbebc3521	-0.36759284
174	0xbeaaf7fd	-0.33392325
175	0xbecd11a2	-0.40052515
176	0xbec62a60	-0.38704205
177	0xbeb69f27	-0.356683
178	0xbe9294c7	-0.28629133
179	0xbea95883	-0.33075342
180	0xbec84847	-0.39117643
181	0xbebccfd1	-0.368773
182	0xbeabe87c	-0.3357581
183	0xbe9ab86b	-0.30218825
184	0xbeb9fc69	-0.36325386
185	0xbea67ace	-0.32515568
186	0xbe83f5f8	-0.25773597
187	0xbed44a97	-0.41463158
188	0xbed01c47	-0.40646574
189	0xbeb28332	-0.3486572
190	0xbe8d1a13	-0.27558956
191	0xbeb0aa24	-0.34504807
192	0xbe91d984	-0.28486264
193	0xbe9ce0e7	-0.30640337
194	0xbea5e616	-0.32402104
195	0xbeb90997	-0.3614013
196	0xbe9fa502	-0.31180578
197	0xbea697d4	-0.3253771
198	0xbeb1f0e6	-0.34754103
199	0xbec8a4c9	-0.3918822
200	0xbebb44a3	-0.36575803
201	0xbe8b08ef	-0.27155253
202	0xbe8360c1	-0.25659755
203	0xbece6930	-0.40314627
204	0xbe8b2a57	-0.2718074
205	0xbebbda9b	-0.3669022
206	0xbea1e516	-0.3162009
207	0xbe850d1e	-0.2598657
208	0xbecc1872	-0.398624
209	0xbeb5f96e	-0.35541862
210	0xbeb20de9	-0.34776238
211	0xbec7709e	-0.38953108
212	0xbe8b76f3	-0.2723919
213	0xbeb7fa6b	-0.3593324
214	0xbe84f4e2	-0.2596808
215	0xbeadb180	-0.33924484
216	0xbed3cbd4	-0.41366446
217	0xbe9045d0	-0.28178263
218	0xbeb8499d	-0.35993662
219	0xbeb0c557	-0.34525558
220	0xbe88c6c3	-0.26714143
221	0xbeccfd07	-0.40036795
222	0xbe9fd368	-0.31215978
223	0xbecdccc0	-0.40195274
224	0xbe8cbb9c	-0.27486885
225	0xbebe520e	-0.37171978
226	0xbe945aa2	-0.28975397
227	0xbeb5a44a	-0.35476905
228	0xbea211b8	-0.31654143
229	0xbea248bd	-0.3169612
230	0xbe8eba3e	-0.27876467
231	0xbecad78d	-0.39617577
232	0xbe9a7ad8	-0.30171847
233	0xbebe0901	-0.37116244
234	0xbe9c2cae	-0.30502838
235	0xbec2536d	-0.37954274
236	0xbe982229	-0.29713562
237	0xbe8a2d5c	-0.2698773
238	0xbebbb77a	-0.3666342
239	0xbed43adf	-0.41451165
240	0xbe8664ce	-0.26248783
241	0xbeb8ed83	-0.36118707
242	0xbecdadf0	-0.40171766
243	0xbea0a261	-0.31373885
244	0xbebc54dc	-0.36783493
245	0xbe8e63eb	-0.27810606
246	0xbeb5fa71	-0.35542634
247	0xbe88f2a9	-0.26747635
248	0xbeb0473a	-0.34429342
249	0xbecdaf2f	-0.40172717
250	0xbe97a864	-0.2962066
251	0xbeb5d482	-0.35513693
252	0xbebc4582	-0.3677178
253	0xbe8454ba	-0.2584589
254	0xbed254f6	-0.41080445
255	0xbea11dad	-0.31467953

conv2.bias f4 [16]
0	0x3f35f426	0.71075666
1	0xbeccefea	-0.4002679
2	0xbeadd638	-0.33952498
3	0x3f39c17c	0.7256086
4	0x3f0653ff	0.5247192
5	0x3efee178	0.49781394
6	0x3f33db29	0.70256287
7	0x3f3ee77e	0.7457198
8	0xbeb2ea9e	-0.34944624
9	0xbea9974c	-0.33123243
10	0xbecc4784	-0.39898312
11	0x3da1ba4e	0.07896863
12	0x3eccdea1	0.40013602
13	0x3f3116b4	0.6917527
14	0xbecdf0c4	-0.40222752
15	0x3db98c4c	0.09059963

fc1.weight f4 [120, 400]
0	0xbefc3510	-0.49259233
1	0xbf0ce7d6	-0.55041254
2	0xbf036c42	-0.51337063
3	0xbeed5cbe	-0.4635982
4	0xbecd97f0	-0.40154982
5	0xbf0dcfa6	-0.5539497
6	0xbf068899	-0.5255218
7	0xbf1271c7	-0.5720486
8	0xbecbbd24	-0.3979274
9	0xbeb70d7f	-0.35752484
10	0xbf05a927	-0.5221123
11	0xbf0b2a26	-0.5436119
12	0xbdbb2bfa	-0.09139247
13	0xbeaf0c69	-0.34189156
14	0xbef3f7a2	-0.47649866
15	0xbf10cd63	-0.56563395
16	0xbee06b66	-0.43831939
17	0xbed53047	-0.41638395
18	0xbf0cde8f	-0.550271
19	0xbf1798db	-0.59217614
20	0xbf039f13	-0.51414603
21	0xbef85ee2	-0.4850989
22	0xbe09d31d	-0.1345944
23	0x3ef0cfc6	0.4703352
24	0xbd41d980	-0.047326565
25	0x3e9260e1	0.28589538
26	0x3eada84e	0.3391747
27	0x3ec08c0e	0.37606853
28	0xbea55401	-0.32290652
29	0x3ea27d3e	0.31736177
30	0xbe9f6847	-0.31134245
31	0xbeba254f	-0.3635659
32	0xbebfcb13	-0.3745962
33	0xbec145b5	-0.37748495
34	0x3ead25bc	0.33817852
35	0xbea88536	-0.32914132
36	0xbeb9b6f5	-0.36272398
37	0xbeb3016c	-0.34962022
38	0xbebd17d2	-0.36932236
39	0x3eb414c0	0.3517208
40	0x3eb74213	0.35792598
41	0x3ea33d7d	0.3188285
42	0xbe985654	-0.29753363
43	0xbea3e380	-0.32009506
44	0xbe9adbc5	-0.30245796
45	0xbebbb9c4	-0.36665165
46	0xbe9c8b8c	-0.30575216
47	0xbeaeead0	-0.34163523
48	0x3ea5c2f8	0.32375312
49	0xbec493ab	-0.38393912
50	0xbea40bc7	-0.32040235
51	0xbea6c032	-0.32568508
52	0xbea06fa7	-0.31335184
53	0xbebccb96	-0.36874074
54	0xbeb91f7a	-0.36156827
55	0xbec2efcd	-0.38073578
56	0xbe9aaf00	-0.3021164
57	0xbea97637	-0.33098003
58	0x3ebf6347	0.3738043
59	0xbea325d7	-0.31864807
60	0xbea157cb	-0.31512293
61	0xbeb5bf2e	-0.3549742
62	0xbeb4c737	-0.3530824
63	0xbea47c7a	-0.32126218
64	0xbec495fa	-0.38395673
65	0x3eb879a5	0.36030307
66	0xbea0fb1e	-0.31441587
67	0xbeab3d50	-0.33445215
68	0xbe9c4156	-0.30518597
69	0xbe9ac6eb	-0.30229887
70	0xbe9da2f1	-0.30788377
71	0xbeb5757e	-0.35441202
72	0xbe9ec173	-0.31006965
73	0xbead0d0e	-0.33799022
74	0xbe9bf48c	-0.30460012
75	0xbf10d7d0	-0.56579304
76	0xbe36657e	-0.17812154
77	0xbe8d163d	-0.2755603
78	0xbf173c3e	-0.590763
79	0xbedfdc7a	-0.43722898
80	0xbf12a2ba	-0.5727955
81	0xbe645df1	-0.22301461
82	0xbee0c498	-0.4389999
83	0xbf0528de	-0.52015483
84	0xbf0c2e8a	-0.5475851
85	0xbf100f66	-0.56273496
86	0x3da6ec2b	0.08150514
87	0x3e537108	0.20648587
88	0xbea6684f	-0.32501456
89	0x3ddca9ad	0.107745506
90	0xbf12448c	-0.57135844
91	0xbea36d97	-0.31919548
92	0xbe233eba	-0.15941897
93	0xbef22057	-0.47290298
94	0xbe295581	-0.16536523
95	0xbed853b7	-0.4225137
96	0xbed0c598	-0.40775752
97	0xbec20e5a	-0.37901574
98	0xbe9c4592	-0.30521828
99	0xbf0cc3d1	-0.5498629
100	0xbee6efd4	-0.4510485
101	0xbef03276	-0.469135
102	0xbed7c188	-0.4213984
103	0xbea4bf57	-0.3217723
104	0xbec74f59	-0.38927725
105	0xbe727d42	-0.23680595
106	0xbec2bdf5	-0.3803555
107	0x3d58dae8	0.05294314
108	0xbec33c80	-0.38132095
109	0xbecf3cff	-0.40476224
110	0xbecf3773	-0.40471992
111	0xbec50582	-0.38480765
112	0xbe3c01f3	-0.18360119
113	0xbef741ec	-0.48292482
114	0xbecc1a7f	-0.39863965
115	0xbe9e46bd	-0.30913344
116	0xbf0f2ed3	-0.55930823
117	0xbef2f8f6	-0.47455567
118	0xbe8108ea	-0.25202113
119	0xbea5bfa8	-0.32372785
120	0xbebee279	-0.3728216
121	0x3e9bd5ad	0.3043646
122	0x3cbcd63a	0.02305137
123	0xbee4a73c	-0.4465884
124	0xbed284d4	-0.41116965
125	0xbef79b51	-0.48360685
126	0xbea56684	-0.32304776
127	0xbed05587	-0.40690252
128	0xbe16cc4b	-0.14726369
129	0xbf024cde	-0.5089854
130	0xbe9916d8	-0.2990024
131	0xbf0e5cdc	-0.5561044
132	0xbefaa7bb	-0.48956093
133	0xbef6752f	-0.4813628
134	0xbef0384a	-0.46917945
135	0xbe1ca8de	-0.15298793
136	0xbe065e6f	-0.13121961
137	0xbed8e612	-0.4236303
138	0xbf0f93e6	-0.5608505
139	0xbefa9b88	-0.48946786
140	0xbe5599ce	-0.20859453
141	0xbcb3f49a	-0.021967221
142	0xbf035147	-0.51295894
143	0xbf06b455	-0.52618915
144	0xbf172239	-0.59036595
145	0xbf074481	-0.52838904
146	0xbe7fda7c	-0.24985689
147	0xbeb765f4	-0.35819972
148	0xbf068116	-0.5254072
149	0xbf0ae35b	-0.54253167
150	0xbeac0b3c	-0.3360232
151	0xbef79923	-0.48359022
152	0xbe801c22	-0.25021464
153	0xbed30587	-0.41215155
154	0xbef447f1	-0.47711137
155	0xbeddc268	-0.43312383
156	0xbe244156	-0.16040549
157	0xbefc9dd6	-0.4933917
158	0xbf0f8056	-0.560552
159	0xbeea66a9	-0.45781448
160	0xbef7b0b3	-0.48376998
161	0xbe8de7c1	-0.27715877
162	0xbeb7188c	-0.35760915
163	0x3df67255	0.12033526
164	0xbf0cfee2	-0.5507642
165	0xbe81b6b4	-0.25334704
166	0xbf03c770	-0.5147619
167	0xbf00c76c	-0.50304294
168	0xbf052f57	-0.5202536
169	0xbec5394d	-0.3852028
170	0xbec8f0fa	-0.3924635
171	0xbed9cfa1	-0.4254122
172	0xbe40d8b5	-0.18832667
173	0xbe2e9869	-0.17050327
174	0xbedf2f7f	-0.43590924
175	0xbeda5f0c	-0.4265064
176	0xbea330cd	-0.3187317
177	0xbebcef62	-0.36901385
178	0xbeaa1e31	-0.3322616
179	0xbe9d3d53	-0.3071085
180	0xbef05c6e	-0.46945518
181	0xbee72f69	-0.4515336
182	0xbeee5e73	-0.46556434
183	0xbef094b2	-0.46988446
184	0xbefd85c2	-0.49516112
185	0xbf10c778	-0.56554365
186	0x3f10e63b	0.56601304
187	0xbf0023e4	-0.50054765
188	0xbf0cb2f1	-0.5496054
189	0xbf16796f	-0.5877904
190	0xbeeca7d8	-0.46221805
191	0xbe57f555	-0.2108968
192	0xbecc868f	-0.3994641
193	0xbe5e4f90	-0.21710038
194	0xbef336dc	-0.47502792
195	0xbf02a35f	-0.51030535
196	0xbe3b6a4d	-0.1830227
197	0xbe400ba7	-0.18754445
198	0xbef6304e	-0.4808373
199	0xbee68c57	-0.45028946
200	0xbea40e53	-0.3204218
201	0xbe975a35	-0.2956101
202	0xbea98292	-0.3310743
203	0xbea11284	-0.3145944
204	0xbeb66893	-0.3562666
205	0xbeba64b8	-0.36404967
206	0xbeb64694	-0.35600722
207	0xbe93f899	-0.28900602
208	0xbe95fd92	-0.2929502
209	0xbead0d2b	-0.3379911
210	0xbea596d6	-0.3234164
211	0xbe9e77f5	-0.30950895
212	0xbe9eb401	-0.30996707
213	0xbea30dd7	-0.31846496
214	0xbec417a8	-0.38299298
215	0x3eb4e584	0.35331357
216	0xbeb9ecf9	-0.36313608
217	0xbec38b4e	-0.3819222
218	0xbea1736b	-0.3153337
219	0xbe94f432	-0.29092556
220	0xbeba16c3	-0.3634549
221	0xbea30607	-0.31840536
222	0xbebf3f6d	-0.37353078
223	0xbe95b8fd	-0.29242697
224	0xbe9406f2	-0.2891155
225	0xbeaf0ebf	-0.34190938
226	0xbec42080	-0.38306046
227	0xbec25016	-0.37951726
228	0xbe9ccbab	-0.30624136
229	0xbea8fd02	-0.3300553
230	0xbeb613ce	-0.35561985
231	0xbeb44d80	-0.35215378
232	0x3ec3aa7b	0.38216004
233	0xbe935b42	-0.28780562
234	0xbe973822	-0.29535013
235	0xbeb6309b	-0.35583958
236	0xbebe82ba	-0.3720911
237	0xbebf2ce4	-0.37338936
238	0xbe92448d	-0.28567925
239	0xbea59f23	-0.32347974
240	0xbea9c70f	-0.33159682
241	0x3eb049d4	0.34431326
242	0xbebc5c9b	-0.36789402
243	0xbeb3c2ed	-0.35109654
244	0xbeb4f354	-0.35341895
245	0xbe9478af	-0.28998324
246	0xbe9fcfb3	-0.3121315
247	0xbea5683d	-0.3230609
248	0xbea4671c	-0.32109916
249	0xbec3e8ce	-0.38263553
250	0xbeb301fc	-0.3496245
251	0x3eae1b86	0.34005374
252	0xbeabb823	-0.33538923
253	0xbeb64de6	-0.35606307
254	0xbea10897	-0.31451866
255	0xbeac97d4	-0.33709586

fc1.bias f4 [120]
0	0xbf0c73c1	-0.54864126
1	0xbf295ba0	-0.66155434
2	0xbf2c4cfa	-0.67304957
3	0xbf177764	-0.5916655
4	0xbf191020	-0.5979023
5	0xbf1c93f2	-0.61163247
6	0xbebc19e0	-0.3673849
7	0xbf079501	-0.52961737
8	0xbf26cabd	-0.65153104
9	0xbf210019	-0.62890774
10	0xbf3c77d5	-0.7362035
11	0xbf3175f6	-0.6932062
12	0xbf1f0545	-0.62117416
13	0xbf2c6c8d	-0.67353135
14	0xbf284562	-0.6573087
15	0xbf2c695d	-0.6734827
16	0xbef20ec2	-0.47276884
17	0xbf26a89b	-0.6510102
18	0xbf28e1f1	-0.6596976
19	0xbf1a5205	-0.602814
20	0xbf30ee74	-0.6911385
21	0xbf10fb7f	-0.5663375
22	0xbf20c46f	-0.62799734
23	0xbf19f16a	-0.60133994
24	0xbf1ce5bf	-0.61288065
25	0xbf28a913	-0.65882987
26	0xbf299db2	-0.6625625
27	0xbf278a8c	-0.6544578
28	0xbf270cc0	-0.6525383
29	0xbf2a7153	-0.6657917
30	0xbec2837a	-0.37990934
31	0x3f2ab154	0.6667683
32	0xbeed24af	-0.4631705
33	0xbefc823a	-0.49318105
34	0xbf24e4ff	-0.6441192
35	0xbf30071d	-0.68760854
36	0xbf2c76ac	-0.6736858
37	0xbf176894	-0.5914395
38	0xbf13d5c3	-0.5774805
39	0xbf11e6b1	-0.5699263
40	0xbf28cc62	-0.65936863
41	0xbf220205	-0.6328433
42	0xbf1b2e38	-0.606174
43	0xbf2041fd	-0.6260069
44	0xbf33e839	-0.7027622
45	0xbf1ce006	-0.6127933
46	0xbf18879f	-0.5958194
47	0xbf2a0650	-0.6641588
48	0xbf374f1f	-0.71605104
49	0xbf29b5a4	-0.66292787
50	0xbf1b2ea0	-0.6061802
51	0xbf1cf5db	-0.61312646
52	0xbf1c4cd6	-0.6105474
53	0xbf11e8d2	-0.5699588
54	0xbe3fd914	-0.18735152
55	0xbf2d882e	-0.6778592
56	0xbf382e80	-0.71945953
57	0xbf29bb4c	-0.6630142
58	0xbf24bc22	-0.6434957
59	0xbf173441	-0.5906411
60	0xbf20a2fa	-0.6274868
61	0xbf28de95	-0.65964633
62	0xbf22d45c	-0.63605285
63	0xbf282367	-0.6567902
64	0xbeaa38a5	-0.3324634
65	0xbf384261	-0.71976286
66	0xbf21a810	-0.6314707
67	0xbf1c88ee	-0.6114644
68	0xbf25dc7a	-0.64789546
69	0xbf10956a	-0.5647799
70	0xbf1ba81e	-0.608034
71	0x3f11bd0c	0.5692909
72	0xbf1f3efa	-0.6220547
73	0xbf043d26	-0.51655805
74	0xbf17de33	-0.59323424
75	0xbf1416d8	-0.57847357
76	0xbf1bb191	-0.6081782
77	0xbf165e37	-0.5873751
78	0xbf0768e3	-0.5289442
79	0xbf3e21ec	-0.7427051
80	0xbf19b9ca	-0.60049117
81	0xbf2a46fb	-0.6651456
82	0xbf1f9148	-0.62331057
83	0xbf1bf62c	-0.60922503
84	0xbf2e70e0	-0.68140984
85	0xbf213181	-0.6296616
86	0xbf1e756a	-0.6189791
87	0xbf19bc00	-0.6005249
88	0xbf23a080	-0.6391678
89	0xbf2da2a2	-0.6782628
90	0xbf1848e6	-0.59486234
91	0xbf0839f9	-0.5321346
92	0xbf24839c	-0.6426332
93	0xbf307da5	-0.6894172
94	0xbf2f5439	-0.6848789
95	0xbf19545f	-0.59894365
96	0xbf189c65	-0.5961364
97	0xbf23e767	-0.64024967
98	0xbf19c186	-0.6006092
99	0xbf20fd20	-0.6288624
100	0xbf1074a7	-0.56428
101	0xbf279bf6	-0.6547235
102	0xbf202307	-0.6255345
103	0xbec45138	-0.38343215
104	0xbf2611f7	-0.6487116
105	0xbf28e6ce	-0.6597718
106	0xbf26ea7c	-0.65201545
107	0xbf006dea	-0.50167716
108	0xbf06d438	-0.5266757
109	0xbeeea1fa	-0.46607953
110	0xbf2dd307	-0.6790013
111	0xbf19240f	-0.59820646
112	0xbf25245c	-0.64508605
113	0xbf148b19	-0.58024746
114	0xbf319ed1	-0.6938296
115	0xbf00297a	-0.5006329
116	0xbf1e05aa	-0.6172739
117	0xbf1b7b39	-0.607349
118	0xbf3a8970	-0.72865963
119	0xbf3cea42	-0.7379495

fc2.weight f4 [84, 120]
0	0xbd9ce02a	-0.076599434
1	0xbe4f04e0	-0.20216703
2	0xbe5e20a0	-0.21692133
3	0x3e75b2b1	0.23993947
4	0x3c70ce6c	0.014697652
5	0x3bd47bde	0.0064844927
6	0xbe20a083	-0.1568623
7	0xbec7f31a	-0.3905266
8	0xbef5fe74	-0.48045695
9	0x3e96668a	0.29375106
10	0xbf25c214	-0.64749265
11	0xbe4d86c6	-0.20070943
12	0xbde62c28	-0.11238891
13	0xbbc8e658	-0.0061309747
14	0xbecbf15f	-0.3983259
15	0xbe7c3882	-0.24630931
16	0xbf0b4973	-0.5440895
17	0xbe4d0b75	-0.20023902
18	0xbe6c723a	-0.23090449
19	0xbe417095	-0.18890603
20	0xbf2fda8a	-0.6869284
21	0xbc0a0018	-0.008422874
22	0xbf009773	-0.50231093
23	0xbe9b0dc3	-0.30283937
24	0x3dabeed1	0.0839516
25	0xbf10a321	-0.56498915
26	0xbee153ca	-0.44009238
27	0xbf01e40e	-0.5073861
28	0xbd6e3d2c	-0.058163807
29	0xbed28c1d	-0.41122523
30	0xbf1da9dd	-0.61587316
31	0xbf2657de	-0.64977825
32	0xbe14284c	-0.14468497
33	0xbe8062ab	-0.25075278
34	0xbe9be3e4	-0.30447304
35	0xbe2105d8	-0.15724885
36	0xbf0baf24	-0.5456412
37	0xbede971f	-0.4347467
38	0x3e2d7dce	0.16942522
39	0xbdef2787	-0.11677461
40	0xbea5af6b	-0.32360396
41	0x3d2a7f90	0.04162556
42	0x3f0381e0	0.5137005
43	0xbedbd93b	-0.4293917
44	0xbeadfffa	-0.33984357
45	0xbcc01697	-0.023448272
46	0xbc97fa2e	-0.018551912
47	0x3ea56a2b	0.32307562
48	0xbf1a4e01	-0.60275275
49	0xbe7f8d95	-0.24956353
50	0x3e813180	0.25233078
51	0x3e3cdbc7	0.18443213
52	0xbf29bfb0	-0.66308117
53	0xbec4f327	-0.3846676
54	0xbdf91ce2	-0.12163712
55	0x3d6cf1d7	0.057847824
56	0xbf1c59bf	-0.6107444
57	0xbea9b67b	-0.33147034
58	0x3ed3d480	0.41373062
59	0xbee97c45	-0.45602623
60	0xbeeee819	-0.4666145
61	0x3e026f69	0.12737812
62	0xbe8dd554	-0.2770182
63	0x3e01d42d	0.12678595
64	0xbee1a301	-0.44069675
65	0xbed1ecb6	-0.4100091
66	0xbed48089	-0.41504315
67	0xbd73889c	-0.059456453
68	0xbefd09d9	-0.49421576
69	0xbef92d52	-0.4866739
70	0x3ecb8e82	0.39757162
71	0xbecee350	-0.404078
72	0xbf0daa81	-0.55338293
73	0xbed570ed	-0.41687718
74	0xbef97fbd	-0.4873027
75	0xbe87b77d	-0.26507178
76	0xbdcd94bd	-0.10038135
77	0x3d838053	0.0642096
78	0xbedb8e42	-0.42881972
79	0xbf07257c	-0.5279157
80	0xbe878320	-0.26467228
81	0xbed34393	-0.41262493
82	0xbed58ba9	-0.41708115
83	0x3eeb06b6	0.45903558
84	0xbe82c4ff	-0.2554092
85	0xbe9c1de4	-0.30491555
86	0xbea84bbe	-0.32870287
87	0xbeb795b0	-0.3585639
88	0x3dc78670	0.09742439
89	0xbd7b0628	-0.061285168
90	0xbf098f7e	-0.53734577
91	0xbedd0dcf	-0.43174598
92	0xbe8d6ed9	-0.27623633
93	0xbedcede8	-0.43150258
94	0xbd5b14aa	-0.053486504
95	0xbea58891	-0.32330754
96	0xbdb8704a	-0.090057924
97	0x3e09ca60	0.13456106
98	0xbea79825	-0.32733265
99	0x3ede9f14	0.43480742
100	0xbeedae5a	-0.46422082
101	0xbe17efe5	-0.14837606
102	0x3d1eb7ba	0.038749434
103	0xbec7aa67	-0.38997194
104	0xbe89dcbb	-0.26926216
105	0x3f231f5b	0.6371972
106	0xbe2782b1	-0.16358449
107	0xbe59845c	-0.21241897
108	0xbf156840	-0.583622
109	0xbdd47641	-0.10374118
110	0xbc3435ca	-0.010999152
111	0xbd6cf5af	-0.05785149
112	0xbdd0267e	-0.10163592
113	0xbe3bbe9a	-0.18334427
114	0xbf13f50d	-0.5779579
115	0xbdf6dcc6	-0.12053828
116	0xbe461f40	-0.19347858
117	0xbe5b4d81	-0.21416284
118	0xbf0a5f34	-0.5405152
119	0xbf471f6c	-0.7778232
120	0x3c0af18c	0.008480441
121	0xbe564d34	-0.20927888
122	0xbee0ad27	-0.43882105
123	0xbe9706ff	-0.29497525
124	0x3e9f02ac	0.31056726
125	0xbecd9c5d	-0.40158358
126	0xbf0b71f6	-0.54470766
127	0xbef5f3a4	-0.48037446
128	0xbea539f9	-0.32270792
129	0xbed1b1f8	-0.40956092
130	0xbf22f410	-0.6365366
131	0xbef68345	-0.48147026
132	0xbe8a9569	-0.27067116
133	0xbef2694b	-0.47345957
134	0xbed99b13	-0.42501125
135	0xbeff8ac3	-0.49910554
136	0xbea9dd1d	-0.3317651
137	0xbea9517b	-0.33069977
138	0xbee6a116	-0.45044774
139	0xbe499b2a	-0.19688097
140	0xbf209728	-0.62730646
141	0xbeea6168	-0.4577744
142	0xbeb9b04c	-0.36267316
143	0xbf068cd8	-0.5255866
144	0xbeebd1b1	-0.4605842
145	0xbe502375	-0.20326026
146	0xbf036a82	-0.51334393
147	0xbeb4ca8e	-0.35310787
148	0xbe9edd3c	-0.31028163
149	0xbe991630	-0.2989974
150	0xbee97cd4	-0.4560305
151	0xbf12b0da	-0.57301104
152	0xbf1713ca	-0.5901457
153	0xbecacc98	-0.39609218
154	0xbe97a59a	-0.2961853
155	0xbef21894	-0.47284377
156	0xbeac1da1	-0.33616355
157	0xbe5648ca	-0.20926204
158	0xbeb2ca11	-0.3491979
159	0xbeaaf02c	-0.33386362
160	0x3ed075b4	0.407148
161	0xbf052fd9	-0.52026135
162	0xbd4445e9	-0.047918234
163	0x3e1d4c5d	0.15361162
164	0xbe8cadbb	-0.27476296
165	0xbecc8154	-0.3994242
166	0xbe246796	-0.1605514
167	0x3e189ae9	0.14902844
168	0xbece580b	-0.40301546
169	0xbec7f52f	-0.39054248
170	0xbf128afc	-0.57243323
171	0xbec80365	-0.3906509
172	0xbed629c8	-0.41828752
173	0xbeacbb7c	-0.3373679
174	0xbf1739ff	-0.5907287
175	0xbede12e4	-0.43373787
176	0xbf0a7096	-0.5407804
177	0xbf07216a	-0.5278536
178	0xbe5a9f1a	-0.21349755
179	0xbef3b10b	-0.4759601
180	0x3ea7cf64	0.32775414
181	0xbd0fb03a	-0.035080172
182	0xbefce90b	-0.49396548
183	0xbf002c04	-0.5006716
184	0xbe1c5e6f	-0.15270399
185	0xbeb86a1f	-0.36018464
186	0xbe8d1b73	-0.27560005
187	0xbe9cd398	-0.30630183
188	0xbe60cfee	-0.21954319
189	0xbf0d3651	-0.55161005
190	0xbe7cadaf	-0.2467563
191	0x3c084cdb	0.008319105
192	0xbf04bfea	-0.5185534
193	0xbecc55eb	-0.399093
194	0xbea82580	-0.3284111
195	0xbf089ad8	-0.5336127
196	0xbe920d05	-0.28525558
197	0xbe7a47fa	-0.2444152
198	0xbf06ecfc	-0.5270536
199	0xbe774dba	-0.24150744
200	0x3eb4d98d	0.35322228
201	0xbe760ca4	-0.2402826
202	0xbe1d0b9a	-0.15336457
203	0xbe7878f6	-0.24264893
204	0x3d55b002	0.052169807
205	0x3d38d689	0.04512647
206	0xbf118ff3	-0.56860274
207	0x3cdbf9ee	0.026852574
208	0x3d9b2c2d	0.07576785
209	0xbecd26e2	-0.40068728
210	0xbef22d3f	-0.47300145
211	0xbe0d10e1	-0.1377597
212	0xbe8ec944	-0.27887928
213	0xbe842d5e	-0.25815862
214	0xbd4aafc9	-0.049484048
215	0xbf0e18e6	-0.5550674
216	0xbe9849c7	-0.29743788
217	0xbe13e121	-0.14441349
218	0xbe9fac2e	-0.3118605
219	0xbdb3213b	-0.087465726
220	0xbe540ffa	-0.2070922
221	0xbee13e08	-0.4399264
222	0xbe893d62	-0.26804644
223	0xbe7dc4ca	-0.247821
224	0xbe767968	-0.2406975
225	0xbf1b42c1	-0.60648733
226	0xbe83d3bb	-0.25747475
227	0xba21be80	-0.00061700493
228	0xbf1cf7e6	-0.61315763
229	0xbee4898c	-0.4463619
230	0xbeaa95a8	-0.33317304
231	0xbe943743	-0.2894841
232	0xbed95334	-0.4244629
233	0xbe873246	-0.26405543
234	0xbf02108b	-0.5080649
235	0xbed57fc1	-0.4169903
236	0xbeb4f607	-0.35343954
237	0xbca6c200	-0.020356178
238	0xbf256bf6	-0.6461786
239	0xbf1ec275	-0.6201547
240	0xbecdf87d	-0.40228644
241	0xbecedc04	-0.40402234
242	0xbecbc459	-0.3979824
243	0x3d5cd716	0.05391606
244	0xbeb4eca8	-0.35336804
245	0xbea45119	-0.32093123
246	0xbeb88b37	-0.36043712
247	0xbece2f9b	-0.40270695
248	0xbebac08c	-0.36475027
249	0xbe65b842	-0.2243357
250	0xbec64f41	-0.3873234
251	0xbe9de9a9	-0.3084233
252	0xbeda7b52	-0.4267221
253	0xbe3ec58c	-0.18630046
254	0xbe81cf3c	-0.2535342
255	0xbea3b383	-0.31972894

fc2.bias f4 [84]
0	0xbf225720	-0.6341419
1	0xbf355cf5	-0.70844966
2	0xbf05ad6e	-0.5221776
3	0xbf002f2c	-0.5007198
4	0xbf3f85b4	-0.7481339
5	0xbf1f13f9	-0.6213985
6	0xbf07a8bf	-0.5299186
7	0xbefdba2e	-0.49556106
8	0xbf0e54f1	-0.5559836
9	0xbf28efe9	-0.65991074
10	0xbf0dbfb8	-0.55370665
11	0x3f2685cb	0.650479
12	0xbf1b5e3b	-0.6069066
13	0xbf42a94c	-0.76039577
14	0xbf269566	-0.65071714
15	0xbf2865ff	-0.65780634
16	0xbf2e97f4	-0.6820061
17	0x3f1b86cf	0.60752577
18	0xbf188348	-0.5957532
19	0xbf289403	-0.6585085
20	0xbf01ec90	-0.5075159
21	0xbf2a3317	-0.66484207
22	0xbf2b0246	-0.66800344
23	0xbf3ac009	-0.7294927
24	0xbf1cba6d	-0.61221963
25	0xbf1ad0d0	-0.6047487
26	0xbf1ec9d8	-0.6202674
27	0x3f29d4b7	0.663402
28	0x3f434fe6	0.7629379
29	0xbf10534a	-0.5637709
30	0xbf37fae2	-0.7186719
31	0x3f124ad0	0.57145405
32	0xbf237502	-0.63850415
33	0xbf0190cc	-0.5061157
34	0xbf301247	-0.6877789
35	0xbf301af6	-0.6879114
36	0xbf32f0a5	-0.69898444
37	0xbf1d8d1e	-0.6154345
38	0xbf41c110	-0.75685215
39	0xbf21702e	-0.630618
40	0xbf3903f8	-0.7227168
41	0xbf1cced1	-0.61253077
42	0xbf2455ac	-0.64193225
43	0xbf1bd3c2	-0.6086999
44	0xbf25bbfd	-0.6473997
45	0xbf06286b	-0.5240542
46	0xbf47c914	-0.78041196
47	0xbf272940	-0.6529732
48	0xbf144cf1	-0.57929903
49	0x3f2df3a9	0.6794992
50	0xbf4c1c29	-0.7973047
51	0xbf14cd84	-0.5812609
52	0x3f217af1	0.6307822
53	0x3f37fb6c	0.71868014
54	0xbf24dcd5	-0.6439946
55	0xbf2e706f	-0.6814031
56	0xbf24f74a	-0.64439833
57	0xbf402c0b	-0.75067204
58	0x3f1a63a5	0.60308295
59	0x3f1c6f0d	0.6110695
60	0xbf1d28f5	-0.6139062
61	0xbf2e7c50	-0.68158436
62	0xbf30df6b	-0.6909091
63	0xbf142221	-0.57864577
64	0xbf1f297b	-0.6217267
65	0xbf182f95	-0.59447604
66	0xbf27692c	-0.65394855
67	0xbf2c9e8e	-0.67429435
68	0xbf1273a4	-0.57207704
69	0xbf14d032	-0.5813018
70	0xbf329ac6	-0.69767416
71	0xbf335ff5	-0.70068294
72	0xbf08f26e	-0.5349492
73	0xbf36703e	-0.7126502
74	0x3f1ce7cb	0.6129119
75	0xbf22a92c	-0.63539386
76	0xbf18abb0	-0.59636974
77	0xbef68aa0	-0.48152637
78	0x3f2d6958	0.67738867
79	0xbf203b62	-0.6259061
80	0x3f2fc31b	0.6865708
81	0x3f2adfa3	0.6674749
82	0xbf392a93	-0.7233059
83	0xbf3c908b	-0.73658055

fc3.weight f4 [10, 84]
0	0xbf1fc84c	-0.62415004
1	0xbf2b88d5	-0.67005664
2	0xbe6b766a	-0.2299439
3	0xbf3bec07	-0.73407024
4	0xbf155c80	-0.5834427
5	0xbf2f0a50	-0.6837511
6	0xbf12125c	-0.57059264
7	0xbf215148	-0.6301465
8	0xbf3ce05b	-0.7377984
9	0xbf163b40	-0.5868416
10	0xbf3b5e8e	-0.73191154
11	0xbf27fc2d	-0.65619165
12	0xbf4590d2	-0.77174103
13	0xbf34ad9f	-0.70577425
14	0xbf17808e	-0.59180534
15	0xbf148e64	-0.5802977
16	0xbf1e5bdf	-0.61858934
17	0xbf000ab5	-0.5001634
18	0xbf133022	-0.5749532
19	0xbf226754	-0.63438916
20	0xbf4d51c4	-0.8020289
21	0xbef2f563	-0.4745284
22	0xbf44c4d1	-0.7686282
23	0xbf3f384a	-0.74695265
24	0xbf1c5607	-0.6106877
25	0xbf2d04bc	-0.6758535
26	0xbed055d7	-0.4069049
27	0xbec54630	-0.3853011
28	0xbf28519b	-0.6574952
29	0x3ef83057	0.4847438
30	0xbef65a1e	-0.4811563
31	0xbe76341c	-0.24043316
32	0xbf29a9bb	-0.66274613
33	0xbf0f9fed	-0.561034
34	0xbf1a0cbd	-0.6017569
35	0xbf31bb59	-0.69426495
36	0xbf36749f	-0.712717
37	0xbf25fb38	-0.64836454
38	0xbf1c5c80	-0.61078644
39	0xbf27599a	-0.65371096
40	0xbe433c20	-0.19065905
41	0xbf43264d	-0.7623032
42	0xbf28b82d	-0.6590603
43	0xbf29eb45	-0.6637462
44	0xbf2537ca	-0.6453825
45	0xbf1d7ffb	-0.6152341
46	0x3caa5bd2	0.020795736
47	0xbf3aa7d7	-0.72912353
48	0xbf0bb4c7	-0.5457272
49	0xbebc1819	-0.36737135
50	0xbf2a24a7	-0.6646218
51	0xbf2628e7	-0.6490616
52	0xbef151d0	-0.4713273
53	0xbe85c18d	-0.2612423
54	0xbf481505	-0.78157073
55	0xbf2c842e	-0.6738919
56	0xbf2d8d0a	-0.67793334
57	0xbf3972a1	-0.72440535
58	0xbe8b51dd	-0.27210894
59	0xbf26b9b5	-0.65127116
60	0xbf3cd766	-0.7376617
61	0xbf435549	-0.7630201
62	0xbf32961d	-0.69760305
63	0xbf17dbf3	-0.5931999
64	0xbf486e00	-0.78292847
65	0xbf2c5da8	-0.6733041
66	0xbf309729	-0.6898065
67	0xbf4461b2	-0.7671157
68	0xbf2e4172	-0.6806861
69	0xbf2f355e	-0.68440807
70	0xbf1772cd	-0.5915955
71	0xbf1c2826	-0.6099876
72	0xbf0b2123	-0.5434744
73	0xbf4ce825	-0.80041724
74	0xbf043e8f	-0.51657957
75	0xbeef6096	-0.46753377
76	0xbf1bbd2e	-0.6083554
77	0xbf081ccd	-0.53168947
78	0xbf215b2f	-0.6302976
79	0xbf14c911	-0.58119303
80	0xbf07d9e6	-0.5306686
81	0xbe928c0b	-0.2862247
82	0xbf426841	-0.7594033
83	0xbf23f449	-0.64044625
84	0xbf3fdaba	-0.74943125
85	0xbf233323	-0.63749903
86	0xbe11a573	-0.1422327
87	0xbf1f06e0	-0.62119865
88	0xbf150e1c	-0.58224654
89	0xbecbefe7	-0.39831468
90	0xbf23e905	-0.64027435
91	0xbf3b88e1	-0.73255736
92	0xbf4da374	-0.80327535
93	0xbf2d8165	-0.67775565
94	0xbf4acb50	-0.7921648
95	0xbe35a8d0	-0.17740178
96	0xbf47a6ac	-0.77988696
97	0xbf42c420	-0.76080513
98	0xbf3a9aa4	-0.7289221
99	0xbf2847ee	-0.65734756
100	0xbf2994eb	-0.66242856
101	0xbe770772	-0.24123934
102	0xbf25a403	-0.6470339
103	0xbf23c7bf	-0.63976663
104	0xbf446b8f	-0.7672662
105	0xbf1d79d1	-0.61514
106	0xbf4ca4ec	-0.7993915
107	0xbf208bf0	-0.6271353
108	0xbf2d7527	-0.67756885
109	0xbf39497a	-0.7237774
110	0xbeec1e7f	-0.46117017
111	0xbe652e26	-0.22380885
112	0xbf2108c6	-0.6290401
113	0xbf452e84	-0.770241
114	0xbed2465d	-0.41069308
115	0xbe0b3525	-0.13594492
116	0xbf395525	-0.72395545
117	0xbec602d2	-0.38674027
118	0xbf483046	-0.7819866
119	0xbf36e3cd	-0.71441346
120	0xbf1a2b5b	-0.60222405
121	0xbf3b164c	-0.730809
122	0xbf3f11ec	-0.7463672
123	0xbf1c7891	-0.6112147
124	0x3ed1ed4a	0.4100135
125	0xbf19daa0	-0.6009922
126	0xbf375552	-0.71614563
127	0xbf1d30ea	-0.6140276
128	0xbf40bbf7	-0.7528681
129	0xbf1e2921	-0.6178151
130	0x3e195e07	0.14977275
131	0xbf3fccb7	-0.74921745
132	0xbf1ae33f	-0.60503
133	0xbe687155	-0.22699483
134	0xbf2bb311	-0.6707011
135	0xbf44b3e3	-0.76836985
136	0xbe0da33a	-0.13831797
137	0xbf173828	-0.5907006
138	0xbf13902f	-0.5764188
139	0xbf457801	-0.77136236
140	0xbf2a9382	-0.6663133
141	0xbf1bc049	-0.6084028
142	0xbd319b50	-0.04336101
143	0xbed1c4f4	-0.40970576
144	0xbf27fc85	-0.6561969
145	0xbf3c0996	-0.73452127
146	0xbf18627f	-0.59525293
147	0xbf29e2b6	-0.6636156
148	0xbf3fef57	-0.7497458
149	0xbf2bd35e	-0.67119396
150	0xbf2960dc	-0.6616342
151	0xbf1b8b5c	-0.6075952
152	0xbf3aa471	-0.7290717
153	0xbf463652	-0.77426636
154	0xbf46a452	-0.7759448
155	0xbf1f6b82	-0.6227342
156	0xbf398680	-0.72470856
157	0xbf259321	-0.64677626
158	0xbf2c82f0	-0.67387295
159	0xbf1f617d	-0.6225813
160	0xbf251bad	-0.64495355
161	0xbf25fd7b	-0.64839906
162	0xbf19ad02	-0.60029614
163	0xbf16dba4	-0.58928895
164	0xbe4c8cd0	-0.1997559
165	0xbe23142e	-0.15925667
166	0xbf3ae527	-0.7300591
167	0xbf38e43a	-0.72223246
168	0xbf3f6902	-0.74769604
169	0xbf2e0e7c	-0.6799085
170	0xbe875726	-0.26433676
171	0xbf0951ad	-0.5364025
172	0xbf3d11f4	-0.7385552
173	0xbf3a4cee	-0.72773635
174	0xbee62b49	-0.449549
175	0xbf2fdaea	-0.6869341
176	0xbf1a42f5	-0.6025842
177	0xbf0ce040	-0.5502968
178	0xbf27d859	-0.65564495
179	0xbec3e941	-0.38263896
180	0xbf2e5315	-0.68095523
181	0xbf4ae349	-0.7925306
182	0xbf14d463	-0.58136576
183	0xbf43cf76	-0.76488435
184	0xbf4a748e	-0.790841
185	0x3e993685	0.29924408
186	0xbf40b499	-0.7527557
187	0xbf26e134	-0.6518738
188	0xbf3b2891	-0.73108774
189	0xbf21822c	-0.6308925
190	0xbf256e48	-0.646214
191	0xbf42d1d1	-0.76101404
192	0xbf454944	-0.7706492
193	0xbf2e65bc	-0.68123984
194	0xbf0865d8	-0.532804
195	0xbe456de1	-0.19280197
196	0xbe2fc0e8	-0.17163432
197	0xbd3121fe	-0.043245308
198	0xbf1a6397	-0.6030821
199	0xbe981909	-0.297066
200	0xbf1ad492	-0.60480607
201	0xbf248a33	-0.64273375
202	0xbf39fe8c	-0.7265403
203	0xbf2976bc	-0.661968
204	0xbf394eba	-0.7238575
205	0xbf1fbc68	-0.6239686
206	0xbf1ca4b0	-0.61188793
207	0xbf3899b0	-0.7210951
208	0xbf3fe40c	-0.74957347
209	0xbf3970bb	-0.7243764
210	0xbf272807	-0.6529545
211	0xbf1276fe	-0.5721282
212	0xbed3b58f	-0.41349456
213	0xbf4378dc	-0.7635629
214	0xbf265833	-0.6497833
215	0xbf302748	-0.6880994
216	0xbec97e92	-0.39354378
217	0xbea1f817	-0.3163459
218	0xbf477e18	-0.7792678
219	0xbf106985	-0.5641101
220	0x3c36291c	0.0111182
221	0xbe505167	-0.20343553
222	0xbf52ff8d	-0.8242119
223	0xbf2e3bc3	-0.6805994
224	0xbf3909cd	-0.7228058
225	0xbf226c39	-0.63446385
226	0x3d114510	0.035466254
227	0xbd3b8aac	-0.045786545
228	0xbf245664	-0.6419432
229	0xbf2f05e6	-0.68368375
230	0xbf2b557e	-0.66927326
231	0xbf2e64cb	-0.6812255
232	0xbf38ba83	-0.72159594
233	0xbf12197b	-0.5707013
234	0xbf1c649e	-0.6109103
235	0xbf2b8033	-0.6699249
236	0xbf21a8fe	-0.63148487
237	0xbf183b15	-0.5946515
238	0xbf3c2309	-0.7349096
239	0xbf48f7a0	-0.78502846
240	0xbf23d0fe	-0.6399077
241	0xbf548540	-0.83015823
242	0xbcd8c088	-0.026458994
243	0xbf502fc1	-0.81322867
244	0xbf38e469	-0.72223526
245	0xbf1f60db	-0.62257165
246	0xbf118185	-0.56838256
247	0xbf0a6523	-0.5406057
248	0xbea977ff	-0.33099362
249	0xbe92bf54	-0.28661597
250	0xbf2cc514	-0.6748822
251	0xbf3c9855	-0.7366994
252	0xbf159cef	-0.58442587
253	0xbf43eb83	-0.7653124
254	0xbde24704	-0.110487014
255	0xbf32529a	-0.6965729

fc3.bias f4 [10]
0	0xbf37bd48	-0.71773195
1	0xbf21e04e	-0.63232887
2	0x3f2c9c56	0.6742605
3	0x3f3b2dd3	0.731168
4	0x3f2f9044	0.68579507
5	0x3f104574	0.5635598
6	0x3f22517e	0.634056
7	0x3ea295e9	0.31754997
8	0xbf16edc3	-0.58956546
9	0xbf2315f2	-0.6370536
