FL/cnn-img/outputs/2025-03-18/18-20-35/model_state_acc_0.2285_round_7.pth (torch, 251962 bytes, 10 tensors)

conv1.weight f4 [6, 3, 5, 5]
0	0x3f25f057	0.64819854
1	0x3f22f017	0.636476
2	0x3f268a06	0.6505436
3	0x3f0f04d3	0.55866736
4	0x3f0bac71	0.5456
5	0x3f0d6cdd	0.5524424
6	0x3f193965	0.598532
7	0x3f2821c6	0.65676534
8	0x3f2df03a	0.6794468
9	0x3f1ecb1f	0.6202869
10	0x3f18c83a	0.5968052
11	0xbe856402	-0.26052862
12	0x3ead50cf	0.33850715
13	0x3f0506dc	0.5196359
14	0x3f273b1e	0.6532458
15	0xbe2e0e0e	-0.16997549
16	0xbf0485bb	-0.51766557
17	0xbf0abde8	-0.54196024
18	0x3ed7dc27	0.4216015
19	0x3f2a7d28	0.66597223
20	0xbf34e56a	-0.7066256
21	0xbf09565b	-0.53647393
22	0xbf2986c7	-0.6622128
23	0x3c4c2b5c	0.01246151
24	0x3f292d4a	0.6608473
25	0xbf30aaa7	-0.69010395
26	0xbf13fd4d	-0.5780838
27	0xbee9b653	-0.45646915
28	0xbeef12a6	-0.46693915
29	0xbe688a52	-0.22709015
30	0xbf09d19e	-0.53835475
31	0xbf219785	-0.63121825
32	0xbf11071a	-0.5665146
33	0xbe58f68a	-0.21187797
34	0x3eb4a27d	0.3528022
35	0xbbe81a20	-0.0070831925
36	0xbf0c0b06	-0.5470432
37	0xbefbfec2	-0.49217802
38	0x3df2c3f0	0.11853778
39	0x3ea426e5	0.32060924
40	0x3d2364c4	0.03989102
41	0xbf071f49	-0.5278211
42	0xbec637d8	-0.3871448
43	0x3eb96df7	0.3621671
44	0x3eb562ab	0.3542684
45	0x3cdff104	0.027336605
46	0xbf222bc9	-0.6334806
47	0xbdd9a0c2	-0.10626365
48	0x3ee89696	0.45427388
49	0x3f12460e	0.57138145
50	0xbf11d484	-0.569649
51	0xbf234f44	-0.63792825
52	0xbeeffa6c	-0.46870744
53	0xbf164556	-0.5869955
54	0xbf1e70bd	-0.61890775
55	0xbee47852	-0.44623047
56	0xbf164335	-0.586963
57	0xbf0c352e	-0.54768646
58	0xbf00cd6a	-0.50313437
59	0xbeb6b67f	-0.35686108
60	0xbec15e84	-0.37767422
61	0xbf30da61	-0.6908322
62	0xbf290452	-0.6602222
63	0xbf01740c	-0.505677
64	0xbddc20fa	-0.10748477
65	0xbeaf021e	-0.34181303
66	0xbf1bb821	-0.60827833
67	0xbf27f1e6	-0.6560348
68	0xbe9747c9	-0.29546955
69	0x3e59f134	0.21283418
70	0xbe806af5	-0.25081602
71	0xbf072a91	-0.52799326
72	0xbf102a34	-0.56314397
73	0xbe2944ea	-0.16530195
74	0x3f058ec4	0.5217097
75	0x3ea48272	0.32130772
76	0x3ea2db52	0.31807953
77	0x3da68bb4	0.08132115
78	0xbea2f1a2	-0.31824976
79	0xbe5169ce	-0.20450518
80	0x3f141208	0.57840014
81	0x3f07b006	0.53002965
82	0x3ed64c44	0.4185506
83	0xbf0e5b9d	-0.5560854
84	0xbf134489	-0.5752645
85	0x3f069780	0.5257492
86	0x3f2d013a	0.67579997
87	0x3ef1bb44	0.47213185
88	0xbf2a1546	-0.6643871
89	0xbeb82bbc	-0.35970867
90	0x3f10cb28	0.5655999
91	0x3f0c527f	0.5481338
92	0x3ef673e9	0.48135307
93	0xbe90c15c	-0.28272521
94	0xbecb2e2a	-0.39683658
95	0x3f02f98b	0.5116202
96	0xbe5d2e68	-0.21599734
97	0xbde2883f	-0.11061143
98	0xbd9b35fe	-0.075786576
99	0xbe66fdbe	-0.22557732
100	0x3ec977ac	0.39349115
101	0x3e40fab8	0.18845642
102	0xbe2ccb00	-0.16874313
103	0xbee54412	-0.44778496
104	0x3dc77dfc	0.097408265
105	0x3f223f2c	0.6337764
106	0x3ea16620	0.31523228
107	0xbe02b964	-0.12766033
108	0xbf19c111	-0.6006022
109	0xbf036819	-0.51330715
110	0x3f17b89e	0.5926608
111	0x3e7b3899	0.24533309
112	0x3e314108	0.17309964
113	0xbf1f67a9	-0.6226755
114	0xbec5dc0c	-0.38644445
115	0x3f1adc82	0.6049272
116	0x3e89c86b	0.2691072
117	0x3dca0434	0.09864083
118	0xbc9619e8	-0.0183229
119	0xbd44f897	-0.048088636
120	0x3f248e28	0.64279413
121	0x3e00ba92	0.12571171
122	0x3cb87820	0.022518218
123	0x3f260e79	0.64865834
124	0x3eab3e51	0.3344598
125	0xbdcee561	-0.10102344
126	0xbece9547	-0.40348265
127	0xbf005e8a	-0.50144255
128	0xbee07a2d	-0.43843213
129	0xbe9f5c42	-0.31125075
130	0xbd558b6b	-0.052134912
131	0xbe944cdb	-0.28964886
132	0xbedc5a3a	-0.43037587
133	0xbf20d114	-0.6281903
134	0xbf0b554f	-0.54427046
135	0x3deaedda	0.11471148
136	0xbe634cca	-0.22197261
137	0xbf01534a	-0.50517714
138	0xbf11e885	-0.5699542
139	0xbee86f72	-0.45397526
140	0x396a6c00	0.00022356212
141	0xbe9711fe	-0.29505914
142	0xbf0d163e	-0.55112064
143	0xbf16f8ba	-0.58973277
144	0xbf175407	-0.5911259
145	0xbd2fc036	-0.042907916
146	0xbf2bb64f	-0.67075056
147	0xbefc521a	-0.4928139
148	0xbea40069	-0.32031563
149	0xbebf070e	-0.3731007
150	0x3f19a512	0.600175
151	0x3ef20d2e	0.4727568
152	0x3f17e28f	0.59330076
153	0x3f0688e0	0.52552605
154	0xbdd99f42	-0.10626079
155	0x3f28deab	0.65964764
156	0x3f27bec0	0.65525436
157	0x3f22b555	0.6355794
158	0x3ebdf750	0.37102747
159	0x3ed82e9c	0.4222306
160	0x3f200793	0.6251156
161	0x3f075dc9	0.5287748
162	0xbf279163	-0.6545622
163	0xbf31ab08	-0.694016
164	0x3f1911e0	0.597929
165	0x3edb5500	0.42838287
166	0x3f0f0455	0.55865985
167	0xbf0ec168	-0.55763865
168	0xbf34cb0c	-0.70622325
169	0x3f12e937	0.5738711
170	0xbe1a907c	-0.15094179
171	0xbedd0c8f	-0.43173644
172	0xbf0e8fe0	-0.55688286
173	0xbf14bb12	-0.58097947
174	0xbe5a7a3d	-0.21335693
175	0xbe1659a5	-0.14682634
176	0xbe1ed8e6	-0.15512428
177	0x3ea5fc82	0.3241921
178	0x3e2bbab8	0.16770446
179	0xbe929336	-0.28627938
180	0x3ee3bc67	0.44479677
181	0x3e953cb6	0.2914788
182	0xbdab128a	-0.083531454
183	0xbe5654c4	-0.20930773
184	0x3f0264f1	0.50935274
185	0x3f1350e6	0.57545316
186	0x3f2f7b09	0.6854711
187	0xbee3130b	-0.44350466
188	0xbee357c0	-0.44402885
189	0x3f364568	0.71199656
190	0x3f00cc2e	0.50311553
191	0x3f1543eb	0.5830676
192	0xbef5dad0	-0.48018503
193	0xbed22b06	-0.4104845
194	0x3f3af359	0.7302757
195	0x3f025254	0.5090687
196	0x3f17878a	0.5919119
197	0x3f0c9e5c	0.5492914
198	0x3e4b0fdc	0.19830269
199	0x3f0ee8e6	0.55824125
200	0xbf1f0128	-0.6211114
201	0xbf3b4a6c	-0.73160434
202	0xbf051f4e	-0.5200089
203	0xbf1a37a9	-0.6024118
204	0xbf311df2	-0.6918632
205	0xbf07a82a	-0.52990973
206	0xbf302e3c	-0.6882055
207	0xbf0d74a4	-0.55256104
208	0xbf04611c	-0.5171068
209	0xbf1b0612	-0.6055614
210	0xbf26d0e2	-0.6516248
211	0xbf032bb1	-0.5123854
212	0xbf256978	-0.6461406
213	0xbf2286d1	-0.63486964
214	0xbecfcb03	-0.40584573
215	0xbea40a12	-0.32038933
216	0xbef74c72	-0.4830051
217	0xbf28a3fd	-0.65875226
218	0xbf1c79d0	-0.6112337
219	0xbedee7f9	-0.43536356
220	0xbf059d62	-0.5219327
221	0xbf201a8f	-0.62540525
222	0xbf2d742c	-0.6775539
223	0xbf1ec788	-0.6202321
224	0xbec6020b	-0.38673434
225	0x3f21aaac	0.6315105
226	0x3f121b31	0.5707274
227	0x3f095419	0.5364395
228	0x3eb1d32a	0.34731418
229	0x3ef464da	0.47733194
230	0x3f18e86f	0.59729666
231	0x3f3064a8	0.6890359
232	0x3f3293b7	0.69756645
233	0x3f33aa06	0.7018131
234	0x3ee2ff8c	0.44335592
235	0x3f00b67b	0.50278443
236	0x3ef805d6	0.48441952
237	0x3f189a10	0.5961008
238	0x3ee3325d	0.44374362
239	0x3e452796	0.19253382
240	0x3f05d877	0.52283424
241	0xbcc96c83	-0.024587875
242	0xbf1f187e	-0.6214675
243	0x3cac1ed8	0.021010801
244	0x3e1e3e36	0.15453419
245	0x3f2009f0	0.62515163
246	0xbf11a537	-0.5689272
247	0xbf02cd2b	-0.5109431
248	0xbf17d0b9	-0.5930286
249	0xbf206152	-0.626485
250	0xbe378287	-0.17920886
251	0xbe334426	-0.17506465
252	0xbf290686	-0.6602558
253	0xbf03f72e	-0.5154904
254	0xbe022b6e	-0.1271188
255	0x3ece6188	0.40308785

conv1.bias f4 [6]
0	0xbf2d0a49	-0.6759382
1	0xbf1d2f49	-0.61400276
2	0xbf0595a4	-0.5218146
3	0xbf068642	-0.5254861
4	0xbf22faa6	-0.6366371
5	0xbf2bc786	-0.67101324

conv2.weight f4 [16, 6, 5, 5]
0	0xbf0c8ad0	-0.5489931
1	0xbf2b151f	-0.66829103
2	0xbf0fcc7b	-0.5617139
3	0xbeef9773	-0.46795234
4	0xbee993ad	-0.4562048
5	0xbf1fceed	-0.6242512
6	0xbf066acc	-0.5250671
7	0xbf0d16db	-0.55113
8	0xbf227568	-0.634604
9	0xbf04902d	-0.51782495
10	0xbf2d02e7	-0.67582554
11	0xbf096e1e	-0.5368365
12	0xbf14226d	-0.5786503
13	0xbf11baa7	-0.56925434
14	0xbf28681a	-0.65783846
15	0xbf1f866c	-0.62314487
16	0xbf0c0daa	-0.5470835
17	0xbf1d7c93	-0.6151821
18	0xbeed6e7d	-0.46373358
19	0xbf12d90e	-0.5736245
20	0xbf08cd38	-0.5343814
21	0xbefb88e5	-0.4912788
22	0xbee0123f	-0.4376392
23	0xbeb492f0	-0.35268354
24	0xbf050452	-0.5195972
25	0xbf29b9d1	-0.6629916
26	0xbefaadf4	-0.4896084
27	0xbf0efce0	-0.55854607
28	0xbf10bfca	-0.56542647
29	0xbf0c419a	-0.547876
30	0xbf1e4268	-0.6182008
31	0xbf15643e	-0.5835608
32	0xbf0ce4f6	-0.55036867
33	0xbef465fc	-0.47734058
34	0xbf114daa	-0.5675913
35	0xbf037acb	-0.5135924
36	0xbf190741	-0.59776694
37	0xbef0028e	-0.4687695
38	0xbed27457	-0.41104385
39	0xbf085f11	-0.5327006
40	0xbf22a561	-0.635336
41	0xbf1fad56	-0.62373865
42	0xbefc38df	-0.4926214
43	0xbf05d6cc	-0.5228088
44	0xbf14317c	-0.5788801
45	0xbefac06f	-0.4897494
46	0xbec75996	-0.38935536
47	0xbea4a7db	-0.32159314
48	0xbe700657	-0.23439918
49	0xbf080fb0	-0.5314894
50	0xbf19a1ac	-0.60012317
51	0xbf166d95	-0.5876096
52	0xbf1ada5c	-0.6048944
53	0xbf158d6f	-0.58418936
54	0xbefc1ab8	-0.49239135
55	0xbf0f8435	-0.56061107
56	0xbf18356d	-0.5945652
57	0xbf0895a1	-0.53353316
58	0xbf2354d3	-0.63801306
59	0xbf18e16e	-0.5971898
60	0xbf0f8ace	-0.56071174
61	0xbf2d4f97	-0.6769957
62	0xbf0928c6	-0.5357784
63	0xbf1881f6	-0.59573305
64	0xbf169466	-0.5882019
65	0xbf193c5e	-0.5985774
66	0xbef6e1d7	-0.48219177
67	0xbf29bc0a	-0.6630255
68	0xbef27d87	-0.47361395
69	0xbf187cc4	-0.5956538
70	0xbed7efbc	-0.4217509
71	0xbea55b19	-0.32296064
72	0xbecc3740	-0.39885902
73	0xbeef3c0e	-0.46725506
74	0xbf05f26c	-0.5232303
75	0xbf126210	-0.5718088
76	0xbf166eb7	-0.5876269
77	0xbf0f44f6	-0.559646
78	0xbf029846	-0.510136
79	0xbdf096c4	-0.11747506
80	0xbf1db724	-0.61607575
81	0xbf2612e4	-0.64872575
82	0xbf2b7455	-0.66974384
83	0xbf2ba4a7	-0.67048115
84	0xbee5c656	-0.4487788
85	0xbf158cc5	-0.5841792
86	0xbf0c0dd8	-0.54708624
87	0xbf10c883	-0.56555957
88	0xbf01f7ab	-0.50768536
89	0xbf193233	-0.5984222
90	0xbf22570e	-0.63414085
91	0xbf2994a6	-0.66242445
92	0xbee3459a	-0.4438904
93	0xbf0dd816	-0.55407846
94	0xbf0af5bc	-0.5428121
95	0xbf17159b	-0.5901734
96	0xbebe2f39	-0.37145403
97	0xbef359c8	-0.47529435
98	0xbf1f5f18	-0.62254477
99	0xbee3870b	-0.44438967
100	0xbedac575	-0.42728773
101	0xbf131ca8	-0.574656
102	0xbda734cc	-0.08164367
103	0x3e5299cf	0.20566486
104	0x3ea747f9	0.32672098
105	0x3dc7e7ea	0.09761031
106	0xbccba106	-0.024857055
107	0x3e2020d6	0.15637526
108	0x3ece78e8	0.4032662
109	0x3f09c8ea	0.53822196
110	0xbeb12700	-0.34600067
111	0xbf110c42	-0.5665933
112	0xbf16238d	-0.58647996
113	0xbf0ecb61	-0.5577908
114	0xbf11a052	-0.56885254
115	0xbdec6dc2	-0.11544372
116	0xbedc754d	-0.43058243
117	0xbeeb9c4d	-0.46017686
118	0xbf17d703	-0.59312457
119	0xbf0b5e8a	-0.5444113
120	0xbeeb492a	-0.45954257
121	0xbf2c830f	-0.6738748
122	0xbefd20b9	-0.49439028
123	0xbf14a609	-0.5806585
124	0xbe9d766c	-0.3075441
125	0xbf295219	-0.66140896
126	0xbf0e362c	-0.5555141
127	0xbf09a397	-0.53765243
128	0xbe0fadd5	-0.14031155
129	0xbe12b76c	-0.14327782
130	0xbef3a548	-0.47587037
131	0xbf233748	-0.6375623
132	0xbf0a51c6	-0.54031026
133	0xbf0266c7	-0.50938076
134	0xbf1411d2	-0.5783969
135	0xbef83dc3	-0.4848462
136	0xbf19dfe5	-0.6010726
137	0xbed94d4b	-0.42441782
138	0xbede07dd	-0.43365374
139	0xbea0733f	-0.31337926
140	0xbebfe096	-0.37476033
141	0xbee1df6b	-0.44115767
142	0xbeb861ae	-0.36012024
143	0xbee3db28	-0.4450314
144	0xbe9dfa02	-0.30854803
145	0xbebef611	-0.3729711
146	0xbf0de17e	-0.554222
147	0xbee17f8e	-0.4404263
148	0xbeb3cb1d	-0.351159
149	0xbcc82edc	-0.024436407
150	0xbe86dc8f	-0.26340148
151	0xbe93c28f	-0.28859374
152	0xbebe0eca	-0.37120658
153	0xbea1e013	-0.31616268
154	0xbeab3298	-0.33437037
155	0xbeb2fbd6	-0.3495776
156	0xbe7b8e23	-0.2456594
157	0xbeafdaf8	-0.34346747
158	0xbe851f95	-0.26000658
159	0xbebdc0e8	-0.37061238
160	0xbe9d310e	-0.30701488
161	0xbeb7d724	-0.35906327
162	0xbeb3d7d9	-0.35125616
163	0xbe99d37a	-0.30044156
164	0xbebedd60	-0.3727827
165	0xbebb3a03	-0.36567697
166	0xbe87d6cc	-0.26531065
167	0xbe95c502	-0.29251868
168	0xbea8013a	-0.32813436
169	0xbec2b2df	-0.38027093
170	0xbec7b6e0	-0.3900671
171	0xbe9258d4	-0.28583395
172	0xbec72926	-0.3889858
173	0xbeb007c4	-0.34380925
174	0xbe9ecaa2	-0.31013972
175	0xbec0e447	-0.37674162
176	0xbeb9fd07	-0.36325857
177	0xbeaa71cb	-0.33289942
178	0xbe86676d	-0.26250783
179	0xbe9d2b26	-0.30696982
180	0xbebc1aee	-0.36739296
181	0xbeb0a274	-0.34498942
182	0xbe9fbb1e	-0.31197447
183	0xbe8e8b10	-0.2784047
184	0xbeadcf0e	-0.33947033
185	0xbe9a4d73	-0.30137214
186	0xbe6f913b	-0.23395245
187	0xbec81d3f	-0.39084813
188	0xbec3eeef	-0.3826823
189	0xbea655d6	-0.32487363
190	0xbe80ecb7	-0.251806
191	0xbea47cc9	-0.32126454
192	0xbe85ac2a	-0.26107913
193	0xbe90b38d	-0.28261986
194	0xbe99b8bb	-0.3002375
195	0xbeacdc3c	-0.33761775
196	0xbe9377a7	-0.28802225
197	0xbe9a6a78	-0.30159354
198	0xbea5c38b	-0.3237575
199	0xbebc776c	-0.36809862
200	0xbeaf1748	-0.3419745
201	0xbe7db729	-0.24776901
202	0xbe6e66cd	-0.23281403
203	0xbec23bd4	-0.3793627
204	0xbe7df9fb	-0.24802391
205	0xbeafad3d	-0.34311858
206	0xbe95b7bb	-0.29241738
207	0xbe71bf88	-0.2360822
208	0xbebfeb1a	-0.37484056
209	0xbea9cc11	-0.33163503
210	0xbea5e08d	-0.3239788
211	0xbebb4343	-0.36574754
212	0xbe7e932f	-0.24860834
213	0xbeabcd0f	-0.33554885
214	0xbe718f0d	-0.23589726
215	0xbea18424	-0.31546128
216	0xbec79e7c	-0.389881
217	0xbe841874	-0.25799906
218	0xbeac1c40	-0.33615303
219	0xbea497fc	-0.32147205
220	0xbe7932d1	-0.24335791
221	0xbec0cfac	-0.3765844
222	0xbe93a60c	-0.2883762
223	0xbec19f67	-0.37816927
224	0xbe808e42	-0.25108534
225	0xbeb224b1	-0.34793618
226	0xbe882d47	-0.26597044
227	0xbea976f1	-0.33098558
228	0xbe95e45c	-0.29275787
229	0xbe961b63	-0.2931777
230	0xbe828ce4	-0.25498116
231	0xbebeaa34	-0.3723923
232	0xbe8e4d7d	-0.27793494
233	0xbeb1dba4	-0.34737885
234	0xbe8fff53	-0.28124484
235	0xbeb62611	-0.35575917
236	0xbe8bf4ce	-0.2733521
237	0xbe7bfffe	-0.24609372
238	0xbeaf8a20	-0.3428507
239	0xbec80d86	-0.39072818
240	0xbe746ee4	-0.23870426
241	0xbeacc028	-0.33740354
242	0xbec18094	-0.3779341
243	0xbe947506	-0.28995532
244	0xbeb02781	-0.3440514
245	0xbe823690	-0.25432253
246	0xbea9cd17	-0.33164284
247	0xbe798a9c	-0.24369282
248	0xbea419de	-0.32050985
249	0xbec181d4	-0.37794363
250	0xbe8b7b06	-0.27242297
251	0xbea9a721	-0.33135322
252	0xbeb0182b	-0.3439344
253	0xbe704ebc	-0.23467535
254	0xbec6279b	-0.38702092
255	0xbe94f051	-0.29089597

conv2.bias f4 [16]
0	0x3f1edf82	0.62059796
1	0xbec0c28d	-0.3764843
2	0xbea1a8dc	-0.31574142
3	0x3f24e8c1	0.64417654
4	0x3eddbc49	0.43307713
5	0x3ed8cf6a	0.42345744
6	0x3f1d7cf4	0.6151879
7	0x3f2885ed	0.65829355
8	0xbea6bd41	-0.32566264
9	0xbe9d69f0	-0.30744886
10	0xbec01a2d	-0.3751997
11	0x3dfaa7e1	0.122390516
12	0x3ea0e7d3	0.31426868
13	0x3f18a225	0.5962241
14	0xbec1c367	-0.37844393
15	0x3cf5db92	0.030011926

fc1.weight f4 [120, 400]
0	0xbee54d7c	-0.44785678
1	0xbf02bd95	-0.5107053
2	0xbef056e9	-0.46941307
3	0xbedca982	-0.43098074
4	0xbebfb56e	-0.37443107
5	0xbf0234a4	-0.50861573
6	0xbef84a5f	-0.4849424
7	0xbf06d908	-0.52674913
8	0xbeb9fee7	-0.36327288
9	0xbeabf36c	-0.33584154
10	0xbef8b7ed	-0.48577824
11	0xbf01b862	-0.5067197
12	0xbdb9d8aa	-0.090745285
13	0xbe9edf35	-0.31029668
14	0xbee108f4	-0.43952143
15	0xbf042dd2	-0.51632416
16	0xbecf4c64	-0.4048797
17	0xbec28537	-0.3799226
18	0xbf00d556	-0.50325525
19	0xbf0a6ceb	-0.54072446
20	0xbef49e80	-0.47777176
21	0xbee35d98	-0.44407344
22	0xbddb3540	-0.10703516
23	0x3edb7aa7	0.42867014
24	0xbd35b437	-0.04436132
25	0x3e863396	0.26211232
26	0x3ea17afa	0.31539136
27	0x3eb45eb8	0.35228515
28	0xbe9926a3	-0.2991229
29	0x3e964fef	0.2935786
30	0xbe933aed	-0.28755894
31	0xbeadf7ed	-0.33978215
32	0xbeb39db8	-0.35081267
33	0xbeb51858	-0.35370135
34	0x3ea0f4dc	0.31436813
35	0xbe9c57d2	-0.30535752
36	0xbead89a0	-0.33894062
37	0xbea6d482	-0.32584006
38	0xbeb0ea69	-0.3455384
39	0x3ea7e769	0.3279374
40	0x3eab1476	0.33414048
41	0x3e971022	0.29504496
42	0xbe8c28f8	-0.27375007
43	0xbe97b641	-0.29631236
44	0xbe8eae6a	-0.27867442
45	0xbeaf8c6c	-0.3428682
46	0xbe905e30	-0.2819686
47	0xbea2bd75	-0.3178517
48	0x3e9994c3	0.2999631
49	0xbeb86636	-0.3601548
50	0xbe97de69	-0.29661873
51	0xbe9a92d8	-0.30190158
52	0xbe944249	-0.28956822
53	0xbeb09e3a	-0.34495717
54	0xbeacf21c	-0.33778465
55	0xbeb6c26f	-0.35695216
56	0xbe8e81a2	-0.27833277
57	0xbe9d48da	-0.30719644
58	0x3eb335d2	0.35002
59	0xbe96f87c	-0.29486454
60	0xbe952a6e	-0.29133934
61	0xbea991d3	-0.33119068
62	0xbea899dd	-0.32929888
63	0xbe984f1e	-0.29747862
64	0xbeb868a2	-0.36017329
65	0x3eac4c4b	0.33651957
66	0xbe94cdc2	-0.2906323
67	0xbe9f0ff1	-0.3106685
68	0xbe9013f9	-0.28140238
69	0xbe8e9991	-0.27851537
70	0xbe917594	-0.28410017
71	0xbea94820	-0.3306284
72	0xbe92941d	-0.28628626
73	0xbea0dfb1	-0.31420663
74	0xbe8fc730	-0.28081656
75	0xbf041b88	-0.5160451
76	0xbe18d4b0	-0.14924884
77	0xbe860fe0	-0.26183987
78	0xbf0b4bb3	-0.5441238
79	0xbecddb62	-0.40206438
80	0xbf07934e	-0.52959144
81	0xbe519b8d	-0.20469494
82	0xbecf4e8f	-0.40489623
83	0xbef6d29a	-0.4820755
84	0xbf016151	-0.5053912
85	0xbf04c6e4	-0.51865983
86	0x3dd2f5ef	0.10300814
87	0x3e341c9c	0.17589039
88	0xbe98a4ec	-0.29813325
89	0x3dbbf858	0.09178227
90	0xbf055116	-0.5207685
91	0xbe9ad4f1	-0.30240586
92	0xbe1a67be	-0.15078637
93	0xbedf4675	-0.43608442
94	0xbe18c241	-0.14917852
95	0xbec5910d	-0.38587227
96	0xbebf60c4	-0.37378514
97	0xbeb3804a	-0.35058814
98	0xbe9a5510	-0.30143023
99	0xbf012de4	-0.5046065
100	0xbed90ba1	-0.42391685
101	0xbeda53cc	-0.42642057
102	0xbec7e1e9	-0.39039543
103	0xbe9a4854	-0.30133307
104	0xbeb75e82	-0.3581429
105	0xbe6019a6	-0.21884784
106	0xbeaf0705	-0.34185043
107	0x3d9ef6de	0.0776193
108	0xbeb859a8	-0.36005902
109	0xbec1fd5a	-0.37888604
110	0xbec64b97	-0.38729545
111	0xbeba4589	-0.36381176
112	0xbe372dd9	-0.17888583
113	0xbee21d3b	-0.44162926
114	0xbeb8661c	-0.36015403
115	0xbe925e2b	-0.2858747
116	0xbf007308	-0.50175524
117	0xbee56621	-0.4480448
118	0xbe6d377d	-0.23165698
119	0xbe9dc6a2	-0.30815607
120	0xbebefc24	-0.37301743
121	0x3e875e8f	0.2643933
122	0xbcf4d592	-0.029886995
123	0xbed67428	-0.41885495
124	0xbecc3618	-0.3988502
125	0xbee14246	-0.43995875
126	0xbe8e5026	-0.27795523
127	0xbebe94e4	-0.3722297
128	0xbe0e5654	-0.13900119
129	0xbef09fc5	-0.46996894
130	0xbe868525	-0.26273456
131	0xbf01456a	-0.5049654
132	0xbee602ed	-0.44924107
133	0xbee24696	-0.44194478
134	0xbede81f8	-0.43458533
135	0xbe0151e5	-0.12628897
136	0xbdcdc8c4	-0.10048059
137	0xbec22ca4	-0.37924683
138	0xbf0413a5	-0.51592475
139	0xbee666d6	-0.45000333
140	0xbe3b75ac	-0.18306607
141	0xbc752516	-0.014962455
142	0xbeee2605	-0.46513382
143	0xbef7b00e	-0.48376507
144	0xbf09d78d	-0.5384453
145	0xbefeddcc	-0.49778593
146	0xbe746483	-0.23866467
147	0xbeb9974f	-0.36248252
148	0xbef7e3dd	-0.48416033
149	0xbefef305	-0.49794784
150	0xbe9ddc5c	-0.30832183
151	0xbee29fd6	-0.4426257
152	0xbe58dac4	-0.21177202
153	0xbec48ed2	-0.38390213
154	0xbee23a73	-0.44185218
155	0xbecd6399	-0.4011505
156	0xbe0b2e26	-0.13591823
157	0xbee65867	-0.4498932
158	0xbf037484	-0.51349664
159	0xbedb5bdc	-0.4284352
160	0xbee44892	-0.44586617
161	0xbe8adb7c	-0.27120578
162	0xbea822e3	-0.32839116
163	0x3dd4e7ef	0.103958
164	0xbf004ed3	-0.50120276
165	0xbe62d37b	-0.22150986
166	0xbef0f48c	-0.47061574
167	0xbeeeaece	-0.4661774
168	0xbef76297	-0.48317406
169	0xbeb52584	-0.35380185
170	0xbeb4b8f0	-0.35297346
171	0xbec5f5c6	-0.38664073
172	0xbe41d3ce	-0.18928453
173	0xbe2efbd9	-0.1708826
174	0xbed9c064	-0.42529595
175	0xbec9a174	-0.3938099
176	0xbe99c72e	-0.30034775
177	0xbeb024f8	-0.34403205
178	0xbe9ba444	-0.30398762
179	0xbe94a84c	-0.2903465
180	0xbedfd91b	-0.43720326
181	0xbed9c7b4	-0.42535174
182	0xbed889bf	-0.42292592
183	0xbedacfc7	-0.42736647
184	0xbeea8564	-0.45804894
185	0xbf0559d8	-0.52090216
186	0x3efe2bc6	0.4964277
187	0xbeec61a0	-0.46168232
188	0xbeff3d95	-0.4985167
189	0xbf0b4074	-0.5439522
190	0xbee2a0f0	-0.4426341
191	0xbe7e45ad	-0.24831267
192	0xbec28336	-0.3799073
193	0xbe449738	-0.1919831
194	0xbedeb798	-0.43499446
195	0xbeed64f6	-0.4636609
196	0xbe18cb60	-0.14921331
197	0xbe56669a	-0.20937577
198	0xbee6aada	-0.45052224
199	0xbed8a45b	-0.42312893
200	0xbe97e0f6	-0.2966382
201	0xbe8b2cdb	-0.2718266
202	0xbe9d5536	-0.30729073
203	0xbe94e52e	-0.290811
204	0xbeaa3b3b	-0.33248314
205	0xbeae375d	-0.34026614
206	0xbeaa1936	-0.3322236
207	0xbe87cb41	-0.26522258
208	0xbe89d039	-0.26916674
209	0xbea0dfcf	-0.31420752
210	0xbe99697a	-0.29963285
211	0xbe924a96	-0.2857253
212	0xbe9286a3	-0.28618345
213	0xbe96e081	-0.29468158
214	0xbeb7ea53	-0.35920963
215	0x3ea8b7b5	0.32952657
216	0xbeadbfa0	-0.3393526
217	0xbeb75dec	-0.35813844
218	0xbe954610	-0.29155016
219	0xbe88c6d5	-0.26714197
220	0xbeade96b	-0.33967146
221	0xbe96d8a9	-0.29462174
222	0xbeb31216	-0.34974736
223	0xbe898ba0	-0.26864338
224	0xbe87d999	-0.265332
225	0xbea2e164	-0.31812584
226	0xbeb7f327	-0.35927698
227	0xbeb622b7	-0.3557336
228	0xbe909e4f	-0.2824578
229	0xbe9ccfa5	-0.3062717
230	0xbea9e66f	-0.3318362
231	0xbea82024	-0.3283702
232	0x3eb77d02	0.3583756
233	0xbe872de7	-0.26402208
234	0xbe8b0ac6	-0.27156657
235	0xbeaa033f	-0.33205602
236	0xbeb25550	-0.34830713
237	0xbeb2ff87	-0.34960577
238	0xbe861733	-0.26189575
239	0xbe9971c8	-0.2996962
240	0xbe9d99b2	-0.30781323
241	0x3ea41c74	0.32052958
242	0xbeb02f42	-0.34411055
243	0xbea7958a	-0.32731277
244	0xbea8c5f8	-0.32963538
245	0xbe884b50	-0.2661996
246	0xbe93a254	-0.28834784
247	0xbe993ae3	-0.2992774
248	0xbe9839c1	-0.29731563
249	0xbeb7bb71	-0.35885194
250	0xbea6d4a4	-0.32584107
251	0x3ea1ee32	0.3162704
252	0xbe9f8ac6	-0.31160563
253	0xbeaa208b	-0.33227953
254	0xbe94db38	-0.290735
255	0xbea06a7a	-0.31331235

fc1.bias f4 [120]
0	0xbf01a756	-0.5064596
1	0xbf159330	-0.58427715
2	0xbf18cb4c	-0.59685206
3	0xbf082a54	-0.5318959
4	0xbf0c0dbb	-0.5470845
5	0xbf108662	-0.5645505
6	0xbebec9de	-0.37263387
7	0xbee85313	-0.4537588
8	0xbf17ba18	-0.5926833
9	0xbf122803	-0.57092303
10	0xbf25cd6f	-0.6476659
11	0xbf1fad25	-0.6237357
12	0xbf10c0a0	-0.5654392
13	0xbf1bc124	-0.60841584
14	0xbf168962	-0.5880338
15	0xbf13f728	-0.57799006
16	0xbeda5184	-0.42640316
17	0xbf1838bf	-0.5946159
18	0xbf125fff	-0.5717773
19	0xbf0ae3ec	-0.5425403
20	0xbf192c84	-0.5983355
21	0xbf05b66f	-0.52231497
22	0xbf127f5a	-0.57225573
23	0xbf0c26e7	-0.5474686
24	0xbf0f1252	-0.5588733
25	0xbf15f21b	-0.5857255
26	0xbf1625ce	-0.58651435
27	0xbf12ec6a	-0.5739199
28	0xbf14706f	-0.5798406
29	0xbf1938de	-0.598524
30	0xbec9dfdc	-0.39428604
31	0x3f174c2b	0.591006
32	0xbedbc449	-0.4292319
33	0xbeefb69f	-0.46819016
34	0xbf1844be	-0.5947989
35	0xbf1a7dd4	-0.6034825
36	0xbf18d60c	-0.5970161
37	0xbf061f6c	-0.52391696
38	0xbf08848b	-0.53327245
39	0xbf0786c1	-0.52939993
40	0xbf13e94b	-0.5777785
41	0xbf0daa8f	-0.55338377
42	0xbf0c531c	-0.54814315
43	0xbf130989	-0.57436424
44	0xbf200e62	-0.62521946
45	0xbf09787a	-0.5369946
46	0xbf05bb50	-0.5223894
47	0xbf199137	-0.59987205
48	0xbf2302fb	-0.6367642
49	0xbf14dbac	-0.5814769
50	0xbf0b783f	-0.54480356
51	0xbf0999be	-0.53750217
52	0xbf0b4be5	-0.5441268
53	0xbf0154f6	-0.50520265
54	0xbe41d157	-0.18927513
55	0xbf1a0573	-0.60164565
56	0xbf20def6	-0.6284021
57	0xbf190391	-0.59771067
58	0xbf1486c6	-0.5801815
59	0xbf0473c0	-0.5173912
60	0xbf1010e5	-0.5627578
61	0xbf1444b2	-0.5791732
62	0xbf14ec01	-0.58172613
63	0xbf19f178	-0.6013408
64	0xbeb64016	-0.3559577
65	0xbf215af6	-0.6302942
66	0xbf12ad9c	-0.57296157
67	0xbf0bc5c5	-0.5459865
68	0xbf171bcb	-0.59026784
69	0xbf06b4a0	-0.5261936
70	0xbf0c4f55	-0.5480855
71	0x3f040b1b	0.51579446
72	0xbf0da981	-0.5533677
73	0xbef6fcbf	-0.48239705
74	0xbf09e2c3	-0.53861636
75	0xbf0a2747	-0.5396618
76	0xbf0af447	-0.5427899
77	0xbf0da1ae	-0.5532483
78	0xbef0fc2e	-0.47067398
79	0xbf266843	-0.6500284
80	0xbf0c5e50	-0.5483141
81	0xbf1240fe	-0.5713042
82	0xbf14b637	-0.5809054
83	0xbf0bca50	-0.5460558
84	0xbf1c6351	-0.61089045
85	0xbf10e1bb	-0.5659444
86	0xbf0f6c40	-0.5602455
87	0xbf0aabf7	-0.5416865
88	0xbf151533	-0.5823547
89	0xbf1df712	-0.61705124
90	0xbf065815	-0.5247815
91	0xbef749f1	-0.482986
92	0xbf169777	-0.58824867
93	0xbf1a8c83	-0.60370654
94	0xbf1f5f41	-0.6225472
95	0xbf08b830	-0.5340605
96	0xbf0b9122	-0.5451833
97	0xbf16bd9f	-0.5888309
98	0xbf0b1e0b	-0.54342717
99	0xbf14a7c9	-0.5806852
100	0xbf03269a	-0.51230776
101	0xbf11c608	-0.56942797
102	0xbf101fc4	-0.5629847
103	0xbec41703	-0.38298807
104	0xbf116edc	-0.56809783
105	0xbf1707bb	-0.5899617
106	0xbf15568f	-0.583352
107	0xbef11a94	-0.4709059
108	0xbef08589	-0.4697688
109	0xbed796fb	-0.42107376
110	0xbf17dc7d	-0.59320813
111	0xbf06bee4	-0.52635026
112	0xbf1168fd	-0.56800824
113	0xbf00771d	-0.5018175
114	0xbf1b317f	-0.606224
115	0xbef56218	-0.47926402
116	0xbf0b6446	-0.5444988
117	0xbf0d0723	-0.55089015
118	0xbf2512a5	-0.64481574
119	0xbf2528f2	-0.645156

fc2.weight f4 [84, 120]
0	0xbd9f7ee1	-0.07787872
1	0xbe39108d	-0.1807272
2	0xbe658c06	-0.22416696
3	0x3e60dc98	0.2195915
4	0x3d44778b	0.047965568
5	0x3c079046	0.008274144
6	0xbe18f535	-0.14937289
7	0xbebbcc21	-0.36679175
8	0xbeebd46e	-0.46060508
9	0x3e8256c2	0.25456816
10	0xbf1b0456	-0.6055349
11	0xbe5acfae	-0.21368286
12	0xbdf9e9e4	-0.12202814
13	0xbd3797e0	-0.044822574
14	0xbebb7350	-0.36611414
15	0xbe821ad7	-0.25411102
16	0xbefd2e84	-0.4944955
17	0xbe557040	-0.20843601
18	0xbe6c98f5	-0.23105223
19	0xbe43e3ee	-0.19129917
20	0xbf1d594b	-0.61464375
21	0x3c937d90	0.018004209
22	0xbef40562	-0.47660357
23	0xbe9ff08c	-0.3123821
24	0x3e05b603	0.13057713
25	0xbf05c62a	-0.522555
26	0xbece47b6	-0.40289086
27	0xbef29958	-0.47382617
28	0xbd975e22	-0.07391001
29	0xbec8e2da	-0.39235574
30	0xbf112e82	-0.5671159
31	0xbf18007b	-0.59375733
32	0xbe218cbf	-0.15776347
33	0xbe69a295	-0.22815926
34	0xbe96ef38	-0.29479384
35	0xbe1b2010	-0.1514895
36	0xbefe6525	-0.49686542
37	0xbec9182d	-0.39276257
38	0x3e03b814	0.12863189
39	0xbe1311e2	-0.1436229
40	0xbe9c0240	-0.30470467
41	0x3c82c34e	0.01596227
42	0x3ef98630	0.4873519
43	0xbed0f184	-0.40809262
44	0xbea9d6fa	-0.33171827
45	0xbd0792b8	-0.033098906
46	0xbc4bd14f	-0.01244004
47	0x3e8d5041	0.2760029
48	0xbf0d1fe4	-0.55126786
49	0xbe877c98	-0.26462245
50	0x3e66f696	0.22555003
51	0x3e4ca2dc	0.19984001
52	0xbf1cf0c2	-0.6130487
53	0xbeb37329	-0.35048798
54	0xbd654735	-0.05597611
55	0x3d717ac0	0.058954954
56	0xbf0b7759	-0.54478985
57	0xbea71537	-0.32633373
58	0x3eb95da5	0.36204258
59	0xbee4e334	-0.44704592
60	0xbedf806e	-0.43652672
61	0x3e056d46	0.13029966
62	0xbe8bef6f	-0.2733111
63	0x3dd23808	0.10264593
64	0xbec84214	-0.39112914
65	0xbec3b4fa	-0.38224012
66	0xbec266a7	-0.37968943
67	0xbd84b7dd	-0.06480382
68	0xbee699f6	-0.45039338
69	0xbee33a34	-0.44380343
70	0x3eb6c4ad	0.35696927
71	0xbeb22d10	-0.34800005
72	0xbef6333e	-0.4808597
73	0xbed3ed49	-0.41391972
74	0xbef4660d	-0.4773411
75	0xbe7a179b	-0.24423067
76	0xbdcd040d	-0.10010538
77	0x3d549f37	0.05190965
78	0xbed21112	-0.4102865
79	0xbeee20f5	-0.4650952
80	0xbe5c17cd	-0.21493454
81	0xbec86549	-0.39139774
82	0xbec9f64e	-0.39445728
83	0x3ed87efb	0.42284378
84	0xbe6816a6	-0.2266489
85	0xbe9e5475	-0.3092381
86	0xbea1a9ce	-0.31574863
87	0xbeacb0fc	-0.33728778
88	0x3d8c3934	0.06846848
89	0xbd7c2912	-0.061562605
90	0xbef7923e	-0.4835376
91	0xbed1e3f0	-0.40994215
92	0xbe892455	-0.26785532
93	0xbed02e89	-0.40660504
94	0xbdad2935	-0.08455125
95	0xbea0d1a3	-0.3140994
96	0xbde5bde7	-0.112178616
97	0x3e009798	0.12557828
98	0xbea63846	-0.32464808
99	0x3ec6a0dc	0.387946
100	0xbed77375	-0.42080274
101	0xbe343b9f	-0.17600869
102	0x3b891d88	0.0041844286
103	0xbec72914	-0.38898528
104	0xbe83b35f	-0.25722787
105	0x3f12fdf2	0.5741874
106	0xbe29131f	-0.165112
107	0xbe496cdf	-0.19670437
108	0xbf0bab00	-0.545578
109	0xbdca745a	-0.098854735
110	0xbd05ba04	-0.0326481
111	0xbd9307df	-0.07179236
112	0xbde06d3f	-0.10958337
113	0xbe3d859c	-0.18507999
114	0xbf0a18e2	-0.5394422
115	0xbe0ff110	-0.14056802
116	0xbe62f676	-0.2216433
117	0xbe74b967	-0.2389885
118	0xbf006422	-0.5015279
119	0xbf3237f5	-0.69616634
120	0xbd0b1977	-0.033959832
121	0xbe457bfb	-0.19285576
122	0xbec8d925	-0.39228168
123	0xbe8ec8b1	-0.2788749
124	0x3eacc581	0.33744434
125	0xbebe5fbc	-0.37182415
126	0xbefadb7d	-0.4899558
127	0xbee66b54	-0.4500376
128	0xbea20584	-0.31644833
129	0xbec43d4f	-0.38328025
130	0xbf15bfec	-0.58495975
131	0xbedb004c	-0.42773664
132	0xbe840f9e	-0.25793165
133	0xbee7bc18	-0.45260692
134	0xbecc4d30	-0.3990264
135	0xbef04c87	-0.46933386
136	0xbe9bc90c	-0.30426824
137	0xbea6d7ef	-0.3258662
138	0xbecf8b73	-0.4053608
139	0xbe3cf766	-0.1845375
140	0xbf0f22af	-0.559123
141	0xbedd27c4	-0.431944
142	0xbeb3364a	-0.35002357
143	0xbef42663	-0.47685537
144	0xbee7f400	-0.45303345
145	0xbe3c0a7f	-0.18363379
146	0xbef922a9	-0.48659256
147	0xbea8b072	-0.32947117
148	0xbe95ceb4	-0.29259264
149	0xbe91514a	-0.2838233
150	0xbeca171f	-0.39470765
151	0xbf03bbb8	-0.5145831
152	0xbf0b5d66	-0.5443939
153	0xbeba6b4b	-0.36409983
154	0xbe8aaeee	-0.27086586
155	0xbedf40af	-0.43604037
156	0xbea37549	-0.3192542
157	0xbe549e3d	-0.20763488
158	0xbeac3e33	-0.33641204
159	0xbe9dbbf0	-0.30807447
160	0x3ec26f05	0.37975326
161	0xbef6c1ce	-0.48194736
162	0xbd8944e7	-0.06702595
163	0x3e1642e3	0.14673953
164	0xbe7acab7	-0.24491392
165	0xbec482f7	-0.38381168
166	0xbe1dc237	-0.15406118
167	0x3e007984	0.12546355
168	0xbec16dec	-0.37779176
169	0xbeb4ae1f	-0.35289094
170	0xbf05271d	-0.5201281
171	0xbec4a5e6	-0.3840782
172	0xbec43cbc	-0.38327587
173	0xbea3103d	-0.31848326
174	0xbf0d487e	-0.5518874
175	0xbec71923	-0.38886365
176	0xbef71663	-0.48259267
177	0xbef95ec3	-0.4870511
178	0xbe5fa4df	-0.21840237
179	0xbee3e207	-0.44508383
180	0x3e94dc55	0.2907435
181	0xbd09c712	-0.033637114
182	0xbeed1ca3	-0.4631091
183	0xbef0a061	-0.4699736
184	0xbe15b038	-0.14618003
185	0xbeacf431	-0.33780053
186	0xbe87af32	-0.2650085
187	0xbe982c42	-0.29721266
188	0xbe56f60d	-0.20992298
189	0xbf04dce6	-0.51899564
190	0xbe793fc5	-0.24340732
191	0x3c50b46c	0.012738328
192	0xbef52674	-0.478809
193	0xbebc554f	-0.36783835
194	0xbe9d47a3	-0.30718717
195	0xbef7a02e	-0.48364395
196	0xbe908ff1	-0.2823482
197	0xbe780926	-0.2422224
198	0xbefd3916	-0.49457616
199	0xbe3bb3c8	-0.183303
200	0x3ead0cee	0.33798927
201	0xbe844319	-0.2583244
202	0xbe22e089	-0.15905966
203	0xbe5af4b8	-0.21382415
204	0x3cecabf2	0.028890584
205	0x3c8290c2	0.015938167
206	0xbf0be479	-0.54645497
207	0xbbc74268	-0.0060809143
208	0x3d7ed232	0.062212177
209	0xbeb6d31f	-0.35707948
210	0xbee749f4	-0.4517361
211	0xbe0af579	-0.13570203
212	0xbe84393a	-0.2582491
213	0xbe710438	-0.23536766
214	0xbd918538	-0.071054876
215	0xbf0550af	-0.5207624
216	0xbe9d6367	-0.307399
217	0xbe0443b3	-0.1291645
218	0xbe926c49	-0.2859824
219	0xbd90989d	-0.07060359
220	0xbe34713a	-0.17621318
221	0xbed1e40e	-0.40994304
222	0xbe88b1be	-0.26698107
223	0xbe7277be	-0.2367849
224	0xbe732638	-0.23745048
225	0xbf0f17d3	-0.5589573
226	0xbe834bc8	-0.25643754
227	0x3ceddba0	0.02903539
228	0xbf0fb048	-0.5612836
229	0xbed0d8d5	-0.4079043
230	0xbe9e88cd	-0.30963746
231	0xbe88817a	-0.26661283
232	0xbeca537f	-0.39516827
233	0xbe809727	-0.2511532
234	0xbee0282e	-0.43780655
235	0xbec796c3	-0.3898221
236	0xbeab0774	-0.33404124
237	0xbcc57432	-0.024103258
238	0xbf11b7dd	-0.5692118
239	0xbf0cb515	-0.5496381
240	0xbec0c6be	-0.37651628
241	0xbec200e3	-0.37891302
242	0xbebd918f	-0.37025115
243	0x3d366eb2	0.04453916
244	0xbea47b70	-0.32125425
245	0xbe94ce7b	-0.29063782
246	0xbea7ba70	-0.32759428
247	0xbebd8692	-0.37016732
248	0xbebc00e5	-0.36719432
249	0xbe5a1ed7	-0.21300827
250	0xbeb6cf2a	-0.3570493
251	0xbe8e17ab	-0.27752432
252	0xbece22de	-0.40260977
253	0xbe3ed952	-0.18637589
254	0xbe74d39a	-0.23908845
255	0xbe93fa2b	-0.289018

fc2.bias f4 [84]
0	0xbf0c236e	-0.5474156
1	0xbf23b614	-0.63949704
2	0xbef96878	-0.48712516
3	0xbed58552	-0.41703278
4	0xbf2de7f4	-0.6793206
5	0xbf12db7e	-0.5736617
6	0xbefccaea	-0.4937356
7	0xbed94a5a	-0.42439538
8	0xbf059769	-0.5218416
9	0xbf19218d	-0.5981682
10	0xbefbe581	-0.49198535
11	0x3f1b975d	0.6077784
12	0xbf107c9c	-0.5644014
13	0xbf2e5481	-0.6809769
14	0xbf0e462c	-0.55575824
15	0xbf14eeaa	-0.5817667
16	0xbf1b47e4	-0.6065657
17	0x3f171c49	0.59027535
18	0xbf027859	-0.50964886
19	0xbf15b91c	-0.5848558
20	0xbef250a5	-0.47327152
21	0xbf162abb	-0.5865895
22	0xbf1c2383	-0.60991687
23	0xbf25b646	-0.6473125
24	0xbf0b3efc	-0.5439298
25	0xbf0f6f49	-0.5602918
26	0xbf12f1a9	-0.57399994
27	0x3f1fd2a2	0.62430775
28	0x3f2e4896	0.6807951
29	0xbeff362f	-0.49846026
30	0xbf247ea0	-0.64255714
31	0x3f0fc97e	0.5616683
32	0xbf13285b	-0.5748345
33	0xbee0cee5	-0.43907848
34	0xbf1b4a78	-0.60660505
35	0xbf1db7af	-0.61608404
36	0xbf1fe84f	-0.6246385
37	0xbf0e0c8b	-0.5548789
38	0xbf2b7828	-0.6698022
39	0xbf17aa5f	-0.5924434
40	0xbf205da3	-0.6264288
41	0xbf0d047a	-0.55084956
42	0xbf14ed43	-0.5817453
43	0xbf0dfcc1	-0.55463797
44	0xbf0fb8de	-0.5614146
45	0xbef4f56c	-0.47843492
46	0xbf2f71eb	-0.685332
47	0xbf0ed2ca	-0.5579039
48	0xbf06c3f8	-0.52642775
49	0x3f2113a4	0.62920594
50	0xbf331893	-0.6995937
51	0xbf05b171	-0.5222388
52	0x3f17943d	0.5921057
53	0x3f218559	0.630941
54	0xbf0b93f6	-0.54522645
55	0xbf206978	-0.6266093
56	0xbf0efea7	-0.5585732
57	0xbf2c51c8	-0.6731229
58	0x3f159d74	0.5844338
59	0x3f121244	0.5705912
60	0xbf070656	-0.5274404
61	0xbf1ec97d	-0.62026197
62	0xbf1f8779	-0.6231609
63	0xbf0471ae	-0.5173596
64	0xbf0c3a02	-0.5477601
65	0xbf02f7d6	-0.5115942
66	0xbf125fbf	-0.57177347
67	0xbf1b82e0	-0.60746574
68	0xbef6f8fa	-0.4823683
69	0xbf07f52e	-0.5310849
70	0xbf1f68c4	-0.62269235
71	0xbf22bbda	-0.6356789
72	0xbefa6984	-0.48908627
73	0xbf2220a0	-0.6333103
74	0x3f0b751e	0.5447558
75	0xbf0b87ee	-0.5450429
76	0xbf09abc3	-0.5377771
77	0xbede4b03	-0.43416604
78	0x3f180ed3	0.5939762
79	0xbf10836c	-0.56450534
80	0x3f268170	0.65041256
81	0x3f21e3bd	0.63238126
82	0xbf2616de	-0.6487864
83	0xbf2b68a1	-0.66956526

fc3.weight f4 [10, 84]
0	0xbf07193e	-0.5277289
1	0xbf12f821	-0.57409865
2	0xbe872df9	-0.26402262
3	0xbf2398ab	-0.6390483
4	0xbef9a80d	-0.48761025
5	0xbf18585f	-0.59509844
6	0xbf0c4932	-0.5479919
7	0xbf08d82f	-0.5345487
8	0xbf2ae338	-0.6675296
9	0xbf092bac	-0.53582263
10	0xbf223bed	-0.6337269
11	0xbf20f41a	-0.6287247
12	0xbf2e8c78	-0.6818309
13	0xbf1bc977	-0.60854286
14	0xbeffbb8b	-0.4994777
15	0xbef85180	-0.4849968
16	0xbf05af8a	-0.52220976
17	0xbf0391e6	-0.513945
18	0xbef8c37a	-0.48586637
19	0xbf0a8762	-0.5411283
20	0xbf34ea4d	-0.70670015
21	0xbec1bd81	-0.37839893
22	0xbf2bda36	-0.6712984
23	0xbf269c01	-0.65081793
24	0xbf03cc3e	-0.51483524
25	0xbf164eb0	-0.5871382
26	0xbecbb3c2	-0.39785582
27	0xbede6184	-0.43433774
28	0xbf26de74	-0.65183187
29	0x3edf8012	0.43652397
30	0xbec5bd8b	-0.38621172
31	0xbe826591	-0.25468114
32	0xbf11474a	-0.56749403
33	0xbeeefec9	-0.4667876
34	0xbf0103f5	-0.5039666
35	0xbf1bc16b	-0.6084201
36	0xbf1de98c	-0.6168449
37	0xbf117324	-0.56816316
38	0xbf042d9e	-0.51632106
39	0xbf0ed941	-0.55800253
40	0xbe5cbc9b	-0.21556322
41	0xbf29f49e	-0.6638888
42	0xbf0f6552	-0.5601398
43	0xbf13bef8	-0.5771327
44	0xbf0cb9d2	-0.5497104
45	0xbf045b17	-0.5170149
46	0xbccd9ce2	-0.025099222
47	0xbf21f7f1	-0.63268954
48	0xbeff0f18	-0.49816203
49	0xbecfe71f	-0.4060602
50	0xbf11e490	-0.56989384
51	0xbf0d33f2	-0.5515739
52	0xbefecbba	-0.49764806
53	0xbe9d0e20	-0.3067484
54	0xbf2f9434	-0.68585515
55	0xbf165abd	-0.58732206
56	0xbf150680	-0.58213043
57	0xbf20cf40	-0.6281624
58	0xbe95dc77	-0.29269764
59	0xbf1e82c1	-0.61918265
60	0xbf2470e8	-0.6423478
61	0xbf2aea6d	-0.66763955
62	0xbf1a1a17	-0.6019606
63	0xbf02217e	-0.50832355
64	0xbf2f787b	-0.68543214
65	0xbf1538c7	-0.5828976
66	0xbf182d5a	-0.594442
67	0xbf2ce038	-0.6752963
68	0xbf15f78e	-0.58580863
69	0xbf16b7bc	-0.58874106
70	0xbefdfecc	-0.49608457
71	0xbf03ac73	-0.5143501
72	0xbee95f89	-0.455807
73	0xbf345ccf	-0.70454115
74	0xbeffce93	-0.4996229
75	0xbebf465f	-0.37358376
76	0xbf0c7270	-0.5486212
77	0xbefedbe2	-0.49777132
78	0xbf0bdecb	-0.5463683
79	0xbefa7c48	-0.48922944
80	0xbf0579f4	-0.5213921
81	0xbea406ea	-0.32036525
82	0xbf2af1f6	-0.66775453
83	0xbf0fba88	-0.56144
84	0xbf27834c	-0.6543472
85	0xbf0b09f7	-0.5431208
86	0xbe242761	-0.16030647
87	0xbf0be978	-0.5465312
88	0xbef9342b	-0.48672614
89	0xbea1a2b8	-0.31569457
90	0xbf16f4ce	-0.5896729
91	0xbf23a47e	-0.6392287
92	0xbf36775c	-0.7127588
93	0xbf258366	-0.64653623
94	0xbf329da3	-0.69771785
95	0xbe510cf4	-0.20415097
96	0xbf2f4826	-0.68469465
97	0xbf29e864	-0.66370225
98	0xbf22cbcf	-0.6359224
99	0xbf0f9da0	-0.5609989
100	0xbf10b4fe	-0.5652617
101	0xbe95ce69	-0.2925904
102	0xbf0e1d99	-0.5551391
103	0xbf0a30a3	-0.53980464
104	0xbf2bc55d	-0.6709803
105	0xbf051e87	-0.51999706
106	0xbf338477	-0.70124
107	0xbf0758fa	-0.5287014
108	0xbf147e29	-0.58005005
109	0xbf21ac0f	-0.63153166
110	0xbefa4d65	-0.48887172
111	0xbe8ea225	-0.2785808
112	0xbf20584e	-0.6263474
113	0xbf2ca655	-0.674413
114	0xbea12566	-0.31473845
115	0xbe447aac	-0.1918742
116	0xbf22653a	-0.6343571
117	0xbe95a362	-0.29226214
118	0xbf2fb7c6	-0.6863979
119	0xbf1ff81e	-0.6248797
120	0xbf015e0a	-0.5053412
121	0xbf23b014	-0.6394055
122	0xbf2660db	-0.6499154
123	0xbf035df4	-0.51315236
124	0x3ee52379	0.44753626
125	0xbf015272	-0.50516427
126	0xbf1e8451	-0.6192065
127	0xbf09bfca	-0.5380827
128	0xbf288ff4	-0.65844655
129	0xbf04fc3f	-0.51947397
130	0x3e35d529	0.17757095
131	0xbf279382	-0.65459454
132	0xbf173017	-0.59057754
133	0xbe84b770	-0.25921202
134	0xbf13b083	-0.5769121
135	0xbf2d7bdd	-0.67767125
136	0xbe52ba7a	-0.20578948
137	0xbf0af831	-0.5428496
138	0xbef6821c	-0.4814614
139	0xbf2d8531	-0.6778136
140	0xbf11f59e	-0.5701541
141	0xbf02c220	-0.5107746
142	0xbdcbd29c	-0.0995228
143	0xbedc45fc	-0.43022144
144	0xbf0f634e	-0.560109
145	0xbf2366cd	-0.63828737
146	0xbf00151a	-0.500322
147	0xbf142c99	-0.5788055
148	0xbf2741e5	-0.6533492
149	0xbf13881e	-0.57629573
150	0xbf10c8aa	-0.5655619
151	0xbf037638	-0.5135226
152	0xbf22c5aa	-0.6358286
153	0xbf2db394	-0.6785214
154	0xbf2d8cb1	-0.67792803
155	0xbf06355b	-0.52425164
156	0xbf29cb0b	-0.66325444
157	0xbf0d0c2d	-0.55096704
158	0xbf1c7746	-0.61119497
159	0xbf06fbb8	-0.5272784
160	0xbf1062da	-0.56400836
161	0xbf1830dd	-0.5944956
162	0xbf0d63b5	-0.55230266
163	0xbefcfa5c	-0.4940976
164	0xbe72d040	-0.23712254
165	0xbe313ddc	-0.17308754
166	0xbf226cf8	-0.63447523
167	0xbf248676	-0.6426767
168	0xbf26e674	-0.65195394
169	0xbf15a69c	-0.5845735
170	0xbe941021	-0.28918555
171	0xbee193e2	-0.44058138
172	0xbf241e36	-0.641086
173	0xbf25fbee	-0.6483754
174	0xbedd6f7f	-0.43249127
175	0xbf183454	-0.59454846
176	0xbf08ff4f	-0.5351457
177	0xbf031236	-0.5119966
178	0xbf10ea2f	-0.56607336
179	0xbead0ffe	-0.33801264
180	0xbf16d593	-0.5891964
181	0xbf32200d	-0.69580156
182	0xbef897a6	-0.485532
183	0xbf2aec06	-0.66766393
184	0xbf316abf	-0.69303507
185	0x3eb23a21	0.34809974
186	0xbf28b38b	-0.6589896
187	0xbf0da176	-0.55324495
188	0xbf24bc91	-0.6435023
189	0xbf0927a8	-0.53576136
190	0xbf0d497f	-0.5519027
191	0xbf29ba55	-0.66299945
192	0xbf2ca306	-0.67436254
193	0xbf1f9c94	-0.62348294
194	0xbf0a2ed8	-0.5397773
195	0xbe00b46f	-0.1256883
196	0xbdbae5ed	-0.09125886
197	0xbdf17b03	-0.11791041
198	0xbf020ed6	-0.5080389
199	0xbe9cc149	-0.30616215
200	0xbf0a1178	-0.53932905
201	0xbf0c3e60	-0.54782677
202	0xbf23842c	-0.63873553
203	0xbf127026	-0.57202375
204	0xbf206051	-0.6264697
205	0xbf0c8fa5	-0.54906684
206	0xbf03ad2a	-0.514361
207	0xbf248b70	-0.64275265
208	0xbf279d37	-0.65474266
209	0xbf26e48e	-0.65192497
210	0xbf104921	-0.56361586
211	0xbefc54c5	-0.49283424
212	0xbea341d2	-0.31886154
213	0xbf2b119c	-0.66823745
214	0xbf110999	-0.5665527
215	0xbf170630	-0.58993816
216	0xbec3770c	-0.38176763
217	0xbe928ce4	-0.28623116
218	0xbf2f3f60	-0.6845608
219	0xbef0f447	-0.4706137
220	0xbcf75268	-0.030190662
221	0xbe24b52e	-0.1608474
222	0xbf39f17c	-0.726341
223	0xbf174400	-0.59088135
224	0xbf208b79	-0.6271282
225	0xbf09c234	-0.53811955
226	0x3dec1fd8	0.11529511
227	0xbdab46ba	-0.083630994
228	0xbf0bb5b3	-0.54574126
229	0xbf16f7a8	-0.58971643
230	0xbf124b84	-0.5714648
231	0xbf187674	-0.59555745
232	0xbf1f8e0c	-0.6232612
233	0xbef58332	-0.47951657
234	0xbf03ca38	-0.51480436
235	0xbf1354c4	-0.5755122
236	0xbf093044	-0.5358927
237	0xbf0085d4	-0.50204206
238	0xbf231a40	-0.6371193
239	0xbf30bd23	-0.690386
240	0xbf0c1e71	-0.5473395
241	0xbf3b16ec	-0.7308185
242	0x3ca595fc	0.02021312
243	0xbf37311e	-0.7155932
244	0xbf26276d	-0.6490391
245	0xbf1c2d83	-0.61006945
246	0xbef6875c	-0.48150146
247	0xbee43d4e	-0.44578022
248	0xbea0960c	-0.31364477
249	0xbe73cf3b	-0.23809521
250	0xbf13ea35	-0.57779247
251	0xbf269ec7	-0.65086025
252	0xbefa6b6c	-0.4891008
253	0xbf2b0af4	-0.6681359
254	0xbdfce267	-0.1234787
255	0xbf19a9a4	-0.60024476

fc3.bias f4 [10]
0	0xbf1e8dea	-0.61935294
1	0xbf08c08d	-0.5341881
2	0x3f1397aa	0.57653296
3	0x3f241770	0.6409826
4	0x3f17611b	0.59132546
5	0x3ef6a46d	0.48172322
6	0x3f1364be	0.57575595
7	0x3e6df22e	0.23236915
8	0xbefe5b14	-0.49678862
9	0xbf09d4ed	-0.53840524
