FL/cnn-img/outputs/2025-03-18/18-20-35/model_state_acc_0.1_round_0.pth (torch, 251920 bytes, 10 tensors)

conv1.weight f4 [6, 3, 5, 5]
0	0x3dd72aaa	0.105061844
1	0x3d73bdaa	0.05950705
2	0x3d12b8d6	0.035820805
3	0xbd87a719	-0.06623668
4	0xbd922584	-0.07136062
5	0xbd0e5bcb	-0.03475551
6	0x3cb044f9	0.021517264
7	0x3da93156	0.08261363
8	0x3d7fc69b	0.062445264
9	0xbbdd023f	-0.0067446525
10	0x3d648f90	0.055800974
11	0xbd7ebcbd	-0.062191714
12	0xbd07c95a	-0.03315101
13	0xbd8c5d75	-0.06853763
14	0x3d2f7431	0.042835418
15	0xbd99a7d0	-0.07502711
16	0x3de91293	0.11380496
17	0x3d76fc53	0.06029923
18	0x3d97dbe9	0.074149914
19	0x3d9d5d38	0.07683796
20	0xbdadc987	-0.08485704
21	0x3dc830d2	0.09774937
22	0xbd123cdd	-0.035702575
23	0xbde72404	-0.11286166
24	0x3d822958	0.06355542
25	0xbde719f8	-0.1128425
26	0xbaa30443	-0.0012437183
27	0x3d54f3ec	0.051990435
28	0x3d515607	0.051107433
29	0xbd913118	-0.07089442
30	0xbd1e859a	-0.03870163
31	0xbd26cb4c	-0.040721223
32	0xbd531377	-0.051532235
33	0xbc8929a2	-0.016743485
34	0x3d7d2e2d	0.061811615
35	0xbc1ed0d5	-0.009693344
36	0x3d8c8c72	0.06862725
37	0x3dd1868a	0.102307394
38	0xbdbc4b32	-0.0919403
39	0xbd978814	-0.07399002
40	0xbd515062	-0.05110205
41	0x3d3e199b	0.046411138
42	0x3dbe83f9	0.093025155
43	0x3dc6d5ea	0.097087696
44	0xbd431cb9	-0.047634814
45	0xbdd9911c	-0.106233805
46	0xbde9aa05	-0.11409382
47	0xbd2ea7e9	-0.0426406
48	0x3d8bab56	0.06819789
49	0xbcdec2bc	-0.027192466
50	0xbd1bca3f	-0.038034674
51	0xbdbc70eb	-0.09201225
52	0x3da3048d	0.07959852
53	0xbce92f55	-0.028464952
54	0xbddef608	-0.108867705
55	0x3da5c8b3	0.08094921
56	0x3b8376e7	0.004011977
57	0x3cd225fd	0.02565288
58	0x3cf32a57	0.029683275
59	0x3dbbce99	0.09170265
60	0x3dd3a547	0.103342585
61	0xbda995ff	-0.082805626
62	0xbd855faa	-0.06512387
63	0xbc8283f4	-0.01593206
64	0x3cb01e43	0.021498805
65	0xbca48932	-0.020084951
66	0xbbd32775	-0.0064439126
67	0xbd66b4b9	-0.056324694
68	0x3bc058ef	0.0058699767
69	0x3d2be354	0.041964844
70	0x3db9c7c1	0.09071303
71	0x3d613a2e	0.054987125
72	0x3d058146	0.032593988
73	0x3c6a5c82	0.014304282
74	0xbd4dddbe	-0.050260298
75	0xbd307d35	-0.043088157
76	0xbd4f6868	-0.05063668
77	0xbd7847c8	-0.06061533
78	0x3ce2a831	0.02766809
79	0xbdc41685	-0.09574608
80	0xbd0cf3a4	-0.03441204
81	0xbd8d9f7d	-0.069151856
82	0x3d66cd6f	0.05634826
83	0x3d119949	0.035546575
84	0xbd000a14	-0.03125961
85	0xbd74a914	-0.059731558
86	0x3da852b0	0.082188964
87	0xbd34a3c0	-0.044101477
88	0xbd902bb9	-0.070395894
89	0x3de47015	0.111541905
90	0x3b9c3e22	0.004768149
91	0xbd323208	-0.043504745
92	0x3d9dfa00	0.07713699
93	0x3d753339	0.059863303
94	0xbcaaefb7	-0.020866258
95	0x3dd43fe4	0.10363749
96	0xbda95f7f	-0.082701676
97	0x3dd0406e	0.10168539
98	0x3c86a4f0	0.01643607
99	0x3dc8e4fa	0.09809299
100	0x3d93771d	0.072004534
101	0xbd701edb	-0.058623176
102	0xbb857d3f	-0.0040737684
103	0x3cfc172c	0.030772768
104	0x3dd10b85	0.10207275
105	0x3d5dd4d2	0.05415804
106	0x3ca01fab	0.01954635
107	0x3d303a5e	0.043024413
108	0x3c11915c	0.008884754
109	0xbde7f9ea	-0.11326964
110	0x3d45c8da	0.04828725
111	0xbd4e4ad9	-0.05036435
112	0x3dbbf0ca	0.09176786
113	0xbcd2d400	-0.025735855
114	0xbdb0b80e	-0.08628856
115	0x3d3afa7e	0.045649044
116	0xbd0aa825	-0.03385176
117	0xbcd604c7	-0.026125325
118	0xbcaed6e0	-0.021342695
119	0xbdb25830	-0.08708227
120	0x3dd3a8f1	0.103349574
121	0xbb957929	-0.0045615626
122	0xbdb1e675	-0.08686534
123	0x3d4ac417	0.049503412
124	0x3cd2fb00	0.025754452
125	0x3de0a870	0.10969627
126	0xbdabaa5a	-0.08382101
127	0x3c613b82	0.013747098
128	0x3de61999	0.11235351
129	0xbc0d0fb3	-0.0086097
130	0x3d508e1b	0.050916772
131	0xbbe3813f	-0.0069428976
132	0x3dc82136	0.097719595
133	0xbc830968	-0.015995696
134	0x3c961fb9	0.018325673
135	0x3d4c91e2	0.049943812
136	0xbdc1cb2b	-0.09462579
137	0x3ba68e20	0.0050828606
138	0x3d349675	0.0440888
139	0x3deb1cbc	0.1148009
140	0xbdc8d484	-0.09806159
141	0x3cbf599a	0.023358155
142	0x3c295e23	0.010337385
143	0x3d08ad51	0.033368412
144	0xbcc50b86	-0.024053346
145	0xbd426622	-0.047460683
146	0xbddfd874	-0.10929957
147	0x3d84248e	0.06452285
148	0x3d314c90	0.043285906
149	0x3d80fb00	0.062978745
150	0x3d9aaf33	0.07552948
151	0xbd812bfd	-0.06307218
152	0xbccfffcd	-0.02539053
153	0xbdbe39be	-0.09288357
154	0xbd2a335b	-0.041552883
155	0x3d70ef71	0.0588221
156	0x3d407b54	0.046992615
157	0x3d7d5b3d	0.06185459
158	0x3c0e3016	0.008678457
159	0xbdd6a124	-0.10479954
160	0x3d1a006f	0.03759807
161	0xbdbaf78e	-0.091292486
162	0xbdc26cb2	-0.09493388
163	0xbdd0818c	-0.10180959
164	0xbc82aafb	-0.01595067
165	0x3d48ae54	0.048994377
166	0xbd19932f	-0.03749388
167	0x3cdb4283	0.026765114
168	0xbdac8a1e	-0.08424781
169	0xbd2a72c3	-0.04161335
170	0x3c99631f	0.018724022
171	0x3d85ca17	0.06532686
172	0x3c380090	0.011230603
173	0x3cbb9f4c	0.022903107
174	0x3d460ff0	0.048355043
175	0x3d8cf0c5	0.06881861
176	0xbd419afb	-0.04726694
177	0x3d3efcb8	0.04662773
178	0x3de6cf39	0.11269993
179	0xbd9cf25c	-0.07663414
180	0xbdc16eaf	-0.09444939
181	0x3ddd9efc	0.108213395
182	0xbda27dce	-0.079341516
183	0xbd8f015e	-0.06982683
184	0x3d2f3d58	0.04278311
185	0xbcf8a13b	-0.030350318
186	0x3d9ddd03	0.0770817
187	0xbd9c706a	-0.07638629
188	0x3dc690d3	0.09695592
189	0x3da65b00	0.081228256
190	0xbd92b4b1	-0.071633704
191	0xbccbe678	-0.02489017
192	0xbd932727	-0.07185202
193	0x3d23a5b4	0.03995295
194	0x3de18bf4	0.11013022
195	0xbd6c71e4	-0.057725802
196	0x3b28f577	0.0025781074
197	0xbc0d83fa	-0.008637423
198	0xbde75d4c	-0.11297092
199	0xbd2980e9	-0.041382704
200	0xbab91a9a	-0.0014122308
201	0xbde33509	-0.110941
202	0x3dbc7556	0.092020676
203	0xbb52eb2f	-0.0032183637
204	0xbdd4f2a7	-0.10397845
205	0x3dc370df	0.09543013
206	0xbd8fe41f	-0.070259325
207	0x3d600f3e	0.054702036
208	0x3da7eda5	0.08199624
209	0xbd00ea95	-0.031473715
210	0xbd429327	-0.047503617
211	0x3dc298e6	0.09501819
212	0xbd2549cc	-0.04035358
213	0xbceb66c8	-0.028735533
214	0x3dab471b	0.08363172
215	0x3d0b347f	0.03398561
216	0x3dba3a4f	0.09093153
217	0xbd5569e8	-0.052102953
218	0x398a67c1	0.00026398714
219	0xbdc7edbb	-0.0976214
220	0xbc339994	-0.010961909
221	0xbd28be2f	-0.041197
222	0xbdc65b2f	-0.09685361
223	0xbc9f07c4	-0.019412883
224	0x3da0501d	0.078277804
225	0x3d62962e	0.055319004
226	0xbc2315b3	-0.009953904
227	0xbd8ff5fc	-0.0702934
228	0xbd89545a	-0.06705542
229	0x3d6b620c	0.05746655
230	0xbccf5ede	-0.02531379
231	0x3dc9f2e9	0.098607846
232	0x3da79b9c	0.08183977
233	0x3ddd1e54	0.107968
234	0x3d241b23	0.040064942
235	0xbdeb6edf	-0.11495756
236	0xbd71e3f3	-0.05905528
237	0x3dae3d85	0.08507828
238	0x3da0fa26	0.07860212
239	0xbdb6291d	-0.088945605
240	0xbdbfac9e	-0.09359096
241	0xbd39ceb4	-0.045363143
242	0xbd2b3c1d	-0.041805375
243	0x3d838c8f	0.06423294
244	0x3c111f56	0.008857569
245	0x3cb445cd	0.02200594
246	0x3cfddf6c	0.030990325
247	0x3dd2ea3e	0.102985844
248	0x3bd64c84	0.006539883
249	0xbdab7aa2	-0.08373
250	0x3ccdf7f5	0.02514265
251	0x3d595256	0.053057037
252	0xbdc4aab0	-0.096028686
253	0x3d89da1c	0.06731054
254	0x3d26a1ba	0.04068158
255	0x3dbf0beb	0.09328445

conv1.bias f4 [6]
0	0xbd7e88e4	-0.062142268
1	0x3b5f1ba5	0.0034043577
2	0x3dd4be63	0.10387876
3	0x3dcf58de	0.10124372
4	0xbbabbc2f	-0.005240939
5	0xbd64ba2c	-0.05584161

conv2.weight f4 [16, 6, 5, 5]
0	0x3d8a8f55	0.0676562
1	0xbd89836d	-0.067145206
2	0xbac26287	-0.0014830389
3	0x3c8854a3	0.01664192
4	0x3c7f6ca4	0.015589867
5	0x3bb6a406	0.0055737523
6	0x3da0e5f3	0.07856359
7	0x3d0b7663	0.03404845
8	0xbd44717a	-0.047959782
9	0x3ca2c307	0.019868387
10	0xbd43084c	-0.047615334
11	0x3d7d5dde	0.061857097
12	0x3cf7d666	0.0302536
13	0x3d199c9f	0.03750288
14	0xbd697608	-0.05699733
15	0xbbdc0a44	-0.006715091
16	0x3cec5f61	0.028854074
17	0xbda214cb	-0.07914122
18	0x3d6a415c	0.057191238
19	0x3d43e9ac	0.04783027
20	0x3cbafbe9	0.022825198
21	0x3d60d6aa	0.05489222
22	0xbd24a0ba	-0.040192343
23	0xbd21bee7	-0.0394887
24	0x3ca93683	0.020655876
25	0xbd6c9562	-0.05775965
26	0x3d3a5fb9	0.045501444
27	0xbd45fd72	-0.048337407
28	0x3d02b2a2	0.03190864
29	0x3d1c1ed8	0.038115352
30	0xbd0fdb43	-0.035121214
31	0xbd8191ee	-0.06326662
32	0x3c04dea3	0.008109721
33	0xbd0643c3	-0.032779466
34	0x3c912521	0.0177179
35	0x3d5f1a8a	0.05446867
36	0xbb02edd7	-0.001997819
37	0xbc4b47d2	-0.01240726
38	0x3d9f59fd	0.07780836
39	0x3d24e4ae	0.04025715
40	0xbd3542d2	-0.044253178
41	0xbda0e5f3	-0.07856359
42	0xbc4bec0f	-0.0124464175
43	0xbcb9a64a	-0.0226623
44	0x3cd24a61	0.025670232
45	0xbbb2ab53	-0.0054525523
46	0xbd520c2c	-0.05128114
47	0xbd75243c	-0.05984901
48	0x3bb3824f	0.0054781805
49	0xbba6aad9	-0.0050862846
50	0x3ca8486c	0.020542346
51	0x3ce802e2	0.028321687
52	0x3bb7fb1e	0.0056146523
53	0x3b84146e	0.0040307557
54	0x3c3e4174	0.011612285
55	0x3bb508eb	0.0055247447
56	0x3b8a6fdf	0.004224762
57	0x3d72eeb0	0.05930966
58	0xbd25fa3a	-0.040521838
59	0xbd131770	-0.035911024
60	0xbceea65c	-0.02913206
61	0xbd95ef95	-0.07321087
62	0x3d78422b	0.060609978
63	0xbd71f501	-0.059071545
64	0x3b1b8436	0.0023729927
65	0xbd5dad11	-0.054120127
66	0x3d940594	0.072276264
67	0xbda5c378	-0.08093923
68	0x3d720487	0.05908635
69	0x3c65ac20	0.014018089
70	0x3c3b346f	0.011426075
71	0xbcc6c10c	-0.024261974
72	0x3c0b19e8	0.008490063
73	0xbd9b6cf5	-0.07589141
74	0x3c2f8a62	0.010714145
75	0x3cd3fccb	0.025877377
76	0x3ce55ab3	0.02799735
77	0x3d3cf4da	0.046131946
78	0xbd164d91	-0.036695067
79	0x3d0b1b44	0.03396155
80	0xbd09e8c1	-0.033669237
81	0xbd549e76	-0.051908933
82	0xbd96df82	-0.073668495
83	0xbd7b3646	-0.061331056
84	0x3b480571	0.0030520821
85	0xbd8107f5	-0.06300346
86	0xbcd1fb86	-0.025632631
87	0xbd29bede	-0.04144179
88	0x3d390a7b	0.04517601
89	0xbbb87dad	-0.005630216
90	0xbcf25cbe	-0.029585239
91	0xbd922668	-0.07136232
92	0x3d2f5481	0.0428052
93	0x3cbee47c	0.02330231
94	0x3d5c51a0	0.05378878
95	0xbd00d388	-0.031451732
96	0x3c0e51d6	0.008686503
97	0x3d43eb82	0.04783202
98	0xbd4ed768	-0.050498396
99	0x3d5428ea	0.05179683
100	0xbd964e0d	-0.07339106
101	0x3b687b41	0.0035473856
102	0x3c31d1c5	0.010853236
103	0x3ccf264b	0.025286814
104	0x3d928ed2	0.07156147
105	0x3d0690e1	0.03285301
106	0x3d3a219f	0.04544222
107	0xbd03bc13	-0.032161783
108	0x3d82450e	0.063608274
109	0xbc991f93	-0.018691814
110	0x3d50c854	0.050972298
111	0x3a8a10d5	0.0010533581
112	0xbd4e105e	-0.050308578
113	0xbc6a7f9b	-0.01431265
114	0xbd3fadb3	-0.04679651
115	0x3d296ed5	0.041365463
116	0x3cf30592	0.029665742
117	0x3d942874	0.07234278
118	0x3bb15dc9	0.0054127914
119	0x3cfa4368	0.03054972
120	0xbca10462	-0.01965541
121	0xbda36c43	-0.07979634
122	0x3d984c2f	0.07436406
123	0xbd15f2bb	-0.03660844
124	0xbb8affd2	-0.004241922
125	0xbd225845	-0.03963496
126	0x3d16d7e7	0.036826994
127	0xbd8a26ea	-0.067457035
128	0x3ab02c55	0.0013440946
129	0xbd5d64b4	-0.054051116
130	0x3d699a24	0.057031766
131	0xbd80cb95	-0.0628883
132	0x3d44ac12	0.04801566
133	0x3da19be6	0.078910634
134	0xbc9cb17a	-0.019127596
135	0x3cbaff6c	0.022826873
136	0xbda00dbf	-0.07815122
137	0x3d4dfe7a	0.050291516
138	0x3d861a9c	0.06548044
139	0x3d535545	0.05159499
140	0x3c1c13cb	0.009526203
141	0xbcaf69ae	-0.021412697
142	0x3d0d9e54	0.03457482
143	0x3d19c3fc	0.03754042
144	0xbd1d1268	-0.03834763
145	0xbce41082	-0.027839903
146	0xbd737d16	-0.059445463
147	0x3a9005b9	0.0010988034
148	0x3d73047b	0.059330445
149	0xbd49a992	-0.04923398
150	0x3d411b10	0.04714495
151	0x3cb3d643	0.021952754
152	0xbd7876b0	-0.060660064
153	0xbbb80858	-0.005616229
154	0xbcc32b10	-0.023824245
155	0xbd1fdf99	-0.0390316
156	0x3d84e384	0.06488708
157	0xbd06d853	-0.032921147
158	0x3d4f02bc	0.050539717
159	0xbd7607ea	-0.06006614
160	0x3b677262	0.003531598
161	0xbd46b987	-0.048516776
162	0xbd26bf1e	-0.040709607
163	0x3c258dee	0.010104639
164	0xbd7eeb88	-0.06223634
165	0xbd61d0aa	-0.05513064
166	0x3d394909	0.045235667
167	0x3c93af0a	0.018027801
168	0xbc901475	-0.01758788
169	0xbd8ecbb9	-0.06972451
170	0xbda2dbc5	-0.07952074
171	0x3cca715e	0.02471226
172	0xbda0a4e2	-0.07843949
173	0xbd083e7d	-0.03326272
174	0x39d53d01	0.00040671977
175	0xbd879146	-0.066195056
176	0xbd57e8da	-0.0527123
177	0xbcb71d66	-0.022352885
178	0x3d44c3fc	0.048038468
179	0x3b6a6770	0.003576722
180	0xbd68d7db	-0.05684648
181	0xbd0d13e9	-0.034442816
182	0xbabb25bc	-0.0014278213
183	0x3d03a705	0.032141704
184	0xbcecf1b8	-0.028923854
185	0x3c164eca	0.009174058
186	0x3d9cdd47	0.07659393
187	0xbda47541	-0.08030177
188	0xbd93bc04	-0.072135955
189	0xbc6abc3b	-0.014327104
190	0x3d7099c5	0.058740396
191	0xbc2f9b29	-0.010718145
192	0x3d4a9e24	0.04946722
193	0x3ce4c5ea	0.027926404
194	0x3c28e699	0.010308885
195	0xbcddc52c	-0.027071558
196	0x3cb88469	0.022524076
197	0x3c12af55	0.008952935
198	0xbc58736c	-0.0132111125
199	0xbd6bbbbf	-0.057552096
200	0xbd00babb	-0.03142808
201	0x3d809162	0.062777296
202	0x3d9f3221	0.07773233
203	0xbd8cef84	-0.068816215
204	0x3d800bc0	0.06252241
205	0xbd056a4f	-0.032572087
206	0x3c948359	0.018129038
207	0x3d9880ac	0.07446417
208	0xbd83aca0	-0.0642941
209	0xbcacc19f	-0.02108842
210	0xbc5c133f	-0.013432323
211	0xbd621a84	-0.05520107
212	0x3d7db2c3	0.06193806
213	0xbcccd1ad	-0.025002325
214	0x3d98e19e	0.07464908
215	0xbba10bc6	-0.0049147336
216	0xbda27a4c	-0.079334825
217	0x3d573bf2	0.052547403
218	0xbcd1c4bd	-0.025606507
219	0xbc330123	-0.010925564
220	0x3d899a18	0.06718844
221	0xbd873ee5	-0.06603793
222	0x3cb59e61	0.022170248
223	0xbd8a7dea	-0.067622975
224	0x3d738d5d	0.059460986
225	0xbd1925e4	-0.03738965
226	0x3d369544	0.044575945
227	0xbca77066	-0.020439338
228	0x3c91b98c	0.017788671
229	0x3c8e48a6	0.017368626
230	0x3d639826	0.055565022
231	0xbd7d522c	-0.061845943
232	0x3d059398	0.03261146
233	0xbd16dd6c	-0.036832258
234	0x3cf009c2	0.029301528
235	0xbd393146	-0.045213006
236	0x3d185903	0.037194263
237	0x3d83ffd3	0.06445279
238	0xbd0451b6	-0.032304488
239	0xbda4364c	-0.08018169
240	0x3d9321ef	0.07184207
241	0xbcdc0372	-0.026857112
242	0xbd8a027a	-0.067387536
243	0x3ca8aea1	0.020591082
244	0xbd093c8e	-0.033505015
245	0x3d664ae2	0.056223758
246	0xbcacd27b	-0.021096459
247	0x3d88ea83	0.066853546
248	0xbc233cde	-0.009963242
249	0xbd8a0780	-0.06739712
250	0x3d1c2761	0.038123492
251	0xbcaa7246	-0.020806443
252	0xbd08c292	-0.03338868
253	0x3d9b6241	0.075871
254	0xbd9c9ee3	-0.07647493
255	0x3ca0f9f9	0.019650446

conv2.bias f4 [16]
0	0x3d06d326	0.03291621
1	0xbd870a5d	-0.065937735
2	0xbbaa3ae0	-0.0051950067
3	0x3d59072f	0.052985366
4	0x3d6e0837	0.058113303
5	0x3cd46d20	0.025930941
6	0x3d25065a	0.04028926
7	0x3d6afb32	0.057368465
8	0xbc77a99d	-0.015116123
9	0x3b4afd70	0.0030973814
10	0xbd8468e7	-0.06465321
11	0x3d9c1992	0.07622065
12	0xbd5bcfcb	-0.053664964
13	0x3cdbb1bc	0.026818149
14	0xbd8b0e02	-0.06789781
15	0xbd8d6c88	-0.06905466

fc1.weight f4 [120, 400]
0	0x3d04bf32	0.0324089
1	0xbc5cf3ad	-0.013485831
2	0x3c75e507	0.015008218
3	0xbd211115	-0.03932293
4	0xbc087373	-0.0083283065
5	0xbc9575ad	-0.018244589
6	0xbcde962a	-0.027171213
7	0xbcdcd597	-0.026957316
8	0x3d3da4cf	0.04629975
9	0xbc9492e7	-0.018136455
10	0xbd10bd8d	-0.03533702
11	0xbd478eff	-0.048720356
12	0xbd32aa12	-0.043619223
13	0x3cdc272d	0.02687415
14	0xbcc39303	-0.023873812
15	0xbd0213d7	-0.031757202
16	0xbbebb78d	-0.007193512
17	0x3c97f9e7	0.01855178
18	0xba8f9600	-0.0010954738
19	0xbcb60d8a	-0.022223253
20	0xbd487765	-0.04894199
21	0x3c5df5cd	0.013547373
22	0xbc76f24d	-0.015072417
23	0xbccbeebd	-0.024894113
24	0x3c8f520a	0.017495174
25	0xbd4661e8	-0.048433214
26	0x3b9ec31a	0.0048450353
27	0x3d2af570	0.041737974
28	0x3c3b291a	0.011423374
29	0xbc8b0263	-0.016968912
30	0x3cbc5087	0.022987617
31	0xbcef7ef3	-0.029235339
32	0xbd24eeea	-0.04026691
33	0xbd30c35d	-0.043155063
34	0x3b78da00	0.0037971735
35	0x3ba9f79a	0.005186987
36	0xbce89ad7	-0.028394146
37	0xbc7acaed	-0.01530717
38	0xbd0f5795	-0.034995634
39	0x3c8e76fa	0.017390717
40	0x3cc14403	0.023592
41	0xbc7df940	-0.01550132
42	0x3d16b7c2	0.03679634
43	0x3c692bcd	0.014231634
44	0x3d028c13	0.031871866
45	0xbd046463	-0.0323223
46	0x3cea1bb7	0.028577669
47	0xbbef625a	-0.0073054256
48	0xbc2d5dc0	-0.010581434
49	0xbd4b3190	-0.049607813
50	0x3c64313a	0.013927752
51	0x3c0da2fa	0.008644814
52	0x3cabda27	0.020978047
53	0xbd0cf2e0	-0.03441131
54	0xbcdf230d	-0.027238393
55	0xbd3e1407	-0.04640582
56	0x3d03f24d	0.032213498
57	0x3b5b8f4d	0.0033502162
58	0x3d21af3d	0.03947376
59	0x3c807753	0.015681898
60	0x3c9d5857	0.019207163
61	0xbca91f83	-0.020644909
62	0xbc999ea0	-0.018752396
63	0x3c561aa0	0.013067871
64	0xbd4b45ad	-0.049626995
65	0x3cd4c6a3	0.025973624
66	0x3ca32357	0.019914312
67	0xb900119a	-0.00012213588
68	0x3ceebf40	0.02914393
69	0x3d0332d5	0.0320309
70	0x3cd8a530	0.026445955
71	0xbca4811d	-0.020081097
72	0x3cc6bb7d	0.024259323
73	0xbb6fdd9a	-0.003660059
74	0x3cf38c53	0.029729998
75	0x3b557acd	0.0032574416
76	0x3d110ebd	0.035414446
77	0x3d100b13	0.03516681
78	0xbd202bb0	-0.039104164
79	0xbbfe84a7	-0.0077672782
80	0xbd3e231d	-0.046420205
81	0x3bc284a7	0.0059362235
82	0xbcd7122a	-0.026253778
83	0xbd134f7f	-0.035964485
84	0xbd085ab5	-0.03328963
85	0xbcf24833	-0.029575443
86	0x3c70c9a7	0.014696515
87	0x3ca1e4bd	0.019762391
88	0x3d0f0237	0.03491422
89	0x3c139f87	0.009010202
90	0xbce69f90	-0.028152257
91	0xbc069920	-0.008215219
92	0x3d0b12aa	0.033953346
93	0xbb3fde33	-0.0029276728
94	0x3c8568f3	0.016285395
95	0x3c0b6880	0.008508801
96	0x3d459a40	0.048242807
97	0x3c8e79f7	0.017392142
98	0x3c6a4420	0.014298469
99	0xbc752f6d	-0.0149649205
100	0x3cf3d983	0.029766804
101	0x3d2ea1c2	0.042634733
102	0xbd37d3ff	-0.04487991
103	0x3c050c73	0.008120644
104	0x3ca535d0	0.020167261
105	0x3cb4bc03	0.022062307
106	0x3cd7c28d	0.026337886
107	0x3a487ecd	0.00076482893
108	0xbd0e06f7	-0.03467461
109	0xbd04f415	-0.032459337
110	0xbcadfdaa	-0.02123912
111	0x3ba3449a	0.004982543
112	0xbc49364d	-0.012281013
113	0x3ceb00ba	0.02868687
114	0x3d1df390	0.038562357
115	0x3d1eec60	0.038799644
116	0xbb87734d	-0.004133618
117	0xbccad950	-0.024761826
118	0xbd0ff465	-0.035145182
119	0x3bd5a9f3	0.0065205037
120	0xbc5bd713	-0.013417977
121	0x3ce6b8f7	0.02816437
122	0x3d2b2962	0.041787513
123	0x3c15e98d	0.009149921
124	0xbcb0fde3	-0.021605438
125	0x3d127092	0.035751887
126	0x3cbb2a30	0.022847265
127	0xbc92c84d	-0.017917776
128	0x3ce364a3	0.027757948
129	0xbd4af672	-0.049551435
130	0xbc23b6d3	-0.009992319
131	0x3bb4da27	0.00551917
132	0xbb8f6ec0	-0.004377216
133	0x3c664793	0.014055151
134	0xbce0a9c3	-0.027424699
135	0x3cf9dc03	0.030500418
136	0xbc02b6ad	-0.007978124
137	0x3d32762a	0.04356972
138	0xbcacc85a	-0.021091629
139	0x3d3a6398	0.045505136
140	0xbc934e9a	-0.017981816
141	0xbb4becb3	-0.0031116426
142	0x3ccc89f7	0.02496813
143	0xbb93cf40	-0.00451079
144	0xbcaf9730	-0.021434397
145	0xbd1e27df	-0.038612243
146	0x3cc2ff7d	0.023803467
147	0xbd15443a	-0.03644202
148	0xbc91c197	-0.017792506
149	0xbbd9a49a	-0.0066419365
150	0x3d37a742	0.044837244
151	0x3cccb31a	0.024987746
152	0x3d3dcbaa	0.046336807
153	0xbbfe5340	-0.007761389
154	0x3d4549c0	0.048166037
155	0x3a257c00	0.0006312728
156	0x3d3815b8	0.044942588
157	0x3c6f6ec7	0.014613814
158	0xbceda28d	-0.029008174
159	0x3be7b980	0.007071674
160	0x3cb0b97a	0.021572817
161	0xbbc3b0da	-0.00597201
162	0xbd0dccaa	-0.03461901
163	0x3d1a4f50	0.037673295
164	0x3c2a9e47	0.010413713
165	0x3cec3330	0.028833002
166	0x3c6c612d	0.014427465
167	0xbcde3ccd	-0.027128601
168	0xbce746d3	-0.028232014
169	0x3c05b1e7	0.008160091
170	0x3ce65aba	0.028119434
171	0x3d3d9d4f	0.0462926
172	0x3c088e8d	0.008334768
173	0xbcf873ba	-0.03032862
174	0xbd3a6642	-0.045507677
175	0x3ca61f07	0.020278467
176	0xba21f800	-0.00061786175
177	0xbca2ed27	-0.019888474
178	0x3b6e851a	0.0036395253
179	0x3c1996ed	0.009374362
180	0x3d1d2882	0.03836871
181	0xbd109102	-0.03529454
182	0xbc879a57	-0.016553087
183	0x3d2f8aff	0.042857166
184	0xbc9c7217	-0.019097371
185	0xbc9d7173	-0.019219136
186	0x3b84ddcd	0.004054761
187	0xbca5ae5d	-0.020224744
188	0x3cef8f5a	0.02924316
189	0xbd319ba0	-0.043361306
190	0x3b506400	0.0031797886
191	0x3b7adacd	0.0038277388
192	0xbc144a2d	-0.009050888
193	0x3d1e4df3	0.038648557
194	0x3d3db7fa	0.04631803
195	0xbc4c429a	-0.012467051
196	0x3d371f6a	0.044707693
197	0xba40fccd	-0.0007361889
198	0xbcb20463	-0.021730607
199	0xbc9092c3	-0.017648106
200	0x3c63df73	0.013908255
201	0x3d1e987d	0.038719643
202	0x3b5561cd	0.0032559515
203	0x3ca1aa6a	0.01973458
204	0xbcb3b4f3	-0.02193687
205	0xbcf37697	-0.029719634
206	0xbcb194b0	-0.021677345
207	0x3d39a555	0.04532369
208	0x3d297d8a	0.04137949
209	0xbb6fec00	-0.0036609173
210	0x3c32ce1a	0.010913396
211	0x3ccb5547	0.024820937
212	0x3cc7948d	0.024362827
213	0x3c81f54a	0.015864033
214	0xbd4753a5	-0.048663754
215	0x3c9b5887	0.018963112
216	0xbcebfb8a	-0.028806467
217	0xbd42efbd	-0.047591913
218	0x3c9b9e0d	0.018996263
219	0x3d31c7eb	0.043403547
220	0xbcee97e7	-0.029125167
221	0x3c8274c7	0.015924824
222	0xbd2091e5	-0.039201636
223	0x3d2ba295	0.041903097
224	0x3d3932f3	0.045214605
225	0xbbf85e40	-0.007579595
226	0xbd4799d0	-0.04873067
227	0xbd39174d	-0.045188237
228	0x3ce61a0a	0.028088588
229	0x3b8c135a	0.004274768
230	0xbcae67fd	-0.02128982
231	0xbc9202f7	-0.01782368
232	0x3d43eada	0.047831394
233	0x3d3e9043	0.046524297
234	0x3d1fa978	0.038979977
235	0xbcb0349d	-0.021509463
236	0xbd1aaa0d	-0.03775983
237	0xbd1ffcd5	-0.03905948
238	0x3d4745d3	0.048650574
239	0x3c31c4e7	0.010850168
240	0x3b33201a	0.0027332366
241	0x3c23927a	0.009983653
242	0xbd097a85	-0.03356411
243	0xbc8958da	-0.016766
244	0xbc9c5fe7	-0.019088699
245	0x3d35a533	0.044347
246	0x3cb5d973	0.022198414
247	0x3c38a10d	0.011268866
248	0x3c58c4c7	0.013230509
249	0xbd45dc25	-0.04830565
250	0xbc7a9573	-0.0152944205
251	0x3bbb9480	0.0057244897
252	0xba8b7067	-0.0010638357
253	0xbcb20977	-0.021733029
254	0x3ca24b53	0.019811308
255	0xbb353fb3	-0.0027656376

fc1.bias f4 [120]
0	0xbc01985a	-0.007909859
1	0x3be0d4b3	0.006861293
2	0xbcdd4eb3	-0.027015066
3	0x3c88e310	0.016709834
4	0xbab1d633	-0.0013567865
5	0xbd45346f	-0.048145708
6	0xbc9704fa	-0.01843499
7	0x3d0d7128	0.034531742
8	0xbca74393	-0.020417964
9	0xbc99acb0	-0.018759102
10	0xbcfd28fd	-0.030903334
11	0xbd267a42	-0.040643938
12	0xbb1c124d	-0.002381462
13	0xbd05315f	-0.032517787
14	0xbc97253a	-0.018450368
15	0x3d4287e8	0.04749289
16	0xbb3274cd	-0.0027230263
17	0xbd394503	-0.04523183
18	0x3d2ed4a2	0.04268325
19	0x3cbc0870	0.022953242
20	0x3cfba157	0.030716581
21	0x3c5d789a	0.013517523
22	0xbc3eafad	-0.011638564
23	0x3d28e03a	0.041229464
24	0xbcb14e70	-0.021643847
25	0xbcaa5fbd	-0.020797605
26	0x3c8bea7a	0.01707958
27	0x3d1fb772	0.038993306
28	0x3bfb9fa7	0.007678944
29	0xbb5e084d	-0.003387946
30	0xbc952bfa	-0.018209446
31	0x3d096e00	0.03355217
32	0x3d439407	0.04774859
33	0x3caa29ed	0.020771945
34	0xbca3757a	-0.019953478
35	0xbb2cd29a	-0.0026370646
36	0xbb3edd00	-0.0029123425
37	0x3cc7b6e0	0.024379194
38	0x3bd4c0e7	0.0064927223
39	0x3d0e0830	0.034675777
40	0x3bb3be33	0.00548532
41	0x3cd27383	0.025689846
42	0x3caddc20	0.021223128
43	0xbd43dadb	-0.04781614
44	0xbcdcbf83	-0.026946789
45	0x3d12a03a	0.035797335
46	0xbb443800	-0.0029940605
47	0xbd0f09a5	-0.034921307
48	0xbd0efc35	-0.034908492
49	0x3c8e968d	0.017405773
50	0xbcc24e37	-0.023718936
51	0xb97de333	-0.00024212599
52	0x3d0cbebb	0.034361582
53	0x3d357a88	0.044306308
54	0x3c9d8caa	0.019232113
55	0xbcf7a79a	-0.030231286
56	0xbb9fac00	-0.004872799
57	0xbcaec2ea	-0.021333177
58	0xbd107ce0	-0.03527534
59	0x3ccaf5da	0.024775434
60	0x3cb02e3a	0.021506418
61	0x3d1ddcf0	0.03854078
62	0xbd2a2fb5	-0.041549403
63	0xbd227203	-0.03965951
64	0x3c91c78a	0.017795343
65	0xbd02dd9d	-0.03194963
66	0xbbacea5a	-0.0052769603
67	0xbb30304d	-0.0026884258
68	0xbcb33667	-0.021876527
69	0x3c395a7a	0.011313075
70	0xb949c667	-0.00019242764
71	0x3c4cd413	0.012501734
72	0x3d00f497	0.03148326
73	0x3d36d7cd	0.044639397
74	0xbcabfe6a	-0.020995338
75	0xbd27a257	-0.040926304
76	0x3ca9ea5a	0.02074163
77	0xbd320865	-0.043465037
78	0x3c3f74a7	0.011685527
79	0xbd2edbe2	-0.042690165
80	0xbd09a1d0	-0.033601582
81	0x3c107d27	0.008818901
82	0xbd44b060	-0.048019767
83	0x3cc0d16d	0.023537362
84	0xbce4a4da	-0.027910639
85	0x3c80ae6a	0.015708167
86	0xbc8d9290	-0.0172818
87	0x3c3e9e00	0.01163435
88	0xbcd387ad	-0.025821531
89	0xbd47dd63	-0.048795115
90	0x3ccbe3f3	0.024888968
91	0x3bcfa99a	0.0063373568
92	0xbb3020cd	-0.002687502
93	0x3c6438da	0.01392957
94	0xbd3ec0d8	-0.04657063
95	0x3d375058	0.044754356
96	0xbc4b529a	-0.0124098305
97	0xbcb6b7fd	-0.02230453
98	0x3c081d20	0.008307725
99	0xbca1caca	-0.019750018
100	0xbcf3fa83	-0.02978254
101	0x3c841a77	0.0161259
102	0xbd17f885	-0.03710224
103	0x3ca90f60	0.020637214
104	0x3d39729f	0.045275327
105	0xbc3e7327	-0.011624134
106	0xbc9b176d	-0.018932069
107	0xbc44e7e0	-0.012018174
108	0x3d05cf68	0.0326685
109	0x3d2c5177	0.04206988
110	0x3b6ae09a	0.003583944
111	0x3d07f74d	0.03319483
112	0x3ca5b1e7	0.020226432
113	0x3d1809e7	0.03711882
114	0x3c69c91a	0.014269138
115	0x3cffc173	0.031220173
116	0x3cbad8ca	0.022808451
117	0x3ad49e00	0.0016221404
118	0xbcd51857	-0.026012583
119	0xbc78ccba	-0.015185529

fc2.weight f4 [84, 120]
0	0x3b1385a7	0.0022510083
1	0xbc79e88d	-0.015253198
2	0x3d21eebf	0.039534327
3	0xbd74c667	-0.059759524
4	0xbd0805dc	-0.033208713
5	0x3d9e7d74	0.07738772
6	0xbd98419a	-0.074343875
7	0xbd85b336	-0.065283224
8	0xbda9f692	-0.08298983
9	0x3d2083a1	0.03918803
10	0xbdafee04	-0.0859032
11	0x3cbaed2c	0.02281817
12	0x3c3123d2	0.010811763
13	0x3ce37708	0.02776672
14	0x3d8b4ea3	0.06802108
15	0xbc9c81b9	-0.019104825
16	0x3ccb90e1	0.024849357
17	0xbbac63d5	-0.0052609243
18	0x3cf634ac	0.030054413
19	0x3c9373bd	0.017999524
20	0xb967d8ad	-0.00022110595
21	0xbc63680f	-0.01387979
22	0xbd81d1d6	-0.06338851
23	0xbca329b0	-0.01991734
24	0x3d31f81c	0.043449506
25	0xbd95ba53	-0.07310929
26	0x3c8ec01e	0.017425593
27	0xbd105d05	-0.03524496
28	0x3da9b34b	0.082861505
29	0xbd25ea29	-0.040506516
30	0xbd5be8e3	-0.053688895
31	0xbd1f5523	-0.038899552
32	0xbd9c4129	-0.07629616
33	0x3d896001	0.067077644
34	0xbd1a37ba	-0.0376508
35	0x3d0c4809	0.034248386
36	0xbc159938	-0.0091307685
37	0xbd3e281f	-0.04642498
38	0x3c87ada5	0.016562292
39	0xbd87c8f7	-0.06630128
40	0x3d53c5c3	0.051702272
41	0xbbd6cb83	-0.006555022
42	0xbc2d1a50	-0.010565355
43	0xbc639889	-0.013891348
44	0xbd3989e2	-0.04529751
45	0xbdad5d21	-0.084650286
46	0x3d9e0fa0	0.07717824
47	0xbbfdf02f	-0.0077495794
48	0xbd448f28	-0.047988087
49	0xbd9560e9	-0.07293875
50	0x3d4c8d21	0.04993928
51	0x3dae9749	0.08524949
52	0xbd92bc5a	-0.071648315
53	0x3d831d2f	0.06402051
54	0x3d91877a	0.07105918
55	0x3d73de1a	0.059537984
56	0xbd271462	-0.040790923
57	0x3d3e5826	0.046470784
58	0x3d2cc553	0.04218037
59	0xbdadb6a8	-0.084821045
60	0xbd9431e8	-0.07236081
61	0x3d98d3cc	0.07462272
62	0x3d579532	0.052632518
63	0x3a857ddf	0.0010184607
64	0xbd0b5ba2	-0.034022935
65	0xbc9dac2a	-0.019247133
66	0xbce8a6cd	-0.02839985
67	0x3d9b69b0	0.07588518
68	0x3b32c957	0.0027280652
69	0x3cbb1ee1	0.022841873
70	0xbd42d5a3	-0.04756702
71	0xbc57f02d	-0.013179821
72	0x3dab9605	0.08378223
73	0xbd1b2c7b	-0.037884217
74	0x3b055410	0.0020344295
75	0x3daac3ad	0.083381034
76	0x3d546967	0.051858332
77	0x3da03562	0.07822682
78	0xbda49b55	-0.0803744
79	0xbd7207c7	-0.05908945
80	0xbcdba8f1	-0.026813956
81	0x3cd4025a	0.025880028
82	0x3d9c3a99	0.07628364
83	0xbcfb9054	-0.03070847
84	0x3c8eb8cb	0.0174221
85	0xbd96ec45	-0.073692836
86	0xbd79a153	-0.060944866
87	0xbd9c4748	-0.07630783
88	0x3c2f5961	0.010702462
89	0x3cb174e8	0.02166219
90	0x3d87889f	0.06617855
91	0xbda64333	-0.08118286
92	0xbc2d37f0	-0.010572419
93	0x3d0abeb9	0.033873294
94	0xbc69ccb3	-0.0142699955
95	0xbd4cb719	-0.049979303
96	0x3d859a9f	0.06523632
97	0x3d9c8fdc	0.076446265
98	0xbd922072	-0.07135095
99	0x3db1c8a5	0.08680848
100	0xbcb9b236	-0.022667985
101	0xbd72bc03	-0.059261333
102	0x3c8dd565	0.017313669
103	0x3b8bb84a	0.0042639123
104	0xbc9a542a	-0.01883896
105	0x3db2a04e	0.08721982
106	0x3cfa8230	0.030579656
107	0x3d9a3006	0.07528691
108	0xbd908f33	-0.07058563
109	0x3dbadd31	0.0912422
110	0xbdbadea0	-0.091244936
111	0x3c897481	0.016779186
112	0x3d8a2e76	0.06747143
113	0x3d663b65	0.056208987
114	0xbdae1037	-0.084991865
115	0x3dad4bfe	0.0846176
116	0x3c0094f0	0.0078480095
117	0xbdb38b42	-0.08766796
118	0xbcfd5ef3	-0.030929064
119	0xbdaa5c1a	-0.08318348
120	0xbdba3c77	-0.09093564
121	0x3d08778f	0.033317145
122	0x3d685dfd	0.05673026
123	0x3ca94e56	0.020667236
124	0x3dad6a75	0.08467571
125	0xbbaed9fc	-0.0053360444
126	0x3d4ac0dc	0.04950033
127	0x3bb13f41	0.005409152
128	0xbd5a16af	-0.05324429
129	0x3c8c4947	0.017124785
130	0xbd76abde	-0.0602225
131	0x3da589cd	0.08082924
132	0xbac5d845	-0.001509436
133	0xbdb92348	-0.090399325
134	0x3cecc476	0.028902274
135	0xbd7a5f56	-0.061126076
136	0x3c0d6837	0.008630804
137	0xbdabb676	-0.08384411
138	0xbb459717	-0.003014987
139	0x3d7aeb85	0.061259765
140	0x3c6f341c	0.014599826
141	0xbd9dc78e	-0.07704078
142	0xbcf673a3	-0.030084437
143	0x3d97131e	0.07376693
144	0xbda2afc3	-0.0794368
145	0x3d055a0a	0.03255657
146	0xbd9e4475	-0.07727901
147	0x3da80cb2	0.082055464
148	0x3d8a42e2	0.06751038
149	0xbb142c86	-0.0022609546
150	0x3c4135e7	0.0117926365
151	0x3d066069	0.032806788
152	0xbc83ede0	-0.016104639
153	0x3cdac0cc	0.02670326
154	0x3d329228	0.043596417
155	0xbd03c5fb	-0.03217123
156	0xbc2bff53	-0.010497886
157	0xbd56ea78	-0.0524697
158	0xbd29a728	-0.04141918
159	0x3d867536	0.06565325
160	0x3d04d543	0.032429945
161	0xbd31fe42	-0.04345537
162	0xbaf64a2b	-0.0018790414
163	0x3d592a0e	0.053018622
164	0x3daa84f8	0.08326143
165	0xbd8a5bc9	-0.06755788
166	0x3cae5683	0.021281486
167	0x3d02811a	0.031861402
168	0xbcb893af	-0.022531359
169	0x3d82af8d	0.0638114
170	0xbdb6447c	-0.08899781
171	0x3c61cab6	0.01378124
172	0x3d660916	0.05616101
173	0xbcd8eb54	-0.0264794
174	0xbd4fe512	-0.050755568
175	0x3d9ce13b	0.07660147
176	0x3d9986fa	0.07496448
177	0x3ba2e1d8	0.0049707703
178	0xbd538a6c	-0.05164568
179	0xbd9a8871	-0.075455554
180	0x3da58307	0.08081632
181	0x3da83ed7	0.08215111
182	0xbdb0b1bb	-0.086276494
183	0xbda350fb	-0.0797443
184	0x3b97d752	0.0046338225
185	0xbd883331	-0.06650389
186	0x3ba0b718	0.004904639
187	0xbdbae4dc	-0.09125683
188	0x3d251c17	0.04030999
189	0xbda41bf1	-0.08013142
190	0xbd9c6f4a	-0.07638414
191	0xbb67a0fe	-0.0035343762
192	0xbd42ce61	-0.0475601
193	0xbdad5dcf	-0.08465158
194	0x3b7fbd47	0.003902273
195	0x3d8c6882	0.06855871
196	0xbd8f9152	-0.070101395
197	0xbd83c9fe	-0.06435011
198	0xbd8ad921	-0.06779695
199	0x3d96b813	0.07359328
200	0x3ce0e1fa	0.027451504
201	0xbd223917	-0.039605226
202	0x3abff031	0.0014643726
203	0x3d054de6	0.032544993
204	0xbb9139c3	-0.0044319346
205	0xbd5aa959	-0.05338416
206	0xbd96b05f	-0.07357859
207	0x3d79d9dd	0.060998786
208	0x3d53b4f1	0.05168623
209	0x3d9decc2	0.077111736
210	0xbcedf6d8	-0.029048368
211	0x3d88978d	0.06669531
212	0xba3c9e7d	-0.00071952475
213	0x3db2e1d8	0.087344825
214	0xbbac5da0	-0.0052601844
215	0xbd09d28d	-0.033648062
216	0x3c913859	0.017727064
217	0x3da6dfb9	0.081481405
218	0x3cfcfd4b	0.030882498
219	0x3d1bc009	0.038024936
220	0xbd62d618	-0.055379957
221	0xbcb1c93c	-0.021702401
222	0xbc32c38b	-0.010910879
223	0xbc5f06bc	-0.013612445
224	0x3bc55cf1	0.0060230424
225	0xbd3a7388	-0.045520335
226	0xbd76cf9b	-0.06025658
227	0xbd30559d	-0.043050397
228	0xbd6f6d85	-0.058454055
229	0x3d638b5e	0.055552833
230	0x3bf9c3da	0.0076222243
231	0x3c18b353	0.009320098
232	0x3bc08aa6	0.005875903
233	0x3d7dbe75	0.061949212
234	0x3d784ed5	0.060622055
235	0xbdb20f19	-0.08694286
236	0xbd05d0f7	-0.032669988
237	0x3d7b1823	0.061302315
238	0xbb307369	-0.0026924259
239	0x3d26d638	0.04073164
240	0xbd3d5e74	-0.046232656
241	0xbd27ec33	-0.04099674
242	0xbca7cc08	-0.020483032
243	0xbb02cc4a	-0.0019958192
244	0x3d91968d	0.071087934
245	0x3dad3ca2	0.084588304
246	0x3cbd49dc	0.023106508
247	0xbc329796	-0.010900399
248	0xbd94f04d	-0.07272396
249	0xbcd6c7e2	-0.026218358
250	0x3c1eb779	0.009687298
251	0x3d8b4d7b	0.068018876
252	0xbdb5db2b	-0.088796936
253	0xbd93ee49	-0.07223184
254	0xbd618ccc	-0.055065915
255	0x3d86fc18	0.06591052

fc2.bias f4 [84]
0	0x3d53bd3f	0.05169415
1	0xbd999c68	-0.07500535
2	0xbda83553	-0.08213296
3	0x3d26e025	0.040741105
4	0xbdac149d	-0.08402369
5	0xbd234f46	-0.039870523
6	0xbd9d1b46	-0.076712176
7	0x3d5d415c	0.05401741
8	0xbcdc2658	-0.026873752
9	0xbd7fd471	-0.06245846
10	0x3d616e34	0.05503674
11	0x3d3739d7	0.044732895
12	0xbd6350c8	-0.05549696
13	0xbd926050	-0.071472764
14	0x3d980f6b	0.07424816
15	0x3c528535	0.012849142
16	0xbd547237	-0.051866736
17	0x3d93a78c	0.072096914
18	0x3d9e70a3	0.077363275
19	0x3adcd32d	0.0016847603
20	0x3ccec91c	0.02524238
21	0x3ad506e9	0.001625267
22	0xbd618ee8	-0.055067927
23	0xbd145a54	-0.036218956
24	0x3d095f19	0.033537958
25	0xbd54ca54	-0.051950768
26	0xbd95e17a	-0.07318397
27	0x3d958d7e	0.07302378
28	0x3dae0b6a	0.08498271
29	0xbd8b452b	-0.06800302
30	0xbd6f0490	-0.05835396
31	0x3d711e79	0.05886695
32	0xbd4aa749	-0.04947594
33	0x3db77a72	0.089589015
34	0xbc9777b3	-0.018489694
35	0xbd5ecd05	-0.05439474
36	0xbd4289a3	-0.04749454
37	0xbc7bbbaa	-0.015364567
38	0xbd756a64	-0.059915915
39	0xbda0b6a0	-0.07847333
40	0x3b0e7301	0.0021736028
41	0x3c6776d1	0.014127449
42	0xbd89cd4b	-0.0672861
43	0xbcfa606f	-0.030563561
44	0x3cc65673	0.024211144
45	0x3d4e2bd0	0.05033475
46	0xbd5acc72	-0.05341763
47	0x3d74f67a	0.05980537
48	0xbd042a94	-0.03226717
49	0x3da9b715	0.08286873
50	0xbda1b3a9	-0.078955956
51	0x3cd71b74	0.026258208
52	0x3d0b6aed	0.03403752
53	0x3d1e5525	0.03865542
54	0x3d9ba321	0.07599474
55	0xbd96d86a	-0.073654965
56	0x3d3e825e	0.046511047
57	0xbd908b0a	-0.070577696
58	0x3db423db	0.087959014
59	0x3d12f1dc	0.035875186
60	0x3d5a7bce	0.053340726
61	0xbcea5342	-0.028604154
62	0xbd97ff05	-0.07421688
63	0x3d65ebcb	0.056133073
64	0x3d0c0178	0.03418109
65	0x3da6f691	0.081524976
66	0xbafaf379	-0.0019146047
67	0xbd02f838	-0.031975
68	0x3db4a226	0.0881999
69	0xbd443251	-0.047899548
70	0xbd0124f7	-0.031529393
71	0xbd52d8cd	-0.05147629
72	0x3d738dff	0.05946159
73	0xbda2cca4	-0.07949188
74	0x3cca9724	0.024730273
75	0x3d1fd5c9	0.03902224
76	0x3c93b043	0.018028384
77	0x3d64cc3d	0.05585884
78	0x3d7490f4	0.05970855
79	0xbc55027b	-0.01300108
80	0x3dadf73b	0.08494421
81	0x3d7e9688	0.062155277
82	0xbd68b7da	-0.05681596
83	0xbdaf3b22	-0.085562006

fc3.weight f4 [10, 84]
0	0x3d84f73e	0.0649247
1	0x3cdb9936	0.026806455
2	0xbd4d6f86	-0.050155185
3	0xbd29e488	-0.04147771
4	0x3ddbb68b	0.10728177
5	0xbb490733	-0.0030674457
6	0x3d311f40	0.043242693
7	0x3d9db6ef	0.077009074
8	0xbdb9c5a1	-0.09070898
9	0x3d0673e7	0.032825377
10	0xbc9eb674	-0.01937411
11	0xbdd7be64	-0.10534361
12	0xbdbb056e	-0.09131895
13	0xbb15e5d6	-0.0022872589
14	0x3d4130e7	0.047165778
15	0xbdba5d67	-0.09099846
16	0xbdddb3d9	-0.10825319
17	0xbd213be0	-0.039363742
18	0x3d28dbe3	0.041225325
19	0x3d2238b5	0.03960486
20	0xbddceee8	-0.10787755
21	0x3cfdc5de	0.03097814
22	0xbd3e091a	-0.0463954
23	0xbd646b43	-0.055766355
24	0x3dbae3ca	0.091254786
25	0xbc99269c	-0.018695168
26	0xbd9e8f94	-0.07742229
27	0xbd600d94	-0.05470045
28	0xbd1cac7d	-0.038250435
29	0x3d39c384	0.045352474
30	0x3cb123ea	0.02162357
31	0xbd99a9e7	-0.075031094
32	0x3d2245ec	0.039617464
33	0x3dcba427	0.09943419
34	0x3dd9f47f	0.10642337
35	0xbd32e848	-0.043678552
36	0xbd2710fd	-0.040787686
37	0x3cbb10ae	0.022835102
38	0x3d815f9b	0.063170634
39	0x3cea09cc	0.028569125
40	0x3c3938f3	0.011305082
41	0xbd1b46df	-0.037909385
42	0x3d8a0216	0.06738679
43	0x3cc08c9d	0.02350455
44	0x3d45a31d	0.04825126
45	0x3db7e0be	0.08978413
46	0xbcc26a52	-0.023732338
47	0xbd22f444	-0.03978373
48	0x3da35fdc	0.07977268
49	0xbd121dc1	-0.035672907
50	0xbb9a52b7	-0.0047095674
51	0x3d6fcf41	0.058547262
52	0xbdc66cbe	-0.0968871
53	0x3c5877e4	0.013212178
54	0xbdb3ef7e	-0.08785914
55	0xba9a3d38	-0.0011767512
56	0x3be5bff1	0.0070114066
57	0xbd822469	-0.06354601
58	0xbbef9f8f	-0.007312722
59	0xbd9f6872	-0.07783593
60	0xbd5782a7	-0.052614834
61	0xbdab7f13	-0.08373847
62	0xbc153ce1	-0.009108753
63	0x3d9c234d	0.076239206
64	0xbda4ec56	-0.0805289
65	0xbd3e538b	-0.04646639
66	0xbcb21fc4	-0.021743663
67	0xbd90290b	-0.07039078
68	0x3bb3b55a	0.0054842653
69	0x3cfefa6d	0.031125272
70	0x3dde7ba1	0.10863424
71	0x3dbd1302	0.09232141
72	0x3dc2b975	0.09508029
73	0xbdcbdebb	-0.09954592
74	0x3b775732	0.0037741181
75	0x3cc2ab2f	0.023763267
76	0x3bf519b8	0.0074798726
77	0x3d9a53d7	0.075355224
78	0x3d7661f2	0.060152
79	0x3da74974	0.08168307
80	0x3ca536e2	0.020167772
81	0xbdd7f4e7	-0.10544758
82	0xbdadec05	-0.08492283
83	0xbc44d3fc	-0.012013432
84	0xbd8b9b4e	-0.068167314
85	0x3d4bf8b8	0.049797744
86	0x3c572af1	0.013132797
87	0x3ce992f3	0.028512454
88	0x3db7aee8	0.089689076
89	0x3dc4f417	0.09616869
90	0xbd029073	-0.03187604
91	0xbcf91fd1	-0.030410679
92	0xbdbd8120	-0.09253144
93	0xbdba6354	-0.091009766
94	0xbdcb3a33	-0.0992321
95	0xbd9ee097	-0.07757681
96	0xbdccb0b2	-0.099946395
97	0xbd461371	-0.048358385
98	0xbd8c9234	-0.068638235
99	0x3cb5ee0e	0.02220824
100	0x3d35be39	0.044370864
101	0xbc9eb55d	-0.01937359
102	0x3cbb49a3	0.022862261
103	0x3dc0e3f4	0.094184786
104	0xbd7e99e1	-0.06215847
105	0x3d34ecfe	0.044171326
106	0xbd99206b	-0.07476886
107	0x3d99e187	0.07513719
108	0x3d1b836a	0.037967123
109	0xbd148b8d	-0.0362659
110	0xbda23f28	-0.07922202
111	0xbc86becb	-0.016448399
112	0xbddc5316	-0.10758035
113	0xbd92d7b5	-0.07170049
114	0x3dcf4a39	0.10121579
115	0x3d02f8fa	0.031975724
116	0xbd015e93	-0.031584334
117	0x3dda9ba1	0.10674215
118	0xbdba783e	-0.091049656
119	0xbcf1af6e	-0.029502597
120	0x3dd45732	0.10368194
121	0xbc9b1343	-0.018930083
122	0xbd38ef2a	-0.04514996
123	0x3dc6920d	0.09695826
124	0x3da2beb1	0.07946528
125	0x3dd8ec72	0.10591973
126	0xbc3300ab	-0.010925452
127	0x3d89ab00	0.06722069
128	0xbd884e47	-0.06655555
129	0x3dba8924	0.09108189
130	0x3d88caeb	0.066793285
131	0xbd834ff8	-0.06411737
132	0xbd089b69	-0.033351336
133	0x3d9f6354	0.07782617
134	0x3abff86a	0.0014646177
135	0xbd696740	-0.056983232
136	0xbddf1c47	-0.10894065
137	0xbdb612d5	-0.08890311
138	0xbdcd1b6d	-0.10014997
139	0xbd7e10cc	-0.062027737
140	0x3c0a1d77	0.0084298765
141	0x3dbf27a8	0.09333736
142	0x3dcdc10f	0.10046589
143	0xbd528234	-0.051393703
144	0x3d06553f	0.03279614
145	0xbd491b70	-0.049098432
146	0x3dce9cc0	0.100884914
147	0x3bd1e1d4	0.0064050946
148	0xbd540872	-0.051765867
149	0x3be50446	0.006989035
150	0x3d0924dc	0.033482417
151	0x3dcc2ec0	0.09969854
152	0xbd6be3a4	-0.057590142
153	0xbd4bfa77	-0.04979941
154	0xbd721c94	-0.059109285
155	0x3db6ff53	0.08935418
156	0xbdc8d199	-0.098056026
157	0x3d526f3f	0.051375624
158	0xbcac307a	-0.02101921
159	0x3d4bc440	0.049747705
160	0x3c93638a	0.0179918
161	0x3b6bb67c	0.0035966923
162	0xbdb00cf2	-0.08596219
163	0x3dc04762	0.09388615
164	0x3c8b7718	0.017024562
165	0xbc2d0bb5	-0.010561873
166	0xbd29e3dd	-0.041477073
167	0xbd686105	-0.05673315
168	0xbd91b124	-0.07113865
169	0x3cf87ef6	0.030333977
170	0x3c309700	0.010778189
171	0xbd216012	-0.03939826
172	0xbd284b0c	-0.041087195
173	0xbd4c3611	-0.04985625
174	0x3d81313f	0.06308221
175	0xbc1c7b68	-0.009550907
176	0x3d7c8e60	0.061659217
177	0x3d4d5f7c	0.05013989
178	0xbc81a6f1	-0.015826674
179	0xbd62891c	-0.05530654
180	0x3cbca162	0.023026172
181	0xbdabe6a4	-0.083936006
182	0x3db90257	0.090336494
183	0xbd5a132d	-0.053240944
184	0xbda3f907	-0.080064826
185	0x3dde0bd7	0.10842102
186	0xbd8876d6	-0.06663291
187	0x3d9b93db	0.075965606
188	0xbd253eeb	-0.040343206
189	0x3d870ce0	0.065942526
190	0x3d93845f	0.07202982
191	0xbd62a38e	-0.05533176
192	0xbd933932	-0.071886435
193	0xbdb55e2c	-0.088558525
194	0xbd866477	-0.06562131
195	0x3d134e27	0.035963204
196	0x3d1d0d8b	0.038342994
197	0x3c10d734	0.008840371
198	0x3d85aa8b	0.06526669
199	0xbbc734a6	-0.006079274
200	0x3d8cdb3a	0.06877752
201	0x3d4023db	0.046909194
202	0xbd24c262	-0.04022444
203	0x3ccf4adb	0.025304249
204	0xbbfbeea0	-0.0076883584
205	0x3d31bde2	0.043393977
206	0x3dd278ec	0.1027697
207	0xbd1cf844	-0.038322702
208	0xbd2f21c4	-0.04275681
209	0xbdbec22a	-0.093143776
210	0x3d7a4a29	0.06110588
211	0x3dd9cc41	0.106346615
212	0x3daa5126	0.08316259
213	0xbd73f745	-0.059561986
214	0x3d690789	0.05689195
215	0x3c9b0419	0.018922852
216	0x3daaee4b	0.08346232
217	0x3d874e99	0.06606788
218	0xbda45810	-0.08024609
219	0xbd8815ed	-0.06644807
220	0x3d63d7e2	0.055625804
221	0xbd97013f	-0.073732845
222	0xbdd6bbd8	-0.10485047
223	0x3cf98fb5	0.030464033
224	0xbd7e1309	-0.062029872
225	0x3da7a3fc	0.081855744
226	0x3daf2b7a	0.08553214
227	0xbbd19116	-0.0063954694
228	0x3d3f0442	0.04663492
229	0x3c6afeb1	0.01434295
230	0x3d3782f9	0.04480264
231	0x3b9f56ed	0.0048626573
232	0x3a7073c7	0.00091725256
233	0x3dbefe22	0.09325816
234	0x3d7e7e54	0.062132195
235	0x3d4647b5	0.04840823
236	0x3d33b880	0.043877125
237	0x3dd77739	0.10520787
238	0xbc8c586e	-0.01713201
239	0xbdb54f0b	-0.08852967
240	0x3d0b1137	0.033951964
241	0xbdca04e4	-0.09864214
242	0x3d127faa	0.03576628
243	0xbdb5db28	-0.08879691
244	0xbda9237d	-0.08258722
245	0xbdcd017c	-0.10010049
246	0xbce80b62	-0.02832574
247	0xbcb1bcb9	-0.021696435
248	0xbd65685b	-0.056007724
249	0x3d3919a6	0.045190476
250	0x3cee405d	0.029083425
251	0xbd98cea4	-0.074612886
252	0x3dde9fff	0.108703606
253	0xbd324a16	-0.043527685
254	0x3d872252	0.06598343
255	0x3cb4a723	0.022052353

fc3.bias f4 [10]
0	0x3c4c0e4f	0.012454583
1	0x3da72938	0.08162159
2	0xbd31752d	-0.04332464
3	0x3cde064a	0.027102608
4	0xbd1a88ab	-0.037727993
5	0x3d1f8170	0.0389418
6	0xbc2b6133	-0.010460186
7	0x3d044fda	0.032302715
8	0xbdc6f8db	-0.09715434
9	0x3db66d5d	0.08907578
