FL/cnn-img/outputs/2025-03-18/18-20-35/model_state_acc_0.2617_round_10.pth (torch, 252040 bytes, 10 tensors)

conv1.weight f4 [6, 3, 5, 5]
0.90961516 0.8940257 0.91224414 0.80773515 0.78310025 0.8234089 0.8582398 0.9179747
0.93074745 0.8675178 0.85056764 -0.33334553 0.54796755 0.7649304 0.89630705 0.023442663
-0.76531976 -0.75547266 0.65431714 0.91371405 -0.9793694 -0.82219595 -0.94890636 0.036313467
0.88905376 -0.8864533 -0.7954812 -0.6485231 -0.69297475 -0.305257 -0.6420854 -0.8569298
-0.7405152 -0.24044824 0.49439806 0.12782633 -0.8011993 -0.69669133 0.2835597 0.5266626
0.28165352 -0.7405936 -0.55895114 0.58508545 0.5985614 0.21267436 -0.83517057 -0.18996912
0.69235617 0.8305836 -0.6609046 -0.7719384 -0.5875072 -0.7454429 -0.7336727 -0.52720207
-0.7851044 -0.7188786 -0.6405782 -0.39872426 -0.40694523 -0.92677754 -0.8690292 -0.5932696
0.02991487 -0.20130366 -0.82019097 -0.8630827 -0.20116836 0.46424764 -0.13469708 -0.71187735
-0.7579012 0.011727676 0.8087231 0.559165 0.5360683 0.17265488 -0.47437873 -0.060081694
0.84746265 0.79960036 0.62426364 -0.8298748 -0.7140017 0.76780856 0.9431439 0.73313963
-0.9374673 -0.58835983 0.7820395 0.7915706 0.6077412 -0.5108878 -0.62513864 0.6734147
-0.28819305 -0.24422172 -0.13095737 -0.35395867 0.5953724 0.31522536 -0.31674188 -0.7059098
0.24117902 0.8807885 0.54602796 -0.20826687 -0.89634144 -0.61743665 0.8101155 0.47416478
0.34386882 -0.91889507 -0.5387304 0.81670046 0.47055575 0.24383122 -0.010107548 0.06077382
0.8636743 0.3053169 0.16636238 0.90607667 0.58920234 -0.013273118 -0.4562858 -0.7157674
-0.64572287 -0.17328875 0.10156025 -0.24211307 -0.62735605 -0.9042645 -0.6396625 0.27856588
-0.09622763 -0.66232777 -0.8529304 -0.69962907 0.14218496 -0.34004915 -0.76698035 -0.85843205
-0.8185857 0.089428335 -0.86297745 -0.70664966 -0.43820187 -0.33290842 0.85608155 0.7120271
0.8542241 0.7919754 -0.10851182 0.92367935 0.9171447 0.88126075 0.52816504 0.6563262
0.8830398 0.8054929 -0.8374654 -0.9203501 0.87376827 0.68126124 0.8466518 -0.7623482
-0.9459253 0.8611462 -0.23644425 -0.6312169 -0.8064461 -0.8458477 -0.42992893 -0.1915743
-0.30734807 0.3627579 0.111562476 -0.43983603 0.66648173 0.2963606 -0.15885702 -0.3252752
0.7102107 0.8394428 0.95320475 -0.6369646 -0.6563285 0.99437976 0.76481616 0.8557974
-0.55792683 -0.53349924 1.0133777 0.75260603 0.8326575 0.7312984 0.37327394 0.8126791
-0.8746664 -0.9866169 -0.76779366 -0.84676474 -0.9264788 -0.7945304 -0.94883084 -0.805745
-0.76661235 -0.836479 -0.89700437 -0.75856763 -0.9036248 -0.8940097 -0.5412245 -0.41425648
-0.69488955 -0.9170352 -0.86863184 -0.4068279 -0.73905003 -0.8660704 -0.9273573 -0.87460047
-0.53586465 0.8788791 0.8188075 0.8025775 0.58263767 0.7241093 0.86924666 0.9561883
0.9734179 0.95572823 0.6875328 0.78850925 0.7362312 0.7968243 0.6168282 0.37773904
0.8063662 0.025173824 -0.8989103 -0.07474844 0.23344098 0.86605287 -0.84934044 -0.79841137
-0.86998296 -0.9048556 -0.3823028 -0.39518866 -0.9270638 -0.7987771 -0.20726773 0.34225693
00000000: 8adc 683f dede 643f d588 693f bbc7 4e3f
00000010: 4279 483f edca 523f 9bb5 5b3f 6400 6b3f
00000020: 7745 6e3f a615 5e3f cdbe 593f 44ac aabe
00000030: 9a47 0c3f 7bd2 433f 6174 653f d40a c03c
00000040: ffeb 43bf a866 41bf 5481 273f 2ae9 693f
00000050: f4b7 7abf 6f7b 52bf 87eb 72bf 6ebd 143d
00000060: 0799 633f 9aee 62bf a8a4 4bbf 9c05 26bf
00000070: cb66 31bf a54a 9cbe b55f 24bf c05f 5bbf
00000080: 6792 3dbf 1038 76be be21 fd3e e8e4 023e
00000090: 661b 4dbf 5d5a 32bf bd2e 913e 5cd3 063f
000000a0: e434 903e 8b97 3dbf 6c17 0fbf 29c8 153f
000000b0: 523b 193f 4fc7 593e bdcd 55bf 4487 42be
000000c0: 413e 313f 20a1 543f 0b31 29bf c19d 45bf
000000d0: df66 16bf 59d5 3ebf f9d1 3bbf b7f6 06bf
000000e0: 9afc 48bf 6e08 38bf effc 23bf 9625 ccbe
000000f0: 205b d0be 4b41 6dbf b378 5ebf 84e0 17bf
00000100: 0810 f53c 8c22 4ebe 09f8 51bf fdf2 5cbf
00000110: 14ff 4dbe deb1 ed3e 08ee 09be 983d 36bf
00000120: d005 42bf 7025 403c 7a08 4f3f 7025 0f3f
00000130: c63b 093f 71cc 303e c5e1 f2be 3918 76bd
00000140: 50f3 583f 9cb2 4c3f becf 1f3f ad72 54bf
00000150: d1c8 36bf 1a8f 443f e171 713f 0aaf 3b3f
00000160: dbfd 6fbf c09e 16bf be33 483f 5fa4 4a3f
00000170: ed94 1b3f 8bc9 02bf 1609 20bf e864 2c3f
00000180: 0a8e 93be 4215 7abe b019 06be 123a b5be
00000190: 536a 183f 3865 a13e fe2b a2be 81b6 34bf
000001a0: a2f7 763e 5b7b 613f 7dc8 0b3f e943 55be
000001b0: a276 65bf 5410 1ebf bb63 4f3f bac5 f23e
000001c0: 930f b03e b53c 6bbf 3cea 09bf 4813 513f
000001d0: afec f03e e4ae 793e 219a 25bc f8ed 783d
000001e0: c219 5d3f 7f52 9c3e e65a 2a3e a4f4 673f
000001f0: f7d5 163f 7e77 59bc 4b9e e9be 883c 37bf
00000200: 184e 25bf 9b72 31be d2fe cf3d 7dec 77be
00000210: 689a 20bf e17d 67bf ecc0 23bf 30a0 8e3e
00000220: fe12 c5bd 508e 29bf a659 5abf e41a 33bf
00000230: ef98 113e ec1a aebe d358 44bf 34c2 5bbf
00000240: d58e 51bf 3426 b73d 17ec 5cbf fee6 34bf
00000250: ff5b e0be f972 aabe 2928 5b3f 6847 363f
00000260: 6eae 5a3f e6be 4a3f 723b debd 4076 6c3f
00000270: ffc9 6a3f 4e9a 613f d335 073f fe04 283f
00000280: e50e 623f c834 4e3f 2264 56bf 109c 6bbf
00000290: 47af 5f3f 2367 2e3f 2cbe 583f 4029 43bf
000002a0: 2928 72bf 1474 5c3f 711e 72be 6e97 21bf
000002b0: 4073 4ebf 7a89 58bf a51f dcbe 0e2c 44be
000002c0: ba5c 9dbe 67bb b93e de7a e43d 3032 e1be
000002d0: 8c9e 2a3f 94bc 973e 6aab 22be 798a a6be
000002e0: 5ed0 353f b9e5 563f 3a05 743f 1d10 23bf
000002f0: 2505 28bf ac8f 7e3f feca 433f 8a15 5b3f
00000300: 4bd4 0ebf 6893 08bf 5cb6 813f caaa 403f
00000310: 0b29 553f 5f36 3b3f c31d bf3e bd0b 503f
00000320: 23ea 5fbf ed92 7cbf 208e 44bf 93c5 58bf
00000330: b72d 6dbf 5866 4bbf 94e6 72bf 4e45 4ebf
00000340: b540 44bf 7d23 56bf 14a2 65bf 7d31 42bf
00000350: f453 67bf d2dd 64bf b08d 0abf 6d19 d4be
00000360: 48e4 31bf d2c2 6abf a85e 5ebf bf4b d0be
00000370: 6232 3dbf cab6 5dbf 4a67 6dbf d1e5 5fbf
00000380: 6d2e 09bf 38fe 603f 5e9d 513f b875 4d3f
00000390: be27 153f 3a5f 393f f386 5e3f c2c8 743f
000003a0: ea31 793f 9baa 743f 2602 303f bedb 493f
000003b0: a679 3c3f adfc 4b3f 74e8 1d3f 0367 c13e
000003c0: 046e 4e3f 5639 ce3c fc1e 66bf b615 99bd
000003d0: 270b 6f3e a4b5 5d3f 606e 59bf b064 4cbf
000003e0: 34b7 5ebf 9ea4 67bf 31bd c3be 2b56 cabe
000003f0: 0e54 6dbf a87c 4cbf fe3d 54be 4d3c af3e

conv1.bias f4 [6]
-0.92467916 -0.86667025 -0.779994 -0.78528726 -0.91741884 -0.9341097
00000000: c6b7 6cbf 1ade 5dbf b0ad 47bf 9608 49bf
00000010: f6db 6abf d021 6fbf

conv2.weight f4 [16, 6, 5, 5]
-0.8288339 -0.89763194 -0.74057573 -0.533637 -0.48859242 -0.8921113 -0.7313503 -0.78354686
-0.78645056 -0.638879 -0.92189217 -0.74378216 -0.80373126 -0.79856116 -0.89324474 -0.88756555
-0.72311807 -0.77199656 -0.68122023 -0.8116294 -0.81083935 -0.6002422 -0.39356905 -0.30216482
-0.55970186 -0.91777813 -0.6631526 -0.76453227 -0.78005785 -0.7913824 -0.8751324 -0.73731863
-0.7719639 -0.49871802 -0.8013298 -0.7705964 -0.8289194 -0.6448038 -0.45612672 -0.6921878
-0.8502692 -0.66399264 -0.5958594 -0.56800556 -0.7145501 -0.51936793 -0.27140322 -0.31531698
-0.082775 -0.47948074 -0.8772131 -0.8051903 -0.8411137 -0.76447076 -0.64031833 -0.7543238
-0.8142041 -0.7665263 -0.8703989 -0.77831244 -0.74700564 -0.82432425 -0.77826655 -0.784417
-0.84546024 -0.7631069 -0.57002395 -0.77569616 -0.57081366 -0.75568795 -0.46737024 -0.19838983
-0.362985 -0.3897192 -0.53276163 -0.73915493 -0.7829009 -0.78993803 -0.6363107 -0.12077607
-0.68973756 -0.8353587 -0.8805928 -0.8032268 -0.50978744 -0.7025247 -0.6566474 -0.7884809
-0.71626616 -0.82145476 -0.8178367 -0.8281804 -0.53681475 -0.6943092 -0.73940206 -0.76858205
-0.3500942 -0.44617295 -0.71254385 -0.46619374 -0.61825496 -0.8484429 0.09447394 0.45289636
0.5749265 0.31372017 0.18555476 0.41895756 0.6763451 0.8096796 -0.3575215 -0.7648278
-0.79561985 -0.7806614 -0.7092015 -0.10539913 -0.4421644 -0.43820438 -0.76666707 -0.81226784
-0.68380976 -0.9078672 -0.6506394 -0.760038 -0.3160193 -0.91071516 -0.82107085 -0.697015
-0.07976034 0.018624488 -0.6783423 -0.7697605 -0.7226902 -0.65525913 -0.73476344 -0.6719545
-0.7858735 -0.41191265 -0.47363475 -0.29480127 -0.39078417 -0.44910562 -0.28204033 -0.40056053
-0.15515599 -0.3441025 -0.6523604 -0.45776138 -0.29347485 0.18654652 -0.32757068 -0.3527633
-0.43537605 -0.380332 -0.3985395 -0.4137466 -0.30982873 -0.4076366 -0.32417583 -0.43478164
-0.37118417 -0.42323256 -0.41542563 -0.36461097 -0.43695173 -0.4298461 -0.3294799 -0.35668814
-0.39230353 -0.44444028 -0.45423627 -0.35000333 -0.45315525 -0.40797883 -0.3743089 -0.44091105
-0.4274277 -0.3970689 -0.326677 -0.37113932 -0.43156198 -0.40915897 -0.37614402 -0.3425739
-0.40363964 -0.36554152 -0.29812172 -0.45501715 -0.44685134 -0.3890431 -0.3159753 -0.38543388
-0.3252483 -0.3467891 -0.36440685 -0.4017871 -0.35219157 -0.365763 -0.38792685 -0.43226793
-0.4061437 -0.31193826 -0.2969833 -0.44353217 -0.312193 -0.4072882 -0.35658672 -0.30025145
-0.4390096 -0.39580458 -0.3881483 -0.42991692 -0.31277767 -0.39971837 -0.30006665 -0.37963068
-0.45405006 -0.32216835 -0.4003226 -0.38564122 -0.30752715 -0.4407538 -0.35254568 -0.44233844
-0.31525445 -0.41210568 -0.33013967 -0.3951547 -0.35692728 -0.35734686 -0.31915033 -0.43656138
-0.3421043 -0.4115484 -0.34541407 -0.41992855 -0.33752134 -0.31026316 -0.40701985 -0.45489725
-0.30287352 -0.4015728 -0.4421034 -0.35412452 -0.40822074 -0.31849182 -0.395812 -0.30786207
-0.38467932 -0.4421129 -0.33659256 -0.395523 -0.40810314 -0.29884478 -0.45119002 -0.35506535
00000000: 752e 54bf 35cb 65bf 5f96 3dbf 6f9c 08bf
00000010: c928 fabe 6861 64bf c639 3bbf 8796 48bf
00000020: d354 49bf 938d 23bf 2001 6cbf 8268 3ebf
00000030: 55c1 4dbf 816e 4cbf b0ab 64bf 7f37 63bf
00000040: 441e 39bf 91a1 45bf 7364 2ebf f2c6 4fbf
00000050: 2b93 4fbf 79a9 19bf e281 c9be 59b5 9abe
00000060: 9f48 0fbf 82f3 6abf 5ec4 29bf 63b8 43bf
00000070: dfb1 47bf 0998 4abf ad08 60bf eac0 3cbf
00000080: 6d9f 45bf f857 ffbe f323 4dbf ce45 45bf
00000090: 1034 54bf dd11 25bf 7189 e9be 3833 31bf
000000a0: 3eab 59bf 6cfb 29bf 3e8a 18bf d068 11bf
000000b0: c1ec 36bf 4cf5 04bf 5df5 8abe 3a71 a1be
000000c0: f085 a9bd 807e f5be 0a91 60bf f420 4ebf
000000d0: 3a53 57bf 5bb4 43bf e7eb 23bf 5d1b 41bf
000000e0: ae6f 50bf 113b 44bf 76d2 5ebf 7c3f 47bf
000000f0: c33b 3fbf ea06 53bf 7a3c 47bf 8dcf 48bf
00000100: 1570 58bf f95a 43bf 17ed 11bf 0694 46bf
00000110: d820 12bf c474 41bf 274b efbe b426 4bbe
00000120: 2bd9 b9be 4689 c7be 1163 08bf 4239 3dbf
00000130: 326c 48bf 6139 4abf 42e5 22bf 7259 f7bd
00000140: a492 30bf 11da 55bf 886e 61bf 46a0 4dbf
00000150: 6e81 02bf a9d8 33bf 0b1a 28bf e2d9 49bf
00000160: 385d 37bf dc4a 52bf bf5d 51bf a103 54bf
00000170: b16c 09bf 3fbe 31bf 7449 3dbf cbc1 44bf
00000180: 8c3f b3be c870 e4be 4669 36bf f2b0 eebe
00000190: f545 1ebf 8e33 59bf 8e7b c13d 08e2 e73e
000001a0: 622e 133f ee9f a03e 1102 3e3e 9b81 d63e
000001b0: f424 2d3f 2a47 4f3f 0f0d b7be c1cb 43bf
000001c0: bead 4bbf 6dd9 47bf 3b8e 35bf 80db d7bd
000001d0: 5f63 e2be 535c e0be 4b44 44bf c9f0 4fbf
000001e0: 280e 2fbf fc69 68bf 4e90 26bf da91 42bf
000001f0: 48cd a1be a124 69bf b331 52bf 936f 32bf
00000200: 6459 a3bd 6292 983c d7a7 2dbf 060f 45bf
00000210: 3a02 39bf 10bf 27bf 7519 3cbf 3605 2cbf
00000220: 012f 49bf 37e6 d2be 4180 f2be 31f0 96be
00000230: dd14 c8be 2cf1 e5be 9767 90be 4516 cdbe
00000240: 36e1 1ebe 342e b0be 1701 27bf b35f eabe
00000250: 5642 96be 0d06 3f3e 58b7 a7be 649d b4be
00000260: 9ce9 debe e0ba c2be 5f0d ccbe 98d6 d3be
00000270: dfa1 9ebe bfb5 d0be 60fa a5be b39b debe
00000280: da0b bebe f0b1 d8be abb2 d4be 4aae babe
00000290: 23b8 dfbe ca14 dcbe 97b1 a8be d49f b6be
000002a0: 02dc c8be ad8d e3be a891 e8be a333 b3be
000002b0: f703 e8be 9ae2 d0be 6ba5 bfbe 18bf e1be
000002c0: ced7 dabe 9d4c cbbe 3542 a7be f905 bebe
000002d0: b1f5 dcbe 497d d1be f395 c0be d965 afbe
000002e0: dba9 cebe 4228 bbbe 69a3 98be 02f8 e8be
000002f0: b3c9 e4be a830 c7be 84c7 a1be 9757 c5be
00000300: f286 a6be 578e b1be 8993 babe 0ab7 cdbe
00000310: 7452 b4be 4a45 bbbe 599e c6be 3952 ddbe
00000320: 11f2 cfbe 5fb6 9fbe 320e 98be a616 e3be
00000330: c3d7 9fbe 1488 d0be 8992 b6be 8fba 99be
00000340: dec5 e0be e6a6 cabe 60bb c6be 121e dcbe
00000350: 6524 a0be e3a7 ccbe 56a2 99be f45e c2be
00000360: 4079 e8be 40f3 a4be 15f7 ccbe c472 c5be
00000370: 3374 9dbe 7baa e1be de80 b4be 2f7a e2be
00000380: 0869 a1be 84ff d2be 1108 a9be b851 cabe
00000390: 2cbf b6be 2bf6 b6be ac67 a3be f984 dfbe
000003a0: 4b28 afbe 79b6 d2be 1dda b0be e000 d7be
000003b0: 99cf acbe d0da 9ebe e864 d0be 4be8 e8be
000003c0: 3d12 9bbe f39a cdbe 605b e2be cf4f b5be
000003d0: 4f02 d1be 5c11 a3be dfa7 cabe 19a0 9dbe
000003e0: b0f4 c4be 9f5c e2be dc55 acbe fe81 cabe
000003f0: e5f2 d0be 2f02 99be 6102 e7be 20cb b5be

conv2.bias f4 [16]
0.8858488 -0.44065368 -0.37991083 0.87528956 0.7031554 0.63511175 0.86799955 0.90529597
-0.38983226 -0.37161833 -0.4393686 -0.008320611 0.5692457 0.8805816 -0.44261348 0.24145615
00000000: fdc6 623f 5c9d e1be ac83 c2be fa12 603f
00000010: fe01 343f af96 223f 3835 5e3f 7ac1 673f
00000020: 1898 c7be c244 bebe ecf4 e0be 2c53 08bc
00000030: 16ba 113f cc6d 613f 3c9e e2be 4840 773e

fc1.weight f4 [120, 400]
-0.55183834 -0.61783755 -0.5880128 -0.5189844 -0.44759887 -0.63456017 -0.5944278 -0.64896953
-0.45677266 -0.39434415 -0.5838096 -0.606257 -0.09249144 -0.3955414 -0.5392881 -0.64936477
-0.49510184 -0.47829717 -0.63010615 -0.67954385 -0.5759115 -0.5547625 -0.19098394 0.5506358
-0.0523617 0.32628065 0.3795612 0.41645494 -0.36329257 0.357748 -0.35172847 -0.4039521
-0.4149812 -0.41787088 0.3786313 -0.36952716 -0.4031098 -0.38999608 -0.4097076 0.39210656
0.39831442 0.35921407 -0.3379195 -0.36047927 -0.3428434 -0.40703765 -0.34613794 -0.38202083
0.3641443 -0.42432564 -0.36078835 -0.36607072 -0.35373777 -0.40912622 -0.40195423 -0.4211216
-0.34250247 -0.37136596 0.41419044 -0.35903364 -0.35550886 -0.39535978 -0.39346796 -0.3616482
-0.42434236 0.40068936 -0.35480177 -0.37483782 -0.3455719 -0.34268457 -0.3482696 -0.39479917
-0.3504551 -0.37837622 -0.3449858 -0.6412338 -0.22620295 -0.29885846 -0.6699588 -0.49694043
-0.64191586 -0.25412226 -0.4969098 -0.5848156 -0.6192328 -0.6362103 0.07999636 0.25843853
-0.37066045 0.13485189 -0.65726286 -0.34770522 -0.17407762 -0.5354231 -0.19285113 -0.48179254
-0.46544454 -0.41547978 -0.33102295 -0.6267111 -0.48494014 -0.54516995 -0.47404307 -0.35647923
-0.44214508 -0.2557965 -0.4457391 0.01104166 -0.41742486 -0.44870144 -0.43430766 -0.4226715
-0.1994818 -0.5665822 -0.4639904 -0.34862813 -0.64672637 -0.5052229 -0.29725307 -0.34534246
-0.35639372 0.3092266 0.12769483 -0.48862737 -0.43855944 -0.55259293 -0.3996173 -0.46577877
-0.1612939 -0.57008046 -0.35582376 -0.6429413 -0.5580264 -0.54829663 -0.52792215 -0.1966339
-0.16846585 -0.49899596 -0.63713694 -0.5564809 -0.2476453 -0.01582903 -0.5941688 -0.5932157
-0.6685941 -0.5687879 -0.25442252 -0.3186353 -0.58700556 -0.6182375 -0.38327798 -0.5531503
-0.31549236 -0.46012047 -0.5369834 -0.4859613 -0.20198618 -0.56725436 -0.64045453 -0.5077021
-0.54471666 -0.2776385 -0.40722317 0.14814475 -0.63492227 -0.30740827 -0.5897248 -0.5656426
-0.5832168 -0.43852323 -0.45528477 -0.49124846 -0.19195789 -0.1758607 -0.45393103 -0.4727714
-0.34994864 -0.41143432 -0.38027233 -0.3309679 -0.52092034 -0.4440871 -0.53796685 -0.5420823
-0.5581797 -0.6413475 0.7001676 -0.5618102 -0.63635683 -0.6622301 -0.49053785 -0.10270095
-0.43266565 -0.25975084 -0.5430071 -0.5851754 -0.23319274 -0.14230292 -0.52922255 -0.49077314
-0.36080775 -0.3359956 -0.3714599 -0.3549796 -0.39665228 -0.40443525 -0.39639327 -0.3293915
-0.33333582 -0.37837687 -0.36380202 -0.34989494 -0.35035315 -0.3588502 -0.42337805 0.39370057
-0.40352172 -0.42230755 -0.35571924 -0.33131126 -0.4038406 -0.35879096 -0.41391587 -0.33281296
-0.32950088 -0.3822951 -0.4234461 -0.41990224 -0.34662703 -0.3704412 -0.3960058 -0.39253968
0.42254087 -0.3281913 -0.3357357 -0.39622548 -0.4124764 -0.41377532 -0.32606488 -0.36386544
-0.3719827 0.38469863 -0.4082797 -0.39148286 -0.39380485 -0.33036923 -0.35251755 -0.3634466
-0.3614849 -0.42302147 -0.39001015 0.38043886 -0.37577793 -0.39644915 -0.35490477 -0.37748134
00000000: 4745 0dbf 9a2a 1ebf 0288 16bf 29dc 04bf
00000010: ae2b e5be 8972 22bf 6c2c 18bf de22 26bf
00000020: 1bde e9be 7ae7 c9be 8c74 15bf a933 1bbf
00000030: 276c bdbd 6784 cabe c90e 0abf c53c 26bf
00000040: fd7d fdbe 5ee3 f4be a34e 21bf 96f6 2dbf
00000050: f06e 13bf ea04 0ebf 4b91 43be 78f6 0c3f
00000060: 3979 56bd 420e a73e d855 c23e 9539 d53e
00000070: 7c01 babe bf2a b73e c115 b4be cfd2 cebe
00000080: 6a78 d4be 2cf3 d5be f6db c13e aa32 bdbe
00000090: 6864 cebe 91ad c7be 32c5 d1be 31c2 c83e
000000a0: deef cb3e e8ea b73e c903 adbe bd90 b8be
000000b0: 2c89 afbe 3d67 d0be fe38 b1be 3c98 c3be
000000c0: 1f71 ba3e 3641 d9be 40b9 b8be 9f6d bbbe
000000d0: 1e1d b5be fe78 d1be f2cc cdbe 409d d7be
000000e0: 7c5c afbe ae23 bebe c510 d43e 42d3 b7be
000000f0: 4205 b6be 996c cabe a274 c9be f429 b9be
00000100: 6743 d9be 2827 cd3e 94a8 b5be beea bfbe
00000110: cdee b0be 5a74 afbe 6550 b2be 1e23 cabe
00000120: da6e b3be 87ba c1be fba1 b0be e627 24bf
00000130: bfa1 67be fa03 99be 6b82 2bbf fa6e febe
00000140: 9954 24bf 501c 82be f66a febe 7ab6 15bf
00000150: 0a86 1ebf aede 22bf 22d5 a33d 0e52 843e
00000160: 35c7 bdbe 9d16 0a3e 6142 28bf 6b06 b2be
00000170: 6741 32be 7d11 09bf c47a 45be 83ad f6be
00000180: bf4e eebe c4b9 d4be d77b a9be 2370 20bf
00000190: 134a f8be 4290 0bbf c6b5 f2be 7284 b6be
000001a0: d760 e2be c2f7 82be ea37 e4be 14e8 343c
000001b0: b6b8 d5be 32bc e5be 935d debe 6668 d8be
000001c0: f544 4cbe 880b 11bf 2690 edbe 637f b2be
000001d0: dc8f 25bf 4a56 01bf 8e31 98be bad0 b0be
000001e0: 3d79 b6be f352 9e3e 6fc2 023e 5e2d fabe
000001f0: dd8a e0be bb76 0dbf a49a ccbe 8e7a eebe
00000200: 3a2a 25be cbf0 11bf 882e b6be cd97 24bf
00000210: d1da 0ebf 2b5d 0cbf e825 07bf 665a 49be
00000220: 5082 2cbe 667c ffbe 681b 23bf 8875 0ebf
00000230: bb96 7dbe e2ab 81bc 721b 18bf fcdc 17bf
00000240: fc28 2bbf 159c 11bf ab43 82be 2b24 a3be
00000250: ff45 16bf d044 1ebf 033d c4be 429b 0dbf
00000260: 3788 a1be e994 ebbe be77 09bf ebcf f8be
00000270: 77d5 4ebe 9537 11bf d4f4 23bf c4f8 01bf
00000280: 8d72 0bbf a226 8ebe 8e7f d0be 42b3 173e
00000290: 448a 22bf 9e64 9dbe 34f8 16bf f4cd 10bf
000002a0: b24d 15bf 1e86 e0be 161b e9be eb84 fbbe
000002b0: 9c90 44be d414 34be a669 e8be 180f f2be
000002c0: 782c b3be 85a7 d2be 0eb3 c2be a074 a9be
000002d0: 095b 05bf 625f e3be 32b8 09bf e8c5 0abf
000002e0: dde4 0ebf 5a2f 24bf 2f3e 333f cbd2 0fbf
000002f0: 48e8 22bf e987 29bf c727 fbbe e054 d2bd
00000300: 5a86 ddbe 10fe 84be 8302 0bbf 0ece 15bf
00000310: 14ca 6ebe dbb7 11be 217b 07bf 9e46 fbbe
00000320: cbbb b8be 9e07 acbe fe2f bebe e3bf b5be
00000330: 0216 cbbe 2312 cfbe 0ff4 cabe 01a6 a8be
00000340: feaa aabe 9dba c1be 4244 babe 6e25 b3be
00000350: 7d61 b3be 37bb b7be 02c5 d8be 1f93 c93e
00000360: 669a cebe b238 d8be d520 b6be a1a1 a9be
00000370: 32c4 cebe 73b3 b7be c8ec d3be 7666 aabe
00000380: 57b4 a8be 2fbc c3be edcd d8be 6dfd d6be
00000390: 1979 b1be 78aa bdbe 46c1 cabe f6fa c8be
000003a0: 4757 d83e b108 a8be 8de5 abbe 11de cabe
000003b0: 1b30 d3be 5cda d3be faf1 a6be 924c babe
000003c0: 8474 bebe 38f7 c43e 090a d1be 7170 c8be
000003d0: caa0 c9be 2826 a9be 2e7d b4be ac15 babe
000003e0: 8c14 b9be 4596 d8be 69af c7be e2c8 c23e
000003f0: f765 c0be 62fb cabe 14b6 b5be 3c45 c1be

fc1.bias f4 [120]
-0.63637334 -0.8010439 -0.8183911 -0.6910009 -0.66764754 -0.6860914 -0.36160538 -0.6851671
-0.7464719 -0.7199907 -0.91754687 -0.79790825 -0.7257391 -0.80832666 -0.76645297 -0.85015
-0.59727585 -0.75751996 -0.8336775 -0.7021191 -0.8636585 -0.64751834 -0.71775454 -0.6764958
-0.71331054 -0.77683127 -0.79197925 -0.78659624 -0.793769 -0.7778059 -0.32312584 0.7891983
-0.4953219 -0.5068048 -0.69212455 -0.8408115 -0.83141065 -0.7352798 -0.6754845 -0.61241674
-0.812167 -0.75224185 -0.70432764 -0.71449035 -0.81775063 -0.7690759 -0.72188187 -0.78579247
-0.86834544 -0.81588537 -0.75817287 -0.77803266 -0.74938333 -0.68034965 -0.15963739 -0.83889914
-0.8821579 -0.8129699 -0.7722653 -0.73823994 -0.7309207 -0.79378414 -0.7493817 -0.72537506
-0.24782646 -0.9062815 -0.73863876 -0.7248569 -0.7314275 -0.58515507 -0.7170464 0.6220558
-0.7555113 -0.5949596 -0.68522185 -0.61363316 -0.7439358 -0.6386753 -0.6201564 -0.9324696
-0.7078738 -0.8580457 -0.6954379 -0.72785217 -0.78654695 -0.7315808 -0.71336955 -0.71146506
-0.7378902 -0.77563137 -0.71571964 -0.6018479 -0.720047 -0.8655997 -0.7842598 -0.6964433
-0.6911899 -0.72863746 -0.69892985 -0.69599926 -0.68679225 -0.81609213 -0.72614133 -0.37306044
-0.78338087 -0.79425806 -0.7742367 -0.5812324 -0.64050335 -0.5324626 -0.853233 -0.7262427
-0.80596715 -0.7367079 -0.8503194 -0.50538796 -0.75279105 -0.68666846 -0.8921854 -0.91338074
00000000: 5de9 22bf 3711 4dbf 1482 51bf 6fe5 30bf
00000010: f3ea 2abf b0a3 2fbf 5724 b9be 1c67 2fbf
00000020: c818 3fbf 4f51 38bf 5ae4 6abf b743 4cbf
00000030: 0aca 39bf 7fee 4ebf 4336 44bf 6ea3 59bf
00000040: 12e7 18bf d4ec 41bf e36b 55bf 14be 33bf
00000050: b918 5dbf c3c3 25bf c3be 37bf d42e 2dbf
00000060: 859b 36bf 6ade 46bf 27bf 4abf 5f5e 49bf
00000070: 7234 4bbf 4a1e 47bf c070 a5be e608 4a3f
00000080: d59a fdbe f6bd 01bf 132f 31bf 6c3f 57bf
00000090: 54d7 54bf 4c3b 3cbf 8dec 2cbf 58c7 1cbf
000000a0: 2dea 4fbf ec92 40bf d14e 34bf d7e8 36bf
000000b0: 1b58 51bf 28e2 44bf 40cd 38bf b229 49bf
000000c0: e34b 5ebf dddd 50bf 9e17 42bf 262d 47bf
000000d0: 96d7 3fbf 652b 2ebf fc77 23be 18c2 56bf
000000e0: 1ad5 61bf cc1e 50bf 2eb3 45bf 4bfd 3cbf
000000f0: 9e1d 3bbf 7035 4bbf 7bd7 3fbf 2eb2 39bf
00000100: 38c6 7dbe 1002 68bf 6e17 3dbf 3990 39bf
00000110: d53e 3bbf b9cc 15bf 5a90 37bf 0d3f 1f3f
00000120: 3069 41bf 464f 18bf b36a 2fbf 1017 1dbf
00000130: 9472 3ebf 3980 23bf 92c2 1ebf 54b6 6ebf
00000140: 3837 35bf e2a8 5bbf 3808 32bf 8554 3abf
00000150: 245b 49bf e148 3bbf 639f 36bf 9322 36bf
00000160: 5fe6 3cbf c78f 46bf 6739 37bf b412 1abf
00000170: 0055 38bf f197 5dbf 40c5 48bf 1c4a 32bf
00000180: d2f1 30bf fc87 3abf 11ed 32bf 022d 32bf
00000190: 9ed1 2fbf 6aeb 50bf 66e4 39bf c701 bfbe
000001a0: a68b 48bf 7f54 4bbf 6034 46bf a6cb 14bf
000001b0: 07f8 23bf 784f 08bf 7a6d 5abf 0beb 39bf
000001c0: dd53 4ebf e498 3cbf 88ae 59bf 1b61 01bf
000001d0: eab6 40bf 81c9 2fbf 4366 64bf 52d3 69bf

fc2.weight f4 [84, 120]
-0.058751233 -0.23919335 -0.19765481 0.28576538 -0.05865348 0.0034455662 -0.1853468 -0.4346817
-0.52083045 0.36224535 -0.71717227 -0.16730346 -0.09602094 0.10640252 -0.43987876 -0.22488713
-0.5856228 -0.16868874 -0.22903757 -0.18824975 -0.81237185 -0.053303167 -0.54596347 -0.27099138
0.040943265 -0.6185571 -0.50883013 -0.5463026 -0.028496582 -0.43992466 -0.6935199 -0.7262721
-0.13382313 -0.28047556 -0.3131733 -0.16378483 -0.62682796 -0.40806368 0.2630971 -0.08148521
-0.28631407 0.11151648 0.54184794 -0.4489161 -0.3417778 0.04126373 -0.023547487 0.43797332
-0.6768854 -0.21687256 0.3244226 0.20625041 -0.71876836 -0.42116103 -0.24081658 0.06426381
-0.7107886 -0.33002332 0.5065976 -0.4667627 -0.5042098 0.119008556 -0.28626445 0.16956013
-0.48817772 -0.4383177 -0.4730319 -0.070622794 -0.5686279 -0.5643335 0.46820635 -0.498729
-0.67245567 -0.40480295 -0.48782912 -0.28735313 -0.063702255 0.085095584 -0.44716188 -0.6121912
-0.34042785 -0.4256478 -0.4468198 0.493615 -0.29021484 -0.3002693 -0.3306651 -0.3946919
0.17303166 -0.04924759 -0.62091154 -0.46120474 -0.26973003 -0.47747698 0.010762719 -0.34514767
-0.04809157 0.15890498 -0.33189118 0.5246407 -0.49569932 -0.08080618 0.10080964 -0.38440692
-0.29613364 0.74773186 -0.16696312 -0.20198496 -0.6415371 -0.103840746 0.03545683 -0.019057492
-0.08574497 -0.15715462 -0.6363754 -0.035167504 -0.1525176 -0.15355381 -0.6186043 -0.92179143
0.080546364 -0.23391479 -0.51784754 -0.32231453 0.2705318 -0.45211658 -0.64272094 -0.52949214
-0.32664597 -0.4541868 -0.7241168 -0.5727128 -0.29230353 -0.50886863 -0.46401337 -0.49568117
-0.36747983 -0.3343344 -0.5270079 -0.21784084 -0.75553393 -0.50836134 -0.3841529 -0.60833484
-0.47340584 -0.23658717 -0.55876935 -0.39324412 -0.34031862 -0.3247639 -0.5601604 -0.67667377
-0.620472 -0.4258453 -0.3305116 -0.5353379 -0.3648751 -0.22401273 -0.36390322 -0.37765497
0.46009886 -0.58532065 0.028087698 0.15860273 -0.32544827 -0.41924337 -0.17157218 0.20744243
-0.444155 -0.45447674 -0.6632079 -0.40180662 -0.4718312 -0.3748269 -0.65159863 -0.5099367
-0.6395864 -0.5881383 -0.20516886 -0.52838975 0.39060482 -0.042896986 -0.55474687 -0.5527986
-0.1865225 -0.39788273 -0.30242926 -0.32173577 -0.23587887 -0.606991 -0.252443 0.026043179
-0.5919164 -0.45563838 -0.36445054 -0.6166739 -0.28995332 -0.24813862 -0.5425805 -0.3523782
0.3643712 -0.22246507 -0.14369401 -0.30011606 0.083075754 0.08040763 -0.60621095 0.082775466
0.0987862 -0.47473568 -0.5068468 -0.14125377 -0.31391048 -0.2968589 -0.012707923 -0.61331916
-0.2705024 -0.17030711 -0.35580295 -0.11609857 -0.2711026 -0.49079847 -0.26985556 -0.25115982
-0.25020584 -0.6871962 -0.25400618 -0.069796965 -0.70124257 -0.51583165 -0.38134125 -0.32832083
-0.4742067 -0.27361208 -0.62104964 -0.4340656 -0.38637874 -0.013993433 -0.79031706 -0.7363
-0.44604564 -0.44665936 -0.4450716 0.06983853 -0.40789908 -0.37237123 -0.416206 -0.45796102
-0.36060014 -0.24357049 -0.4387305 -0.3608918 -0.4676663 -0.18617223 -0.278064 -0.3718778
00000000: 22a5 70bd 1aef 74be 0666 4abe d74f 923e
00000010: a23e 70bd 02cf 613b 8dcb 3dbe 9a8e debe
00000020: 2555 05bf 3978 b93e 9a98 37bf 9951 2bbe
00000030: a0a6 c4bd 90e9 d93d ca37 e1be d048 66be
00000040: 60eb 15bf bebc 2cbe d388 6abe 8bc4 40be
00000050: 9af7 4fbf 6c54 5abd 43c4 0bbf 62bf 8abe
00000060: 20b4 273d c259 1ebf b142 02bf 7dda 0bbf
00000070: aa71 e9bc ce3d e1be 858a 31bf f8ec 39bf
00000080: ee08 09be 7e9a 8fbe 4058 a0be 36b7 27be
00000090: cc77 20bf b9ed d0be aab4 863e b8e1 a6bd
000000a0: c297 92be c162 e43d 8cb6 0a3f 55d8 e5be
000000b0: 80fd aebe 2804 293d a9e6 c0bc 0a3e e03e
000000c0: 5d48 2dbf d713 5ebe b81a a63e 4f33 533e
000000d0: 3401 38bf 6ba2 d7be 9f98 76be bf9c 833d
000000e0: 3ef6 35bf d1f8 a8be 61b0 013f 85fb eebe
000000f0: e513 01bf c2ba f33d 4191 92be 2ca1 2d3e
00000100: 6ef2 f9be 2d6b e0be 3d31 f2be afa2 90bd
00000110: 9991 11bf 2978 10bf beb8 ef3e 6859 ffbe
00000120: 0e26 2cbf 5542 cfbe bdc4 f9be f31f 93be
00000130: 5476 82bd 9846 ae3d 67f2 e4be 90b8 1cbf
00000140: 8f4c aebe 82ee d9be 91c5 e4be 1bbb fc3e
00000150: 0a97 94be e6bc 99be f04c a9be 0f15 cabe
00000160: 362f 313e d7b7 49bd 0ff4 1ebf 0723 ecbe
00000170: 0e1a 8abe dd77 f4be 1e56 303c 32b7 b0be
00000180: abfb 44bd fdb7 223e a4ed a9be da4e 063f
00000190: 4dcc fdbe b67d a5bd 4975 ce3d fcd0 c4be
000001a0: d49e 97be 5b6b 3f3f 61f8 2abe 25d5 4ebe
000001b0: c63b 24bf 75aa d4bd 2e3b 113d 751e 9cbc
000001c0: 0f9b afbd 24ed 20be 80e9 22bf cd0b 10bd
000001d0: 932d 1cbe 363d 1dbe da5c 1ebf 86fa 6bbf
000001e0: 7ef5 a43d 5c87 6fbe a891 04bf 6906 a5be
000001f0: 2583 8a3e d37b e7be 5c89 24bf cc8c 07bf
00000200: 243e a7be 2c8b e8be b85f 39bf 4e9d 12bf
00000210: cfa8 95be 3745 02bf 2993 edbe ecc9 fdbe
00000220: 5126 bcbe e12d abbe fde9 06bf ab11 5fbe
00000230: ac6a 41bf f823 02bf b0af c4be d5bb 1bbf
00000240: 4062 f2be e843 72be 820b 0fbf 4b57 c9be
00000250: 3e3e aebe 7447 a6be ac66 0fbf 7e3a 2dbf
00000260: 41d7 1ebf 6508 dabe d138 a9be e80b 09bf
00000270: e9d0 babe 9863 65be 8651 babe fe5b c1be
00000280: 1492 eb3e 93d7 15bf 2c18 e63c c168 223e
00000290: 28a1 a6be 11a7 d6be 9eb0 2fbe ca6b 543e
000002a0: 4968 e3be 2db1 e8be fec7 29bf 99b9 cdbe
000002b0: dc93 f1be 50e9 bfbe 2bcf 26bf 368b 02bf
000002c0: efbb 23bf 3b90 16bf c917 52be 8d44 07bf
000002d0: 5bfd c73e c0b4 2fbd e403 0ebf 3684 0dbf
000002e0: c1ff 3ebe 49b7 cbbe 02d8 9abe 8dba a4be
000002f0: 3b8a 71be c363 1bbf 3540 81be 8158 d53c
00000300: d587 17bf 6f49 e9be 4399 babe 57de 1dbf
00000310: c374 94be 0d18 7ebe 8ee6 0abf ea6a b4be
00000320: dd8e ba3e e2cd 63be 8624 13be d0a8 99be
00000330: 9f23 aa3d c1ac a43d a430 1bbf 2f86 a93d
00000340: 6b50 ca3d 8e10 f3be b6c0 01bf d4a4 10be
00000350: e0b8 a0be e4fd 97be e434 50bc 7c02 1dbf
00000360: 4a7f 8abe fd64 2ebe ce2b b6be 16c5 edbd
00000370: f6cd 8abe f049 fbbe 822a 8abe 0598 80be
00000380: fb1a 80be 17ec 2fbf 190d 82be b6f1 8ebd
00000390: a284 33bf 8b0d 04bf 293f c3be ab19 a8be
000003a0: 38cb f2be e216 8cbe 1cfd 1ebf d93d debe
000003b0: 6fd3 c5be b644 65bc 3852 4abf 287e 3cbf
000003c0: 1860 e4be 89b0 e4be 6de0 e3be 8107 8f3d
000003d0: 26d8 d0be 71a7 bebe f418 d5be de79 eabe
000003e0: 95a0 b8be 8b6a 79be 49a1 e0be cfc6 b8be
000003f0: f571 efbe efa3 3ebe 685e 8ebe c466 bebe

fc2.bias f4 [84]
-0.8006398 -0.8244559 -0.5836251 -0.6705367 -0.8583607 -0.6905136 -0.5845028 -0.6533867
-0.6091915 -0.76876557 -0.6455316 0.6382569 -0.67067873 -0.8875777 -0.83818513 -0.7925824
-0.7908432 0.5900062 -0.77276725 -0.79028493 -0.56766 -0.8074851 -0.7591748 -0.87915605
-0.7437525 -0.6720034 -0.70339155 0.6917831 0.8957786 -0.69905806 -0.86780727 0.5460731
-0.7545213 -0.63366956 -0.84272206 -0.845421 -0.8212778 -0.71754444 -0.91552293 -0.6934409
-0.90791774 -0.7247902 -0.75353205 -0.70681477 -0.82556826 -0.6113407 -0.9685458 -0.84312207
-0.6794482 0.742637 -0.99218404 -0.6964978 0.6615428 0.8733631 -0.84265345 -0.7761376
-0.8108684 -0.8768145 0.58806694 0.65508693 -0.79608864 -0.77526164 -0.8255226 -0.6864887
-0.7731874 -0.7672472 -0.811739 -0.8027174 -0.75368434 -0.66609055 -0.8180878 -0.8002518
-0.62523943 -0.8760238 0.7190821 -0.81806606 -0.6968409 -0.5511628 0.7984457 -0.72008795
0.7195483 0.6657502 -0.8510896 -0.8461463
00000000: bbf6 4cbf 8b0f 53bf 7468 15bf 4ba8 2bbf
00000010: 87bd 5bbf 80c5 30bf faa1 15bf 5a44 27bf
00000020: f9f3 1bbf d2cd 44bf 8f41 25bf ce64 233f
00000030: 9ab1 2bbf 4b38 63bf 4d93 56bf aee6 4abf
00000040: b374 4abf a50a 173f 13d4 45bf 1d50 4abf
00000050: 2a52 11bf 58b7 4ebf 4859 42bf 5f10 61bf
00000060: 9066 3ebf 6a08 2cbf 7811 34bf b218 313f
00000070: bf51 653f 78f5 32bf 9e28 5ebf 72cb 0b3f
00000080: 4f28 41bf 2b38 22bf a2bc 57bf 836d 58bf
00000090: 433f 52bf feb0 37bf b65f 6abf 5885 31bf
000000a0: 4c6d 68bf da8b 39bf 7ae7 40bf d0f1 34bf
000000b0: 7158 53bf d380 1cbf 9ef2 77bf d9d6 57bf
000000c0: 51f0 2dbf 751d 3e3f c6ff 7dbf ae4d 32bf
000000d0: de5a 293f b994 5f3f 23b8 57bf f4b0 46bf
000000e0: 1295 4fbf ea76 60bf 8e8b 163f c7b3 273f
000000f0: 77cc 4bbf 8c77 46bf 7355 53bf b9bd 2fbf
00000100: 9cef 45bf 506a 44bf 21ce 4fbf e37e 4dbf
00000110: 75f1 40bf e984 2abf 346e 51bf 4ddd 4cbf
00000120: b10f 20bf 1943 60bf c415 383f c76c 51bf
00000130: 2a64 32bf 0119 0dbf f066 4c3f af57 38bf
00000140: 5134 383f 9b6e 2a3f 02e1 59bf 0b9d 58bf

fc3.weight f4 [10, 84]
-0.82241917 -0.8643694 -0.1710684 -0.9303191 -0.7771359 -0.8285326 -0.5411845 -0.8266282
-0.8370463 -0.587841 -0.93092114 -0.67966 -0.94993734 -0.89947295 -0.78447574 -0.7764381
-0.8163198 -0.41317093 -0.76291144 -0.82833475 -0.9987246 -0.67232656 -0.9412277 -0.94487077
-0.80824757 -0.84226733 -0.36611915 -0.2785257 -0.6165761 0.4891403 -0.67765045 -0.1880366
-0.83725727 -0.75621927 -0.8019614 -0.87690437 -0.90964097 -0.813301 -0.7975924 -0.8424648
-0.08817367 -0.94188595 -0.861159 -0.82864916 -0.8417232 -0.8136334 0.11810425 -0.92768085
-0.5875728 -0.24288437 -0.8608348 -0.8486706 -0.3975353 -0.15489429 -0.975632 -0.84479916
-0.8756646 -0.92240673 -0.264837 -0.6696263 -0.93436927 -0.95434594 -0.8938128 -0.7409476
-0.98257405 -0.8635019 -0.8851889 -0.94825715 -0.87653 -0.86700714 -0.7888389 -0.8075402
-0.7217411 -0.99587387 -0.5069411 -0.66141486 -0.63610655 -0.57983446 -0.77349585 -0.7699933
-0.49423692 -0.24639098 -0.9401942 -0.804972 -0.94590235 -0.8301329 -0.12602167 -0.76216674
-0.77842855 -0.5537905 -0.6525857 -0.9262687 -0.95235556 -0.65558946 -0.9869232 -0.21250793
-0.97561747 -0.95821553 -0.91972804 -0.85370976 -0.86211336 -0.11288512 -0.83877456 -0.8394725
-0.9634465 -0.8105187 -0.98874944 -0.8283119 -0.87274563 -0.90732366 -0.37234333 -0.087467864
-0.5996648 -0.95506513 -0.6086285 -0.016439565 -0.89819384 -0.5821578 -0.97922873 -0.9025245
-0.7977269 -0.9047031 -0.93842816 -0.8098281 0.30136043 -0.7839646 -0.91487575 -0.7558868
-0.9474707 -0.81879956 0.07380709 -0.9408289 -0.5919208 -0.111069225 -0.86512065 -0.9585184
0.0005050525 -0.5922996 -0.7683464 -0.9450517 -0.8639716 -0.8055905 0.05639684 -0.31857994
-0.851965 -0.93043077 -0.7913371 -0.82895315 -0.9476069 -0.86763287 -0.8595634 -0.79225814
-0.9211901 -0.9644698 -0.97639775 -0.82346857 -0.8239389 -0.84163135 -0.77895474 -0.81783277
-0.7946712 -0.70283914 -0.65695924 -0.782617 -0.09305608 -0.1004486 -0.9259245 -0.88081044
-0.9429665 -0.8668793 -0.19297943 -0.7323078 -0.93613505 -0.8337133 -0.41653916 -0.87840164
-0.6702869 -0.567333 -0.82435244 -0.48574668 -0.8538925 -0.98024166 -0.77861977 -0.9625342
-0.9906694 0.18258779 -0.9466798 -0.85358006 -0.88995475 -0.8247464 -0.83154297 -0.961741
-0.9644599 -0.75845647 -0.4715547 -0.33186796 -0.34150812 0.11845639 -0.79980403 -0.30064481
-0.7045132 -0.838808 -0.9106292 -0.85117453 -0.9181341 -0.7458271 -0.8058401 -0.8609663
-0.9173054 -0.8004465 -0.84108484 -0.71625674 -0.6096561 -0.9508612 -0.7850736 -0.8883384
-0.35876554 -0.29749113 -0.9748472 -0.7583861 0.018001068 -0.31998268 -1.0242579 -0.8417729
-0.91894865 -0.82969666 -0.09796162 -0.028412193 -0.8400189 -0.8586203 -0.8690875 -0.81567425
-0.9226709 -0.7618946 -0.8077024 -0.85850996 -0.8278739 -0.7794866 -0.9349129 -0.978762
-0.8214459 -1.0308781 -0.14828253 -1.0101945 -0.8245498 -0.6251222 -0.73267025 -0.73354757
-0.33120885 -0.36281306 -0.87352455 -0.8953321 -0.7801783 -0.96201974 -0.06028227 -0.88440496
00000000: 108a 52bf 5047 5dbf 8e2c 2fbe 6429 6ebf
00000010: 61f2 46bf b61a 54bf 118b 0abf e89d 53bf
00000020: ab48 56bf bf7c 16bf d950 6ebf 33fe 2dbf
00000030: 182f 73bf dc43 66bf 67d3 48bf a6c4 46bf
00000040: 56fa 50bf 248b d3be 2a4e 43bf bf0d 54bf
00000050: 6aac 7fbf 981d 2cbf 4cf4 70bf 0de3 71bf
00000060: 50e9 4ebf d59e 57bf f873 bbbe ec9a 8ebe
00000070: eed7 1dbf 9970 fa3e 807a 2dbf ab8c 40be
00000080: 7e56 56bf 9697 41bf 584d 4dbf ce7c 60bf
00000090: 3bde 68bf 7f34 50bf 042f 4cbf c6ab 57bf
000000a0: 6694 b4bd 701f 71bf eb74 5cbf 5a22 54bf
000000b0: 2c7b 57bf 474a 50bf a4e0 f13d 7e7c 6dbf
000000c0: 2c6b 16bf aeb6 78be ab5f 5cbf 7a42 59bf
000000d0: bf89 cbbe 9c9c 1ebe 05c3 79bf c244 58bf
000000e0: 8e2b 60bf d922 6cbf b798 87be a16c 2bbf
000000f0: d332 6fbf 0450 74bf ead0 64bf beae 3dbf
00000100: f989 7bbf 760e 5dbf bd9b 62bf fbc0 72bf
00000110: 4564 60bf 2ef4 5dbf 59f1 49bf f4ba 4ebf
00000120: 06c4 38bf 97f1 7ebf e4c6 01bf 7c52 29bf
00000130: e1d7 22bf 0870 14bf d303 46bf 481e 45bf
00000140: 9f0c fdbe eb4d 7cbe 91b0 70bf a512 4ebf
00000150: a826 72bf 9783 54bf d30b 01be 5c1d 43bf
00000160: 1847 47bf 37c5 0dbf db0f 27bf f21f 6dbf
00000170: 93cd 73bf b6d4 27bf 00a7 7cbf ae9b 59be
00000180: 11c2 79bf 9d4d 75bf 4c73 6bbf b98c 5abf
00000190: 76b3 5cbf 5030 e7bd eeb9 56bf abe7 56bf
000001a0: 6ea4 76bf 277e 4fbf af1e 7dbf 400c 54bf
000001b0: 426c 5fbf 5d46 68bf c9a3 bebe 5a22 b3bd
000001c0: a283 19bf 267f 74bf 14cf 1bbf 44ac 86bc
000001d0: 08f0 65bf 4b08 15bf bcae 7abf d80b 67bf
000001e0: d537 4cbf 9f9a 67bf d43c 70bf e550 4fbf
000001f0: ea4b 9a3e e7b1 48bf 4c35 6abf cc81 41bf
00000200: 718d 72bf d99c 51bf 2c28 973d 2ada 70bf
00000210: 1f88 17bf 4378 e3bd 8c78 5dbf 7661 75bf
00000220: 8065 043a f2a0 17bf 5ab2 44bf e9ee 71bf
00000230: 3e2d 5dbf 2e3b 4ebf 5f00 673d e91c a3be
00000240: 611a 5abf b630 6ebf 1195 4abf 4636 54bf
00000250: 5e96 72bf 301d 5ebf 590c 5cbf 6ed1 4abf
00000260: 1dd3 6bbf 7ee7 76bf 34f5 79bf d6ce 52bf
00000270: a9ed 52bf 2775 57bf 9469 47bf 7d5d 51bf
00000280: 926f 4bbf 44ed 33bf 7b2e 28bf 9659 48bf
00000290: 3094 bebd ffb7 cdbd 6309 6dbf cb7c 61bf
000002a0: 4166 71bf cdeb 5dbf 669c 45be 8678 3bbf
000002b0: 8ca6 6fbf 3c6e 55bf 9f44 d5be eede 60bf
000002c0: ec97 2bbf bc3c 11bf c308 53bf cab3 f8be
000002d0: b398 5abf 1ef1 7abf a053 47bf a468 76bf
000002e0: 839c 7dbf 4bf8 3a3e 9b59 72bf 3984 5abf
000002f0: 13d4 63bf 9422 53bf 00e0 54bf a834 76bf
00000300: d8e6 76bf 342a 42bf 9e6f f1be 99ea a9be
00000310: 27da aebe 4499 f23d f5bf 4cbf 1eee 99be
00000320: fa5a 34bf 1fbc 56bf ff1e 69bf 93e6 59bf
00000330: d60a 6bbf 86ee 3ebf 894b 4ebf 4a68 5cbf
00000340: 87d4 6abf 10ea 4cbf 5651 57bf 9a5c 37bf
00000350: 6c12 1cbf a46b 73bf 95fa 48bf 256a 63bf
00000360: 1eb0 b7be c250 98be 968f 79bf 9725 42bf
00000370: fa76 933c c5d4 a3be e21a 83bf 6e7e 57bf
00000380: 3840 6bbf 0067 54bf 1aa0 c8bd b0c0 e8bc
00000390: 7b0b 57bf 8ace 5bbf 857c 5ebf 07d0 50bf
000003a0: 2934 6cbf 860b 43bf 96c5 4ebf 4fc7 5bbf
000003b0: 8bef 53bf 6f8c 47bf 7456 6fbf 2590 7abf
000003c0: 474a 52bf d0f3 83bf 60d7 17be 0e4e 81bf
000003d0: b215 53bf 0208 20bf 4790 3bbf c6c9 3bbf
000003e0: 3594 a9be a2c2 b9be 4e9f 5fbf 7c34 65bf
000003f0: c4b9 47bf ed46 76bf 8bea 76bd 5d68 62bf

fc3.bias f4 [10]
-0.9124786 -0.8319986 0.86261046 0.884487 0.86127746 0.71709704 0.692039 0.48055246
-0.75725085 -0.8334812
00000000: 3398 69bf dcfd 54bf 0ad4 5c3f bd6d 623f
00000010: ae7c 5c3f ac93 373f 7829 313f f90a f63e
00000020: 31db 41bf 065f 55bf
