FL/cnn-img/outputs/2025-03-18/18-20-35/model_state_acc_0.248_round_9.pth (torch, 251948 bytes, 10 tensors)

conv1.weight f4 [6, 3, 5, 5]
0.8246852 0.81141335 0.83066756 0.7321641 0.71342707 0.7356345 0.7756508 0.8351986
0.85287154 0.79215443 0.771828 -0.29713005 0.49222186 0.6884586 0.8209681 -0.045770504
-0.68709236 -0.68515265 0.5770779 0.83308905 -0.8904957 -0.73007965 -0.8547845 0.03241475
0.8148866 -0.8245958 -0.72435176 -0.58372164 -0.6161873 -0.26528022 -0.613302 -0.7836204
-0.68637687 -0.23065059 0.45928934 0.09008463 -0.7161687 -0.62708205 0.23180807 0.46290234
0.20009737 -0.67300653 -0.50213957 0.5096584 0.5178401 0.15142669 -0.77830744 -0.16121376
0.6133094 0.7450973 -0.6424844 -0.7361034 -0.5581307 -0.7025708 -0.6991385 -0.51498306
-0.7259356 -0.6713469 -0.6072225 -0.39058274 -0.4065066 -0.8512628 -0.80308187 -0.5769892
-0.02093004 -0.25809336 -0.75683486 -0.8004748 -0.24566568 0.3770066 -0.1850652 -0.6660269
-0.70580906 -0.057692282 0.71137357 0.48233357 0.47225684 0.16476348 -0.41434017 -0.102089114
0.760326 0.71237534 0.5525033 -0.74126804 -0.66346025 0.69009805 0.85815334 0.64445806
-0.8476271 -0.5101452 0.71251714 0.71493214 0.5629448 -0.43477634 -0.55053896 0.6142972
-0.28069955 -0.20444177 -0.1268431 -0.32800514 0.53283674 0.29003426 -0.25271267 -0.6170913
0.20139092 0.8025463 0.47388873 -0.17714643 -0.7980417 -0.5709565 0.7426077 0.4040662
0.2909783 -0.8188211 -0.47562557 0.75238174 0.4122899 0.20536807 0.011960599 0.040818285
0.79303503 0.24704395 0.12948316 0.825025 0.50451416 -0.044393852 -0.43336013 -0.6413909
-0.5739621 -0.22484185 0.047443468 -0.26140705 -0.56898165 -0.81487405 -0.6139147 0.22473036
-0.13566932 -0.61834115 -0.7601596 -0.6187161 0.09974474 -0.31888747 -0.6969874 -0.76860696
-0.7442938 0.044446398 -0.8053766 -0.6344468 -0.3975778 -0.3559981 0.77557373 0.63503474
0.771076 0.7097081 -0.10347212 0.8386165 0.83087015 0.7996513 0.46900517 0.58075845
0.8003018 0.7147277 -0.7860856 -0.8539225 0.7835541 0.59690654 0.75017864 -0.7021954
-0.8738673 0.76571673 -0.21377128 -0.5703038 -0.72526556 -0.76054144 -0.3615288 -0.16384238
-0.25319535 0.35252044 0.13379043 -0.3882805 0.5982912 0.29042524 -0.14002632 -0.29355472
0.64266837 0.75574946 0.86505663 -0.5797959 -0.5911275 0.9017441 0.678948 0.76567096
-0.54159 -0.4998121 0.9207402 0.6732974 0.75449705 0.6771754 0.31608665 0.7300179
-0.79021263 -0.90357244 -0.68854505 -0.7684864 -0.8512865 -0.70752466 -0.86521107 -0.7250025
-0.68705016 -0.76281565 -0.8144456 -0.68037385 -0.8211946 -0.81067014 -0.5013863 -0.38989836
-0.63078666 -0.83507913 -0.7869807 -0.4234772 -0.6715131 -0.79141283 -0.8473761 -0.79387724
-0.49111867 0.79527265 0.7381091 0.7157923 0.50474006 0.6481359 0.7791729 0.86775345
0.88168323 0.872222 0.61011595 0.69554824 0.65693736 0.72990066 0.5580296 0.3181848
0.71171165 0.016260847 -0.80584174 -0.032145083 0.2262168 0.78673184 -0.7582448 -0.7037881
-0.7785503 -0.81079143 -0.31816763 -0.31888106 -0.8372636 -0.7068798 -0.16923216 0.36039507
00000000: 921e 533f c9b8 4f3f a1a6 543f 1b6f 3b3f
00000010: 28a3 363f 8b52 3c3f 0d91 463f 93cf 553f
00000020: ca55 5a3f a2ca 4a3f 8596 453f 6e21 98be
00000030: 8104 fc3e d33e 303f f72a 523f da79 3bbd
00000040: 49e5 2fbf 2a66 2fbf 61bb 133f 5345 553f
00000050: 87f7 63bf 80e6 3abf 28d3 5abf 54c5 043d
00000060: 699c 503f b618 53bf 1e6f 39bf c86e 15bf
00000070: 73be 1dbf cfd2 87be 5c01 1dbf 599b 48bf
00000080: 65b6 2fbf ab2f 6cbe f927 eb3e 4a7e b83d
00000090: d556 37bf 7388 20bf 185f 6d3e 8901 ed3e
000000a0: 53e6 4c3e 284a 2cbf 388c 00bf f978 023f
000000b0: 2b91 043f 990f 1b3e 283f 47bf 3815 25be
000000c0: d801 1d3f b2be 3e3f dc79 24bf 4671 3cbf
000000d0: a7e1 0ebf aedb 33bf befa 32bf eed5 03bf
000000e0: ead6 39bf 64dd 2bbf ef72 1bbf 76fa c7be
000000f0: a221 d0be 5cec 59bf c696 4dbf 90b5 13bf
00000100: 7a75 abbc d024 84be eebf 41bf ebeb 4cbf
00000110: c98f 7bbe 0207 c13e bb81 3dbe bd80 2abf
00000120: e7af 34bf be4e 6cbd 941c 363f 6df4 f63e
00000130: a6cb f13e c2b7 283e 6524 d4be 1914 d1bd
00000140: baa4 423f 3b5e 363f db70 0d3f bec3 3dbf
00000150: 88d8 29bf 44aa 303f f0af 5b3f 34fb 243f
00000160: 17fe 58bf e098 02bf 8667 363f cb05 373f
00000170: 271d 103f 019b debe 1ff0 0cbf 9542 1d3f
00000180: dab7 8fbe 2f59 51be 28e3 01be 4af0 a7be
00000190: fd67 083f 5f7f 943e 8e63 81be b2f9 1dbf
000001a0: 6c39 4e3e ad73 4d3f 8ba1 f23e e065 35be
000001b0: 764c 4cbf 352a 12bf 8a1b 3e3f c4e1 ce3e
000001c0: 1cfb 943e 429e 51bf 3285 f3be 179c 403f
000001d0: a917 d33e 024c 523e 63f6 433c 1331 273d
000001e0: 5804 4b3f 17f9 7c3e 3c97 043e d734 533f
000001f0: d727 013f 54d6 35bd 61e1 ddbe 3232 24bf
00000200: 2eef 12bf f13c 66be 1554 423d 25d7 85be
00000210: c8a8 11bf 969b 50bf 8429 1dbf b71f 663e
00000220: e6ec 0abe 9b4b 1ebf d299 42bf 2e64 1ebf
00000230: f846 cc3d 3845 a3be c46d 32bf 6dc3 44bf
00000240: 0a8a 3ebf 6d0d 363d 292d 4ebf 1b6b 22bf
00000250: 518f cbbe 6245 b6be 008c 463f a391 223f
00000260: 3d65 453f 6eaf 353f 31e9 d3bd 92af 563f
00000270: e8b3 543f f3b5 4c3f 7221 f03e 96ac 143f
00000280: 94e0 4c3f 65f8 363f e83c 49bf aa9a 5abf
00000290: 0097 483f dece 183f b50b 403f 14c3 33bf
000002a0: c4b5 5fbf 0306 443f dce6 5abe 6eff 11bf
000002b0: 01ab 39bf d8b2 42bf 4e1a b9be 4cc6 27be
000002c0: d2a2 81be 8f7d b43e 5c00 093e b4cc c6be
000002d0: 9d29 193f 9eb2 943e 0f63 0fbe ce4c 96be
000002e0: ea85 243f cc78 413f 5a74 5d3f 816d 14bf
000002f0: 2254 17bf b4d8 663f 89cf 2d3f 0303 443f
00000300: a4a5 0abf 5fe7 ffbe a1b5 6b3f 385d 2c3f
00000310: b826 413f 5e5b 2d3f 1cd6 a13e 74e2 3a3f
00000320: 604b 4abf 8650 67bf 7d44 30bf 86bb 44bf
00000330: e9ed 59bf 5620 35bf 797e 5dbf c499 39bf
00000340: 85e2 2fbf e347 43bf 827f 50bf fb2c 2ebf
00000350: cf39 52bf 1488 4fbf da5a 00bf c2a0 c7be
00000360: 3c7b 21bf bfc7 55bf 9177 49bf 01d2 d8be
00000370: 48e8 2bbf 089a 4abf a4ed 58bf 8a3b 4bbf
00000380: e873 fbbe fd96 4b3f b8f4 3c3f 2a3e 373f
00000390: a536 013f 3cec 253f e077 473f 1725 5e3f
000003a0: feb5 613f f149 5f3f 8f30 1c3f 730f 323f
000003b0: 0c2d 283f c5da 3a3f 07db 0e3f 1ee9 a23e
000003c0: bc32 363f 7835 853c a54b 4ebf 90aa 03bd
000003d0: 60a5 673e 4267 493f 551c 42bf 752b 34bf
000003e0: 134f 47bf 0790 4fbf dee6 a2be 6144 a3be
000003f0: e856 56bf 13f6 34bf 324b 2dbe b485 b83e

conv1.bias f4 [6]
-0.8447049 -0.7861395 -0.6966752 -0.7028588 -0.82507294 -0.84756005
00000000: 953e 58bf 7040 49bf 4e59 32bf 8eee 33bf
00000010: fb37 53bf b2f9 58bf

conv2.weight f4 [16, 6, 5, 5]
-0.7374417 -0.83443666 -0.68958277 -0.50974256 -0.48711458 -0.80790854 -0.66651344 -0.7116097
-0.74636626 -0.60286057 -0.8452247 -0.67801774 -0.73179924 -0.7274405 -0.8131879 -0.8012726
-0.6762178 -0.7268163 -0.6058389 -0.73318416 -0.7240061 -0.58362347 -0.4255801 -0.3461732
-0.5789163 -0.8310702 -0.6087829 -0.7126899 -0.7106366 -0.70911807 -0.7965712 -0.6922583
-0.7075271 -0.49431163 -0.72627825 -0.6882763 -0.7542485 -0.58701044 -0.4593523 -0.67893887
-0.7860678 -0.6565023 -0.55976355 -0.5720122 -0.68697095 -0.515529 -0.30784065 -0.29738474
-0.13553615 -0.5088911 -0.7858057 -0.73294264 -0.7694882 -0.71902037 -0.6180983 -0.7045209
-0.7440329 -0.6888272 -0.8010457 -0.7357904 -0.69615185 -0.77563393 -0.6995122 -0.7430007
-0.76251984 -0.7134505 -0.54047984 -0.7374684 -0.5537808 -0.719399 -0.43980286 -0.23314947
-0.37401062 -0.43306747 -0.54747856 -0.69663864 -0.72458816 -0.7142735 -0.6171748 -0.14332536
-0.68668246 -0.78730685 -0.82126814 -0.769647 -0.4990343 -0.6787031 -0.62125087 -0.7114395
-0.6527025 -0.7542683 -0.77312654 -0.7810551 -0.5025026 -0.65120405 -0.6921394 -0.7181076
-0.36252892 -0.44977584 -0.70673525 -0.47816598 -0.5509161 -0.75721353 0.029016383 0.36755538
0.4944452 0.24197611 0.113333896 0.3323398 0.5873373 0.7220008 -0.347424 -0.6975615
-0.73819304 -0.71337736 -0.6788915 -0.10435934 -0.44944954 -0.46004823 -0.71180755 -0.72222483
-0.6221119 -0.8369739 -0.59901035 -0.6984502 -0.32033315 -0.83483166 -0.7359823 -0.6470457
-0.09869242 -0.0450087 -0.6168235 -0.74448884 -0.6657656 -0.62148947 -0.6915694 -0.606671
-0.72645277 -0.43401036 -0.46933767 -0.30126777 -0.38979504 -0.45807356 -0.31656852 -0.42357183
-0.2111789 -0.35179406 -0.62662673 -0.4609157 -0.3311278 0.107278734 -0.30846018 -0.33365262
-0.4162654 -0.36122143 -0.37942898 -0.39463606 -0.29071814 -0.38852605 -0.30506527 -0.4156711
-0.35207364 -0.404122 -0.39631498 -0.34550035 -0.41784123 -0.41073558 -0.31036934 -0.3375775
-0.373193 -0.42532966 -0.43512568 -0.3308927 -0.43404457 -0.38886815 -0.3551984 -0.4218004
-0.40831718 -0.37795824 -0.30756646 -0.35202867 -0.4124515 -0.3900483 -0.35703337 -0.3234634
-0.38452905 -0.3464309 -0.27901113 -0.43590665 -0.42774084 -0.36993244 -0.29686475 -0.36632326
-0.30613777 -0.32767853 -0.34529623 -0.38267648 -0.33308098 -0.34665236 -0.36881623 -0.4131574
-0.38703316 -0.2928277 -0.2778727 -0.42442152 -0.2930825 -0.3881775 -0.3374761 -0.28114086
-0.4198991 -0.3766939 -0.36903763 -0.4108063 -0.29366708 -0.3806077 -0.280956 -0.36052006
-0.43493956 -0.3030578 -0.3812119 -0.36653072 -0.2884166 -0.42164317 -0.33343503 -0.42322788
-0.29614395 -0.39299503 -0.31102914 -0.37604415 -0.33781663 -0.33823633 -0.3000398 -0.41745088
-0.32299367 -0.39243773 -0.32630354 -0.40081793 -0.31841078 -0.29115254 -0.38790932 -0.43578675
-0.283763 -0.38246223 -0.42299286 -0.335014 -0.38911012 -0.29938123 -0.37670147 -0.2887515
-0.36556867 -0.42300233 -0.31748188 -0.37641227 -0.3889928 -0.2797341 -0.43207955 -0.33595473
00000000: fbc8 3cbf a49d 55bf 7f88 30bf 7d7e 02bf
00000010: 1567 f9be 18d3 4ebf a0a0 2abf 0e2c 36bf
00000020: dc11 3fbf 1255 1abf a560 58bf 9292 2dbf
00000030: 3257 3bbf 8a39 3abf 152d 50bf 3320 4dbf
00000040: 9c1c 2dbf a210 3abf 4218 1bbf f5b1 3bbf
00000050: 7758 39bf 5968 15bf a3e5 d9be 9d3d b1be
00000060: dc33 14bf 04c1 54bf 32d9 1bbf d872 36bf
00000070: 48ec 35bf c388 35bf 17ec 4bbf d737 31bf
00000080: 7f20 35bf 6a16 fdbe 5fed 39bf e032 30bf
00000090: 6e16 41bf 5146 16bf 3a30 ebbe f0ce 2dbf
000000a0: bd3b 49bf 8910 28bf aa4c 0fbf 646f 12bf
000000b0: 54dd 2fbf b5f9 03bf 4a9d 9dbe d042 98be
000000c0: fdc9 0abe b046 02bf 902a 49bf 21a2 3bbf
000000d0: 2efd 44bf b811 38bf b13b 1ebf 7b5b 34bf
000000e0: f178 3ebf fb56 30bf 5511 4dbf c25c 3cbf
000000f0: 0237 32bf f28f 46bf 3b13 33bf 4b35 3ebf
00000100: 8034 43bf b1a4 36bf e35c 0abf bbca 3cbf
00000110: 94c4 0dbf 882a 38bf d72d e1be bcbe 6ebe
00000120: 527e bfbe 05bb ddbe 8e27 0cbf e956 32bf
00000130: 9c7e 39bf a1da 36bf 2bff 1dbf e2c3 12be
00000140: 6cca 2fbf f18c 49bf a13e 52bf 9607 45bf
00000150: 6c81 ffbe 7dbf 2dbf 4c0a 1fbf e620 36bf
00000160: 8317 27bf ba17 41bf 9feb 45bf 3af3 47bf
00000170: 03a4 00bf 4fb5 26bf 0c30 31bf e6d5 37bf
00000180: 649d b9be 0549 e6be 9aec 34bf 2cd2 f4be
00000190: d608 0dbf bfd8 41bf c4b3 ed3c 3830 bc3e
000001a0: ec27 fd3e 96c8 773e 9a1b e83d 7128 aa3e
000001b0: bd5b 163f 0bd5 383f 8fe1 b1be 6493 32bf
000001c0: 38fa 3cbf e69f 36bf d5cb 2dbf 5aba d5bd
000001d0: 401e e6be 718b ebbe 0539 36bf bae3 38bf
000001e0: ba42 1fbf ec43 56bf be58 19bf a2cd 32bf
000001f0: b502 a4be 87b7 55bf 5669 3cbf c9a4 25bf
00000200: 401f cabd 0b5b 38bd 25e8 1dbf d296 3ebf
00000210: 9d6f 2abf ef19 1fbf b10a 31bf ca4e 1bbf
00000220: cff8 39bf 9b36 debe 074d f0be c53f 9abe
00000230: 3793 c7be 9e88 eabe 4515 a2be 68de d8be
00000240: 483f 58be 5a1e b4be 9c6a 20bf 25fd ebbe
00000250: 9589 a9be f4b4 db3d 7eee 9dbe 84d4 aabe
00000260: bd20 d5be 04f2 b8be 8444 c2be bd0d cabe
00000270: 02d9 94be e3ec c6be 8431 9cbe d8d2 d4be
00000280: ff42 b4be 14e9 cebe cce9 cabe 6ce5 b0be
00000290: 49ef d5be ef4b d2be bbe8 9ebe f5d6 acbe
000002a0: 2713 bfbe cfc4 d9be cbc8 debe c56a a9be
000002b0: 173b debe ba19 c7be 91dc b5be 39f6 d7be
000002c0: f30e d1be be83 c1be 5a79 9dbe 1a3d b4be
000002d0: d82c d3be 69b4 c7be 14cd b6be ff9c a5be
000002e0: fee0 c4be 645f b1be 8cda 8ebe 282f dfbe
000002f0: d900 dbbe c967 bdbe a8fe 97be b98e bbbe
00000300: 17be 9cbe 7bc5 a7be abca b0be 2cee c3be
00000310: 9789 aabe 6b7c b1be 7bd5 bcbe 5e89 d3be
00000320: 3629 c6be 83ed 95be 5545 8ebe c74d d9be
00000330: e90e 96be 34bf c6be abc9 acbe b2f1 8fbe
00000340: 04fd d6be 06de c0be 80f2 bcbe 3455 d2be
00000350: 885b 96be 03df c2be 77d9 8fbe 1696 b8be
00000360: 66b0 debe 642a 9bbe 352e c3be eaa9 bbbe
00000370: 57ab 93be 9de1 d7be ffb7 aabe 53b1 d8be
00000380: 2ea0 97be a536 c9be 363f 9fbe dc88 c0be
00000390: 4df6 acbe 502d adbe d19e 99be 1fbc d5be
000003a0: 6d5f a5be 99ed c8be 4211 a7be 0238 cdbe
000003b0: bd06 a3be f211 95be 0d9c c6be 711f dfbe
000003c0: 6249 91be 17d2 c3be 8592 d8be f486 abbe
000003d0: 7139 c7be 7f48 99be 04df c0be 3dd7 93be
000003e0: d12b bbbe c393 d8be fc8c a2be 1cb9 c0be
000003f0: 102a c7be 4f39 8fbe 8839 ddbe 4202 acbe

conv2.bias f4 [16]
0.7988451 -0.42154306 -0.36080018 0.80255944 0.6143261 0.56888527 0.7870261 0.82835156
-0.37072155 -0.35250765 -0.42025816 0.03734575 0.484393 0.7864686 -0.42350277 0.1619778
00000000: 1d81 4c3f 7ed4 d7be cdba b8be 8974 4d3f
00000010: 7a44 1d3f 77a2 113f 8b7a 493f d90e 543f
00000020: 37cf bdbe e27b b4be 142c d7be dbf7 183d
00000030: 5c02 f83e 0256 493f 5bd5 d8be 82dd 253e

fc1.weight f4 [120, 400]
-0.53260976 -0.58593196 -0.55269206 -0.4927756 -0.42580843 -0.5945025 -0.56182146 -0.6125705
-0.42892703 -0.3769213 -0.55461437 -0.5766133 -0.091971405 -0.3701542 -0.5095761 -0.60974324
-0.4682323 -0.44899982 -0.5923281 -0.63820136 -0.546684 -0.5217976 -0.16430035 0.5076059
-0.049979072 0.30717024 0.36044997 0.3973438 -0.3441819 0.33863732 -0.33261785 -0.38484135
-0.39587104 -0.3987602 0.359489 -0.35041672 -0.3839991 -0.37089154 -0.3905975 0.37299594
0.37920246 0.34010357 -0.318809 -0.3413695 -0.32373297 -0.3879269 -0.32702738 -0.36291042
0.34503114 -0.4052147 -0.34167767 -0.34696022 -0.33462706 -0.3900158 -0.38284352 -0.4020111
-0.32339177 -0.3522553 0.39508063 -0.33992317 -0.3363982 -0.37624934 -0.3743575 -0.34253752
-0.40523183 0.38157842 -0.33569112 -0.35572737 -0.3264612 -0.32357404 -0.329159 -0.37568817
-0.33134466 -0.35926554 -0.32587528 -0.6102943 -0.20394912 -0.28783372 -0.63248324 -0.46868494
-0.61144304 -0.2394021 -0.4695068 -0.55421805 -0.58532906 -0.6021617 0.07577568 0.2338545
-0.3490608 0.12202513 -0.6166128 -0.33421436 -0.16714112 -0.5058385 -0.17984481 -0.45529065
-0.43814698 -0.39822498 -0.3188122 -0.5903464 -0.47531867 -0.5073444 -0.44913158 -0.34005588
-0.41712797 -0.24746643 -0.41479945 0.030869484 -0.40034044 -0.4279094 -0.42030674 -0.406176
-0.18781924 -0.5198652 -0.43306634 -0.3299392 -0.6107914 -0.4936053 -0.27495348 -0.33765727
-0.35486892 0.3190023 0.06649393 -0.47630125 -0.42977312 -0.52265155 -0.36338454 -0.4379185
-0.15465479 -0.54117024 -0.32893586 -0.60185003 -0.52562845 -0.5166235 -0.50012505 -0.17687106
-0.15206307 -0.46333283 -0.6010381 -0.52477026 -0.2282536 -0.020829244 -0.5557402 -0.56413895
-0.6368108 -0.55068034 -0.25566417 -0.35437438 -0.56230396 -0.58241343 -0.360803 -0.5202344
-0.28460288 -0.43742156 -0.5086519 -0.46172506 -0.18231016 -0.5323025 -0.60264456 -0.4840952
-0.51767623 -0.28248385 -0.3837457 0.13498527 -0.59509856 -0.28182644 -0.55425227 -0.5360204
-0.5534226 -0.41329196 -0.42555767 -0.46009466 -0.19023952 -0.17016393 -0.4454031 -0.4557545
-0.33517677 -0.3913609 -0.3575536 -0.32210267 -0.49830562 -0.45648247 -0.50370586 -0.50791824
-0.52835923 -0.60547704 0.6343223 -0.535314 -0.59530604 -0.62700516 -0.47973663 -0.15699035
-0.41695833 -0.2395686 -0.5108392 -0.55580205 -0.20428428 -0.1707012 -0.5112182 -0.4745854
-0.34169707 -0.31688517 -0.35234946 -0.33586937 -0.37754172 -0.38532478 -0.3772826 -0.3102811
-0.31422532 -0.3592663 -0.34469154 -0.33078432 -0.3312424 -0.33973995 -0.40426782 0.37458888
-0.3844112 -0.40319744 -0.33660877 -0.3122007 -0.38473004 -0.33968052 -0.39480567 -0.3137023
-0.31039047 -0.36318457 -0.40433556 -0.40079203 -0.32751653 -0.35133052 -0.37689525 -0.37342903
0.40343362 -0.30908078 -0.31662527 -0.37711483 -0.39336622 -0.39466462 -0.30695438 -0.3447549
-0.35287204 0.3655883 -0.38916916 -0.37237206 -0.3746942 -0.31125858 -0.33340687 -0.34433603
-0.34237432 -0.4039108 -0.37089947 0.36132866 -0.35666764 -0.37733844 -0.3357941 -0.35837093
00000000: 1d59 08bf a3ff 15bf 3a7d 0dbf 154d fcbe
00000010: 9003 dabe 5131 18bf 88d3 0fbf 6cd1 1cbf
00000020: 539c dbbe d4fb c0be 35fb 0dbf ee9c 13bf
00000030: 815b bcbd da84 bdbe 9473 02bf 2218 1cbf
00000040: 25bc efbe 4ee3 e5be d0a2 17bf 2a61 23bf
00000050: 7cf3 0bbf 8794 05bf 5a3e 28be 76f2 013f
00000060: dbb6 4cbd 6b45 9d3e e68c b83e a670 cb3e
00000070: 9c38 b0be df61 ad3e e34c aabe ed09 c5be
00000080: 9caf cabe 4c2a ccbe f10e b83e d269 b3be
00000090: 889b c4be 7fe5 bdbe 65fc c7be 53f9 be3e
000000a0: d326 c23e 0e22 ae3e ef3a a3be fcc7 aebe
000000b0: 54c0 a5be 5b9e c6be 2270 a7be 65cf b9be
000000c0: eca7 b03e 4d78 cfbe 60f0 aebe c5a4 b1be
000000d0: 3d54 abbe 27b0 c7be 1104 c4be 66d4 cdbe
000000e0: 9b93 a5be cf5a b4be 0248 ca3e 690a aebe
000000f0: 633c acbe c1a3 c0be c9ab bfbe 1461 afbe
00000100: 8c7a cfbe 3f5e c33e b5df abbe e621 b6be
00000110: ec25 a7be 7fab a5be 8787 a8be 335a c0be
00000120: 02a6 a9be a7f1 b7be 20d9 a6be 3f3c 1cbf
00000130: 0ad8 50be f15e 93be 6cea 21bf 79f7 efbe
00000140: 8887 1cbf d325 75be 3263 f0be 3ce1 0dbf
00000150: 20d8 15bf 4527 1abf 4830 9b3d 8e77 6f3e
00000160: 19b8 b2be 50e8 f93d 56da 1dbf 251e abbe
00000170: 0b27 2bbe a27e 01bf 3d29 38be db1b e9be
00000180: cd54 e0be 25e4 cbbe 5a3b a3be f120 17bf
00000190: f85c f3be 53e1 01bf 93f4 e5be ce1b aebe
000001a0: cc91 d5be d767 7dbe 9860 d4be 00e2 fc3c
000001b0: 6cf9 ccbe f116 dbbe 7232 d7be 4df6 cfbe
000001c0: b053 40be e315 05bf dfba ddbe caed a8be
000001d0: d35c 1cbf d5b9 fcbe b4c6 8cbe 6ae1 acbe
000001e0: 61b1 b5be 4554 a33e f82d 883d c2dd f3be
000001f0: 390b dcbe 7ecc 05bf 8a0d babe db36 e0be
00000200: d35d 1ebe 228a 0abf 486a a8be d812 1abf
00000210: 968f 06bf 7041 04bf 3208 00bf b01d 35be
00000220: 6cb6 1bbe f639 edbe a2dd 19bf 5857 06bf
00000230: 50bb 69be 17a2 aabc fd44 0ebf 696b 10bf
00000240: 0806 23bf 63f9 0cbf 6ae6 82be 8f70 b5be
00000250: 27f3 0fbf 0c19 15bf 2cbb b8be 152e 05bf
00000260: 78b7 91be b8f5 dfbe 0337 02bf 3a67 ecbe
00000270: 84af 3abe fa44 08bf ea46 1abf 53db f7be
00000280: 6e86 04bf b9a1 90be 517a c4be 9439 0a3e
00000290: 6158 18bf 8e4b 90be 7ae3 0dbf a238 09bf
000002a0: 1aad 0dbf 019b d3be b2e2 d9be 8791 ebbe
000002b0: 26ce 42be 743f 2ebe e00b e4be a758 e9be
000002c0: 4a9c abbe 7560 c8be 4411 b7be a4ea a4be
000002d0: ea21 ffbe 12b8 e9be def2 00bf ee06 02bf
000002e0: 8d42 07bf 8b00 1bbf f262 223f 570a 09bf
000002f0: fa65 18bf 6983 20bf 0aa0 f5be 14c2 20be
00000300: 907b d5be 7951 75be 5cc6 02bf 0b49 0ebf
00000310: e62f 51be 4ccc 2ebe 32df 02bf dcfc f2be
00000320: ebf2 aebe c63e a2be 2667 b4be 12f7 abbe
00000330: 264d c1be 4a49 c5be 2f2b c1be 2add 9ebe
00000340: 24e2 a0be c1f1 b7be 697b b0be 905c a9be
00000350: 9b98 a9be 65f2 adbe 31fc cebe 1dca bf3e
00000360: 8bd1 c4be e56f cebe fc57 acbe c5d8 9fbe
00000370: 56fb c4be 9bea adbe f823 cabe 969d a0be
00000380: 80eb 9ebe 54f3 b9be 1205 cfbe 9d34 cdbe
00000390: 3fb0 a7be 98e1 b3be 6af8 c0be 1732 bfbe
000003a0: da8e ce3e d63f 9ebe b51c a2be 3215 c1be
000003b0: 4c67 c9be 7b11 cabe 2029 9dbe b783 b0be
000003c0: a5ab b4be 642e bb3e 2e41 c7be 8da7 bebe
000003d0: ebd7 bfbe 495d 9fbe 4eb4 aabe d04c b0be
000003e0: b04b afbe 65cd cebe 89e6 bdbe 1200 b93e
000003f0: 249d b6be 8132 c1be 34ed abbe 657c b7be

fc1.bias f4 [120]
-0.59216744 -0.7382625 -0.74976885 -0.64275336 -0.63983464 -0.65310144 -0.36369428 -0.6096781
-0.701903 -0.6779939 -0.8264755 -0.7412602 -0.67585015 -0.7469532 -0.71085757 -0.76317865
-0.5306994 -0.7040214 -0.74719185 -0.6559162 -0.7796142 -0.6080302 -0.6775745 -0.6429666
-0.6587341 -0.71951395 -0.7318295 -0.7288473 -0.72366214 -0.72384846 -0.3560953 0.7305543
-0.48844415 -0.5049769 -0.6818831 -0.76818943 -0.7570612 -0.6617738 -0.61945665 -0.5956515
-0.73527 -0.70325667 -0.66239494 -0.67251873 -0.7634237 -0.68966913 -0.66649383 -0.7279044
-0.79372346 -0.7416374 -0.67867833 -0.69576716 -0.6783299 -0.62612426 -0.17327537 -0.7571525
-0.80525863 -0.7349844 -0.7071469 -0.6663969 -0.6811069 -0.73332703 -0.6894223 -0.7011119
-0.29202622 -0.8126775 -0.68837804 -0.66720504 -0.6936804 -0.58669484 -0.6649862 0.60569155
-0.69215703 -0.555479 -0.64463514 -0.59885573 -0.67818093 -0.6175041 -0.5775334 -0.83656764
-0.6523278 -0.7610129 -0.6644795 -0.66815096 -0.7408291 -0.68461883 -0.67028826 -0.65528595
-0.6926457 -0.73191696 -0.6614648 -0.5667206 -0.6871045 -0.77705413 -0.7397588 -0.650433
-0.6477457 -0.68714845 -0.6518783 -0.6664764 -0.62517464 -0.73507404 -0.6752886 -0.380144
-0.7199743 -0.7293735 -0.71567214 -0.53750455 -0.58097535 -0.49834535 -0.76516336 -0.6663112
-0.7222269 -0.6581505 -0.77534807 -0.5109327 -0.68810344 -0.649946 -0.8123275 -0.82856756
00000000: 4998 17bf c5fe 3cbf daf0 3fbf 7c8b 24bf
00000010: 34cc 23bf a831 27bf 2336 babe dd13 1cbf
00000020: eaaf 33bf 0291 2dbf e693 53bf 3ac3 3dbf
00000030: 8404 2dbf 5338 3fbf c3fa 35bf ad5f 43bf
00000040: eadb 07bf bf3a 34bf f747 3fbf 20ea 27bf
00000050: cc94 47bf dea7 1bbf 8675 2dbf 7699 24bf
00000060: cca2 28bf 1132 38bf 2e59 3bbf bd95 3abf
00000070: ec41 39bf 224e 39bf 2052 b6be 9b05 3b3f
00000080: 5a15 fabe 2b46 01bf e48f 2ebf 10a8 44bf
00000090: c3ce 41bf 026a 29bf b694 1ebf 9e7c 18bf
000000a0: a83a 3cbf a108 34bf b792 29bf 302a 2cbf
000000b0: bc6f 43bf 288e 30bf 579f 2abf f157 3abf
000000c0: 7631 4bbf f3db 3dbf ddbd 2dbf cc1d 32bf
000000d0: 07a7 2dbf ae49 20bf 196f 31be bfd4 41bf
000000e0: 6e25 4ebf f027 3cbf 9407 35bf fd98 2abf
000000f0: 065d 2ebf 52bb 3bbf fb7d 30bf 127c 33bf
00000100: 7684 95be a20b 50bf 8b39 30bf f3cd 2abf
00000110: 0a95 31bf a231 16bf 893c 2abf 9a0e 1b3f
00000120: 3431 31bf df33 0ebf cf06 25bf 9c4e 19bf
00000130: 449d 2dbf c014 1ebf 3bd9 13bf 4c29 56bf
00000140: f4fe 26bf bed1 42bf 541b 2abf f10b 2bbf
00000150: faa6 3dbf 2e43 2fbf 0398 2bbf d2c0 27bf
00000160: 3b51 31bf e95e 3bbf c255 29bf 9a14 11bf
00000170: 15e6 2fbf 05ed 46bf d560 3dbf c782 26bf
00000180: aad2 25bf f6e8 2fbf 7fe1 26bf 339e 2abf
00000190: 720b 20bf d02d 3cbf b7df 2cbf 3ca2 c2be
000001a0: 3c50 38bf 39b8 3abf 4a36 37bf e699 09bf
000001b0: cdba 14bf 1f27 ffbe bfe1 43bf 5f93 2abf
000001c0: dde3 38bf 8d7c 28bf 367d 46bf 7ccc 02bf
000001d0: 8c27 30bf dc62 26bf b2f4 4fbf 011d 54bf

fc2.weight f4 [84, 120]
-0.08092852 -0.2213457 -0.20677175 0.26333278 -0.026096161 0.00488359 -0.16909957 -0.41451955
-0.49915868 0.32630014 -0.6841998 -0.18459706 -0.10376628 0.045804888 -0.4169369 -0.23966797
-0.57266146 -0.18622392 -0.23825136 -0.1941572 -0.7527946 -0.03571461 -0.52530706 -0.28879288
0.0684762 -0.59064484 -0.47630334 -0.5302943 -0.04253514 -0.42588365 -0.662616 -0.691691
-0.13562179 -0.26492816 -0.30870998 -0.1623999 -0.58525074 -0.4321654 0.21100156 -0.0981718
-0.31256655 0.0755669 0.5318021 -0.44254524 -0.34706876 0.0054675844 -0.020041421 0.3784495
-0.6484997 -0.23253351 0.28388652 0.19114837 -0.69904333 -0.40577832 -0.18361887 0.059465036
-0.66565955 -0.33432314 0.45462346 -0.461433 -0.488215 0.12037709 -0.28445396 0.13101079
-0.4725614 -0.4302038 -0.44672456 -0.06544535 -0.533416 -0.5315536 0.43389183 -0.45640856
-0.6215493 -0.41020623 -0.4878596 -0.27964398 -0.08529526 0.07521232 -0.44139072 -0.5667607
-0.3091643 -0.4247131 -0.4327513 0.47920045 -0.27374545 -0.30654603 -0.33285475 -0.3775961
0.13708344 -0.054828376 -0.5834675 -0.45125026 -0.27614245 -0.4564181 -0.029803047 -0.33712587
-0.07036866 0.13369875 -0.32973406 0.4764842 -0.48045313 -0.117656894 0.06973059 -0.38675883
-0.282547 0.6968755 -0.1653665 -0.20679012 -0.6140673 -0.10436179 0.015897958 -0.037418112
-0.09354376 -0.17520408 -0.6073767 -0.080432564 -0.17833531 -0.1831533 -0.58072644 -0.8532934
0.046444707 -0.22225705 -0.48045212 -0.30937755 0.2978435 -0.42820436 -0.596341 -0.5062496
-0.32358965 -0.43306983 -0.68267375 -0.5295367 -0.28206706 -0.49211302 -0.44885442 -0.49715257
-0.35057956 -0.33261445 -0.49077958 -0.20792261 -0.69502574 -0.48603418 -0.3739887 -0.56917834
-0.46733865 -0.22081684 -0.537274 -0.3742516 -0.32610506 -0.31257117 -0.51088595 -0.62762046
-0.60612154 -0.4117661 -0.31426835 -0.5057656 -0.35128954 -0.21703269 -0.35694465 -0.35693288
0.43343788 -0.5545345 -0.00513494 0.15624094 -0.30146393 -0.4133901 -0.16635713 0.17980088
-0.4227724 -0.424223 -0.6188924 -0.39653042 -0.4464943 -0.3571013 -0.6227949 -0.47387934
-0.5928313 -0.5624348 -0.20911 -0.50358 0.36086148 -0.039198063 -0.52598506 -0.5281321
-0.17051955 -0.38006902 -0.28973365 -0.3144324 -0.22814886 -0.5807847 -0.24975204 0.018477805
-0.55720097 -0.42888108 -0.34739664 -0.5793501 -0.28773037 -0.24637671 -0.53523314 -0.2997908
0.35909548 -0.2293601 -0.14827013 -0.27292258 0.06845103 0.06371255 -0.5884147 0.0563127
0.087893866 -0.4396959 -0.49083117 -0.13960037 -0.2973337 -0.2785459 -0.030110424 -0.5857544
-0.28324828 -0.15805422 -0.33500934 -0.10254948 -0.24081281 -0.46672767 -0.2689995 -0.25057003
-0.24360204 -0.6490047 -0.2583998 -0.031882226 -0.6595607 -0.48063043 -0.3542264 -0.30994326
-0.45066792 -0.26908985 -0.5673243 -0.42155367 -0.3707919 -0.01700429 -0.71990424 -0.68227303
-0.42533875 -0.4264835 -0.42278892 0.062303998 -0.382095 -0.34802973 -0.38981614 -0.43181473
-0.36256403 -0.23446855 -0.41440466 -0.33606365 -0.44829145 -0.18623292 -0.26645645 -0.34720093
00000000: dabd a5bd 72a8 62be f9bb 53be 8ed3 863e
00000010: 9ec7 d5bc 8606 a03b 7028 2dbe e83b d4be
00000020: ba91 ffbe d010 a73e b827 2fbf 0307 3dbe
00000030: 6a83 d4bd e89d 3b3d c178 d5be 856b 75be
00000040: f199 12bf 7cb1 3ebe 2af8 73be 25d1 46be
00000050: 26b7 40bf 7c49 12bd 867a 06bf a9dc 93be
00000060: 403d 8c3d 8034 17bf 08de f3be 5ec1 07bf
00000070: 5439 2ebd 6c0d dabe 34a1 29bf a912 31bf
00000080: 70e0 0abe aaa4 87be 3c0f 9ebe 294c 26be
00000090: fed2 15bf c944 ddbe cb10 583e 4c0e c9bd
000000a0: b908 a0be d2c2 9a3d 2f24 083f 4a95 e2be
000000b0: ffb2 b1be 6c29 b33b e82d a4bc 22c4 c13e
000000c0: 1404 26bf 441d 6ebe 9359 913e 66bc 433e
000000d0: 81f4 32bf 2dc2 cfbe 9606 3cbe 9c91 733d
000000e0: aa68 2abf 672c abbe 68c4 e83e f240 ecbe
000000f0: 51f7 f9be 4488 f63d f3a3 91be b127 063e
00000100: 91f3 f1be ac43 dcbe 15b9 e4be 3608 86bd
00000110: f38d 08bf e613 08bf 1227 de3e 62ae e9be
00000120: db1d 1fbf 8d06 d2be bcc8 f9be 7f2d 8fbe
00000130: 48af aebd eb08 9a3d f7fd e1be 3b17 11bf
00000140: c84a 9ebe ff73 d9be 9491 ddbe c359 f53e
00000150: 5d28 8cbe 9af3 9cbe f06b aabe 4754 c1be
00000160: 9a5f 0c3e b893 60bd 205e 15bf 460a e7be
00000170: 8b62 8dbe a2af e9be 8525 f4bc c39b acbe
00000180: 721d 90bd 53e8 083e e7d2 a8be bdf5 f33e
00000190: f4fd f5be 19f6 f0bd e9ce 8e3d 4105 c6be
000001a0: 00aa 90be 6f66 323f d655 29be cac0 53be
000001b0: 8433 1dbf a2bb d5bd 6f3c 823c bc43 19bd
000001c0: df93 bfbd b368 33be 0a7d 1bbf d4b9 a4bd
000001d0: 889d 36be 8a8c 3bbe 7daa 14bf 7071 5abf
000001e0: ce3c 3e3d 5a97 63be d2fd f5be bc66 9ebe
000001f0: f17e 983e 9a3d dbbe cea9 18bf 9399 01bf
00000200: 8bad a5be 54bb ddbe b5c3 2ebf b88f 07bf
00000210: 186b 90be 3df6 fbbe 3fd0 e5be c88a febe
00000220: 2a7f b3be 714c aabe 7647 fbbe aae9 54be
00000230: 35ed 31bf 79d9 f8be 727b bfbe acb5 11bf
00000240: 0347 efbe cf1d 62be ca8a 09bf e89d bfbe
00000250: 3ef7 a6be 5409 a0be 6cc9 02bf bcab 20bf
00000260: c82a 1bbf 02d3 d2be c8e7 a0be db79 01bf
00000270: 39dc b3be d13d 5ebe 73c1 b6be e8bf b6be
00000280: 92eb dd3e f9f5 0dbf 0043 a8bb a0fd 1f3e
00000290: 7b59 9abe dea7 d3be 8659 2abe b91d 383e
000002a0: a075 d8be c233 d9be bb6f 1ebf 0906 cbbe
000002b0: e79a e4be fbd5 b6be 7d6f 1fbf 50a0 f2be
000002c0: cbc3 17bf bafb 0fbf ef20 56be 9eea 00bf
000002d0: d6c2 b83e 268e 20bd f5a6 06bf aa33 07bf
000002e0: ad9c 2ebe 6898 c2be f857 94be 49fd a0be
000002f0: db9f 69be 4eae 14bf 00bf 7fbe c45e 973c
00000300: b9a4 0ebf 4d96 dbbe f9dd b1be 4a50 14bf
00000310: 6551 93be 2d4a 7cbe 0a05 09bf 2e7e 99be
00000320: 5ddb b73e 60dd 6abe 20d4 17be 82bc 8bbe
00000330: 0e30 8c3d ba7b 823d 59a2 16bf 25a8 663d
00000340: b301 b43d d21f e1be 394e fbbe 66f3 0ebe
00000350: 1f3c 98be 919d 8ebe 23aa f6bc 00f4 15bf
00000360: eb05 91be f7d8 21be 5886 abbe 7605 d2bd
00000370: a297 76be eef6 eebe 4dba 89be b74a 80be
00000380: d072 79be 2c25 26bf fb4c 84be f096 02bd
00000390: f8d8 28bf 3115 f6be 2a5d b5be e2b0 9ebe
000003a0: f2bd e6be 25c6 89be 2a3c 11bf e2d5 d7be
000003b0: 70d8 bdbe 954c 8bbc a54b 38bf 72a9 2ebf
000003c0: 00c6 d9be 0c5c dabe ca77 d8be 7a32 7f3d
000003d0: f5a1 c3be f430 b2be fb95 c7be d216 ddbe
000003e0: fea1 b9be 8618 70be d92c d4be 8910 acbe
000003f0: 7586 e5be d8b3 3ebe fb6c 88be 52c4 b1be

fc2.bias f4 [84]
-0.71963835 -0.7678761 -0.55353314 -0.5841905 -0.80813074 -0.65922606 -0.55912864 -0.571602
-0.5840987 -0.71686155 -0.6037248 0.66164345 -0.6412037 -0.8266216 -0.7432147 -0.7263537
-0.7429998 0.60572857 -0.6834194 -0.7277746 -0.5437276 -0.73858345 -0.71579957 -0.80764407
-0.6817038 -0.6442483 -0.6636016 0.68632436 0.8335528 -0.63115066 -0.7935561 0.5650077
-0.7005724 -0.5705198 -0.7677723 -0.764553 -0.76276386 -0.66965747 -0.8385467 -0.6631505
-0.8165251 -0.670497 -0.6995757 -0.6631842 -0.7367677 -0.5678605 -0.8743844 -0.7482495
-0.6314594 0.71518546 -0.8945918 -0.6391756 0.65409935 0.80102956 -0.74326146 -0.7324251
-0.72960067 -0.8163873 0.6025463 0.64190584 -0.7034558 -0.7331608 -0.759515 -0.6358423
-0.69926584 -0.67880756 -0.7356459 -0.73922855 -0.6628227 -0.62663025 -0.76154435 -0.75640744
-0.5819272 -0.79506636 0.66872686 -0.7285245 -0.6461548 -0.51971257 0.74906695 -0.67246175
0.7077057 0.6768861 -0.78904325 -0.79438615
00000000: 383a 38bf 8793 44bf 59b4 0dbf 828d 15bf
00000010: a8e1 4ebf 0ac3 28bf 0e23 0fbf 8254 12bf
00000020: 7e87 15bf 3d84 37bf b58d 1abf 7761 293f
00000030: ed25 24bf 799d 53bf 5243 3ebf 51f2 39bf
00000040: 3c35 3ebf 0711 1b3f 93f4 2ebf 704f 3abf
00000050: bb31 0bbf ce13 3dbf a43e 37bf c3c1 4ebf
00000060: 2484 2ebf 75ed 24bf cbe1 29bf f4b2 2f3f
00000070: b763 553f 1793 21bf 7e26 4bbf 58a4 103f
00000080: b658 33bf 960d 12bf ba8c 44bf bfb9 43bf
00000090: 7e44 43bf ac6e 2bbf ffaa 56bf 3bc4 29bf
000000a0: ca07 51bf b1a5 2bbf 6517 33bf 71c6 29bf
000000b0: cf9c 3cbf 4e5f 11bf a8d7 5fbf 478d 3fbf
000000c0: 53a7 21bf 6516 373f f803 65bf 03a1 23bf
000000d0: 0e73 273f 4610 4d3f 6246 3ebf 3680 3bbf
000000e0: 1cc7 3abf c2fe 50bf 7940 1a3f f153 243f
000000f0: ae15 34bf 6db0 3bbf 936f 42bf 90c6 22bf
00000100: 1603 33bf 55c6 2dbf 4a53 3cbf 153e 3dbf
00000110: c0ae 29bf d76a 20bf 92f4 42bf eba3 41bf
00000120: 2ef9 14bf 7889 4bbf af31 2b3f 9580 3abf
00000130: 676a 25bf e20b 05bf dac2 3f3f 7426 2cbf
00000140: 332c 353f 6848 2d3f bdfe 49bf e45c 4bbf

fc3.weight f4 [10, 84]
-0.7225758 -0.76768917 -0.18883877 -0.8313621 -0.68002874 -0.76133496 -0.56729394 -0.7275299
-0.804911 -0.59723663 -0.83154106 -0.6680971 -0.86206996 -0.80364364 -0.68692315 -0.6778756
-0.71692187 -0.4618578 -0.6674795 -0.7303207 -0.8996247 -0.5726255 -0.8649029 -0.8451044
-0.7086777 -0.76199627 -0.39188188 -0.33354312 -0.63612014 0.4988768 -0.5784339 -0.21194032
-0.75178504 -0.65770537 -0.70115066 -0.7838694 -0.81034994 -0.7307655 -0.705163 -0.7510966
-0.14608495 -0.8559698 -0.7594338 -0.74726015 -0.74253654 -0.7147582 0.07680209 -0.8275616
-0.57099295 -0.30958137 -0.7617273 -0.7483347 -0.43277958 -0.20238706 -0.8781298 -0.7612827
-0.7759042 -0.82271165 -0.26082906 -0.662966 -0.8350191 -0.8592739 -0.79513866 -0.6714395
-0.88201535 -0.76703566 -0.78689677 -0.8558461 -0.7776352 -0.77638435 -0.68932635 -0.7078182
-0.63169163 -0.89747 -0.51051396 -0.56374186 -0.6311937 -0.5587882 -0.7072215 -0.6760096
-0.52184665 -0.26090437 -0.84930724 -0.72466576 -0.8467963 -0.7343418 -0.12216577 -0.6961944
-0.6793099 -0.47972548 -0.660284 -0.8282595 -0.89063257 -0.67609376 -0.888861 -0.18192941
-0.8770658 -0.85925347 -0.82299197 -0.7555822 -0.7614511 -0.17906365 -0.7417423 -0.7397438
-0.8656009 -0.7125194 -0.8989038 -0.72700197 -0.77413094 -0.8164135 -0.41849416 -0.15884787
-0.6190965 -0.86501884 -0.5087652 -0.07264023 -0.8109307 -0.48344395 -0.8797431 -0.8070172
-0.70010066 -0.82254356 -0.8431683 -0.71046984 0.35975495 -0.69359404 -0.81469333 -0.68719923
-0.8492911 -0.7177643 0.105661556 -0.84575784 -0.6089117 -0.17456886 -0.7667865 -0.8623466
-0.065656066 -0.60230464 -0.6712814 -0.86285925 -0.76424336 -0.7067595 0.009209715 -0.37169164
-0.7543074 -0.8325273 -0.6924089 -0.7510252 -0.8481608 -0.7684027 -0.7597977 -0.6983317
-0.823879 -0.87186414 -0.8754192 -0.72240084 -0.77006894 -0.7435881 -0.737564 -0.71912646
-0.72065425 -0.68650573 -0.63821477 -0.685963 -0.14703447 -0.13054466 -0.82738155 -0.8056286
-0.84530956 -0.7766244 -0.23017734 -0.63390785 -0.83666307 -0.7947081 -0.44313735 -0.7814108
-0.6509967 -0.56647 -0.7419134 -0.44111648 -0.7693212 -0.88906556 -0.6791653 -0.8639333
-0.8903343 0.2430898 -0.8485604 -0.7520532 -0.81528896 -0.7278935 -0.74108285 -0.86062044
-0.8664678 -0.7238586 -0.50726587 -0.25900853 -0.25704247 0.036753505 -0.7004491 -0.28998467
-0.6598126 -0.73975724 -0.8169522 -0.75514215 -0.8218729 -0.69134307 -0.70967627 -0.7993518
-0.8402722 -0.78411627 -0.74577373 -0.6465363 -0.5105477 -0.85895395 -0.72127986 -0.7878136
-0.38355204 -0.326074 -0.8759966 -0.66012573 0.025272392 -0.25449744 -0.92367727 -0.7664337
-0.82010007 -0.73280364 -0.04126779 -0.023219159 -0.7401942 -0.7718829 -0.7684346 -0.7568851
-0.82149315 -0.6650294 -0.7090169 -0.76319164 -0.72867084 -0.6901185 -0.8341191 -0.88073134
-0.7332558 -0.92975444 -0.088309206 -0.91073143 -0.7817774 -0.62897295 -0.6564343 -0.6376205
-0.34315324 -0.32624894 -0.7738572 -0.81839556 -0.681414 -0.8641609 -0.08403667 -0.79442126
00000000: bafa 38bf 4787 44bf f35e 41be 26d4 54bf
00000010: 5d16 2ebf d9e6 42bf 2d3a 11bf 663f 3abf
00000020: a60e 4ebf 80e4 18bf e0df 54bf 6908 2bbf
00000030: 9eb0 5cbf 97bb 4dbf 32da 2fbf 4189 2dbf
00000040: 3188 37bf a078 ecbe f0df 2abf 4cf6 3abf
00000050: ce4d 66bf 9697 12bf 476a 5dbf c358 58bf
00000060: e76b 35bf 3012 43bf bea4 c8be 2ac6 aabe
00000070: c5d8 22bf c86c ff3e 3e14 14bf e206 59be
00000080: fc74 40bf 615f 28bf 9c7e 33bf aaab 48bf
00000090: 1873 4fbf 7313 3bbf 9085 34bf de47 40bf
000000a0: 4b97 15be d620 5bbf 416a 42bf 714c 3fbf
000000b0: e016 3ebf 65fa 36bf 6a4a 9d3d 14db 53bf
000000c0: 982c 12bf 7381 9ebe 8f00 43bf dd92 3fbf
000000d0: 4995 ddbe 8e3e 4fbe 1dcd 60bf 6ce3 42bf
000000e0: a8a1 46bf 3b9d 52bf 638b 85be 24b8 29bf
000000f0: d0c3 55bf 60f9 5bbf 358e 4bbf 76e3 2bbf
00000100: c2cb 61bf 735c 44bf 1172 49bf bb18 5bbf
00000110: 1a13 47bf 20c1 46bf b177 30bf 9333 35bf
00000120: 8bb6 21bf 98c0 65bf 0bb1 02bf 6351 10bf
00000130: e995 21bf be0c 0fbf 780c 35bf f70e 2dbf
00000140: be97 05bf 4295 85be 336c 59bf b283 39bf
00000150: a4c7 58bf d3fd 3bbf 0c32 fabd cc39 32bf
00000160: 41e7 2dbf 949e f5be 5f08 29bf d108 54bf
00000170: 7f00 64bf 7b14 2dbf 658c 63bf b44b 3abe
00000180: 6287 60bf 09f8 5bbf 9aaf 52bf d66d 41bf
00000190: 76ee 42bf 765c 37be d3e2 3dbf da5f 3dbf
000001a0: 0598 5dbf ac67 36bf 8f1e 66bf cd1c 3abf
000001b0: 722d 46bf 7a00 51bf de44 d6be 04a9 22be
000001c0: 1c7d 1ebf e071 5dbf 703e 02bf 67c4 94bd
000001d0: 2899 4fbf f785 f7be d836 61bf ae98 4ebf
000001e0: cc39 33bf 3792 52bf e1d9 57bf 5ae1 35bf
000001f0: cd31 b83e 618f 31bf be8f 50bf 4aec 2fbf
00000200: 246b 59bf 67bf 37bf 1665 d83d 9683 58bf
00000210: a3e1 1bbf 2ec2 32be 1f4c 44bf bfc2 5cbf
00000220: b076 86bd a330 1abf 19d9 2bbf 58e4 5cbf
00000230: 74a5 43bf 31ee 34bf 58e4 163c 5e4e bebe
00000240: 4a1a 41bf 8220 55bf b641 31bf 3043 40bf
00000250: 1121 59bf 0ab6 44bf 1a82 42bf dec5 32bf
00000260: bce9 52bf 7d32 5fbf 791b 60bf 43ef 38bf
00000270: 3d23 45bf ca5b 3ebf ffd0 3cbf ac18 38bf
00000280: cc7c 38bf d7be 2fbf 0b62 23bf 459b 2fbf
00000290: 3490 16be 80ad 05be 47cf 53bf ad3d 4ebf
000002a0: 3566 58bf dbd0 46bf 9cb3 6bbe c947 22bf
000002b0: 8d2f 56bf fd71 4bbf e6e2 e2be 8a0a 48bf
000002c0: b8a7 26bf 2e04 11bf 09ee 3dbf 05da e1be
000002d0: 3cf2 44bf cd99 63bf c7dd 2dbf bc2a 5dbf
000002e0: f3ec 63bf 88ec 783e 413b 59bf 8f86 40bf
000002f0: c7b6 50bf 3a57 3abf 9bb7 3dbf 9f51 5cbf
00000300: d5d0 5dbf cc4e 39bf 2ddc 01bf c49c 84be
00000310: 129b 83be d88a 163d a250 33bf df78 94be
00000320: 7be9 28bf bb60 3dbf c823 51bf ff50 41bf
00000330: 4366 52bf dcfb 30bf 58ad 35bf 52a2 4cbf
00000340: 141c 57bf d8bb 48bf 07eb 3ebf 6783 25bf
00000350: 41b3 02bf 68e4 5bbf cca5 38bf 27ae 49bf
00000360: ef60 c4be 2cf3 a6be 5041 60bf 00fe 28bf
00000370: 0c08 cf3c 7d4d 82be 1d76 6cbf 0035 44bf
00000380: 14f2 51bf 0599 3bbf 6a08 29bd 1b36 bebc
00000390: 5e7d 3dbf 1e9a 45bf 21b8 44bf 39c3 41bf
000003a0: 604d 52bf 5e3f 2abf 2282 35bf 8760 43bf
000003b0: 2c8a 3abf 9bab 30bf d488 55bf 9c77 61bf
000003c0: a7b6 3bbf 6304 6ebf 75db b4bd b225 69bf
000003d0: 9022 48bf 5f04 21bf 140c 28bf 193b 23bf
000003e0: c8b1 afbe 1a0a a7be 811b 46bf 5f82 51bf
000003f0: 2671 2ebf a639 5dbf 6b1b acbd 315f 4bbf

fc3.bias f4 [10]
-0.81753886 -0.7315979 0.7692917 0.8205339 0.7766923 0.64224553 0.6752144 0.39869124
-0.67658645 -0.735494
00000000: 3a4a 51bf 004a 3bbf 4df0 443f 820e 523f
00000010: 4ed5 463f 346a 243f dada 2c3f 4221 cc3e
00000020: c534 2dbf 5649 3cbf
