FL/cnn-img/outputs/2025-03-18/18-20-35/model_state_acc_0.1177_round_3.pth (torch, 251962 bytes, 10 tensors)

conv1.weight f4 [6, 3, 5, 5]
0	0x3e9a3c5b	0.30124173
1	0x3e91a81e	0.28448576
2	0x3e8eb408	0.27871728
3	0x3e3b0ae0	0.18265867
4	0x3e34e0f4	0.17663938
5	0x3e4280b6	0.18994412
6	0x3e83d644	0.2574941
7	0x3e991dfc	0.2990569
8	0x3e9c82ff	0.30568692
9	0x3e789f67	0.24279557
10	0x3e878d76	0.26475114
11	0xbd70701d	-0.05870067
12	0x3c1e1900	0.009649515
13	0x3e266a3d	0.16251464
14	0x3e929134	0.28626406
15	0xbea237a4	-0.31683075
16	0xbe0bd330	-0.1365478
17	0xbe394e8b	-0.18096368
18	0x3dd9bcfb	0.10631748
19	0x3e9e9d22	0.30979258
20	0xbeaba860	-0.33526897
21	0xbe1b763f	-0.15181826
22	0xbe91c2c4	-0.28468907
23	0xbe389090	-0.18023896
24	0x3e9be00a	0.30444366
25	0xbeb8f510	-0.36124468
26	0xbe811a66	-0.25215453
27	0xbe27f85d	-0.16403337
28	0xbe2bd246	-0.16779432
29	0xbe3ef07f	-0.1864643
30	0xbe90b338	-0.28261733
31	0xbe955242	-0.2916432
32	0xbe8dfa3b	-0.27729973
33	0xbe46bb9e	-0.19407508
34	0x3d8636bf	0.06553411
35	0xbc7c3364	-0.015393112
36	0xbe3861fc	-0.18006128
37	0xbe161716	-0.14657244
38	0xbe08947c	-0.13337892
39	0xbc1d0b28	-0.009585179
40	0xbe57fc06	-0.21092233
41	0xbe4b5cfc	-0.1985969
42	0xbdf2e79c	-0.11860582
43	0x3da0fa8b	0.07860287
44	0x3c681c48	0.014166899
45	0xbe64ed76	-0.22356209
46	0xbeb18c66	-0.34677428
47	0xbdd8c020	-0.1058352
48	0x3df39f9a	0.11895676
49	0x3e53d462	0.20686486
50	0xbe915d3c	-0.28391445
51	0xbeaea07d	-0.34106818
52	0xbe2d0166	-0.16895065
53	0xbe8dab74	-0.2766987
54	0xbeb10654	-0.3457514
55	0xbe297164	-0.16547161
56	0xbe7c6dca	-0.24651256
57	0xbe642d87	-0.22282992
58	0xbe5f424b	-0.21802633
59	0xbe16ffce	-0.14746019
60	0xbe07df98	-0.13268888
61	0xbea92a7e	-0.3304023
62	0xbea12b83	-0.3147851
63	0xbe846a82	-0.2586251
64	0xbe1f8901	-0.15579607
65	0xbe87769f	-0.26457688
66	0xbe826c01	-0.25473025
67	0xbe9c2024	-0.3049327
68	0xbe65b4da	-0.2243227
69	0xbd4e8cd0	-0.050427258
70	0xbe1b8adb	-0.15189688
71	0xbe41d87b	-0.18930237
72	0xbe5cf76f	-0.21578763
73	0xbe548a22	-0.20755818
74	0x3e291afc	0.165142
75	0xbbf857e0	-0.007578835
76	0xbc5f7af0	-0.01364015
77	0xbdf9ef18	-0.12203807
78	0xbdf40e8e	-0.119168386
79	0xbe54feed	-0.20800371
80	0x3e56193f	0.20908068
81	0x3e29bb9a	0.1657547
82	0x3de3299d	0.110919215
83	0xbe481152	-0.19537857
84	0xbe7e0cb5	-0.24809535
85	0x3e37e866	0.17959747
86	0x3ea2a89a	0.31769258
87	0x3e1d7d50	0.15379834
88	0xbea0901f	-0.31359956
89	0xbd31dd52	-0.043423958
90	0x3e80b6b0	0.2513938
91	0x3e4e11aa	0.20123926
92	0x3e8a6b51	0.27035
93	0x3cab024c	0.020875119
94	0xbd96e8aa	-0.07368596
95	0x3eaed4d4	0.3414675
96	0xbcb42a6e	-0.021992888
97	0x3de26d04	0.11055949
98	0x3ddafa5c	0.106922835
99	0x3d9ad26f	0.07559668
100	0x3dae3044	0.085053
101	0xbdcd140a	-0.10013588
102	0xbe1b2ede	-0.15154597
103	0xbe20d7d2	-0.15707329
104	0xbc911f93	-0.017715251
105	0x3e8f2296	0.27956074
106	0xbb41cff0	-0.0029573403
107	0xbe110dee	-0.1416547
108	0xbe6784c5	-0.22609241
109	0xbe9cc910	-0.3062215
110	0x3e84f664	0.2596923
111	0xbd8dfeb6	-0.06933348
112	0xbd5405ef	-0.05176347
113	0xbe83c2bc	-0.25734508
114	0xbe6b2fae	-0.22967407
115	0x3e8a3580	0.26993942
116	0xbd29a735	-0.041419227
117	0xbe136de1	-0.14397384
118	0xbe102dae	-0.14079925
119	0xbe5813e9	-0.21101345
120	0x3ea44cba	0.32089788
121	0xbe031f6e	-0.12804958
122	0xbe70d77f	-0.23519705
123	0x3e91302f	0.28357074
124	0x3ca83bda	0.020536352
125	0xbdf112c7	-0.117711596
126	0xbe99eb16	-0.3006217
127	0xbe603cdd	-0.21898217
128	0xbdfaf173	-0.12253084
129	0xbe7bd916	-0.2459453
130	0xbe1fbd4e	-0.15599558
131	0xbe6d1f32	-0.23156431
132	0xbe097704	-0.13424307
133	0xbe83ed53	-0.25767002
134	0xbe689720	-0.227139
135	0xbdd71df9	-0.10503764
136	0xbe99ef73	-0.30065498
137	0xbe6b641e	-0.2298741
138	0xbe4a38dc	-0.19748253
139	0xbde5d963	-0.11223104
140	0xbe71a91f	-0.23599671
141	0xbe5265b0	-0.20546603
142	0xbe7354da	-0.23762837
143	0xbe5bde82	-0.21471599
144	0xbe84a7d9	-0.25909308
145	0xbe49a15b	-0.19690458
146	0xbeb1b7ca	-0.34710532
147	0xbe331371	-0.17487885
148	0xbcb67d58	-0.022276565
149	0xbe10277c	-0.14077562
150	0x3e8e10da	0.27747232
151	0x3e1f4a9b	0.15555803
152	0x3e65b700	0.2243309
153	0x3e203da0	0.15648508
154	0xbc3a3010	-0.011363998
155	0x3e99c29e	0.30031294
156	0x3e96bde4	0.2944175
157	0x3e9d70fd	0.30750266
158	0x3e4d9c10	0.20079064
159	0x3de3b163	0.11117818
160	0x3e8b0d6d	0.2715868
161	0x3e227d27	0.15868054
162	0xbea7ee26	-0.3279888
163	0xbeb16163	-0.34644613
164	0x3e679e78	0.22619045
165	0x3dd694ff	0.104776375
166	0x3e46965b	0.19393294
167	0xbe6091be	-0.21930596
168	0xbeaadd1b	-0.33371815
169	0x3e51598c	0.20444316
170	0xbd8819e0	-0.0664556
171	0xbe21c20d	-0.15796681
172	0xbe615428	-0.2200476
173	0xbe5d9ca6	-0.21641788
174	0x3d23d6c5	0.039999742
175	0x3b8db540	0.004324585
176	0x3d8ff894	0.070298344
177	0x3e81405f	0.25244424
178	0x3e824618	0.25444102
179	0xbd569ea6	-0.052397393
180	0x3e19d4fd	0.15022655
181	0x3e95a3e6	0.29226607
182	0x3d32cbaf	0.04365128
183	0xbc5bd99e	-0.013418583
184	0x3e7f02d1	0.24903418
185	0x3e591f54	0.21203357
186	0x3ea60a3d	0.32429686
187	0xbe0ad73d	-0.1355867
188	0xbdfe423b	-0.12414976
189	0x3ea8a62e	0.32939285
190	0x3e1cb6db	0.15304129
191	0x3e5bbeb0	0.2145946
192	0xbea53aca	-0.32271415
193	0xbe4625ca	-0.19350353
194	0x3eb529b0	0.35383368
195	0x3e2acfac	0.16680783
196	0x3e749ba4	0.23887497
197	0x3e5ff864	0.21872097
198	0xbdb1b076	-0.086762354
199	0x3e46106a	0.19342199
200	0xbe8112d7	-0.25209686
201	0xbeb816c7	-0.35954878
202	0xbe1b8976	-0.15189156
203	0xbe782753	-0.24233751
204	0xbeae12aa	-0.33998615
205	0xbe1e36d2	-0.154506
206	0xbea1bffa	-0.3159178
207	0xbe3de6a0	-0.18545008
208	0xbe216452	-0.15760925
209	0xbe878407	-0.26467916
210	0xbe962d3a	-0.2933138
211	0xbe18b445	-0.14912517
212	0xbe908dc7	-0.28233168
213	0xbe8b5263	-0.27211294
214	0xbe133cc2	-0.14378646
215	0xbe0f016e	-0.13965389
216	0xbe23b8f4	-0.15988523
217	0xbe996bba	-0.29965
218	0xbe7e8f2f	-0.24859308
219	0xbea7276a	-0.32647258
220	0xbe6bc5ad	-0.23024626
221	0xbe946eff	-0.28990933
222	0xbead703c	-0.3387469
223	0xbe890690	-0.2676282
224	0xbe1f3ab3	-0.15549736
225	0x3e8e36c4	0.27776158
226	0x3e6150dc	0.22003502
227	0x3e2bff1e	0.16796538
228	0xbb4a7960	-0.00308951
229	0x3dfbd66d	0.12296758
230	0x3e625510	0.22102761
231	0x3eaa0e0b	0.3321384
232	0x3ea69031	0.32531884
233	0x3eada1cf	0.33912513
234	0x3dcecab6	0.10097258
235	0x3e022670	0.12709975
236	0x3e20d951	0.157079
237	0x3e987dd4	0.297835
238	0x3e3337ec	0.17501801
239	0xbd561d5a	-0.052274086
240	0x3e18ab06	0.1490899
241	0xbdb89446	-0.09012656
242	0xbe89172e	-0.26775497
243	0x3aeb8f60	0.0017971806
244	0xbd56c994	-0.052438334
245	0x3e8b54da	0.27213174
246	0xbe5abfd4	-0.21362239
247	0xbe11be5a	-0.1423277
248	0xbe74421d	-0.23853345
249	0xbe9ba3ec	-0.303985
250	0x39434e00	0.00018625706
251	0x3d598244	0.053102747
252	0xbeac3c69	-0.3363984
253	0xbe2230a2	-0.15838864
254	0xbd9678fa	-0.07347293
255	0x3ea541ec	0.32276857

conv1.bias f4 [6]
0	0xbea029ad	-0.31281796
1	0xbe7c7da4	-0.24657303
2	0xbe167d48	-0.14696229
3	0xbe194fb4	-0.1497181
4	0xbe830848	-0.25592256
5	0xbe9baab1	-0.30403665

conv2.weight f4 [16, 6, 5, 5]
0	0xbe35090a	-0.1767923
1	0xbe9f3246	-0.31093043
2	0xbe814925	-0.25251117
3	0xbe668980	-0.2251339
4	0xbe517d72	-0.2045801
5	0xbe7a54ae	-0.24446365
6	0xbe2baf4c	-0.16766089
7	0xbe5cc07c	-0.21557802
8	0xbe95b22e	-0.29237503
9	0xbe6591ef	-0.2241895
10	0xbe97bfce	-0.29638523
11	0xbe3fb136	-0.18719944
12	0xbe615006	-0.22003183
13	0xbe5a9e4e	-0.21349451
14	0xbe9d4491	-0.30716375
15	0xbe812ca9	-0.25229385
16	0xbe5f24c8	-0.21791375
17	0xbea3dbe2	-0.32003695
18	0xbe42a64c	-0.1900875
19	0xbe4f58c8	-0.20248711
20	0xbe419d8c	-0.18907756
21	0xbe44c644	-0.19216257
22	0xbe8fc60f	-0.28080794
23	0xbe8e61ca	-0.27808982
24	0xbe67ef18	-0.22649801
25	0xbe9b930f	-0.30385634
26	0xbe4edf62	-0.20202401
27	0xbe982669	-0.29716805
28	0xbe56f4ef	-0.20991872
29	0xbe4d67eb	-0.20059173
30	0xbe8e76c1	-0.27824977
31	0xbe9b5838	-0.30340743
32	0xbe72a11c	-0.23694271
33	0xbe913fc6	-0.28368968
34	0xbe60f518	-0.21968496
35	0xbe462e96	-0.19353709
36	0xbe7f9d52	-0.24962357
37	0xbe8543d2	-0.26028305
38	0xbe2b7b06	-0.16746148
39	0xbe54d7ba	-0.20785418
40	0xbe95b706	-0.29241198
41	0xbea6877e	-0.32525247
42	0xbe86159a	-0.26188356
43	0xbe8bec32	-0.2732864
44	0xbe62b1f8	-0.22138202
45	0xbe81cecf	-0.25353095
46	0xbe986d52	-0.29770905
47	0xbe8c3d46	-0.27390498
48	0xbe67c64a	-0.22634235
49	0xbe7806df	-0.24221371
50	0xbe632dde	-0.22185466
51	0xbe623c95	-0.22093423
52	0xbe76c5ee	-0.24098942
53	0xbe7abaae	-0.24485275
54	0xbe38aa69	-0.18033756
55	0xbe790a85	-0.24320419
56	0xbe7905c9	-0.24318613
57	0xbe428516	-0.18996081
58	0xbe8fc1e4	-0.28077614
59	0xbe91ff8a	-0.28515273
60	0xbe86521f	-0.26234528
61	0xbea4f5cf	-0.32218787
62	0xbe415e0e	-0.18883535
63	0xbe9e6c2a	-0.30941898
64	0xbe7cacc0	-0.24675274
65	0xbe976f2c	-0.29577005
66	0xbe36be59	-0.1784605
67	0xbea9c8f8	-0.3316114
68	0xbe41d5a6	-0.18929157
69	0xbe7026b2	-0.23452261
70	0xbe64521b	-0.22296946
71	0xbe8b336e	-0.27187675
72	0xbe76786a	-0.24069372
73	0xbea63f04	-0.32469952
74	0xbe6534fc	-0.22383493
75	0xbe666a57	-0.22501503
76	0xbe63dfb5	-0.22253306
77	0xbe507a2e	-0.20359108
78	0xbe8e2762	-0.27764422
79	0xbddc4fa0	-0.10757375
80	0xbe8efb9b	-0.27926335
81	0xbe97f3e0	-0.2967825
82	0xbea59946	-0.323435
83	0xbe9fa47a	-0.31180173
84	0xbe79af46	-0.24383268
85	0xbe94915b	-0.29017147
86	0xbe8cf1fc	-0.2752837
87	0xbe92801a	-0.2861336
88	0xbe50d483	-0.20393567
89	0xbe82b0ba	-0.25525457
90	0xbe8f486f	-0.2798495
91	0xbea47574	-0.3212086
92	0xbe547e1a	-0.20751229
93	0xbe68a4b2	-0.22719076
94	0xbe3f457d	-0.18678851
95	0xbe8fdbd9	-0.28097418
96	0xbe5b88ab	-0.21438853
97	0xbe4dbdf8	-0.20091999
98	0xbe98136e	-0.29702324
99	0xbe339575	-0.17537482
100	0xbe84d7ff	-0.25946042
101	0xbe6fe75c	-0.234281
102	0xbe318eea	-0.17339674
103	0xbd793ad2	-0.06084711
104	0x3c9fd952	0.019512806
105	0xbd9b658f	-0.0758773
106	0xbe2ddc43	-0.16978554
107	0xbe090b87	-0.13383304
108	0x3d90e01c	0.070739955
109	0x3e43bd88	0.19115269
110	0xbe307913	-0.17233686
111	0xbe740ef2	-0.23833826
112	0xbe914cd8	-0.2837894
113	0xbe7814b6	-0.2422665
114	0xbe84861d	-0.2588357
115	0xbe134b2e	-0.14384148
116	0xbe5487c8	-0.20754921
117	0xbe2e413c	-0.17017072
118	0xbe7b0910	-0.24515176
119	0xbe5f51b6	-0.21808514
120	0xbe377d9a	-0.17919007
121	0xbea2e242	-0.31813246
122	0xbe3037ea	-0.1720883
123	0xbe8adaf2	-0.27120167
124	0xbe49b4e4	-0.1969791
125	0xbe925676	-0.2858159
126	0xbe563129	-0.2091719
127	0xbea2a175	-0.31763807
128	0xbe60b45f	-0.21943806
129	0xbe75aa22	-0.23990682
130	0xbe2fad48	-0.17155945
131	0xbe9dfb32	-0.3085571
132	0xbe4be8d7	-0.1991304
133	0xbe2a749a	-0.16646042
134	0xbe8a04e3	-0.26956853
135	0xbe640c40	-0.22270298
136	0xbea74703	-0.32671365
137	0xbe400902	-0.18753436
138	0xbe35e778	-0.1776408
139	0xbe406fb1	-0.18792607
140	0xbe63c380	-0.22242546
141	0xbe8b264a	-0.2717765
142	0xbe57fec8	-0.21093285
143	0xbe579b77	-0.21055399
144	0xbe929c41	-0.28634837
145	0xbe61cc6f	-0.22050641
146	0xbe9ece81	-0.31016925
147	0xbe7d517c	-0.24738115
148	0xbe325986	-0.17416963
149	0xbe2dea12	-0.16983822
150	0xbe0703de	-0.13185069
151	0xbe20cfd8	-0.15704286
152	0xbe75684d	-0.23965569
153	0xbe3d0ae4	-0.18461186
154	0xbe4fb001	-0.20281984
155	0xbe5f4284	-0.21802717
156	0xbde9b1bd	-0.11410854
157	0xbe5900b2	-0.21191671
158	0xbe0389f3	-0.12845592
159	0xbe74cc9b	-0.23906176
160	0xbe33acd9	-0.17546405
161	0xbe68f907	-0.22751246
162	0xbe60fa69	-0.21970524
163	0xbe2cf1c1	-0.16889097
164	0xbe770585	-0.241232
165	0xbe6fbeca	-0.23412624
166	0xbe08f860	-0.13375998
167	0xbe24d4c0	-0.16096783
168	0xbe494d31	-0.19658352
169	0xbe7eb080	-0.24872017
170	0xbe845c42	-0.25851637
171	0xbe1dfc74	-0.15428334
172	0xbe83ce8a	-0.25743514
173	0xbe595a40	-0.21225834
174	0xbe36e001	-0.17858888
175	0xbe7b1348	-0.24519074
176	0xbe6d44d9	-0.23170795
177	0xbe4e2e4e	-0.20134851
178	0xbe0619a2	-0.13095716
179	0xbe33a104	-0.17541891
180	0xbe718098	-0.23584211
181	0xbe5a8f9e	-0.21343848
182	0xbe38c0ee	-0.18042347
183	0xbe1660e0	-0.14685392
184	0xbe54e8d9	-0.2079195
185	0xbe2de5b3	-0.16982155
186	0xbdd1b7fa	-0.10240169
187	0xbe84c2a1	-0.2592974
188	0xbe809451	-0.25113156
189	0xbe45f665	-0.19332273
190	0xbdf64862	-0.12025525
191	0xbe424454	-0.18971378
192	0xbe04a319	-0.12952842
193	0xbe1ab1e3	-0.15106921
194	0xbe2cbc38	-0.16868675
195	0xbe530346	-0.20606717
196	0xbe203a16	-0.15647158
197	0xbe2e1fac	-0.1700427
198	0xbe44d1da	-0.19220677
199	0xbe723995	-0.23654778
200	0xbe57794e	-0.21042368
201	0xbdee03e1	-0.116218336
202	0xbdcf6321	-0.10126329
203	0xbe7dc264	-0.24781185
204	0xbdee8982	-0.11647321
205	0xbe58a531	-0.21156766
206	0xbe24ba38	-0.16086662
207	0xbdd61496	-0.10453145
208	0xbe7920f1	-0.24328972
209	0xbe4ce2d6	-0.20008406
210	0xbe450bd5	-0.19242795
211	0xbe6fd145	-0.23419674
212	0xbdefbbe1	-0.11705757
213	0xbe50e4d5	-0.20399792
214	0xbdd5b3a6	-0.10434656
215	0xbe3c5301	-0.18391038
216	0xbe8443e3	-0.25833043
217	0xbe017ba6	-0.12644824
218	0xbe518338	-0.20460212
219	0xbe427ab3	-0.18992119
220	0xbde4fb2a	-0.11180718
221	0xbe7aea18	-0.24503362
222	0xbe2096d4	-0.15682536
223	0xbe7c8993	-0.24661855
224	0xbdf4ce96	-0.11953466
225	0xbe5d941a	-0.21638528
226	0xbe09a550	-0.13441968
227	0xbe4c38af	-0.19943498
228	0xbe251371	-0.16120698
229	0xbe25818c	-0.161627
230	0xbdfcc930	-0.12343061
231	0xbe769f2c	-0.24084157
232	0xbe15e5bc	-0.14638418
233	0xbe5d01fe	-0.21582791
234	0xbe194969	-0.1496941
235	0xbe6596ef	-0.22420858
236	0xbe113462	-0.14180139
237	0xbdea9574	-0.11454287
238	0xbe585f0c	-0.21130008
239	0xbe84b2e4	-0.25917733
240	0xbddb7354	-0.107153565
241	0xbe52cb0e	-0.20585272
242	0xbe7c4be1	-0.2463832
243	0xbe2234ce	-0.15840456
244	0xbe5999c8	-0.21250069
245	0xbdfb6fd0	-0.12277186
246	0xbe4ce4f2	-0.2000921
247	0xbde5aac1	-0.11214209
248	0xbe417e72	-0.18895891
249	0xbe7c4e63	-0.24639277
250	0xbe1040c8	-0.14087212
251	0xbe4c98e9	-0.19980206
252	0xbe597b3f	-0.21238421
253	0xbdd332fe	-0.1031246
254	0xbe82cd06	-0.25547045
255	0xbe232b61	-0.15934516

conv2.bias f4 [16]
0	0x3e85ae5a	0.26109582
1	0xbe7acfd4	-0.24493343
2	0xbe3c9c7c	-0.18419069
3	0x3e940dee	0.28916878
4	0x3db8b8ca	0.09019621
5	0x3db07a6d	0.08617101
6	0x3e86291e	0.26203245
7	0x3e9613a8	0.29311872
8	0xbe46c53a	-0.19411173
9	0xbe341eaa	-0.17589822
10	0xbe797f16	-0.24364886
11	0x3e54c5ab	0.2077853
12	0xbccef330	-0.025262445
13	0x3e760248	0.24024308
14	0xbe7cd19e	-0.24689338
15	0xbd0e3ea3	-0.034727704

fc1.weight f4 [120, 400]
0	0xbe4e6da0	-0.20159006
1	0xbe861940	-0.2619114
2	0xbe67b525	-0.22627695
3	0xbe7cfec1	-0.24706556
4	0xbe5857a8	-0.21127188
5	0xbe8406f7	-0.25786564
6	0xbe855f14	-0.260491
7	0xbe8d68ca	-0.2761901
8	0xbe2fb608	-0.17159283
9	0xbe5d170e	-0.21590826
10	0xbe8447d6	-0.25836056
11	0xbe95d01b	-0.29260334
12	0xbdb283de	-0.08716558
13	0xbe0acaf8	-0.13553989
14	0xbe70b4d8	-0.23506486
15	0xbe8b1224	-0.27162278
16	0xbe613264	-0.21991879
17	0xbe368618	-0.1782459
18	0xbe790a84	-0.24320418
19	0xbe86b20f	-0.26307723
20	0xbe8c6f7e	-0.27428812
21	0xbe668ead	-0.22515364
22	0x3c9b64b8	0.018968925
23	0x3e49b134	0.19696504
24	0x3cdd30d8	0.02700083
25	0x3e05b221	0.13056232
26	0x3e3c40af	0.1838405
27	0x3e62080f	0.22073387
28	0xbe2b980a	-0.16757217
29	0x3e25ea6c	0.16202706
30	0xbe1fc08e	-0.15600798
31	0xbe553a7a	-0.20823088
32	0xbe608655	-0.21926244
33	0xbe637b78	-0.22215068
34	0x3e3b2dfa	0.18279257
35	0xbe31fabb	-0.17380802
36	0xbe545df8	-0.20738971
37	0xbe46f683	-0.19429974
38	0xbe5b2066	-0.21399078
39	0x3e491984	0.1963864
40	0x3e4f7308	0.20258725
41	0x3e276afb	0.16349404
42	0xbe119caf	-0.14219926
43	0xbe28b7c3	-0.1647635
44	0xbe16a798	-0.1471237
45	0xbe5863ba	-0.21131793
46	0xbe1a072c	-0.15041798
47	0xbe3ec5b9	-0.18630113
48	0x3e2c7399	0.16840972
49	0xbe6a1716	-0.22860369
50	0xbe29078e	-0.16506788
51	0xbe2e7074	-0.17035085
52	0xbe21cf5c	-0.15801758
53	0xbe5a874d	-0.21340676
54	0xbe532f02	-0.20623401
55	0xbe66cf9c	-0.22540134
56	0xbe164e0b	-0.14678209
57	0xbe33dc64	-0.17564541
58	0x3e5fb64c	0.21846884
59	0xbe273bb5	-0.1633137
60	0xbe239f94	-0.15978843
61	0xbe4c6e82	-0.1996403
62	0xbe4a7e70	-0.19774795
63	0xbe29e8f4	-0.16592771
64	0xbe6a1c0d	-0.22862263
65	0x3e51e37e	0.20496938
66	0xbe22e638	-0.15908134
67	0xbe376a9b	-0.1791176
68	0xbe1972b9	-0.1498517
69	0xbe167deb	-0.14696471
70	0xbe1c35f9	-0.15254964
71	0xbe4bdace	-0.19907686
72	0xbe1e7328	-0.15473616
73	0xbe3b0a19	-0.1826557
74	0xbe18d914	-0.14926559
75	0xbe78d39a	-0.2429947
76	0x3c4d7538	0.012540154
77	0xbe224d39	-0.1584977
78	0xbe93954c	-0.28824842
79	0xbe5b9ede	-0.21447322
80	0xbe94cc8e	-0.29062313
81	0xbdd3b1a1	-0.103366144
82	0xbe5d73f5	-0.21626265
83	0xbe8afbcc	-0.2714523
84	0xbe8b44de	-0.2720098
85	0xbe8cbc18	-0.27487254
86	0x3df371a0	0.118869066
87	0x3d48d7be	0.049033873
88	0xbe208bc2	-0.15678313
89	0x3b648520	0.0034869388
90	0xbe8833ce	-0.26602024
91	0xbe56918a	-0.20953956
92	0xbdd3057c	-0.103037804
93	0xbe6e036c	-0.23243493
94	0xbd74504c	-0.05964689
95	0xbe5e83eb	-0.2173001
96	0xbe354048	-0.17700303
97	0xbe3f3f75	-0.1867655
98	0xbe52dca2	-0.20591977
99	0xbe84aaf9	-0.25911692
100	0xbe55583d	-0.20834441
101	0xbe3e3cf8	-0.18577945
102	0xbe602abf	-0.21891306
103	0xbe40cc87	-0.18828021
104	0xbe496db1	-0.1967075
105	0xbdf4c619	-0.11951847
106	0xbe13d83e	-0.14437959
107	0x3de74344	0.11292127
108	0xbe784654	-0.24245578
109	0xbe716b0e	-0.23575994
110	0xbe5ddbbd	-0.21665855
111	0xbe7b1204	-0.24518591
112	0xbe1c78ba	-0.15280429
113	0xbe5a526e	-0.21320507
114	0xbe1e073b	-0.15432446
115	0xbe207ef8	-0.15673435
116	0xbe68e076	-0.22741875
117	0xbe851439	-0.2599199
118	0xbe1a3945	-0.15060909
119	0xbe45950a	-0.19295135
120	0xbe7090b9	-0.23492707
121	0x3e1e467a	0.15456572
122	0xbdffc434	-0.12488595
123	0xbe536811	-0.20645167
124	0xbe5fa5fc	-0.21840662
125	0xbe50ef8e	-0.20403883
126	0xbd2f0a88	-0.042734653
127	0xbe4feb5c	-0.20304626
128	0xbd709930	-0.05873984
129	0xbe866366	-0.2624771
130	0xbd86d1c8	-0.06582981
131	0xbe6fa84a	-0.23404041
132	0xbe71c202	-0.23609164
133	0xbe654a58	-0.22391641
134	0xbe7913c7	-0.2432395
135	0x3c679fc4	0.014137212
136	0xbbc00b20	-0.005860701
137	0xbe3a355a	-0.18184415
138	0xbe88ecf2	-0.26743275
139	0xbe501f97	-0.2032455
140	0xbd49bcf1	-0.049252454
141	0x3d0cce2e	0.034376316
142	0xbe593ea2	-0.21215299
143	0xbe7f16aa	-0.2491099
144	0xbe860cea	-0.26181728
145	0xbe8c5356	-0.2740733
146	0xbddc6732	-0.107618704
147	0xbe7f1b88	-0.24912846
148	0xbe83c08b	-0.25732836
149	0xbe81ef10	-0.25377703
150	0xbe1ab134	-0.1510666
151	0xbe58ff50	-0.21191144
152	0xbb640d60	-0.0034798011
153	0xbe62673e	-0.22109696
154	0xbe4c75de	-0.19966838
155	0xbe62ee46	-0.22161207
156	0x3b5de150	0.003385622
157	0xbe565153	-0.2092946
158	0xbe8c9708	-0.27458978
159	0xbe7686f8	-0.24074924
160	0xbe624350	-0.2209599
161	0xbe290fe6	-0.16509971
162	0xbe2ac8b2	-0.16678122
163	0x3d254800	0.040351868
164	0xbe75ad5d	-0.23991914
165	0xbddf51c8	-0.109042704
166	0xbe67def7	-0.22643648
167	0xbe8116ec	-0.252128
168	0xbe8a4afd	-0.27010337
169	0xbe344862	-0.17605737
170	0xbe2950a2	-0.16534665
171	0xbe33f98e	-0.17575666
172	0xbe2eb1ad	-0.17059965
173	0xbe334134	-0.17505342
174	0xbe8f3b5d	-0.27974978
175	0xbe5b7d5b	-0.21434538
176	0xbe50152c	-0.20320576
177	0xbe57d149	-0.2107593
178	0xbe2f738e	-0.17133924
179	0xbe374e63	-0.17900996
180	0xbe502745	-0.2032748
181	0xbe85a57f	-0.26102826
182	0xbe5afd8e	-0.21385786
183	0xbe44ce16	-0.1921924
184	0xbe816bb9	-0.25277498
185	0xbe8646dc	-0.26225936
186	0x3e7e773c	0.24850172
187	0xbe869c04	-0.26290905
188	0xbe5d1e93	-0.21593694
189	0xbe9569e5	-0.29182354
190	0xbe6acecc	-0.22930449
191	0xbe499459	-0.19685496
192	0xbe7d33f3	-0.24726848
193	0xbdc73ff9	-0.09728999
194	0xbe51947c	-0.20466799
195	0xbe70110a	-0.23444
196	0x3d0b5840	0.03401971
197	0xbe07591f	-0.13217591
198	0xbe769f5c	-0.24084228
199	0xbe70be6f	-0.23510145
200	0xbe290ca4	-0.16508728
201	0xbe0fa47f	-0.14027594
202	0xbe33f51f	-0.17573975
203	0xbe231549	-0.15926088
204	0xbe4dc143	-0.20093255
205	0xbe55b96f	-0.20871519
206	0xbe4d7d32	-0.2006729
207	0xbe08e148	-0.13367188
208	0xbe0ceb3d	-0.13761611
209	0xbe3b0a4c	-0.18265647
210	0xbe2c1dbc	-0.16808218
211	0xbe1ddff1	-0.15417458
212	0xbe1e580d	-0.15463276
213	0xbe270bf0	-0.16313148
214	0xbe691f7e	-0.2276592
215	0x3e4ab5d6	0.19795927
216	0xbe54ca06	-0.20780191
217	0xbe680691	-0.22658755
218	0xbe23d6d4	-0.15999919
219	0xbe0ad897	-0.13559185
220	0xbe551da4	-0.20812088
221	0xbe26fc02	-0.16307071
222	0xbe5f6f12	-0.21819714
223	0xbe0c61f9	-0.13709249
224	0xbe08fde6	-0.13378105
225	0xbe3f0d97	-0.18657528
226	0xbe693118	-0.22772634
227	0xbe659059	-0.22418346
228	0xbe1a875e	-0.15090701
229	0xbe32ea06	-0.17472085
230	0xbe4d17a3	-0.20028548
231	0xbe498aff	-0.19681929
232	0x3e684559	0.22682704
233	0xbe07a692	-0.13247135
234	0xbe0f6045	-0.14001568
235	0xbe4d5136	-0.20050511
236	0xbe5df50e	-0.21675512
237	0xbe5f49d6	-0.2180551
238	0xbe05792c	-0.13034505
239	0xbe2c2e53	-0.16814546
240	0xbe347e20	-0.17626238
241	0x3e4183ca	0.1889793
242	0xbe59a93f	-0.21255969
243	0xbe4875be	-0.19576165
244	0xbe4ad69e	-0.19808432
245	0xbe09e152	-0.13464859
246	0xbe208f70	-0.15679717
247	0xbe2bc094	-0.16772681
248	0xbe29be55	-0.16576512
249	0xbe68c1aa	-0.22730127
250	0xbe46f3fa	-0.19429007
251	0x3e3d2746	0.18472013
252	0xbe386102	-0.18005756
253	0xbe4d8bcf	-0.20072864
254	0xbe230139	-0.15918435
255	0xbe3a1fa0	-0.18176126

fc1.bias f4 [120]
0	0xbe7b4c38	-0.24540794
1	0xbe760f74	-0.24029332
2	0xbe8d8910	-0.27643633
3	0xbe671ca8	-0.22569525
4	0xbe756f34	-0.23968202
5	0xbe969108	-0.29407525
6	0xbe7320d0	-0.23742986
7	0xbe4d3d14	-0.2004283
8	0xbe8aafa5	-0.2708713
9	0xbe89afa4	-0.26891816
10	0xbe8f856a	-0.28031474
11	0xbe931c50	-0.28732538
12	0xbe7ee1cb	-0.2489082
13	0xbe8e7af6	-0.27828187
14	0xbe8747de	-0.26422018
15	0xbe4edd57	-0.20201622
16	0xbe6aad12	-0.22917584
17	0xbe94aae4	-0.2903663
18	0xbe518bf0	-0.20463538
19	0xbe6695e4	-0.22518116
20	0xbe5e40b0	-0.21704364
21	0xbe6c9fbc	-0.23107809
22	0xbe81edc5	-0.25376716
23	0xbe4c5629	-0.19954742
24	0xbe86f905	-0.26361862
25	0xbe8a0d05	-0.26963058
26	0xbe6f2b28	-0.23356307
27	0xbe575f30	-0.21032405
28	0xbe7137d6	-0.23556456
29	0xbe8057ce	-0.2506699
30	0xbe81ca33	-0.25349578
31	0x3e8772df	0.26454827
32	0xbe4ba318	-0.19886434
33	0xbe639d5e	-0.22228
34	0xbe8601c2	-0.26173216
35	0xbe81deca	-0.25365287
36	0xbe81ff8a	-0.25390273
37	0xbe606790	-0.21914506
38	0xbe6ef298	-0.2333473
39	0xbe5d7e38	-0.2163018
40	0xbe76cd62	-0.24101785
41	0xbe6065b2	-0.21913794
42	0xbe6931f6	-0.22772965
43	0xbe9675b3	-0.29386672
44	0xbe8bf59c	-0.27335823
45	0xbe4b0a84	-0.1982823
46	0xbe5fb6e2	-0.21847108
47	0xbe8c44e2	-0.27396303
48	0xbe919674	-0.284351
49	0xbe6d3ced	-0.23167773
50	0xbe86be2c	-0.26316965
51	0xbe72c72e	-0.23708794
52	0xbe5a041c	-0.2129063
53	0xbe52d053	-0.20587282
54	0xbe168d30	-0.14702296
55	0xbe8d3467	-0.27579042
56	0xbe819751	-0.25310758
57	0xbe8b1c98	-0.27170253
58	0xbe88a488	-0.26688027
59	0xbe5c6cf9	-0.21525945
60	0xbe675e1b	-0.22594492
61	0xbe594a42	-0.21219733
62	0xbe919fad	-0.28442135
63	0xbe93f472	-0.28897434
64	0xbe6657bc	-0.22494406
65	0xbe8fda48	-0.28096223
66	0xbe830054	-0.25586188
67	0xbe748380	-0.23878288
68	0xbe8a64cc	-0.27030027
69	0xbe745761	-0.23861457
70	0xbe8033d7	-0.2503955
71	0x3e60b530	0.21944118
72	0xbe606ba4	-0.21916062
73	0xbe517b5a	-0.20457211
74	0xbe7c7aa3	-0.24656157
75	0xbe920024	-0.28515732
76	0xbe66d563	-0.22542338
77	0xbe927bdc	-0.28610122
78	0xbe5dd0b0	-0.21661639
79	0xbe960e6a	-0.29307872
80	0xbe888cf8	-0.2667005
81	0xbe608f51	-0.21929671
82	0xbe944ece	-0.28966373
83	0xbe6742fa	-0.22584143
84	0xbe8cef9a	-0.2752655
85	0xbe6f70b4	-0.23382837
86	0xbe841996	-0.2580077
87	0xbe69be2a	-0.22826448
88	0xbe8c89a2	-0.27448756
89	0xbe98b1e4	-0.2982322
90	0xbe5eff12	-0.21776989
91	0xbe62bdb5	-0.2214268
92	0xbe815ac8	-0.25264573
93	0xbe721020	-0.23638964
94	0xbe976e64	-0.2957641
95	0xbe3f93cd	-0.18708725
96	0xbe825c80	-0.25461197
97	0xbe8bb47f	-0.27286145
98	0xbe72c170	-0.23706603
99	0xbe8990db	-0.26868328
100	0xbe858c30	-0.26083517
101	0xbe6b8228	-0.2299887
102	0xbe920960	-0.28522778
103	0xbe5ae576	-0.21376595
104	0xbe4de344	-0.20106226
105	0xbe85ebb4	-0.2615639
106	0xbe8773e6	-0.2645561
107	0xbe7e587b	-0.2483844
108	0xbe5d9096	-0.21637186
109	0xbe2dfba4	-0.16990525
110	0xbe79446a	-0.24342504
111	0xbe5af468	-0.21382296
112	0xbe679984	-0.22617155
113	0xbe4ef7d2	-0.20211723
114	0xbe6f9982	-0.23398402
115	0xbe5aba07	-0.21360026
116	0xbe5a2e46	-0.21306714
117	0xbe77dbec	-0.24204987
118	0xbe8da7f2	-0.27667195
119	0xbe879b8c	-0.2648586

fc2.weight f4 [84, 120]
0	0xbdec65d6	-0.11542861
1	0xbd0b2912	-0.033974715
2	0xbe503caa	-0.20335642
3	0x3dfb4174	0.122683436
4	0x3df2c2a0	0.11853528
5	0x3c94df9a	0.018173028
6	0xbddd7f20	-0.10815263
7	0xbe8fe244	-0.28102314
8	0xbe861abf	-0.2619228
9	0x3cc4ce7a	0.024024237
10	0xbeab274c	-0.3342842
11	0xbe3e39a0	-0.1857667
12	0xbe1778d0	-0.1479218
13	0xbe1f3326	-0.15546855
14	0xbe2af9af	-0.16696809
15	0xbe57f1d9	-0.21088351
16	0xbe62610f	-0.22107337
17	0xbe50ae8e	-0.20379087
18	0xbdf8857f	-0.12134837
19	0xbe25f76d	-0.16207667
20	0xbe7fe726	-0.2499052
21	0x3e13fee5	0.14452703
22	0xbe918135	-0.2841889
23	0xbe71e782	-0.2362347
24	0x3e768ce6	0.24077186
25	0xbe8e2e81	-0.27769855
26	0xbe533120	-0.20624208
27	0xbe841299	-0.2579544
28	0xbe12a77a	-0.143217
29	0xbe858c9d	-0.26083842
30	0xbe9736a9	-0.2953389
31	0xbe94301f	-0.28942963
32	0xbe4882eb	-0.19581191
33	0xbda4f01a	-0.08053608
34	0xbe77b1c2	-0.24188903
35	0xbe200fe6	-0.15631065
36	0xbe751736	-0.23934636
37	0xbe7c5c74	-0.24644643
38	0x3d2709da	0.04078088
39	0xbe728700	-0.23684311
40	0xbe3a1326	-0.18171367
41	0xbd9f2295	-0.07770268
42	0x3e6bc058	0.23022592
43	0xbe72fa48	-0.23728287
44	0xbe83a188	-0.25709176
45	0xbe2d38f2	-0.16916254
46	0xbd278d5a	-0.040906288
47	0x3e088fd8	0.13336122
48	0xbe91f53b	-0.28507408
49	0xbe80cfdb	-0.2515858
50	0x3e3fa81e	0.18716475
51	0x3e9968d2	0.29962784
52	0xbea467fc	-0.32110584
53	0xbe1a52d8	-0.15070665
54	0x3e0a731f	0.13520478
55	0x3da211dc	0.07913563
56	0xbe7be6b2	-0.24599722
57	0xbe4dbb20	-0.20090914
58	0x3d97370c	0.07383546
59	0xbeabcf86	-0.33556765
60	0xbe8f058e	-0.27933925
61	0x3df869ae	0.12129532
62	0xbe1c238e	-0.15247938
63	0x3d94d417	0.072670154
64	0xbe473d06	-0.19456872
65	0xbe5187b4	-0.20461923
66	0xbe4dad98	-0.20085752
67	0xbda866cd	-0.08222733
68	0xbe6371dc	-0.22211403
69	0xbe56ab7a	-0.2096385
70	0x3e0baf6c	0.13641137
71	0xbd81ad70	-0.06331909
72	0xbe20c954	-0.157018
73	0xbe8d7157	-0.27625534
74	0xbe76bbd6	-0.24095091
75	0xbe0f695d	-0.14005037
76	0xbde768ec	-0.11299309
77	0xbd51d0fa	-0.051224686
78	0xbea21b06	-0.31661242
79	0xbe8399c1	-0.25703242
80	0x3c8e1887	0.01734568
81	0xbe4bd213	-0.19904356
82	0xbe29cfe1	-0.16583206
83	0x3e2b93f4	0.16755658
84	0xbcaadb7e	-0.020856615
85	0xbe473acc	-0.19456023
86	0xbe7042aa	-0.2346293
87	0xbe8c8f07	-0.2745287
88	0xbdaea26e	-0.08527075
89	0xbba7bcd0	-0.0051189438
90	0xbe2a5066	-0.16632232
91	0xbe94cb61	-0.29061416
92	0xbe6f1a38	-0.23349845
93	0xbe55e963	-0.20889811
94	0xbdf9e059	-0.12200994
95	0xbe76df15	-0.24108537
96	0xbde02d2a	-0.10946114
97	0x3e0b5263	0.13605647
98	0xbe935799	-0.2877777
99	0x3dfa515d	0.1222255
100	0xbe57bd0f	-0.21068214
101	0xbe824247	-0.2544119
102	0xbe129a0b	-0.14316575
103	0xbe6c628c	-0.23084468
104	0xbe667196	-0.22504267
105	0x3e9ea09e	0.30981916
106	0xbe08ff60	-0.13378668
107	0xbe165a30	-0.14682841
108	0xbea2689a	-0.3172043
109	0xbcd2ce8c	-0.025733255
110	0xbd98ff8d	-0.074706174
111	0xbde603b3	-0.11231174
112	0xbdeed111	-0.1166097
113	0xbe185a4a	-0.14878193
114	0xbe9eab66	-0.30990142
115	0xbe14385e	-0.14474627
116	0xbe5801bb	-0.2109441
117	0xbe772002	-0.24133304
118	0xbe8ecb60	-0.27889538
119	0xbea84f74	-0.32873118
120	0xbe3a3ada	-0.18186513
121	0xbde27f6d	-0.11059461
122	0xbe3302e8	-0.17481577
123	0xbe414c52	-0.1887677
124	0x3e915261	0.28383163
125	0xbe543179	-0.20721997
126	0xbe4a169a	-0.19735184
127	0xbe735c5e	-0.23765704
128	0xbe9b3eb5	-0.3032128
129	0xbe3da53e	-0.18520066
130	0xbe96e37e	-0.29470438
131	0xbe1cb7b2	-0.15304449
132	0xbe30a0a8	-0.17248785
133	0xbea5e0fd	-0.32398215
134	0xbe506bb0	-0.2035358
135	0xbe99aa98	-0.30012965
136	0xbe08d87e	-0.13363835
137	0xbe870440	-0.2637043
138	0xbe6421dc	-0.22278541
139	0xbdee1ba4	-0.11626366
140	0xbe60b240	-0.21942997
141	0xbe8e72b6	-0.27821892
142	0xbe8f639f	-0.28005692
143	0xbe275a0c	-0.16342944
144	0xbe9f872b	-0.31157812
145	0xbe38a9ca	-0.1803352
146	0xbea3b9ae	-0.319776
147	0xbe1a1e29	-0.15050568
148	0xbdf24a9f	-0.11830639
149	0xbe5fb192	-0.21845081
150	0xbdee9274	-0.116490275
151	0xbe55fa7a	-0.2089633
152	0xbe88b432	-0.26699978
153	0xbe3015fa	-0.17195883
154	0xbe13bd80	-0.14427757
155	0xbe7854dc	-0.24251121
156	0xbe740f2c	-0.23833913
157	0xbe4450cd	-0.19171448
158	0xbe83b706	-0.25725573
159	0xbe1b9053	-0.15191774
160	0x3e2abf4f	0.16674541
161	0xbe8b64e1	-0.27225402
162	0xbd2b5b45	-0.04183509
163	0x3cb1a832	0.021686647
164	0xbdce6eae	-0.10079704
165	0xbe83e0b6	-0.25757378
166	0xbda9ca28	-0.08290511
167	0x3d08e79f	0.033424016
168	0xbe63a703	-0.22231679
169	0xbe27560b	-0.16341417
170	0xbea36f41	-0.31920817
171	0xbe715f49	-0.23571505
172	0xbe3ad367	-0.18244706
173	0xbe6f5c6b	-0.23375098
174	0xbe995f50	-0.2995553
175	0xbe299562	-0.16560891
176	0xbe2c3382	-0.16816524
177	0xbe67b6c3	-0.22628312
178	0xbe6fba76	-0.23410973
179	0xbe8f4cd2	-0.27988297
180	0x3e091741	0.13387777
181	0x3d7946ea	0.060858645
182	0xbe90af72	-0.28258854
183	0xbe97c5d1	-0.2964311
184	0xbd5239dc	-0.05132471
185	0xbe7dff7a	-0.24804488
186	0xbe59a814	-0.21255523
187	0xbe737534	-0.23775178
188	0xbe08480e	-0.13308737
189	0xbea2b53e	-0.31778902
190	0xbe66915b	-0.22516386
191	0x3e0b824c	0.13623923
192	0xbe8cc46b	-0.27493605
193	0xbe6ec39f	-0.23316811
194	0xbe4371f2	-0.19086435
195	0xbe3aad2c	-0.18230122
196	0xbe842041	-0.25805858
197	0xbe6b9da8	-0.2300936
198	0xbe99c75b	-0.3003491
199	0x3db507c6	0.08839373
200	0x3e6b2a70	0.22965407
201	0xbe8fd50f	-0.28092238
202	0xbe3be680	-0.18349648
203	0xbdbc943c	-0.09207961
204	0xbcefc980	-0.029270887
205	0xbe1220fb	-0.14270394
206	0xbea2d4fe	-0.31803125
207	0xbdbf008e	-0.09326278
208	0xbcaaef1f	-0.020865975
209	0xbe126152	-0.14294937
210	0xbe8f470b	-0.2798389
211	0xbdf038a2	-0.11729552
212	0xbe16c573	-0.14723758
213	0xbde9c450	-0.11414397
214	0xbe350b7b	-0.1768016
215	0xbe8cb458	-0.2748134
216	0xbe5adc15	-0.21373017
217	0x3cddfaf4	0.027097203
218	0xbe232640	-0.1593256
219	0x3cb9a95d	0.022663767
220	0xbded11f2	-0.115756884
221	0xbe6c7b99	-0.23094024
222	0xbe5483a2	-0.20753339
223	0xbe4039ed	-0.18772097
224	0xbe2814f8	-0.16414249
225	0xbe9564cc	-0.29178464
226	0xbe73e75a	-0.23818722
227	0x3d4ba2cd	0.049715806
228	0xbe90b8ba	-0.28265935
229	0xbe216c78	-0.15764034
230	0xbe19ec32	-0.15031508
231	0xbe137298	-0.14399183
232	0xbe4b0ab7	-0.19828306
233	0xbe29ac52	-0.16569641
234	0xbe1a26d8	-0.1505388
235	0xbe6ba1d1	-0.23010947
236	0xbe6cafc4	-0.23113924
237	0xbd1116c9	-0.03542212
238	0xbe7d514f	-0.24738048
239	0xbe567b8c	-0.20945567
240	0xbe6f97cc	-0.2339775
241	0xbe75ca1a	-0.24002877
242	0xbe5e11f0	-0.2168653
243	0xbbf00f48	-0.0073260404
244	0xbe1312f1	-0.14362694
245	0xbdfc1106	-0.123079345
246	0xbe2fafde	-0.17156932
247	0xbe51ac71	-0.20475937
248	0xbe993a50	-0.299273
249	0xbe19f66a	-0.15035406
250	0xbe4225e8	-0.18959773
251	0xbdda59f1	-0.10661686
252	0xbe89d9e5	-0.26924053
253	0xbe3f46a4	-0.18679291
254	0xbe2301cb	-0.15918653
255	0xbdf4054f	-0.11915075

fc2.bias f4 [84]
0	0xbe4025bf	-0.18764399
1	0xbea28242	-0.31740004
2	0xbe98a463	-0.29812917
3	0xbe423f99	-0.18969573
4	0xbeaae5b7	-0.33378384
5	0xbe9455b4	-0.28971636
6	0xbe920616	-0.28520268
7	0xbe298d5f	-0.16557835
8	0xbe8d0e50	-0.27549982
9	0xbe9c3102	-0.3050614
10	0xbe47dafa	-0.19517127
11	0x3e914e28	0.2837994
12	0xbe9a25c6	-0.30106944
13	0xbea421ea	-0.32057124
14	0xbe32ee5a	-0.17473736
15	0xbe6e981e	-0.23300216
16	0xbe9516d0	-0.29118967
17	0x3ea5071d	0.3223199
18	0xbe1c55a4	-0.15267044
19	0xbe748bb7	-0.23881422
20	0xbe5f2385	-0.21790893
21	0xbe736c79	-0.23771848
22	0xbe991f3c	-0.29906642
23	0xbe92b824	-0.28656113
24	0xbe5cae1c	-0.21550792
25	0xbe9a1233	-0.3009201
26	0xbea3f0c1	-0.32019618
27	0x3ea2e838	0.31817794
28	0x3ea29320	0.31752872
29	0xbe926bb2	-0.2859779
30	0xbe9e411f	-0.30909058
31	0x3e960fd6	0.29308957
32	0xbe929d6c	-0.28635728
33	0xbe0abfc4	-0.13549715
34	0xbe8778e9	-0.26459435
35	0xbe970c7a	-0.29501706
36	0xbe955654	-0.29167426
37	0xbe85c83f	-0.26129338
38	0xbe99e21c	-0.3005532
39	0xbea4dd6d	-0.32200184
40	0xbe7c29c4	-0.24625307
41	0xbe6f48ca	-0.2336761
42	0xbe9e9795	-0.30975023
43	0xbe8cfd30	-0.27536917
44	0xbe5e37c8	-0.21700966
45	0xbe47c69a	-0.19509354
46	0xbe9b29e7	-0.30305406
47	0xbe3f49be	-0.18680474
48	0xbe893e66	-0.2680542
49	0x3e9c9bd3	0.30587634
50	0xbea410da	-0.32044107
51	0xbe596276	-0.21228966
52	0x3e8e2f5c	0.27770507
53	0x3e8b187f	0.27167127
54	0xbe300562	-0.17189553
55	0xbea2a5e0	-0.31767178
56	0xbe510086	-0.20410356
57	0xbea49d0e	-0.32151073
58	0x3ea99306	0.33119982
59	0x3e8f7453	0.28018436
60	0xbe3df5cd	-0.18550797
61	0xbe8f216a	-0.2795518
62	0xbea3995b	-0.31952938
63	0xbe4355b0	-0.19075656
64	0xbe57ce8d	-0.21074887
65	0xbe25230e	-0.16126654
66	0xbe663f1c	-0.22485012
67	0xbe908252	-0.28224427
68	0xbe0772dc	-0.13227409
69	0xbe922749	-0.28545597
70	0xbe8c1eab	-0.27367148
71	0xbe99512d	-0.29944745
72	0xbe42e4b9	-0.19032563
73	0xbea31c74	-0.31857646
74	0x3e688578	0.22707164
75	0xbe4a25b2	-0.19740942
76	0xbe6b4492	-0.22975376
77	0xbe38e26c	-0.18055123
78	0x3e8d3b13	0.27584133
79	0xbe821932	-0.25409847
80	0x3eaa3fbb	0.33251747
81	0x3e9d27ea	0.30694515
82	0xbe9ad236	-0.30238503
83	0xbeabef84	-0.33581173

fc3.weight f4 [10, 84]
0	0xbe2a845f	-0.16652058
1	0xbe5ce4c9	-0.2157165
2	0xbe910bd4	-0.28329337
3	0xbe8f2a65	-0.27962032
4	0xbdfe442a	-0.12415345
5	0xbe6f5c98	-0.23375165
6	0xbe53ae44	-0.20671946
7	0xbe30766b	-0.17232673
8	0xbea8f241	-0.32997325
9	0xbe57ef96	-0.21087489
10	0xbe8513f0	-0.25991774
11	0xbeb32e7a	-0.34996396
12	0xbea3f847	-0.32025358
13	0xbe722652	-0.2364743
14	0xbe2bd084	-0.16778761
15	0xbe0d19dd	-0.13779397
16	0xbe2b5e06	-0.16735086
17	0xbe8f863e	-0.28032106
18	0xbe31a578	-0.17348278
19	0xbe52ad74	-0.2057398
20	0xbeaea147	-0.3410742
21	0xbce2cc32	-0.027685259
22	0xbe9748a5	-0.2954761
23	0xbe9855d0	-0.2975297
24	0xbe1a2094	-0.1505149
25	0xbe75ecb9	-0.24016084
26	0xbe0fec7e	-0.14055058
27	0xbe9659b1	-0.29365304
28	0xbe93de56	-0.28880566
29	0x3e0bbc8c	0.13646144
30	0xbd26ae5f	-0.040693637
31	0xbe99ee0b	-0.30064425
32	0xbe4a4662	-0.19753411
33	0xbe00ac4e	-0.12565729
34	0xbe099cb5	-0.13438685
35	0xbe875ad0	-0.26436472
36	0xbe86877c	-0.2627524
37	0xbe5fa046	-0.21838483
38	0xbe2a16da	-0.1661028
39	0xbe4ac2fa	-0.1980094
40	0xbd3a0275	-0.0454125
41	0xbe91ffa2	-0.28515345
42	0xbe374f24	-0.17901284
43	0xbe5e7b2e	-0.21726677
44	0xbe449868	-0.19198763
45	0xbe16046d	-0.14650126
46	0xbc74ec50	-0.014948919
47	0xbe8d6ad7	-0.27620575
48	0xbe1cf29a	-0.1532692
49	0xbe7c8af3	-0.2466238
50	0xbe65062e	-0.22365639
51	0xbe356faa	-0.17718378
52	0xbeafec26	-0.34359854
53	0xbe574bfc	-0.2102508
54	0xbea7d398	-0.3277862
55	0xbe67d920	-0.2264142
56	0xbe64f8ea	-0.22360578
57	0xbe8d4e42	-0.27598768
58	0xbe81ad84	-0.25327694
59	0xbe9fd624	-0.31218064
60	0xbe955204	-0.29164135
61	0xbe9c2fce	-0.30505222
62	0xbe82a250	-0.2551446
63	0xbe22ef53	-0.15911607
64	0xbea3b46b	-0.31973585
65	0xbe8a2629	-0.2698224
66	0xbe764ff1	-0.24053933
67	0xbe9e213c	-0.3088473
68	0xbe73326d	-0.23749705
69	0xbe59356b	-0.21211784
70	0xbe0b95f4	-0.13631421
71	0xbe178790	-0.14797807
72	0xbe00945a	-0.12556592
73	0xbeb27985	-0.34858337
74	0xbe6057c0	-0.21908474
75	0xbce8f23a	-0.028435815
76	0xbe66a189	-0.22522558
77	0xbe2f82b4	-0.17139703
78	0xbe3de414	-0.18544036
79	0xbe16e310	-0.14735055
80	0xbe67fdad	-0.22655363
81	0xbea4c201	-0.32179263
82	0xbea9b8e9	-0.33148888
83	0xbe78e2e6	-0.24305305
84	0xbe9a1004	-0.30090344
85	0xbe413ae8	-0.18870127
86	0xbe590a4a	-0.21195331
87	0xbe4ea642	-0.2018061
88	0xbe034f36	-0.12823185
89	0x3d0871ca	0.033311643
90	0xbe89cc24	-0.2691356
91	0xbe8bfd46	-0.2734167
92	0xbeaf6ed7	-0.34264252
93	0xbeaa2e70	-0.33238554
94	0xbeaf76d6	-0.34270352
95	0xbe90fbd7	-0.2831714
96	0xbea7bd26	-0.32761496
97	0xbe977786	-0.29583377
98	0xbe975948	-0.29560304
99	0xbe510412	-0.20411709
100	0xbe4962b4	-0.19666559
101	0xbe82c752	-0.25542694
102	0xbe5696c9	-0.20955957
103	0xbe1ed7cc	-0.15512007
104	0xbe996088	-0.2995646
105	0xbe3229ba	-0.1739873
106	0xbea4a4ba	-0.32156926
107	0xbe2219c1	-0.15830137
108	0xbe5333bf	-0.20625208
109	0xbe8a918f	-0.27064177
110	0xbea5499f	-0.3228273
111	0xbe85d58e	-0.26139492
112	0xbeb71d39	-0.35764483
113	0xbe9c0ab7	-0.30476925
114	0x3d131d1a	0.035916425
115	0xbe47d1cd	-0.19513626
116	0xbe88b4be	-0.26700395
117	0x3d432cae	0.04765003
118	0xbea734f2	-0.32657582
119	0xbe883402	-0.2660218
120	0xbe0bb460	-0.13643026
121	0xbe886c1a	-0.26644975
122	0xbe91d522	-0.2848292
123	0xbe100d78	-0.14067638
124	0x3ea495dc	0.32145584
125	0xbe06e4ae	-0.13173172
126	0xbe803495	-0.25040117
127	0xbe32a294	-0.17444831
128	0xbe9c5aa3	-0.305379
129	0xbe161a3a	-0.14658442
130	0x3d3f1b56	0.04665693
131	0xbe99b52c	-0.30021036
132	0xbe8df026	-0.2772228
133	0xbe1f6b6c	-0.15568322
134	0xbe6fc963	-0.23416667
135	0xbe9bdc6b	-0.30441603
136	0xbeae48f9	-0.3404005
137	0xbeacb76b	-0.33733687
138	0xbe0c614a	-0.13708988
139	0xbe9a51a3	-0.3014041
140	0xbe588891	-0.21145846
141	0xbe0ff410	-0.14057946
142	0xbdfb0e0c	-0.122585386
143	0xbe97ce5c	-0.29649627
144	0xbe49d028	-0.19708312
145	0xbe8dd1d3	-0.27699146
146	0xbe177e3f	-0.14794253
147	0xbe6d24ec	-0.23158616
148	0xbe968629	-0.2939923
149	0xbe6bbb6c	-0.23020715
150	0xbe57abda	-0.2106165
151	0xbe114857	-0.14187752
152	0xbe965fb2	-0.29369885
153	0xbe98d67a	-0.29851133
154	0xbe9b83ba	-0.30373937
155	0xbe1a35f0	-0.15059638
156	0xbea74918	-0.32672954
157	0xbe4c0018	-0.19921911
158	0xbe84b044	-0.2591573
159	0xbe2dbbbb	-0.16966145
160	0xbe526272	-0.20545366
161	0xbe73042e	-0.23732063
162	0xbe99dad2	-0.3004976
163	0xbe1104ec	-0.14162034
164	0xbe5f6844	-0.21817118
165	0xbe15ce5c	-0.14629501
166	0xbe8fe934	-0.28107607
167	0xbe970c14	-0.29501402
168	0xbe981806	-0.29705828
169	0xbe5c7c96	-0.21531901
170	0xbe6a5d4c	-0.22887152
171	0xbdb939c3	-0.0904422
172	0xbe8cb6da	-0.27483255
173	0xbe995965	-0.29951015
174	0xbe3df8c2	-0.18551925
175	0xbe7a4a4e	-0.24442407
176	0xbe3e33c4	-0.18574435
177	0xbe477f98	-0.19482267
178	0xbe64776a	-0.22311178
179	0xbe8b58c9	-0.27216175
180	0xbe6702fa	-0.22559729
181	0xbea742a0	-0.32668018
182	0xbe056b4e	-0.13029215
183	0xbe972fbd	-0.2952861
184	0xbea4fa36	-0.32222146
185	0x3eb54d07	0.3541033
186	0xbea0bce9	-0.31394127
187	0xbe3213aa	-0.17390314
188	0xbe8f10b2	-0.27942425
189	0xbe323860	-0.17404318
190	0xbe351d58	-0.17686975
191	0xbe952b56	-0.29134625
192	0xbe9f7697	-0.31145164
193	0xbea28b1f	-0.31746766
194	0xbe96a48d	-0.29422417
195	0x3cfac690	0.03061226
196	0x3e02cc32	0.12773207
197	0xbe5eee9c	-0.2177071
198	0xbe210070	-0.15722823
199	0xbe729394	-0.23689109
200	0xbe351cc4	-0.17686754
201	0xbe45344c	-0.19258231
202	0xbe951cf6	-0.29123658
203	0xbe5c5d2e	-0.2151992
204	0xbe7fd42f	-0.24983285
205	0xbe533258	-0.20624673
206	0xbe120952	-0.14261368
207	0xbe8dea78	-0.27717948
208	0xbe91d8be	-0.28485674
209	0xbeb00881	-0.34381488
210	0xbe3fb678	-0.1872195
211	0xbe0c5b60	-0.13706732
212	0x3cf3cd8c	0.029761098
213	0xbe98204e	-0.29712147
214	0xbe44f26c	-0.19233102
215	0xbe6075e0	-0.21919966
216	0xbe192593	-0.1495574
217	0x39a84400	0.0003209412
218	0xbea78bb9	-0.32723787
219	0xbdfe6c24	-0.1242297
220	0x3ce5ee52	0.028067742
221	0xbe097abd	-0.13425727
222	0xbeb3182d	-0.34979382
223	0xbe59b363	-0.21259837
224	0xbe8d74d8	-0.27628207
225	0xbe28e6ba	-0.16494265
226	0x3ea3c68a	0.3198741
227	0x3d099ab1	0.03359479
228	0xbe3bf6e2	-0.18355897
229	0xbe6702d2	-0.2255967
230	0xbe507774	-0.20358068
231	0xbe6da466	-0.23207244
232	0xbe7c6764	-0.24648815
233	0xbe153a52	-0.14573029
234	0xbe1fb870	-0.15597701
235	0xbe4a73b8	-0.19770706
236	0xbe3724db	-0.17885153
237	0xbe0d2b28	-0.13785994
238	0xbe883d10	-0.26609087
239	0xbeaa064e	-0.33207935
240	0xbe449aac	-0.19199628
241	0xbeb2463b	-0.34819207
242	0xbda42040	-0.08013964
243	0xbeacbe62	-0.33739
244	0xbe9b5077	-0.30334827
245	0xbea3d4af	-0.31998202
246	0xbe34c41b	-0.17652933
247	0xbdb5a5af	-0.08869492
248	0xbe9d0d37	-0.30674145
249	0xbe50adda	-0.20378819
250	0xbe576b7b	-0.21037094
251	0xbe9a69d8	-0.30158877
252	0xbe05399e	-0.1301026
253	0xbe968dca	-0.2940505
254	0xbe251063	-0.16119532
255	0xbe6a295c	-0.2286734

fc3.bias f4 [10]
0	0xbe72ff8e	-0.23730299
1	0xbe25f17a	-0.16205397
2	0x3e4dfd66	0.20116195
3	0x3e8d3408	0.2757876
4	0x3e57ba17	0.21067081
5	0x3e48328c	0.19550532
6	0x3e70de50	0.23522305
7	0xbd81cf1a	-0.063383296
8	0xbe1a71be	-0.15082452
9	0xbe21ab1c	-0.1578793
