FL/cnn-img/outputs/2025-03-18/18-20-35/model_state_acc_0.2199_round_6.pth (torch, 251962 bytes, 10 tensors)

conv1.weight f4 [6, 3, 5, 5]
00000000: 7177 0e3f 4f89 0b3f 1cd1 0e3f 5074 ee3e
00000010: 12ff e93e 632d ea3e 0abf 013f 9e65 103f
00000020: 25d1 153f 2935 073f 4b51 023f 9a0d 5cbe
00000030: 4475 7e3e 26ae dc3e 5059 103f d7ca 5ebe
00000040: c406 d7be 952d e6be 220d b03e 2154 143f
00000050: 97d5 1dbf 5d66 e0be daff 10bf cc91 a9bc
00000060: 05c4 133f 3c07 1ebf 9a7c 00bf 5d57 c4be
00000070: 64e8 c8be f2d0 4fbe a867 ffbe bf75 0dbf
00000080: 42ef 00bf 99a4 60be 8249 943e bc21 40bd
00000090: 4442 e9be cebc d3be 71ac 653d 940b 783e
000000a0: 38bc 12bd 1374 e4be 00ca a4be 87aa 933e
000000b0: 751f 8a3e 4c7a 45bd bd0b 12bf 2c4a cabd
000000c0: 0a88 bc3e 6cb7 f53e fe77 05bf b394 14bf
000000d0: 90ef d1be 1d44 06bf f15d 10bf ae6e cdbe
000000e0: 3022 03bf 562d f6be 52c1 e6be 0cd1 a7be
000000f0: e72d b0be a6c0 1abf 5a5e 15bf ca05 ecbe
00000100: 6e9e 14be e147 b9be 2392 06bf 57dc 13bf
00000110: 8f78 9cbe e5d2 093e 1198 8dbe c243 e7be
00000120: 70c2 f8be 66c6 5abe 16bc da3e 7ce0 753e
00000130: 4467 713e 7c95 ef3c 3728 88be e6ed 72be
00000140: ac07 f93e 309e df3e 4354 ae3e 1ab2 ecbe
00000150: 1487 01bf 0e57 e23e bd63 153f 09ea c63e
00000160: 403e 12bf df91 8ebe 9c08 fb3e 2ec2 ec3e
00000170: 068b e33e 3ec0 4cbe e1aa a2be ad33 ef3e
00000180: f473 32be 38ae 81bd e472 0dbd 20e1 25be
00000190: da9d a23e 6088 ee3d c2bf 24be 9b83 bdbe
000001a0: 3947 4b3d f36a 0b3f 2456 6b3e 6399 11be
000001b0: b5f9 00bf 30ec f6be d7b4 023f c899 253e
000001c0: 980f d83d d601 07bf 9093 b4be fc72 053f
000001d0: 2e36 413e f3cc 023d 45c5 47bd 99e7 dbbd
000001e0: 9452 0f3f 96bc 5f3d 76a8 4ebd 45f9 0d3f
000001f0: fc15 7d3e 91fe fcbd 8845 c8be 6846 debe
00000200: 58cc b9be f835 abbe 817e c6bd cf65 98be
00000210: 10fd b7be 9c7d 08bf d068 f7be fa95 563d
00000220: 079d 86be 4a62 e3be e182 f2be 809d bbbe
00000230: 6cf3 8dbd 8ed9 95be 3615 f4be 0a0f fdbe
00000240: 200b 03bf f417 c6bd d0d7 19bf 5e43 d7be
00000250: 31f7 81be bdf6 b5be b732 033f 1817 c73e
00000260: c0ae 003f 6648 dd3e 5643 99bd c9b7 113f
00000270: d581 103f b8a4 0d3f 0052 9e3e ca51 ad3e
00000280: 49d4 093f 0c6b df3e ca28 15bf 0b5e 1cbf
00000290: a2e4 003f e21e b23e c837 ed3e 32e1 f7be
000002a0: 5782 1dbf 60a6 f53e 2c36 f7bd d3da b9be
000002b0: 4acd f2be 22ca fabe 5b2b 0cbe 44d1 00be
000002c0: 8824 cbbd e9d5 a63e afc2 453e 7cad 61be
000002d0: 49ad bd3e bf51 993e ae89 3abd 7d1f 2cbe
000002e0: 799d e03e b11f f83e 5665 183f b6bf bfbe
000002f0: 7440 bdbe ac6d 1d3f 6b28 d43e 6af8 f93e
00000300: e3c8 f0be 6849 bbbe cc64 223f 3a46 d83e
00000310: 828c 003f c896 ec3e 04f8 003e fae1 ef3e
00000320: 240c 08bf 2bdf 23bf ecf6 dabe 3a71 03bf
00000330: 23af 1abf bb64 dfbe 3a42 18bf 21d8 ebbe
00000340: 40be dbbe 7df9 05bf 98f0 0fbf 7dec d7be
00000350: eb56 0ebf e087 0bbf c591 b3be ba5d 90be
00000360: 92c3 d1be 4a3a 12bf 0c84 05bf 31de dbbe
00000370: 463e eabe 45d8 0bbf 944e 18bf 9592 08bf
00000380: 16bf abbe c607 0b3f 1986 f73e 7ba0 e23e
00000390: 2eb6 843e 0c4d c63e 2498 003f d700 193f
000003a0: f177 1a3f d615 1c3f 1dcc b53e 6f65 d03e
000003b0: 9461 cb3e b71a 083f 5a27 c33e a426 fc3d
000003c0: 8538 db3e 66c1 3dbd e390 07bf 48b5 1b3d
000003d0: e24f bc3d 45f3 083f 838e f4be bda0 d4be
000003e0: 59ba ffbe 95ad 09bf 5d3a f8bd efe8 dcbd
000003f0: 8213 13bf b6e0 d8be c911 ddbd 27c4 cb3e
0.55651003 0.5450639 0.55787826 0.46573114 0.45702416 0.45737752 0.5068213 0.56405056
0.58522254 0.5281549 0.50905293 -0.21489564 0.24849421 0.43101615 0.5638628 -0.21757065
-0.4199735 -0.4495665 0.3438502 0.5794087 -0.6165404 -0.43828097 -0.566404 -0.020699404
0.5772098 -0.6172979 -0.50190127 -0.38347903 -0.392398 -0.2029455 -0.4988377 -0.5525779
-0.5036508 -0.21937789 0.28962332 -0.04690717 -0.4555837 -0.41354984 0.056072656 0.24223167
-0.03582403 -0.44619808 -0.32185364 0.2884104 0.26977125 -0.048212335 -0.5704916 -0.098774284
0.3682254 0.47991502 -0.5213622 -0.58039397 -0.41003084 -0.5244768 -0.56393343 -0.40123504
-0.5122404 -0.48081464 -0.45069367 -0.32776678 -0.3441002 -0.6045021 -0.58347094 -0.46098167
-0.14513561 -0.36187652 -0.52566737 -0.57758087 -0.3056073 0.13459356 -0.2765508 -0.45168883
-0.48585844 -0.21364745 0.42721623 0.24011415 0.23574549 0.029246084 -0.26593181 -0.23723564
0.48638666 0.43675375 0.34048662 -0.4622963 -0.5059674 0.44207042 0.58355314 0.3885043
-0.57126236 -0.27845666 0.49030006 0.46241897 0.44442004 -0.1999521 -0.31770995 0.46719113
-0.17427045 -0.06332058 -0.034533396 -0.1619916 0.31761056 0.11647105 -0.16088775 -0.3701447
0.04962847 0.54460067 0.22982079 -0.14218669 -0.5038102 -0.48227072 0.5105719 0.16171944
0.10549849 -0.52737176 -0.3526883 0.5212858 0.18868324 0.031933736 -0.048772115 -0.10737533
0.5598538 0.05462321 -0.050453626 0.5545848 0.24715418 -0.12353242 -0.39115548 -0.4341309
-0.36288714 -0.33439612 -0.096920975 -0.29765174 -0.3593526 -0.53316665 -0.48322153 0.052389123
-0.26291677 -0.44410926 -0.47365478 -0.366436 -0.06931195 -0.29267544 -0.47672433 -0.49425536
-0.5118885 -0.096725374 -0.6009493 -0.42043585 -0.25383905 -0.3553981 0.5124926 0.38884807
0.5026665 0.43219298 -0.074835464 0.5692106 0.5644811 0.55329466 0.30921936 0.33851463
0.53839546 0.43636358 -0.58265364 -0.61081 0.50348866 0.34789187 0.4633162 -0.48413998
-0.6152701 0.47978497 -0.12070879 -0.36299762 -0.47422248 -0.4898234 -0.13688414 -0.12579829
-0.09919077 0.32585075 0.19312547 -0.22038835 0.3704627 0.2994518 -0.045541458 -0.16808887
0.43870142 0.4846168 0.59529626 -0.3745095 -0.36963236 0.6149547 0.41437086 0.48822337
-0.47028264 -0.36579442 0.63435054 0.4224108 0.502144 0.46208787 0.1259461 0.46852094
-0.53143525 -0.640124 -0.4276651 -0.51344645 -0.6042349 -0.4363154 -0.59476054 -0.4606333
-0.42918587 -0.52333814 -0.5622649 -0.42172614 -0.55601376 -0.54504204 -0.3507215 -0.28196508
-0.4096952 -0.5712019 -0.5215461 -0.42942956 -0.45750636 -0.54626876 -0.594949 -0.53348666
-0.33544225 0.54308736 0.48344496 0.44263062 0.25920242 0.38730657 0.5023215 0.59766906
0.60339266 0.6097082 0.3550729 0.40702388 0.39722884 0.53165764 0.3811596 0.123120576
0.42816558 -0.046327017 -0.52955455 0.03801468 0.09194924 0.534962 -0.47764978 -0.41528884
-0.4994686 -0.5378049 -0.12120507 -0.10786616 -0.5745164 -0.4235894 -0.10794408 0.3979809

conv1.bias f4 [6]
00000000: 1e50 16bf 711d 06bf 19e3 dbbe 247f ddbe
00000010: 3c60 0abf 0481 14bf
-0.58716 -0.52388674 -0.429467 -0.43261063 -0.5405309 -0.5800936

conv2.weight f4 [16, 6, 5, 5]
00000000: 3c10 e9be 0550 16bf 469a ffbe d6b6 d8be
00000010: e546 cdbe a924 07bf 32a2 e4be 6c66 efbe
00000020: 5ba3 0cbf 1d40 eabe a0f4 13bf 5c27 e8be
00000030: 4997 fabe a2a5 f4be 4889 14bf 7754 07bf
00000040: 1849 edbe 1d5a 0cbf d223 cabe 829c fabe
00000050: eb25 e2be 55a8 e6be a016 ddbe c072 b5be
00000060: b61b ecbe 76b2 12bf 144d dabe 5bab f7be
00000070: 246c f4be 3871 efbe ca33 07bf 1bda 03bf
00000080: 46bf f0be 555c e6be 158e f8be 2625 dcbe
00000090: 243e 03bf 02f7 d5be 7d19 c0be 54c1 eabe
000000a0: bf14 0dbf b033 12bf 774c e5be 5c3d eabe
000000b0: 82df fabe 9639 eabe de77 d9be cedc b4be
000000c0: d10e 88be bfac f6be d7f9 00bf 3d30 ffbe
000000d0: 12ec 02bf 784a 00bf 6140 d0be e491 f6be
000000e0: ea8d 04bf 1cf2 e9be a510 0dbf 0b63 05bf
000000f0: f62b fbbe cd88 18bf 0920 e9be 703b 07bf
00000100: 8bfb 00bf e4e9 05bf b93f ddbe b8ed 17bf
00000110: a80e d7be c9f6 00bf 998b cdbe a0e2 b1be
00000120: 37ce c9be 17f0 eabe 86ff f1be 5801 f7be
00000130: a260 00bf 2eab f3be b9df edbe 2515 03be
00000140: a739 07bf 87a7 0fbf f109 18bf 300d 17bf
00000150: 4d6c e1be 8a72 02bf a61c ffbe 0ac4 01bf
00000160: 88c1 dfbe 9a99 05bf 2249 0dbf e9b8 15bf
00000170: bdfb ccbe 4021 febe 7469 e8be e4e2 07bf
00000180: de72 b1be a978 e3be 7d5b 0ebf 699f c9be
00000190: e972 c7be 0053 fabe 080d f8bd bd84 053e
000001a0: 0e49 773e 11a2 143d 4801 b2bd dbec 943d
000001b0: b350 a03e a2a0 e43e c8a4 b2be f5b8 fbbe
000001c0: 68bf 02bf bacf f6be 2278 fcbe 438e 19be
000001d0: 4d52 d4be 0c5e d9be e65f 07bf 36d5 e9be
000001e0: d4ac c1be ca47 15bf 7acd d7be 0692 00bf
000001f0: 2209 8abe 733f 11bf 8c9d efbe 8085 f0be
00000200: e1bd 16be a24f 41be 3e74 cbbe 7bd2 11bf
00000210: 99ec e9be 4160 d8be deac 01bf 9200 dbbe
00000220: 2c6b 0cbf cd7a c9be af1e d3be e11f a9be
00000230: 1a7a b2be 49c5 d3be 946c b3be a1c4 d4be
00000240: 13a1 abbe 04df c2be fe69 05bf 1f10 d4be
00000250: 3666 a8be 0287 8abd 135a 72be 0713 86be
00000260: 435f b0be 8d30 94be 1583 9dbe 554c a5be
00000270: 162f 60be 742b a2be 22e0 6ebe 6411 b0be
00000280: 8881 8fbe 9f27 aabe 5228 a6be f523 8cbe
00000290: dc2d b1be 7f8a adbe 904e 74be 7b15 88be
000002a0: b451 9abe 5a03 b5be 5d07 babe 50a9 84be
000002b0: a279 b9be 3c58 a2be 1c1b 91be c234 b3be
000002c0: 834d acbe 45c2 9cbe d26f 71be 9f7b 8fbe
000002d0: 696b aebe edf2 a2be 960b 92be 8adb 80be
000002e0: 881f a0be ef9d 8cbe 3132 54be bb6d babe
000002f0: 6b3f b6be 4fa6 98be 657a 66be 44cd 96be
00000300: 4af9 6fbe 0904 83be 3609 8cbe b82c 9fbe
00000310: 22c8 85be f2ba 8cbe 0614 98be e6c7 aebe
00000320: c367 a1be 2058 62be c307 53be 4e8c b4be
00000330: f49a 62be b5fd a1be 3608 88be 7f60 56be
00000340: 953b b2be 891c 9cbe 0631 98be be93 adbe
00000350: 2334 63be 891d 9ebe 0230 56be 9dd4 93be
00000360: f9ee b9be ddd1 6cbe b96c 9ebe 76e8 96be
00000370: c7d3 5dbe 2720 b3be 86f6 85be e3ef b3be
00000380: 7cbd 65be 2a75 a4be 82fb 74be 6ec7 9bbe
00000390: d534 88be de6b 88be c3ba 69be affa b0be
000003a0: f89d 80be 1c2c a4be ce4f 82be 8c76 a8be
000003b0: 938a 7cbe f0a0 60be 9cda a1be 005e babe
000003c0: d90f 59be a210 9fbe 0fd1 b3be 81c5 86be
000003d0: fc77 a2be 170e 69be 921d 9cbe 912b 5ebe
000003e0: 576a 96be 4ed2 b3be fd96 7bbe 99f7 9bbe
000003f0: ab68 a2be b1ef 54be 1778 b8be cb40 87be
-0.45520198 -0.5871585 -0.4992239 -0.42326993 -0.4009315 -0.52790314 -0.44654995 -0.4675783
-0.5493676 -0.4575204 -0.57795143 -0.4534253 -0.48943546 -0.47782618 -0.58021975 -0.5286326
-0.4634483 -0.54825 -0.39480454 -0.4894753 -0.44169554 -0.45050302 -0.43181324 -0.3543911
-0.46114892 -0.5730356 -0.4263693 -0.4837292 -0.47738755 -0.46766067 -0.528134 -0.5150468
-0.4702093 -0.4499232 -0.485459 -0.42997092 -0.51266694 -0.41790015 -0.37519446 -0.45850623
-0.5510978 -0.5711012 -0.447849 -0.45749938 -0.48998648 -0.4574706 -0.42474264 -0.3532471
-0.26573804 -0.4817867 -0.50381225 -0.4984149 -0.51141465 -0.5011363 -0.40674117 -0.4815818
-0.51779044 -0.45692527 -0.5510352 -0.5210425 -0.49056977 -0.5958374 -0.45532253 -0.5282507
-0.50383824 -0.52310014 -0.4321268 -0.59347105 -0.4200337 -0.50376564 -0.40145567 -0.34743214
-0.39415142 -0.458863 -0.4726526 -0.48243213 -0.5014745 -0.47591537 -0.4645975 -0.12801035
-0.52822345 -0.56115 -0.5939017 -0.590045 -0.4402794 -0.5095602 -0.49826545 -0.50689757
-0.4370234 -0.521875 -0.55189717 -0.58485276 -0.4003581 -0.49634743 -0.45392954 -0.5308058
-0.3465795 -0.44427994 -0.5560835 -0.39379433 -0.38954857 -0.4889145 -0.121118605 0.13038917
0.24148962 0.03628737 -0.08691651 0.07271739 0.3131157 0.44653803 -0.34891343 -0.4916455
-0.5107331 -0.48205358 -0.49310404 -0.14995675 -0.4146904 -0.42454565 -0.52880704 -0.4567048
-0.3782717 -0.58312666 -0.42148954 -0.50222814 -0.26960093 -0.5673744 -0.46799886 -0.46976852
-0.1472087 -0.18878034 -0.39737123 -0.5696179 -0.45688322 -0.42260936 -0.506544 -0.42773873
-0.5485103 -0.39351502 -0.41234347 -0.33032134 -0.3485878 -0.41361454 -0.35043776 -0.41556266
-0.33521327 -0.38060772 -0.52114856 -0.4141855 -0.3289048 -0.06764032 -0.23667173 -0.26186392
-0.3444768 -0.2894329 -0.3076407 -0.322848 -0.21892962 -0.31673777 -0.23327687 -0.34388268
-0.28028512 -0.33233353 -0.32452637 -0.27371183 -0.346053 -0.33894727 -0.23858094 -0.26578888
-0.3014046 -0.3535412 -0.36333743 -0.25910425 -0.3622561 -0.31707942 -0.28340995 -0.3500119
-0.33652887 -0.30616966 -0.23577812 -0.28024003 -0.34066322 -0.31825963 -0.28524464 -0.25167495
-0.31274056 -0.27464244 -0.20722272 -0.36411843 -0.3559526 -0.29814383 -0.22507627 -0.2945348
-0.2343494 -0.25589016 -0.27350777 -0.31088805 -0.26129252 -0.27486378 -0.29702777 -0.34136885
-0.31524476 -0.2210393 -0.2060843 -0.35263294 -0.22129422 -0.31638876 -0.26568764 -0.20935248
-0.34811082 -0.3049052 -0.29724902 -0.3390178 -0.22187857 -0.3088191 -0.20916751 -0.2887315
-0.36315134 -0.23126931 -0.30942324 -0.2947423 -0.21662818 -0.34985468 -0.26164645 -0.35143957
-0.22435564 -0.3212064 -0.23924068 -0.3042559 -0.26602808 -0.26644796 -0.2282515 -0.34566256
-0.2512052 -0.32064903 -0.2545151 -0.32902944 -0.24662237 -0.21936393 -0.31612098 -0.3639984
-0.21197452 -0.31067377 -0.35120437 -0.2632256 -0.31732166 -0.22759281 -0.3049131 -0.21696307
-0.29378006 -0.35121387 -0.24569316 -0.3046234 -0.3172048 -0.2079456 -0.3602912 -0.2641662

conv2.bias f4 [16]
00000000: d8bf 073f 0613 b3be 56f9 93be cc09 0f3f
00000010: 06b6 ae3e d33a ae3e 82af 063f 0f53 113f
00000020: b90d 99be 6bba 8fbe a96a b2be c6a6 253e
00000030: 9aae 643e 3889 003f e113 b4be ecfc d7bc
0.53027105 -0.3497545 -0.28901166 0.55874324 0.34123248 0.34029254 0.52611554 0.5676736
-0.29893282 -0.28071913 -0.34847 0.161769 0.2233223 0.5020938 -0.35171416 -0.02636572

fc1.weight f4 [120, 400]
00000000: 8b8f cbbe f2a1 eebe 9a0b d7be afe4 c9be
00000010: e86d afbe 3053 eabe aef0 e0be 10a1 f3be
00000020: fe0d a6be 4c79 9fbe 55ba e0be 3b36 eebe
00000030: 525b b8bd 01b1 8cbe e4c1 cbbe e4fb ebbe
00000040: 6e0e bcbe 208a adbe de9c e6be 8e3e f7be
00000050: 40b0 dfbe 38c3 cbbe 66c6 9bbd 0781 c33e
00000060: c40d 28bd 3508 713e 72cb 933e 27af a63e
00000070: 1b77 8bbe 6fa0 883e 668b 85be 6448 a0be
00000080: 3bee a5be d268 a7be e543 933e 4aa8 8ebe
00000090: 1fda 9fbe 3a25 99be 043b a3be e337 9a3e
000000a0: c064 9d3e 9960 893e d7f2 7cbe d506 8abe
000000b0: e2fe 80be eedc a1be abae 82be f00d 95be
000000c0: 48e4 8b3e 9eb6 aabe e22e 8abe 53e3 8cbe
000000d0: c392 86be b6ee a2be 9642 9fbe e412 a9be
000000e0: 1bd2 80be 5299 8fbe 5286 a53e f648 89be
000000f0: e77a 87be 4fe2 9bbe 56ea 9abe 979f 8abe
00000100: 1eb9 aabe cb9c 9e3e 3a1e 87be 6260 91be
00000110: 7464 82be 0dea 80be 10c6 83be a198 9bbe
00000120: 9fe4 84be 2930 93be a817 82be c496 ebbe
00000130: 9834 efbd 7a55 7cbe 0fc1 fbbe 4994 b9be
00000140: 4c4a f6be 4686 3cbe c8ae bbbe 31e9 e0be
00000150: 1b7b eabe 2031 f0be 063c f13d 9cb7 193e
00000160: 122d 89be 403a 973d d785 edbe b12b 91be
00000170: 6d78 10be c616 cabe 5e21 06be 68ba b1be
00000180: 0dd7 abbe a724 a3be 1027 98be 1c51 e8be
00000190: 7d31 c3be 99bf c1be e90a b6be 7485 8ebe
000001a0: 2774 a5be e06e 4bbe e6de 98be 65bc d73d
000001b0: 971d acbe 8f19 b3be 0970 b0be 02f1 b0be
000001c0: a0c0 31be 115a cabe da40 a2be f4fb 84be
000001d0: fec7 dfbe dcb0 d7be d8c7 55be c7d0 94be
000001e0: cb65 b0be 53df 783e fca5 8fbd d1b2 c3be
000001f0: 171c c4be d336 c8be 41bb 68be 85d4 adbe
00000200: 0dd4 04be 8251 d9be 274d 63be 9c1d e5be
00000210: 76cf cebe f697 cbbe f699 cabe d82f c5bd
00000220: c432 9ebd 2a9e adbe 564d eebe d882 cebe
00000230: 8b14 1ebe fe52 e8bb f6a0 d2be 9d46 dfbe
00000240: bdce f5be b241 edbe 5b8f 65be 8b5f bdbe
00000250: d827 e0be 6f4b e5be b6eb 8dbe 670d cbbe
00000260: e79c 2cbe 714d b4be eaed cabe a7fd babe
00000270: 8eff ddbd af50 cdbe 590e eebe 0974 cabe
00000280: c2e2 ccbe 3ca3 7fbe d052 97be 6b77 bc3d
00000290: d218 e4be b22f 3ebe 728d d7be 3378 d9be
000002a0: 720c e2be e413 a3be b6ff 9dbe 65a6 afbe
000002b0: 5597 3ebe 1273 35be f9a4 d3be fbd0 b6be
000002c0: 2004 90be f0c4 a1be 00d2 8dbe 1b03 8bbe
000002d0: 7268 c9be 379d cabe bf00 c0be 8358 c2be
000002e0: 732a d5be d5a5 eebe 3783 dc3e f6fb d5be
000002f0: c8d7 e1be 2847 fdbe 8fb3 cebe 237d 8bbe
00000300: 28ad b7be 3daf 27be 54ae c7be 53c4 d1be
00000310: 4d13 dfbd 85f5 60be 99d4 d1be cf04 c9be
00000320: 6f31 8abe acfa 7abe b0a5 8fbe b035 87be
00000330: b88b 9cbe d687 a0be ad69 9cbe 7a37 74be
00000340: 6a41 78be 4330 93be f3b9 8bbe 0d9b 84be
00000350: 1cd7 84be 0331 89be d53a aabe 8807 9b3e
00000360: 1a10 a0be 5fae a9be 8b96 87be a92e 76be
00000370: e839 a0be 2129 89be 9562 a5be 31b8 77be
00000380: 2754 74be e131 95be a343 aabe 4173 a8be
00000390: c9ee 82be 1e20 8fbe e536 9cbe 9e70 9abe
000003a0: 7fcd a93e c4fc 72be 7cb6 7abe b953 9cbe
000003b0: bea5 a4be 0150 a5be 5ecf 70be 43c2 8bbe
000003c0: 2bea 8fbe f46c 963e bd7f a2be 00e6 99be
000003d0: 7016 9bbe 8b37 75be ccf2 85be 5f8b 8bbe
000003e0: 3d8a 8abe eb0b aabe 1025 99be b43e 943e
000003f0: 3fdb 91be 0671 9cbe b02b 87be f3ba 92be
-0.39757952 -0.4660793 -0.4200104 -0.39432284 -0.3426354 -0.45766592 -0.43933624 -0.47583818
-0.3243255 -0.3114723 -0.4389216 -0.4652575 -0.09001793 -0.27478793 -0.39796364 -0.46090615
-0.3672976 -0.33894444 -0.45041555 -0.48289913 -0.43689156 -0.39797378 -0.07606201 0.38184378
-0.041028753 0.23538287 0.28866154 0.32555506 -0.27239308 0.266849 -0.26082915 -0.3130523
-0.32408318 -0.3269716 0.28762737 -0.2786277 -0.312211 -0.29911214 -0.31880963 0.30120763
0.3074093 0.2683151 -0.24702011 -0.26958337 -0.2519446 -0.31613868 -0.25523886 -0.29112196
0.27322602 -0.3334245 -0.26988894 -0.27517185 -0.26283845 -0.31822747 -0.3110549 -0.33022225
-0.25160298 -0.28046662 0.3232904 -0.26813477 -0.26460955 -0.30446097 -0.3025691 -0.27074882
-0.33344358 0.30979 -0.2639025 -0.28393847 -0.25467265 -0.25178567 -0.25737047 -0.30389884
-0.25955674 -0.2874768 -0.25408673 -0.46013463 -0.11679953 -0.24641982 -0.4917073 -0.36245945
-0.4810356 -0.18410596 -0.36656785 -0.4392791 -0.45797047 -0.4691248 0.11779027 0.15011448
-0.26792198 0.07384157 -0.46391174 -0.28353646 -0.14108439 -0.394705 -0.13098666 -0.3471253
-0.33562508 -0.318639 -0.29717302 -0.45374382 -0.38123694 -0.3784149 -0.355552 -0.27836192
-0.3231518 -0.19866514 -0.29857558 0.1053398 -0.33616325 -0.34980437 -0.34460476 -0.34558874
-0.17358637 -0.3952184 -0.31690103 -0.25973475 -0.4370727 -0.4212712 -0.20877016 -0.29065534
-0.34452662 0.24303941 -0.07014081 -0.38222364 -0.3830268 -0.39104328 -0.22727682 -0.33951202
-0.12971516 -0.42444998 -0.221974 -0.44749153 -0.40392655 -0.39764374 -0.39570588 -0.09628266
-0.077245265 -0.33909732 -0.46543378 -0.403342 -0.15437524 -0.0070899716 -0.41138428 -0.4360856
-0.4800929 -0.46339184 -0.22417967 -0.36986956 -0.43780398 -0.44784114 -0.27718896 -0.39658663
-0.16856728 -0.35215333 -0.3963464 -0.36521646 -0.10839759 -0.4010062 -0.4649532 -0.39541653
-0.40016752 -0.24964613 -0.29555368 0.09202465 -0.44550186 -0.18572882 -0.42100102 -0.42474517
-0.4415012 -0.31851113 -0.30859154 -0.34306636 -0.18612416 -0.17719677 -0.41336802 -0.35706314
-0.28128147 -0.31595564 -0.2769928 -0.27150807 -0.39337498 -0.3957307 -0.3750057 -0.37958154
-0.4163395 -0.46610895 0.4306886 -0.41793793 -0.4410994 -0.4946835 -0.40371367 -0.2724391
-0.35874295 -0.16375442 -0.3900019 -0.40970096 -0.10892353 -0.21968658 -0.40982512 -0.3926148
-0.2699084 -0.24509686 -0.28056097 -0.26408148 -0.30575347 -0.31353635 -0.30549374 -0.23849288
-0.24243703 -0.28747758 -0.27290305 -0.25899544 -0.25945365 -0.26795205 -0.3324801 0.30279183
-0.31262285 -0.33140847 -0.26482043 -0.24041237 -0.3129418 -0.2678919 -0.32301775 -0.24191357
-0.23860227 -0.29139617 -0.33254728 -0.32900432 -0.25572804 -0.2795419 -0.3051063 -0.30164045
0.33164594 -0.23729235 -0.24483675 -0.30532625 -0.321577 -0.322876 -0.23516604 -0.27296647
-0.28108343 0.2938 -0.31738082 -0.3005829 -0.30290556 -0.23946969 -0.26161802 -0.2725477
-0.27058592 -0.33212218 -0.2991109 0.2895409 -0.28487584 -0.3055498 -0.26400518 -0.28658256

fc1.bias f4 [120]
00000000: 5873 e9be 0c0b 01bf 3296 06bf 5203 ebbe
00000010: 7a43 f8be b0c3 02bf 695a b9be a4aa c5be
00000020: 32da 05bf 5d00 01bf 3403 0fbf 4410 0cbf
00000030: 0410 00bf ddb8 08bf 55ff 03bf 8503 f8be
00000040: a099 c0be ef1b 08bf 700a f6be 66d9 f4be
00000050: e8b2 00bf cd78 ecbe aba6 00bf e56c ecbe
00000060: cd1c fbbe 15a8 02bf 341f 02bf 7438 f9be
00000070: 224e febe 3c28 05bf d117 cdbe d0ef 033f
00000080: 85cb c5be 4757 dcbe f5fb 06bf 3c33 05bf
00000090: c7e9 02bf f878 e9be 8d02 f2be 4717 efbe
000000a0: b070 fdbe 763a f3be 0b77 f3be 99a2 04bf
000000b0: 11ff 09bf 9bfd e9be 028d e6be 5057 07bf
000000c0: 6de8 0cbf de8b fdbe 0c20 f4be befd ebbe
000000d0: b6f7 f3be d85e e2be 7031 42be 25a0 05bf
000000e0: 217b 08bf 4fa4 06bf 4413 00bf 3606 e3be
000000f0: dbc9 f7be f989 fbbe a781 04bf 02d2 08bf
00000100: 16f4 b8be 7bbc 0abf 3e0a 01bf c533 f4be
00000110: 52ec 03bf 0e6d f2be 09e1 f6be d70b e63e
00000120: a006 f2be 723c edbe 96ff efbe a52f fdbe
00000130: afa7 efbe dced ffbe 0e4d d4be 9808 0fbf
00000140: 9dc2 fabe ba19 f6be a81f 05bf 0f97 f1be
00000150: adb8 07bf b484 fcbe 4862 fdbe ecfe f6be
00000160: f78d 04bf a273 0bbf aa38 eabe 1c3c dbbe
00000170: c0a6 05bf abf2 03bf 550d 0dbf 40b2 e7be
00000180: 3f63 fabe 030d 08bf f071 f4be 0325 07bf
00000190: 845a ebbe 8a88 f9be d734 febe 00ed bcbe
000001a0: e7c2 f4be ec3b 04bf 4b20 04bf 657f e0be
000001b0: 8da3 d6be c2d8 bebe 8111 02bf 16ed e6be
000001c0: fbed f9be cca4 dabe 5d59 04bf 08d2 dcbe
000001d0: 394d eebe 2aa9 f4be 560f 0fbf 0fae 0cbf
-0.45595813 -0.5040748 -0.5257293 -0.4590097 -0.4848898 -0.51079845 -0.3620179 -0.3860675
-0.52286065 -0.5039118 -0.5586426 -0.5471232 -0.5002444 -0.5340708 -0.5156148 -0.48440185
-0.37617207 -0.53167623 -0.48054838 -0.47822112 -0.5027299 -0.46185914 -0.50254315 -0.4617683
-0.4904541 -0.5103772 -0.5082886 -0.48675883 -0.49668986 -0.5201452 -0.40057233 0.515378
-0.38631836 -0.43035337 -0.52728206 -0.520313 -0.51137966 -0.45600104 -0.4726757 -0.46697447
-0.49500036 -0.4750554 -0.4755176 -0.51810604 -0.53904825 -0.45701298 -0.45029455 -0.52867603
-0.55042154 -0.49520773 -0.476807 -0.46092027 -0.47649926 -0.44212985 -0.18964171 -0.52197486
-0.5331288 -0.52594465 -0.50029397 -0.44340676 -0.4839619 -0.49128702 -0.51760334 -0.53445446
-0.36123723 -0.5419385 -0.50406253 -0.47695747 -0.5153247 -0.47348827 -0.48218563 0.44930908
-0.4727068 -0.4633518 -0.46874684 -0.49450412 -0.4680762 -0.4998616 -0.41465038 -0.5587249
-0.48976603 -0.48066503 -0.5200143 -0.4718556 -0.5301617 -0.49319994 -0.49489045 -0.48241365
-0.5177912 -0.54473317 -0.45746356 -0.42819297 -0.52207565 -0.51542157 -0.5509847 -0.4525318
-0.48903844 -0.53144854 -0.47743177 -0.5279085 -0.45967495 -0.48736984 -0.4964969 -0.36899567
-0.4780495 -0.51653934 -0.51611775 -0.43847194 -0.41921654 -0.37274748 -0.5080796 -0.45102757
-0.48814377 -0.42703855 -0.5169886 -0.4312899 -0.4654329 -0.47785312 -0.55882776 -0.5495309

fc2.weight f4 [84, 120]
00000000: bf83 93bd 92d3 1bbe 5cff 6dbe bdd1 4e3e
00000010: 7428 b63d 7c84 283c 0ae9 13be b318 b1be
00000020: 280a d7be fe06 553e 5091 12bf e1ae 68be
00000030: d50c 08be b0e1 b4bd d0b0 a8be be64 84be
00000040: 4e98 e1be 4614 5fbe e51f 61be b780 3bbe
00000050: 257a 07bf 0f06 423d 9995 e1be 444e 9abe
00000060: 38bf 263e 88b7 f6be bd98 b4be c47b dcbe
00000070: e41e bfbd 42a1 bebe 3c92 02bf 3504 06bf
00000080: 81e4 2fbe 6482 57be 79c5 8fbe 5309 1bbe
00000090: d797 dfbe e3ed b0be 52a5 d03d 8786 3fbe
000000a0: 9302 93be 0aef 84bc ee59 e53e 6475 c3be
000000b0: b0d0 a1be 0067 81bd 48eb 16bc b216 763e
000000c0: a298 ffbe c70e 91be 1312 5a3e ed78 613e
000000d0: 7618 0ebf c956 9fbe 00b1 4bb9 ce4f 7c3d
000000e0: 15de f7be bde9 9dbe ce4d 983e e177 e0be
000000f0: 9c23 cebe 1dd3 f23d 7e26 83be 24bd b23d
00000100: 9a2d afbe fb80 b9be 1e02 b1be c501 85bd
00000110: 5487 cfbe 50c1 c9be d207 a03e 87a9 93be
00000120: 4be3 cebe af61 cebe e6b8 e7be 4faf 63be
00000130: 51a1 d2bd 1c00 1c3d 94fc c8be d7ce d2be
00000140: f6de 21be 3ad5 b3be 2c36 b7be d7e6 c83e
00000150: f2bf 46be ffca 90be e942 97be b9e3 a4be
00000160: a404 183d f34c 60bd a2e0 cfbe ffa7 c5be
00000170: dd4a 85be c0df bfbe 53d2 b3bd e687 99be
00000180: 080d 03be defd ee3d d1ac a4be 1ab2 a83e
00000190: 532c c1be c528 4dbe 18fa 0dbd 47ad babe
000001a0: 1fdc 72be 4ca0 023f c28a 2ebe 74e1 38be
000001b0: 3fad 00bf 95d6 c0bd 822c 8abd 501e b3bd
000001c0: bc22 f5bd 95b3 3ebe e202 02bf 3a5d 1dbe
000001d0: 9d4a 7fbe a334 7fbe d66c ecbe ab18 1bbf
000001e0: e01a 8cbd 6e95 32be ea09 aebe f984 85be
000001f0: 89b5 b43e ea3f adbe 155a dbbe ef3f d2be
00000200: 6772 a4be 65c1 aebe 1476 04bf de14 bcbe
00000210: f475 79be 239c dbbe 1bc9 b9be e52a dfbe
00000220: 6a99 8dbe 21a2 a3be c099 b5be ccc2 2ebe
00000230: 708d f6be 0a26 ccbe e6ee abbe d91b d8be
00000240: b49b e3be 0e45 2dbe f0bd e9be 8e16 9bbe
00000250: f4a0 8bbe 0396 88be bfcd a6be ecdb e6be
00000260: e268 fdbe 8902 a8be c8c0 81be 3713 cabe
00000270: 7062 9cbe 36be 52be 84be a4be f9e4 8ebe
00000280: 9b79 b33e d4b5 e0be d53f b5bd 83fa 063e
00000290: ae70 58be 2d86 b8be 14fe 0bbe dda8 cb3d
000002a0: e143 b5be 9803 9fbe 15dd f0be 5cc9 bdbe
000002b0: c8db b1be 067d 9bbe a01b 02bf c746 adbe
000002c0: ac4c d3be dad0 dabe ea49 65be ae1d d2be
000002d0: 76d8 823e d0d3 c7bc 385b dbbe 4cf6 debe
000002e0: c241 17be d012 a0be f996 81be 57f1 92be
000002f0: c7e3 4bbe 6af5 f6be 1d65 75be 68e3 373d
00000300: f66c debe ce50 aebe 95f7 90be 136e d7be
00000310: 3b01 8cbe 1f83 75be e288 eabe b372 fabd
00000320: fb48 a43e bd58 89be 666e 29be e4c5 39be
00000330: ff2b 723c 62af c1bc 7a96 01bf 2a9b 3cbd
00000340: 3e6b 403d 3abb 9dbe 2639 d9be 9f86 0cbe
00000350: 131a 75be 4670 5abe 09c2 c7bd b666 f5be
00000360: b1f6 9ebe 0200 cabd 3788 83be b691 53bd
00000370: bde7 10be e01f c3be ce14 88be 4a5e 71be
00000380: 400b 73be 096b 01bf 70b2 82be 7b78 663d
00000390: d492 01bf 67bd b7be fa2e 90be adb0 76be
000003a0: 0c78 b9be 1455 72be 1943 bcbe a6f4 b7be
000003b0: afdc 9fbe d55e ddbc 80b1 f9be 041e f2be
000003c0: 95f2 b1be 108e b3be 839c adbe 5144 0b3d
000003d0: ca00 92be fe5f 83be 68d4 94be 32cd aabe
000003e0: ef68 bdbe 9615 4dbe 8463 a5be fa9f 78be
000003f0: ea42 c0be 8bef 3ebe 9f33 64be 2f4e 82be
-0.07202863 -0.15217426 -0.23241943 0.20197196 0.088944346 0.010285493 -0.14444366 -0.34589157
-0.41999936 0.20803449 -0.5725298 -0.22722961 -0.13286145 -0.08832109 -0.32947397 -0.2585811
-0.44061512 -0.21785077 -0.21984823 -0.1831082 -0.5292075 0.04736906 -0.44059446 -0.30137837
0.16283882 -0.48186898 -0.3527278 -0.43063176 -0.09332064 -0.37232405 -0.51004386 -0.5235017
-0.17177011 -0.21045834 -0.28080347 -0.15140276 -0.43670532 -0.34556493 0.10187782 -0.18703662
-0.287129 -0.016227264 0.44795173 -0.381755 -0.31604528 -0.06318474 -0.009211369 0.24032095
-0.49921137 -0.28331587 0.21295957 0.22018786 -0.55506074 -0.311209 -0.00019425526 0.061599545
-0.48411623 -0.3084239 0.2974686 -0.4384146 -0.40261543 0.11856673 -0.25615305 0.08727482
-0.3421448 -0.36231217 -0.34571928 -0.06494478 -0.40532935 -0.39405298 0.31255966 -0.28840277
-0.40407786 -0.40308902 -0.45258254 -0.22234844 -0.10284675 0.03808604 -0.39255202 -0.4117343
-0.15807709 -0.35123616 -0.35783517 0.39238617 -0.19409159 -0.28279874 -0.29543236 -0.3220499
0.0371138 -0.054760884 -0.4060107 -0.38604733 -0.2603368 -0.37475395 -0.087803505 -0.29986495
-0.1279794 0.11669515 -0.32163098 0.3294838 -0.3772913 -0.20035084 -0.034662336 -0.36460325
-0.23716782 0.51025844 -0.1704512 -0.18054754 -0.5026435 -0.09415928 -0.067467704 -0.08746016
-0.11969516 -0.18623193 -0.5078565 -0.15367594 -0.24930806 -0.24922423 -0.46176785 -0.60584515
-0.068410635 -0.17439815 -0.3399194 -0.26078013 0.3529475 -0.33837825 -0.42842165 -0.41064402
-0.32118532 -0.34131923 -0.5174267 -0.3673467 -0.24361402 -0.4289256 -0.36286244 -0.43587413
-0.27656108 -0.31959632 -0.35468864 -0.17066497 -0.48154783 -0.39872772 -0.33580703 -0.42208746
-0.4445473 -0.16920874 -0.45652723 -0.30290645 -0.27271235 -0.2667695 -0.32578847 -0.45089662
-0.49494082 -0.32814434 -0.25342393 -0.39467785 -0.30543852 -0.20580372 -0.32176602 -0.27909067
0.35053715 -0.43888724 -0.088500656 0.131815 -0.21136734 -0.36039868 -0.13671142 0.099443175
-0.3540335 -0.3105743 -0.47043672 -0.37067688 -0.34737992 -0.30368823 -0.508234 -0.3384306
-0.41269433 -0.42737466 -0.22391477 -0.4103827 0.25555772 -0.024392992 -0.42843032 -0.43547285
-0.14771178 -0.31264353 -0.25310495 -0.28699753 -0.19911109 -0.4823411 -0.23964353 0.044894606
-0.43442506 -0.34046024 -0.2831389 -0.42076167 -0.2734469 -0.239758 -0.45807558 -0.122289084
0.3208693 -0.26825514 -0.1654602 -0.18141896 0.014780997 -0.0236432 -0.50620234 -0.046046413
0.046977274 -0.30806905 -0.42426413 -0.13723229 -0.23935728 -0.21331891 -0.09753806 -0.47929925
-0.31047586 -0.09863283 -0.2568986 -0.051652633 -0.14150901 -0.38110256 -0.26578373 -0.23571125
-0.2373476 -0.5055395 -0.25526762 0.056267243 -0.50614667 -0.3588669 -0.2816084 -0.24090834
-0.362244 -0.23665267 -0.3676994 -0.3592884 -0.31223056 -0.027022758 -0.48768234 -0.47288525
-0.34755388 -0.35069323 -0.3390847 0.0340007 -0.28516227 -0.25659174 -0.29068303 -0.33359677
-0.3699412 -0.20027766 -0.32302487 -0.24279776 -0.3755105 -0.18646066 -0.22285317 -0.25450274

fc2.bias f4 [84]
00000000: ebec e9be 3156 10bf a03d e5be 92db adbe
00000010: 7990 19bf 86fe 04bf 7fd4 e7be c4d2 b5be
00000020: 0ad2 f3be e805 08bf 6052 dbbe 9265 093f
00000030: f9d7 02bf f99a 18bf e2af ebbe 56ac ffbe
00000040: 0a59 07bf ed74 0d3f b90f d7be 9690 02bf
00000050: e440 d6be 191e 01bf 8201 0cbf ef45 10bf
00000060: f33d f4be b134 02bf 8ca1 05bf e2c5 123f
00000070: 682c 173f 2fbb debe 39b3 0fbf 05a7 063f
00000080: 58c0 02bf 0405 bcbe 6362 05bf 75e4 0bbf
00000090: 8478 0cbf de83 fabe 109e 13bf 2a07 0bbf
000000a0: 4c95 07bf 52a2 f6be e336 03bf dcb2 fdbe
000000b0: 2fbe f3be c6f8 dabe 4ee9 16bf 18c7 ecbe
000000c0: c6ef efbe f4de 113f 2c1d 1abf cce6 e8be
000000d0: e483 083f 98da 0a3f c67c e5be 9e8d 10bf
000000e0: 51f2 f0be 5c2c 17bf b204 0c3f f25c 033f
000000f0: 5e1d e1be 35a0 0cbf 7154 0cbf 0a5d e6be
00000100: 5583 efbe f6aa dabe 2181 f9be 80ef 08bf
00000110: 106c c8be b344 f4be 2ebd 09bf 50dd 0ebf
00000120: 02e5 d9be 96df 0dbf fb6e ef3e a718 e8be
00000130: b9a5 f0be 88c8 c3be 9a73 023f c4fa fdbe
00000140: 294b 193f 6e9c 123f c828 11bf 1e5c 18bf
-0.45688567 -0.5638152 -0.4477358 -0.3395658 -0.5998607 -0.5195087 -0.4527931 -0.35512364
-0.47621185 -0.5313401 -0.42836285 0.5367061 -0.511108 -0.5961147 -0.46032625 -0.4993617
-0.5287024 0.5525654 -0.42004183 -0.5100187 -0.41846383 -0.5043655 -0.546898 -0.5635671
-0.47703514 -0.5086165 -0.52199626 0.57333195 0.59052134 -0.43502185 -0.5613285 0.525986
-0.51074743 -0.36722577 -0.5210325 -0.5464547 -0.5487139 -0.48928732 -0.5766306 -0.54307806
-0.52962184 -0.48170716 -0.51255625 -0.4955052 -0.47606036 -0.42767924 -0.58949745 -0.46245646
-0.4686262 0.56980824 -0.6020076 -0.45488584 0.5332625 0.542398 -0.44821757 -0.5646609
-0.47059873 -0.5905206 0.54694664 0.513137 -0.43967718 -0.54931957 -0.5481635 -0.44992858
-0.46779886 -0.42708558 -0.4873133 -0.5349045 -0.39144945 -0.47708663 -0.5380429 -0.55806446
-0.42557532 -0.5541929 0.4676436 -0.45331308 -0.47001436 -0.3823893 0.50957644 -0.4960538
0.5988031 0.5726994 -0.5670285 -0.5951556

fc3.weight f4 [10, 84]
00000000: 9b00 debe 65e7 f5be 35d5 91be 0357 0bbf
00000010: 10c0 c9be f263 00bf e60c f2be 3271 e1be
00000020: baac 18bf 679a efbe 016c 09bf aca4 15bf
00000030: 5e67 17bf aefe 02bf 8c2e d2be 1ee4 c8be
00000040: c746 dbbe 5289 f6be e855 cdbe 900c e7be
00000050: dd34 1dbf fecf 91be 6d68 13bf 3ba5 0ebf
00000060: 9078 d7be e46a ffbe fcb7 b3be 22da f0be
00000070: 053e 13bf 9d9b ba3e e87f 96be dfd8 8dbe
00000080: f2ae f1be b639 c0be abdc d0be 4bde 06bf
00000090: 94ed 05bf 5c26 f6be 1e3e d9be a009 eebe
000000a0: 1ea3 64be a823 11bf 6ab5 ecbe d44f f8be
000000b0: 726b e9be d54e d7be 52a7 5cbd c5e5 09bf
000000c0: 9b0d d8be cdbc dbbe 90cb f4be 4a76 e9be
000000d0: 78e3 03bf 0ee4 acbe b15a 17bf 5930 fdbe
000000e0: 2021 fabe 05c8 08bf b3ce a3be ea34 10bf
000000f0: 04c0 0cbf 96a4 12bf 3d4d 02bf 613d d7be
00000100: 3dfe 16bf 7213 febe 3d12 00bf a3aa 14bf
00000110: aed4 fcbe e5d8 fcbe d020 cebe 4212 d7be
00000120: 0116 bfbe 197c 1cbf dbb3 e9be de36 90be
00000130: c435 f7be ed93 dabe b746 edbe 6020 cdbe
00000140: 71a0 f6be 5aa1 b5be b1ab 13bf b9e7 f5be
00000150: e2e5 0fbf 835a e6be fe43 41be 00c5 eebe
00000160: 5641 c9be 170c 68be 7a3a 03bf 1aa7 0bbf
00000170: 6761 1fbf 222e 17bf 3430 1bbf 86fc 7abe
00000180: b18b 17bf 5a49 11bf 5982 0bbf da1b efbe
00000190: 4498 f0be 0457 a7be e110 efbe f5d7 e1be
000001a0: f2b8 13bf 84e2 dabe bfcc 1abf c535 ddbe
000001b0: 8185 f7be 6d44 0abf 6986 00bf 208b a3be
000001c0: 7e73 13bf ba0a 14bf 608f 62be 6d0e 6ebe
000001d0: 8b12 0abf 2994 4dbe d99d 17bf 792f 0abf
000001e0: 73a9 d1be e362 0bbf b131 0ebf 504b d5be
000001f0: 9e49 ee3e bb89 d2be b7ff 05bf 10ac e5be
00000200: 38cb 10bf ab51 d8be 14e5 423e 88d5 0fbf
00000210: 0ada 06bf a560 8cbe 88f9 f8be eeab 15bf
00000220: 585c 88be e0f8 04bf ce2f c7be 97d3 14bf
00000230: 1cc8 f3be 702f d4be 8242 18be 3689 dbbe
00000240: 8700 eebe 6e0c 0bbf 3c9e d0be ac93 fabe
00000250: 242d 0fbf 10a4 f7be 85a9 f1be 068d d6be
00000260: 9e8a 0bbf 1b3a 15bf 02ca 14bf ded3 dabe
00000270: b9f4 14bf b160 eabe 64e9 05bf 0962 debe
00000280: 6724 f1be 1645 03bf cfc7 01bf 4a9b cdbe
00000290: 8736 8abe 973f 19be 7076 0abf a8cc 0ebf
000002a0: fe10 0fbf c421 fbbe cb2c 9bbe d0db b1be
000002b0: 49b6 0bbf 8422 11bf 3547 cbbe 8497 00bf
000002c0: 4afd eabe 0e60 e8be a487 f2be 7ade 9bbe
000002d0: 7d0c ffbe e67c 19bf e3a6 c8be c772 12bf
000002e0: 9be3 18bf d2f4 c83e 7185 11bf 9644 e9be
000002f0: 8a45 0dbf 540a e2be 8483 eabe a2ff 10bf
00000300: 7f68 14bf 7c58 0ebf 1f60 01bf 9804 93bd
00000310: 381f 6fbc 1244 3bbe afcd d4be e706 a2be
00000320: fea3 e4be e05d e9be 7c91 0dbf 19b1 f8be
00000330: 3b7a 07bf c1a6 f0be 8b41 d6be dbf6 0dbf
00000340: 3a0b 0fbf d20a 13bf 4b9b efbe 3bd0 d0be
00000350: 0012 68be e688 12bf 1954 f4be b2c6 fcbe
00000360: b02e adbe 1cf1 75be 12be 17bf 7fc6 c2be
00000370: b4b6 2fbd 552b 14be f43f 21bf 7cb5 fdbe
00000380: 84bb 08bf a63b e2be 2f5d 433e 5426 e6bd
00000390: 4472 e7be b8a0 febe 0d71 f3be eccd 00bf
000003a0: e0d6 06bf d078 c8be 6c1a d7be 7f2e f5be
000003b0: 0676 e2be f1ad d2be 9789 0abf b0c1 18bf
000003c0: d053 eabe 74ec 21bf 725c 063d 9343 1ebf
000003d0: be67 11bf b7f5 0fbf 5a51 cabe c7f8 b3be
000003e0: 9694 a0be f7cf 57be 76db f6be c292 0fbf
000003f0: b6dd cabe 1142 12bf 75b4 11be 41a2 01bf
-0.43359837 -0.48028103 -0.28482977 -0.54429644 -0.39404345 -0.50152504 -0.47275466 -0.44031674
-0.5963856 -0.46797487 -0.53680426 -0.58454394 -0.591421 -0.5116986 -0.41051137 -0.3923654
-0.42827436 -0.48151642 -0.40104604 -0.45126772 -0.6140879 -0.28478998 -0.57581216 -0.5572087
-0.4208417 -0.4988624 -0.35101306 -0.47041422 -0.5751651 0.3644685 -0.2939446 -0.27704522
-0.47203785 -0.3754403 -0.40793356 -0.5268294 -0.5231564 -0.4807614 -0.42430204 -0.46491718
-0.2232785 -0.5669503 -0.46232158 -0.48498404 -0.45589787 -0.42052332 -0.053870507 -0.53866225
-0.4219788 -0.4291748 -0.47811556 -0.4559806 -0.51518965 -0.33767742 -0.5912276 -0.4945095
-0.48853397 -0.53430206 -0.31993636 -0.5633074 -0.5498049 -0.5728239 -0.50899106 -0.42039016
-0.58981687 -0.4962421 -0.5002783 -0.5807287 -0.49381012 -0.49384227 -0.4025941 -0.42006117
-0.37321475 -0.6112686 -0.4564503 -0.2816686 -0.48283207 -0.42690983 -0.46343014 -0.40063763
-0.48169282 -0.35474664 -0.57683855 -0.48028353 -0.5621015 -0.4499093 -0.18873593 -0.46634674
-0.3930766 -0.22660862 -0.51261103 -0.5455185 -0.62258 -0.5905477 -0.6062043 -0.24510393
-0.5919753 -0.5675255 -0.5449577 -0.46700937 -0.4699117 -0.32683575 -0.46692565 -0.44110075
-0.5770408 -0.42750943 -0.6046867 -0.43205085 -0.48344043 -0.5401066 -0.50205094 -0.3194208
-0.575981 -0.5782887 -0.22125006 -0.2324769 -0.53934544 -0.2007605 -0.5922523 -0.5397869
-0.40949592 -0.54447764 -0.55544573 -0.4165902 0.4654054 -0.41120705 -0.52343315 -0.44857836
-0.5656009 -0.42249808 0.19032699 -0.561852 -0.5267645 -0.27417484 -0.48627877 -0.5846547
-0.26632953 -0.51942253 -0.3890366 -0.5813536 -0.4761361 -0.41442442 -0.1486912 -0.4287812
-0.46484777 -0.5431584 -0.40745723 -0.4894079 -0.55928254 -0.48367357 -0.47199646 -0.41904467
-0.5450839 -0.58291787 -0.5812074 -0.42739767 -0.5818592 -0.45776895 -0.5230925 -0.4343417
-0.47098085 -0.5127729 -0.5069551 -0.4015754 -0.26994726 -0.14965664 -0.5408697 -0.5578103
-0.55885303 -0.490492 -0.30307612 -0.34738016 -0.5457502 -0.5669329 -0.39702764 -0.50231194
-0.4589637 -0.45385784 -0.4736911 -0.30443174 -0.49814215 -0.59956205 -0.39189824 -0.57206386
-0.597223 0.39249283 -0.5684424 -0.4556014 -0.55184233 -0.44148505 -0.45803463 -0.56640065
-0.5797195 -0.55603766 -0.50537294 -0.071786106 -0.0145948455 -0.18287686 -0.41563174 -0.3164589
-0.44656366 -0.45579433 -0.55300117 -0.48572615 -0.52920884 -0.47002223 -0.4184688 -0.55454797
-0.55876505 -0.57438385 -0.46798167 -0.40783867 -0.22663116 -0.5724014 -0.4772041 -0.49370342
-0.33824682 -0.24017757 -0.592744 -0.38042066 -0.04289885 -0.14469655 -0.6298821 -0.49552524
-0.53411126 -0.44186133 0.19078515 -0.11237779 -0.45204365 -0.49731994 -0.47547188 -0.5031421
-0.52671623 -0.39154673 -0.42012346 -0.47887036 -0.4423067 -0.41148332 -0.54116195 -0.59670544
-0.4576707 -0.63251424 0.032803006 -0.6182186 -0.56798923 -0.56234306 -0.3951519 -0.3515074
-0.31363362 -0.21075426 -0.4821431 -0.5608331 -0.39622277 -0.5713206 -0.14228995 -0.50638205

fc3.bias f4 [10]
00000000: d96d 05bf c3fa dfbe 3d55 f53e d5b3 0c3f
00000010: e880 fc3e d0e0 cc3e f641 003f 3522 183e
00000020: 325c cfbe 99a8 e1be
-0.5212074 -0.43746004 0.47916594 0.549619 0.49317098 0.40015268 0.5010065 0.14856799
-0.40500027 -0.44073942
