FL/cnn-img/outputs/2025-03-18/18-20-35/model_state_acc_0.1779_round_4.pth (torch, 251962 bytes, 10 tensors)

conv1.weight f4 [6, 3, 5, 5]
0.38076007 0.36635768 0.36962578 0.27553016 0.2686808 0.27487954 0.33457643 0.38371998
0.39657673 0.3362581 0.339974 -0.12330717 0.08144312 0.25060865 0.37810883 -0.30074504
-0.22972581 -0.26679927 0.18429215 0.39899778 -0.42883447 -0.24529457 -0.3768298 -0.115236394
0.3956898 -0.4524393 -0.34040353 -0.24035247 -0.24778141 -0.20077145 -0.36711466 -0.38056013
-0.35468242 -0.21730885 0.13409463 -0.064432666 -0.27202472 -0.23754302 -0.07214074 0.07437
-0.16942072 -0.28331587 -0.18103588 0.14481857 0.09803596 -0.1747204 -0.4272761 -0.08719666
0.20026955 0.29644483 -0.37187713 -0.4279311 -0.25666118 -0.3665326 -0.42820066 -0.2534636
-0.33782637 -0.31386572 -0.30593708 -0.22637123 -0.22001162 -0.42307907 -0.40788192 -0.33740062
-0.16982438 -0.33728832 -0.347375 -0.3967878 -0.27159923 -0.0006442517 -0.23182067 -0.28122678
-0.3064913 -0.23982216 0.2478247 0.070505835 0.06505036 -0.075103745 -0.16052313 -0.21569115
0.30000606 0.25293374 0.18609148 -0.28093532 -0.33244115 0.26800764 0.40308678 0.22687376
-0.3952075 -0.11726207 0.33657095 0.28718185 0.31424072 -0.044461407 -0.15133679 0.41250306
-0.066125065 0.049700256 0.06582889 -0.00029753894 0.15689018 -0.0345757 -0.1512139 -0.2232604
-0.00023559667 0.36491758 0.06721562 -0.15688269 -0.315945 -0.359343 0.34184417 0.0020516366
-0.0130359195 -0.34486014 -0.2698832 0.35377455 0.030920785 -0.09409224 -0.116503425 -0.18941697
0.40403444 -0.06840645 -0.1824887 0.37051165 0.09022772 -0.16202492 -0.35530114 -0.29668066
-0.20799321 -0.29445174 -0.16582802 -0.28068975 -0.21611285 -0.3486257 -0.31158942 -0.06599963
-0.30924106 -0.31231943 -0.28842103 -0.19427475 -0.18927497 -0.25005293 -0.3218416 -0.30745745
-0.34213814 -0.1577155 -0.43271974 -0.2600688 -0.10205282 -0.2106873 0.34841397 0.23186016
0.31815574 0.24628085 -0.04796625 0.38832447 0.3858565 0.39577788 0.22417441 0.17988047
0.35896116 0.24973723 -0.41502777 -0.43787655 0.31651714 0.18348631 0.28044647 -0.3088547
-0.4265571 0.2946502 -0.064351395 -0.21871543 -0.3030411 -0.3062726 -0.008556604 -0.046088785
0.023380667 0.30315927 0.24120604 -0.105211556 0.22374624 0.3110917 0.029534673 -0.06480421
0.3071174 0.30195844 0.41508758 -0.21647167 -0.20918679 0.42280692 0.23841093 0.30369422
-0.3803939 -0.2565878 0.44521305 0.25204918 0.3253573 0.2932201 -0.027139083 0.2824635
-0.34604347 -0.45208645 -0.2422767 -0.33232093 -0.4277206 -0.24827772 -0.40773493 -0.27564636
-0.24794114 -0.35155487 -0.38557383 -0.24062425 -0.37324035 -0.36344042 -0.21890149 -0.19430235
-0.24673879 -0.3905586 -0.33988038 -0.37608644 -0.30467796 -0.3776665 -0.4272255 -0.35899556
-0.23163074 0.3617616 0.3039069 0.25655615 0.080763586 0.20757863 0.31202585 0.41614395
0.41488868 0.42593336 0.18220195 0.21778062 0.23017606 0.37213477 0.23766984 0.00058184564
0.23965563 -0.08865757 -0.35151035 -0.001971068 -0.018029705 0.3655798 -0.29793355 -0.23008515
-0.32145268 -0.3746146 -0.03314355 0.009252477 -0.41013527 -0.24470952 -0.08603877 0.364464
00000000: fcf2 c23e 3c93 bb3e 973f bd3e 4a12 8d3e
00000010: 8890 893e 03bd 8c3e 9a4d ab3e f276 c43e
00000020: 1b0c cb3e 062a ac3e 1211 ae3e 7888 fcbd
00000030: a7cb a63d c74f 803e 7b97 c13e 41fb 99be
00000040: 3e3d 6bbe ea99 88be 15b7 3c3e 7049 cc3e
00000050: 3190 dbbe 802e 7bbe d6ef c0be 0f01 ecbd
00000060: da97 ca3e 20a6 e7be 5f49 aebe f51e 76be
00000070: 69ba 7dbe 0897 4dbe 74f6 bbbe c7d8 c2be
00000080: ef98 b5be 3686 5ebe 1a50 093e 46f5 83bd
00000090: d346 8bbe 7a3e 73be 86be 93bd 4c4f 983d
000000a0: a07c 2dbe c70e 91be 7861 39be 524b 143e
000000b0: 14c7 c83d e8e9 32be efc3 dabe 2a94 b2bd
000000c0: 7613 4d3e 9ec7 973e ae66 bebe c919 dbbe
000000d0: 1869 83be 29aa bbbe 1e3d dbbe fbc5 81be
000000e0: 94f7 acbe 02b3 a0be c9a3 9cbe dccd 67be
000000f0: ba4a 61be d29d d8be e6d5 d0be c6bf acbe
00000100: 71e6 2dbe 0eb1 acbe 23db b1be c527 cbbe
00000110: 0e0f 8bbe 00e3 28ba 6662 6dbe f5fc 8fbe
00000120: 6dec 9cbe f193 75be c2c5 7d3e 5d65 903d
00000130: 2039 853d fecf 99bd 2d60 24be 24de 5cbe
00000140: 659a 993e 8880 813e c48e 3e3e c1d6 8fbe
00000150: ba35 aabe 4c38 893e 6461 ce3e 9851 683e
00000160: a358 cabe 1927 f0bd 0753 ac3e 8009 933e
00000170: 29e4 a03e 2a1d 36bd 08f8 1abe 9a33 d33e
00000180: 946c 87bd 7f92 4b3d 4cd1 863d 00ff 9bb9
00000190: d2a7 203e 409f 0dbd d1d7 1abe 609e 64be
000001a0: 800a 77b9 7ad6 ba3e 58a8 893d dba5 20be
000001b0: 8bc3 a1be cefb b7be 3306 af3e c074 063b
000001c0: 9c94 55bc 8291 b0be 212e 8abe f021 b53e
000001d0: 964d fd3c 6fb3 c0bd 5999 eebd 86f6 41be
000001e0: 9add ce3e ae18 8cbd 51de 3abe b4b3 bd3e
000001f0: 50c9 b83d dce9 25be 08ea b5be 87e6 97be
00000200: 2cfc 54be 61c2 96be d2ce 29be 91b6 8fbe
00000210: b04c 5dbe 117f b2be a688 9fbe d02a 87bd
00000220: d854 9ebe 55e8 9fbe ecab 93be f6ef 46be
00000230: 4cd1 41be f006 80be 6cc8 a4be 106b 9dbe
00000240: bb2c afbe 2c80 21be 718d ddbe bd27 85be
00000250: 1201 d1bd 69be 57be 5163 b23e c06c 6d3e
00000260: 4fe5 a23e 0c31 7c3e 4278 44bd 77d2 c63e
00000270: fc8e c53e 66a3 ca3e fa8d 653e 9632 383e
00000280: c2c9 b73e 1ebb 7f3e 857e d4be 5b31 e0be
00000290: 890e a23e d6e3 3b3e ae96 8f3e 3422 9ebe
000002a0: b165 dabe 64dc 963e aaca 83bd f0f6 5fbe
000002b0: 3428 9bbe c3cf 9cbe 0031 0cbc 98c7 3cbd
000002c0: d088 bf3c b137 9b3e b7fe 763e 2879 d7bd
000002d0: bc1d 653e 6947 9f3e b3f2 f13c 12b8 84bd
000002e0: 7e3e 9d3e 4c9a 9a3e 5c86 d43e c0aa 5dbe
000002f0: 1035 56be 267a d83e ff21 743e cf7d 9b3e
00000300: fdc2 c2be 7a5f 83be f7f2 e33e 970c 813e
00000310: 3b95 a63e f220 963e c852 debc 0e9f 903e
00000320: 9c2c b1be e077 e7be 6217 78be f825 aabe
00000330: 32fe dabe 843c 7ebe a2c2 d0be 8521 8dbe
00000340: 48e4 7dbe 00ff b3be ef69 c5be 3466 76be
00000350: 5c19 bfbe dd14 babe b627 60be 32f7 46be
00000360: 18a9 7cbe 4cf7 c7be cd04 aebe 678e c0be
00000370: c0fe 9bbe 815d c1be 4dbd dabe 44ce b7be
00000380: 9c30 6dbe d138 b93e af99 9b3e 545b 833e
00000390: 6167 a53d 7e8f 543e dac1 9f3e d210 d53e
000003a0: 4a6c d43e f013 da3e 2693 3a3e e201 5f3e
000003b0: 46b3 6b3e 7388 be3e b95f 733e 0087 183a
000003c0: 4968 753e 1a92 b5bd 2af9 b3be 092d 01bb
000003d0: 08b3 93bc 472d bb3e bf8a 98be 719b 6bbe
000003e0: 7295 a4be 7ccd bfbe 88c1 07bd b497 173c
000003f0: 40fd d1be 2295 7abe 1835 b0bd 079b ba3e

conv1.bias f4 [6]
-0.40508258 -0.33890343 -0.24050489 -0.2432256 -0.34954053 -0.39608338
00000000: fc66 cfbe c084 adbe ea46 76be 2210 79be
00000010: faf6 b2be 71cb cabe

conv2.weight f4 [16, 6, 5, 5]
-0.26650703 -0.40136823 -0.34661853 -0.30037007 -0.27889836 -0.33771753 -0.25898862 -0.30452052
-0.38124397 -0.31213358 -0.38764006 -0.2802906 -0.31326836 -0.30148435 -0.3963833 -0.34397945
-0.30514234 -0.40374035 -0.2648044 -0.29646355 -0.26773447 -0.28314817 -0.36793962 -0.34400094
-0.3178655 -0.39437363 -0.28399113 -0.3452018 -0.29774976 -0.29044 -0.36187527 -0.38563532
-0.32146776 -0.37781328 -0.30945128 -0.28122666 -0.3402273 -0.35325453 -0.25452715 -0.29756445
-0.38222888 -0.41153467 -0.34444824 -0.35512465 -0.31139216 -0.33856133 -0.38805413 -0.33045083
-0.26503894 -0.32981214 -0.3136115 -0.31449065 -0.32779655 -0.32697922 -0.24956843 -0.33104768
-0.3347484 -0.27972457 -0.37034947 -0.3661626 -0.34771279 -0.41515267 -0.27960366 -0.40101975
-0.34021294 -0.37356493 -0.2699262 -0.42541575 -0.2614334 -0.3258963 -0.30586618 -0.35671607
-0.3144104 -0.38120624 -0.30642027 -0.31581485 -0.315336 -0.29258132 -0.33259842 -0.11051305
-0.3697121 -0.38844773 -0.41038874 -0.40470192 -0.3156284 -0.37711495 -0.36895573 -0.36806226
-0.29709297 -0.34785783 -0.36898905 -0.40886584 -0.29983002 -0.3211115 -0.27374855 -0.36908883
-0.29018605 -0.28793758 -0.388654 -0.26331386 -0.30654663 -0.31380674 -0.1564743 -0.0062896125
0.08503111 -0.06227829 -0.17567456 -0.07744885 0.14415161 0.27051303 -0.2459589 -0.3281498
-0.35238755 -0.31487346 -0.33028957 -0.14556496 -0.28900987 -0.259336 -0.3377302 -0.29148957
-0.23410212 -0.40480894 -0.26058552 -0.35121202 -0.23757625 -0.3783807 -0.29121616 -0.35518885
-0.20508042 -0.2508468 -0.25451848 -0.3959291 -0.28197443 -0.24882776 -0.35494044 -0.3137555
-0.4160112 -0.2630396 -0.25890738 -0.2631264 -0.30553246 -0.3444428 -0.2787717 -0.28084096
-0.32240936 -0.26821858 -0.4027843 -0.30946496 -0.2194151 -0.13837495 -0.1718592 -0.19705135
-0.27966422 -0.22462036 -0.24282831 -0.2580356 -0.15411705 -0.2519252 -0.1684644 -0.27907023
-0.21547255 -0.26752096 -0.25971377 -0.20889942 -0.2812405 -0.27413476 -0.17376848 -0.20097631
-0.23659204 -0.28872868 -0.2985249 -0.19429182 -0.29744363 -0.25226685 -0.21859738 -0.28519928
-0.27171642 -0.24135704 -0.17096566 -0.21542743 -0.27585065 -0.25344703 -0.22043201 -0.18686242
-0.247928 -0.20983 -0.14241019 -0.2993059 -0.29114005 -0.23333125 -0.16026373 -0.22972229
-0.16953692 -0.1910777 -0.20869525 -0.24607565 -0.19648007 -0.21005121 -0.23221529 -0.2765563
-0.2504322 -0.15622683 -0.14127177 -0.28782037 -0.15648171 -0.25157616 -0.20087513 -0.14453995
-0.28329825 -0.24009259 -0.23243645 -0.27420527 -0.15706606 -0.24400648 -0.14435506 -0.2239189
-0.2983389 -0.16645676 -0.24461062 -0.22992972 -0.15181568 -0.28504214 -0.19683388 -0.28662705
-0.15954317 -0.2563938 -0.17442816 -0.23944345 -0.20121549 -0.2016355 -0.1634391 -0.28085005
-0.1863927 -0.25583643 -0.1897026 -0.26421702 -0.18180989 -0.15455137 -0.25130853 -0.29918587
-0.14716205 -0.2458612 -0.28639176 -0.19841307 -0.25250918 -0.16278034 -0.2401006 -0.15215059
-0.22896743 -0.2864013 -0.1808806 -0.23981065 -0.2523926 -0.14313309 -0.29547885 -0.19935367
00000000: 9c73 88be 2380 cdbe fc77 b1be 1bca 99be
00000010: c4cb 8ebe 50e9 acbe 289a 84be 1dea 9bbe
00000020: 6932 c3be f9cf 9fbe c278 c6be 4082 8fbe
00000030: b664 a0be 285c 9abe c0f2 cabe 131e b0be
00000040: 9e3b 9cbe 0eb7 cebe 7194 87be 12ca 97be
00000050: 7e14 89be ccf8 90be 9562 bcbe e420 b0be
00000060: 44bf a2be 57eb c9be 4967 91be 4abe b0be
00000070: a872 98be 8db4 94be b747 b9be fe71 c5be
00000080: 6c97 a4be be70 c1be 6670 9ebe f1fc 8fbe
00000090: 4632 aebe c7dd b4be 6251 82be 5e5a 98be
000000a0: 81b3 c3be acb4 d2be 855b b0be e6d2 b5be
000000b0: cb6e 9fbe e957 adbe 08af c6be da30 a9be
000000c0: 2fb3 87be 23dd a8be b091 a0be eb04 a1be
000000d0: f3d4 a7be d269 a7be de8e 7fbe 157f a9be
000000e0: 2464 abbe 0f38 8fbe 729e bdbe aa79 bbbe
000000f0: 6907 b2be e48e d4be 3628 8fbe 7652 cdbe
00000100: 6430 aebe e743 bfbe c433 8abe 18d0 d9be
00000110: 99da 85be e1db a6be 7e9a 9cbe 7da3 b6be
00000120: 66fa a0be 772d c3be 1ee3 9cbe 7cb2 a1be
00000130: b873 a1be 38cd 95be 574a aabe aa54 e2bd
00000140: e84a bdbe 9fe2 c6be 791e d2be 1735 cfbe
00000150: 0c9a a1be 3615 c1be c4e7 bcbe a872 bcbe
00000160: 921c 98be 6c1a b2be 22ec bcbe dd56 d1be
00000170: 5283 99be ba68 a4be c528 8cbe 36f9 bcbe
00000180: 4493 94be 8e6c 93be a8fd c6be 13d1 86be
00000190: aef3 9cbe 47ab a0be cd3a 20be 1819 cebb
000001a0: ca24 ae3d 8517 7fbd 08e4 33be 819d 9ebd
000001b0: 7b9c 133e af80 8a3e a6dc 7bbe 4003 a8be
000001c0: 246c b4be 1837 a1be b71b a9be fb0e 15be
000001d0: 1af9 93be b0c7 84be f9ea acbe 1f3e 95be
000001e0: 77b8 6fbe 1e43 cfbe 776b 85be 10d2 b3be
000001f0: 3047 73be 1dbb c1be 491a 95be 50db b5be
00000200: 9a00 52be fe6e 80be 3f50 82be 38b7 cabe
00000210: f45e 90be b4cc 7ebe c1ba b5be 90a4 a0be
00000220: 6cff d4be 20ad 86be 828f 84be 81b8 86be
00000230: c06e 9cbe cf5a b0be 2abb 8ebe 63ca 8fbe
00000240: d712 a5be f253 89be be39 cebe 3172 9ebe
00000250: 5aae 60be 2ab2 0dbe dcfb 2fbe d4c7 49be
00000260: 2630 8fbe e102 66be fca7 78be 3e1d 84be
00000270: dcd0 1dbe 57fc 80be ef81 2cbe 4be2 8ebe
00000280: d6a4 5cbe 82f8 88be 34f9 84be bbe9 55be
00000290: c1fe 8fbe 645b 8cbe 5df0 31be bccc 4dbe
000002a0: 2f45 72be 3fd4 93be 41d8 98be 6ff4 46be
000002b0: 884a 98be 1f29 81be fed7 5fbe a405 92be
000002c0: 6a1e 8bbe 4d26 77be 9f11 2fbe 0299 5cbe
000002d0: 4c3c 8dbe cfc3 81be eeb8 61be dd58 3fbe
000002e0: d6e0 7dbe addd 56be fad3 11be 9f3e 99be
000002f0: 4f10 95be 63ee 6ebe 2d1c 24be 523c 6bbe
00000300: 169b 2dbe dfa9 43be 35b4 55be 41fb 7bbe
00000310: 1232 49be aa17 57be d8c9 6dbe ca98 8dbe
00000320: a638 80be edf9 1fbe 8ca9 10be 315d 93be
00000330: be3c 20be 97ce 80be 36b2 4dbe 4802 14be
00000340: 780c 91be d5da 75be d203 6ebe a264 8cbe
00000350: edd5 20be d6dc 79be d0d1 13be ff4a 65be
00000360: e0bf 98be a473 2abe 357b 7abe b272 6bbe
00000370: 9275 1bbe 0bf1 91be d28e 49be c8c0 92be
00000380: 495f 23be 0c46 83be 4c9d 32be aa30 75be
00000390: 6f0b 4ebe 8979 4ebe 945c 27be 94cb 8fbe
000003a0: badd 3ebe fefc 82be 6641 42be 7447 87be
000003b0: 5f2c 3abe b742 1ebe 83ab 80be e42e 99be
000003c0: a6b1 16be 0ac3 7bbe f1a1 92be cc2c 4bbe
000003d0: e248 81be e4af 26be efdc 75be 5dcd 1bbe
000003e0: 7076 6abe 31a3 92be c438 39be ec90 75be
000003f0: 9a39 81be 7b91 12be 0149 97be 5e23 4cbe

conv2.bias f4 [16]
0.34883854 -0.28494194 -0.2241992 0.37835744 0.16819608 0.16974747 0.3482714 0.3829257
-0.23412023 -0.21590668 -0.2836574 0.20303933 0.05144719 0.322644 -0.2869018 -0.07257824
00000000: f79a b23e e9e3 91be 7a94 65be 11b8 c13e
00000010: 983b 2c3e 48d2 2d3e a150 b23e d60e c43e
00000020: 37bd 6fbe a416 5dbe 8b3b 91be 8be9 4f3e
00000030: 4aba 523d 9831 a53e cbe4 92be e6a3 94bd

fc1.weight f4 [120, 400]
-0.2756704 -0.34477323 -0.30022186 -0.3032713 -0.26553926 -0.33412617 -0.32875335 -0.35239255
-0.22988844 -0.25238344 -0.3253068 -0.36472258 -0.08825429 -0.18868862 -0.29719713 -0.34400567
-0.27617088 -0.2395823 -0.3222934 -0.342688 -0.3352372 -0.2878386 -0.012005452 0.25766346
0.0018261522 0.1705708 0.22384885 0.26074252 -0.2075806 0.20203574 -0.19601646 -0.24823947
-0.25927088 -0.26215914 0.22280203 -0.21381597 -0.24739829 -0.23430628 -0.25399894 0.23639497
0.2425957 0.20350243 -0.18220766 -0.20477174 -0.18713209 -0.25132626 -0.19042647 -0.22630964
0.2084142 -0.26861215 -0.20507638 -0.21035936 -0.19802603 -0.2534151 -0.24624246 -0.2654098
-0.18679054 -0.21565397 0.25847775 -0.2033222 -0.19979694 -0.23964864 -0.23775643 -0.20593624
-0.2686311 0.24497771 -0.19908985 -0.21912594 -0.1898602 -0.1869732 -0.19255812 -0.2390859
-0.19474457 -0.22266422 -0.1892741 -0.32456625 -0.044386428 -0.19948414 -0.36461103 -0.26888502
-0.36330044 -0.13418323 -0.27363172 -0.3355091 -0.34298798 -0.3490155 0.118457295 0.087614685
-0.19806728 0.030340169 -0.34155223 -0.237783 -0.1175596 -0.29437077 -0.08687613 -0.2653797
-0.2389365 -0.23811908 -0.25229448 -0.33041555 -0.27774954 -0.2620139 -0.27106595 -0.22266296
-0.24619107 -0.14972748 -0.19364542 0.12237082 -0.27822238 -0.2792889 -0.26549357 -0.3014027
-0.16073649 -0.2826767 -0.21202396 -0.19635224 -0.29588974 -0.32823074 -0.16736563 -0.23735023
-0.2961887 0.19413817 -0.11049151 -0.26768494 -0.27745637 -0.27527255 -0.113057815 -0.2512193
-0.08582997 -0.3226395 -0.12314044 -0.31551126 -0.29862374 -0.29022533 -0.30143347 -0.028008275
-0.032522313 -0.24183519 -0.34300655 -0.27961913 -0.0873421 0.01720133 -0.28611684 -0.32047552
-0.34216115 -0.34956542 -0.16303563 -0.29451928 -0.3316762 -0.32352176 -0.20169997 -0.28495422
-0.06380722 -0.27517083 -0.28609043 -0.2780859 -0.041667316 -0.28246784 -0.3472484 -0.31535488
-0.28936058 -0.19736978 -0.21593153 0.06308946 -0.3104418 -0.13831255 -0.30069858 -0.31701532
-0.34045556 -0.23294052 -0.20699248 -0.24128772 -0.1783212 -0.19250698 -0.34519154 -0.2729801
-0.23505083 -0.2478777 -0.21153751 -0.21884416 -0.2762137 -0.31888068 -0.27915865 -0.2637158
-0.31520507 -0.3390831 0.31234375 -0.32636338 -0.3018778 -0.3692519 -0.29958463 -0.23865047
-0.29687124 -0.12809223 -0.27332228 -0.30271056 -0.03348212 -0.16849633 -0.30737284 -0.2954621
-0.20509577 -0.18028441 -0.21574834 -0.1992693 -0.24094103 -0.24872369 -0.2406813 -0.17368032
-0.17762458 -0.22266494 -0.20809062 -0.19418295 -0.1946412 -0.20313989 -0.26766762 0.23796952
-0.24781033 -0.26659587 -0.20000769 -0.1756002 -0.24812937 -0.20307922 -0.25820547 -0.17710099
-0.17378964 -0.22658378 -0.2677348 -0.26419201 -0.1909155 -0.21472935 -0.24029388 -0.23682784
0.2668347 -0.17247985 -0.18002416 -0.24051365 -0.25676373 -0.25806355 -0.17035355 -0.20815396
-0.21627088 0.22898766 -0.25256822 -0.2357702 -0.23809287 -0.17465708 -0.1968056 -0.2077353
-0.20577359 -0.26730973 -0.23429844 0.2247286 -0.22006464 -0.24073723 -0.19919278 -0.22176981
00000000: ac24 8dbe 1e86 b0be aeb6 99be 6046 9bbe
00000010: c3f4 87be 9612 abbe 5c52 a8be cc6c b4be
00000020: e067 6bbe 6738 81be 9d8e a6be ebbc babe
00000030: aabe b4bd 9737 41be 392a 98be 8321 b0be
00000040: 4566 8dbe 1055 75be a403 a5be cd74 afbe
00000050: 36a4 abbe 955f 93be 84b2 44bc 77ec 833e
00000060: 805b ef3a 1daa 2e3e a238 653e 0b80 853e
00000070: 0290 54be 75e2 4e3e 8ab8 48be 7d32 7ebe
00000080: 27bf 84be b939 86be 3726 643e 93f2 5abe
00000090: fa55 7dbe fced 6fbe 260c 82be 8611 723e
000000a0: 026b 783e f162 503e a594 3abe afaf 51be
000000b0: 8e9f 3fbe d6ad 80be 28ff 42be b7bd 67be
000000c0: 886a 553e 8887 89be 8bff 51be 7268 57be
000000d0: 56c7 4abe a0bf 81be fc26 7cbe cbe3 87be
000000e0: 0546 3fbe 65d4 5cbe 3257 843e b233 50be
000000f0: 9297 4cbe 7466 75be 6c76 73be f3e0 52be
00000100: 048a 89be 70db 7a3e 36de 4bbe 8d62 60be
00000110: b66a 42be e775 3fbe f52d 45be efd2 74be
00000120: 1f6b 47be 1702 64be 12d1 41be 8c2d a6be
00000130: 8bce 35bd 9245 4cbe 4cae babe 4cab 89be
00000140: 8402 babe 5467 09be 7519 8cbe d9c7 abbe
00000150: 1f9c afbe 29b2 b2be bd99 f23d 546f b33d
00000160: 26d2 4abe f28b f83c efdf aebe 637d 73be
00000170: 16c3 f0bd c4b7 96be 1dec b1bd d9df 87be
00000180: c5ab 74be 7dd5 73be be2c 81be 3a2c a9be
00000190: 3035 8ebe b026 86be 28c9 8abe c201 64be
000001a0: 8319 7cbe 2952 19be fc4a 46be 8d9d fa3d
000001b0: 2a73 8ebe f4fe 8ebe c6ee 87be 7451 9abe
000001c0: 1b98 24be 00bb 90be cf1c 59be 9010 49be
000001d0: dc7e 97be dc0d a8be e561 2bbe f00b 73be
000001e0: 0ca6 97be 28cc 463e 5f49 e2bd 000e 89be
000001f0: c30e 8ebe 86f0 8cbe db8a e7bd d19f 80be
00000200: a0c7 afbd 0131 a5be 0e31 fcbd b18a a1be
00000210: 36e5 98be 6a98 94be 7d55 9abe 9c71 e5bc
00000220: 1e36 05bd a5a3 77be 8e9e afbe 3d2a 8fbe
00000230: 6ae0 b2bd cee9 8c3c e87d 92be 5e15 a4be
00000240: bf2f afbe 3dfa b2be d0f2 26be 3bcb 96be
00000250: 76d1 a9be a5a4 a5be 708a 4ebe 85e5 91be
00000260: 5cad 82bd 31e3 8cbe 727a 92be 4661 8ebe
00000270: 59ab 2abd a09f 90be 8bca b1be 3276 a1be
00000280: 1227 94be 4e1b 4abe 281d 5dbe 0c35 813d
00000290: 3af2 9ebe cea1 0dbe 2af5 99be d54f a2be
000002a0: 3150 aebe f687 6ebe d6f5 53be 2114 77be
000002b0: d599 36be 8d20 45be f2bc b0be 0cc4 8bbe
000002c0: 2ab1 70be a7d3 7dbe 4a9d 58be af18 60be
000002d0: e26b 8dbe 5444 a3be e2ed 8ebe c205 87be
000002e0: 8f62 a1be 4d9c adbe 85eb 9f3e 1a19 a7be
000002f0: ba8f 9abe 960e bdbe 2863 99be ca60 74be
00000300: 82ff 97be 9c2a 03be e6f0 8bbe e1fc 9abe
00000310: 8c24 09bd 4d8a 2cbe f95f 9dbe cf46 97be
00000320: a004 52be 7a9c 38be 22ed 5cbe 400d 4cbe
00000330: 3fb9 76be 6cb1 7ebe 2975 76be 41d9 31be
00000340: 38e3 35be 4702 64be b515 55be e5d7 46be
00000350: 0650 47be e703 50be bb0b 89be 48ae 733e
00000360: fec1 7dbe 417f 88be d1ce 4cbe 8ad0 33be
00000370: a015 7ebe 00f4 4fbe 8233 84be f659 35be
00000380: e9f5 31be 9405 68be 8914 89be 2d44 87be
00000390: 5a7f 43be 03e2 5bbe 990f 76be ff82 72be
000003a0: 8f9e 883e 8f9e 30be 4158 38be 3649 76be
000003b0: 8976 83be e820 84be 2971 2ebe 5026 55be
000003c0: 1d76 5dbe be7b 6a3e 9f50 81be be6d 71be
000003d0: 9ece 73be 4ed9 32be 6887 49be 90b8 54be
000003e0: 50b6 52be d2dc 88be eeeb 6fbe 411f 663e
000003f0: a058 61be d283 76be 31f9 4bbe a017 63be

fc1.bias f4 [120]
-0.32235807 -0.33090073 -0.36496338 -0.30829543 -0.3211422 -0.3771456 -0.30457523 -0.26942813
-0.36342582 -0.35291594 -0.3723056 -0.37876135 -0.3372669 -0.36515892 -0.35587525 -0.29484582
-0.28293505 -0.3780161 -0.29495147 -0.31809488 -0.3101852 -0.31907254 -0.34125262 -0.28738695
-0.34105188 -0.35286248 -0.32727027 -0.3033848 -0.31875637 -0.34293678 -0.3194077 0.34829077
-0.2779347 -0.3004099 -0.3521585 -0.34470627 -0.33950704 -0.30510992 -0.31650835 -0.3052431
-0.32919693 -0.30684188 -0.32027012 -0.37749842 -0.36414182 -0.286826 -0.2939062 -0.36250055
-0.37749174 -0.3243612 -0.33872625 -0.31860405 -0.30449623 -0.28896704 -0.17892426 -0.3614303
-0.34473532 -0.3616001 -0.3416236 -0.29250723 -0.314087 -0.30549526 -0.3694396 -0.3790834
-0.28886512 -0.37159732 -0.3449204 -0.32431558 -0.35851386 -0.32368654 -0.33212397 0.29306605
-0.31126386 -0.29676166 -0.32054496 -0.36612505 -0.3063837 -0.36350954 -0.28571567 -0.38058832
-0.34906998 -0.3050803 -0.3737602 -0.31167203 -0.36552817 -0.32750016 -0.33996645 -0.31363907
-0.36189032 -0.38281196 -0.30043477 -0.29242402 -0.34504336 -0.32870322 -0.3867666 -0.27334484
-0.3397364 -0.36469457 -0.32098445 -0.3618192 -0.32994226 -0.32163924 -0.3696038 -0.28916436
-0.2926927 -0.35061318 -0.35342273 -0.31994334 -0.28310144 -0.23663864 -0.33377588 -0.29742634
-0.3173332 -0.2758915 -0.32679075 -0.29782772 -0.29721692 -0.3263823 -0.37016162 -0.35857636
00000000: 1e0c a5be d26b a9be 7bdc babe e6d8 9dbe
00000010: c06c a4be 3a19 c1be 49f1 9bbe 7cf2 89be
00000020: f312 babe 66b1 b4be d79e bebe 02ed c1be
00000030: 3fae acbe 1cf6 babe 4835 b6be 08f6 96be
00000040: dddc 90be 548b c1be e103 97be 55dd a2be
00000050: 98d0 9ebe 7a5d a3be aab8 aebe 6224 93be
00000060: 5a9e aebe 64aa b4be f88f a7be 4155 9bbe
00000070: 0934 a3be 6995 afbe 6889 a3be 2b53 b23e
00000080: 754d 8ebe 54cf 99be 1e4e b4be 577d b0be
00000090: ded3 adbe 5e37 9cbe 620d a2be d348 9cbe
000000a0: 808c a8be 611a 9dbe 72fa a3be 7947 c1be
000000b0: cc70 babe dcda 92be e07a 96be ac99 b9be
000000c0: 9946 c1be ac12 a6be 876d adbe 1220 a3be
000000d0: eee6 9bbe 7df3 93be ec37 37be 640d b9be
000000e0: 2681 b0be a623 b9be 4ae9 aebe 82c3 95be
000000f0: 03d0 a0be e069 9cbe 3027 bdbe 3817 c2be
00000100: 21e6 93be 0142 bebe 6899 b0be b10c a6be
00000110: 218f b7be 3eba a5be 270c aabe c10c 963e
00000120: fa5d 9fbe 25f1 97be 781e a4be be74 bbbe
00000130: 53de 9cbe ec1d babe 5349 92be 79dc c2be
00000140: 4db9 b2be 7c33 9cbe 7f5d bfbe 7a93 9fbe
00000150: 8226 bbbe 1aae a7be 1510 aebe 4d95 a0be
00000160: b049 b9be eeff c3be 96d2 99be 9ab8 95be
00000170: 86a9 b0be ca4b a8be 4606 c6be dbf3 8bbe
00000180: eef1 adbe 3fb9 babe 1358 a4be 5e40 b9be
00000190: 31ee a8be e6ad a4be b63c bdbe 5a0d 94be
000001a0: d1db 95be 9283 b3be d3f3 b4be 9dcf a3be
000001b0: acf2 90be 6651 72be ace4 aabe 4448 98be
000001c0: 7f79 a2be a741 8dbe 1e51 a7be e07c 98be
000001d0: d12c 98be 951b a7be d385 bdbe 5297 b7be

fc2.weight f4 [84, 120]
-0.086422496 -0.07469785 -0.23039562 0.14546226 0.12626708 0.015162481 -0.11409724 -0.28776836
-0.31260663 0.090566024 -0.42698362 -0.24699782 -0.15912917 -0.17197767 -0.24929133 -0.26238856
-0.30008116 -0.22016017 -0.17445005 -0.16300637 -0.3404227 0.109319456 -0.34743422 -0.29287136
0.20583831 -0.35629034 -0.25086808 -0.3221638 -0.12942988 -0.30714723 -0.38288394 -0.3710261
-0.21480295 -0.12079396 -0.26802722 -0.15672725 -0.3174534 -0.2718708 0.05637984 -0.2447397
-0.22606562 -0.05849015 0.3099787 -0.31274348 -0.279019 -0.13126469 -0.030282762 0.14806971
-0.36422965 -0.28065547 0.18552849 0.29653317 -0.4044551 -0.20402443 0.09766384 0.075906634
-0.318841 -0.25488573 0.14398512 -0.37988913 -0.31628844 0.12003584 -0.21959245 0.05683594
-0.24112666 -0.27911505 -0.26845947 -0.08723825 -0.2929489 -0.285228 0.20463236 -0.14323473
-0.24358724 -0.3631066 -0.3238035 -0.1932171 -0.11193353 -0.018948607 -0.34381306 -0.32141072
-0.038156994 -0.25287727 -0.2470544 0.2404459 -0.0881269 -0.23194264 -0.25106734 -0.28711712
-0.028398227 -0.029378809 -0.2523468 -0.3345497 -0.24962392 -0.2754836 -0.10435656 -0.2661588
-0.13953707 0.11461871 -0.30211538 0.18888852 -0.2562539 -0.25886106 -0.12330115 -0.29835105
-0.20314635 0.3773529 -0.16414684 -0.14902237 -0.38556746 -0.077576265 -0.12013384 -0.08665307
-0.12908319 -0.18287882 -0.38246787 -0.18391542 -0.2591714 -0.25779548 -0.36056814 -0.42105144
-0.13856137 -0.12964323 -0.2311005 -0.21690506 0.3202162 -0.257281 -0.27710506 -0.3014008
-0.31363618 -0.23712254 -0.3840892 -0.22373591 -0.20889749 -0.3771335 -0.2722291 -0.35710126
-0.17872575 -0.27085325 -0.2752146 -0.13702777 -0.30818442 -0.3365271 -0.30133587 -0.25345212
-0.38891983 -0.1797756 -0.3836266 -0.2273035 -0.1710433 -0.23519325 -0.18178684 -0.2953421
-0.3529614 -0.2409353 -0.18841556 -0.2944951 -0.26446798 -0.20136353 -0.2884536 -0.2003291
0.2176528 -0.33933026 -0.10185397 0.069018096 -0.13737911 -0.30151826 -0.10238334 0.036908846
-0.27381262 -0.21239701 -0.3669968 -0.31368592 -0.25065833 -0.2578349 -0.3813443 -0.22269428
-0.25201002 -0.30209684 -0.2343491 -0.32756788 0.16458574 0.018677816 -0.33687475 -0.3510936
-0.11482261 -0.2779418 -0.22023846 -0.26222855 -0.15785825 -0.39792943 -0.23051731 0.11004847
-0.33518475 -0.2746684 -0.23038092 -0.27514952 -0.26280558 -0.23378235 -0.36971927 0.017789394
0.27935782 -0.281884 -0.18097988 -0.1218899 -0.014354983 -0.10968874 -0.40368158 -0.08549449
0.0036667436 -0.19872718 -0.35668403 -0.14539687 -0.19354963 -0.15665175 -0.15382239 -0.35775438
-0.26920864 -0.022234425 -0.20696649 -0.005701607 -0.09971828 -0.29098976 -0.23382735 -0.2234617
-0.215176 -0.3760155 -0.25243095 0.085605085 -0.36208203 -0.2305515 -0.2003167 -0.17858174
-0.27957198 -0.19498935 -0.23166616 -0.27228862 -0.2579187 -0.020525686 -0.32526395 -0.30337626
-0.27732778 -0.28226763 -0.26351452 0.00844771 -0.19764875 -0.17403893 -0.21703309 -0.25393456
-0.3262459 -0.16940913 -0.24052471 -0.15859483 -0.30980206 -0.18666607 -0.18348704 -0.17081246
00000000: 47fe b0bd 30fb 98bd d4ec 6bbe 0ff4 143e
00000010: 284c 013e 0e6c 783c d0ab e9bd 6056 93be
00000020: fa0d a0be ae7a b93d 999d dabe ffec 7cbe
00000030: c2f2 22be ea1a 30be 3a46 7fbe cb57 86be
00000040: 3da4 99be ab71 61be 09a3 32be 24eb 26be
00000050: e24b aebe e1e2 df3d e6e2 b1be 3cf3 95be
00000060: 47c7 523e b06b b6be c871 80be a7f2 a4be
00000070: 4489 04be 6742 9dbe 5d09 c4be 22f7 bdbe
00000080: 4ef5 5bbe d362 f7bd dd3a 89be 1c7d 20be
00000090: 4189 a2be a632 8bbe 8cee 663d 0b9d 7abe
000000a0: bf7d 67be 5e93 6fbd 87b5 9e3e ea1f a0be
000000b0: 94db 8ebe 406a 06be 8e13 f8bc 969f 173e
000000c0: 4f7c babe 13b2 8fbe 2efb 3d3e 32d3 973e
000000d0: bd14 cfbe c8eb 50be fb03 c83d f074 9b3d
000000e0: 213f a3be 6280 82be d670 133e d480 c2be
000000f0: 8ff0 a1be 5ad5 f53d d8dc 60be cdcc 683d
00000100: e8e9 76be 2be8 8ebe 8573 89be f8a9 b2bd
00000110: 66fd 95be 6809 92be 258b 513e 20ac 12be
00000120: ef6e 79be 1ce9 b9be 93c9 a5be b4da 45be
00000130: 683d e5bd 1c3a 9bbc 4408 b0be f28f a4be
00000140: 824a 1cbd 2179 81be d4fb 7cbe 7337 763e
00000150: e07b b4bd 5f82 6dbe e68b 80be 0401 93be
00000160: 66a3 e8bc d4ab f0bc 9a33 81be 194a abbe
00000170: 6a9d 7fbe 300c 8dbe e4b8 d5bd f745 88be
00000180: cee2 0ebe 37bd ea3d deae 9abe fe6b 413e
00000190: b633 83be 7089 84be 5085 fcbd 78c1 98be
000001a0: 9905 50be 6634 c13e 1c16 28be 5299 18be
000001b0: 1969 c5be 4ee0 9ebd bb08 f6bd 2a77 b1bd
000001c0: 622e 04be 9644 3bbe d4d2 c3be 5354 3cbe
000001d0: 1db2 84be c5fd 83be 639c b8be 0e94 d7be
000001e0: 08e3 0dbe 32c1 04be 9ca5 6cbe 5c1c 5ebe
000001f0: 61f3 a33e 56ba 83be b7e0 8dbe 3551 9abe
00000200: ec94 a0be 40d0 72be 57a7 c4be 071b 65be
00000210: 39e9 55be a417 c1be 9d61 8bbe fad5 b6be
00000220: e203 37be 47ad 8abe eee8 8cbe 0251 0cbe
00000230: 59ca 9dbe 484d acbe b248 9abe 7ac4 81be
00000240: 8020 c7be 1817 38be b56a c4be 40c2 68be
00000250: fa25 2fbe 80d6 70be 5426 3abe 1437 97be
00000260: 5bb7 b4be beb7 76be 02f0 40be 10c8 96be
00000270: 5968 87be 3e32 4ebe 31b0 93be 1223 4dbe
00000280: 60e0 5e3e b2bc adbe d098 d0bd 5c59 8d3d
00000290: 1cad 0cbe 9a60 9abe 5bae d1bd bb2d 173d
000002a0: 2b31 8cbe 9a7e 59be 01e7 bbbe 719b a0be
000002b0: 4a56 80be f002 84be 8f3f c3be f809 64be
000002c0: 7507 81be 70ac 9abe 36f9 6fbe fab6 a7be
000002d0: 2a89 283e 3802 993c d97a acbe 8ac2 b3be
000002e0: 1e28 ebbd 634e 8ebe 3186 61be d242 86be
000002f0: 98a5 21be 68bd cbbe bb0c 6cbe 1861 e13d
00000300: 569d abbe 56a1 8cbe fae8 6bbe 66e0 8cbe
00000310: 748e 86be a464 6fbe d84b bdbe 10bb 913c
00000320: fd07 8f3e 1a53 90be ca52 39be 69a1 f9bd
00000330: 2a31 6bbc 7da4 e0bd 5aaf cebe bc17 afbd
00000340: c04d 703b 237f 4bbe 4a9f b6be ebe2 14be
00000350: e031 46be 5169 20be 9e83 1dbe 952b b7be
00000360: b7d5 89be f824 b6bc 06ef 53be 8cd4 babb
00000370: 1939 ccbd 9cfc 94be 7070 6fbe 25d3 64be
00000380: 1957 5cbe 1b85 c0be a13e 81be b851 af3d
00000390: d162 b9be b115 6cbe d21f 4dbe 22de 36be
000003a0: 0f24 8fbe 4aab 47be e539 6dbe 6a69 8bbe
000003b0: eb0d 84be 7c25 a8bc ff88 a6be 2254 9bbe
000003c0: e8fd 8dbe 6285 90be 60eb 86be 4468 0a3c
000003d0: 6f64 4abe 4337 32be ec3d 5ebe b603 82be
000003e0: b409 a7be 9679 2dbe 1c4c 76be af66 22be
000003f0: 609e 9ebe 6425 3fbe 07e4 3bbe 76e9 2ebe

fc2.bias f4 [84]
-0.27580786 -0.40096048 -0.35389397 -0.21727765 -0.42613077 -0.37804598 -0.3493561 -0.23109365
-0.35643393 -0.38684914 -0.2778101 0.37306005 -0.37947613 -0.41376072 -0.2683043 -0.32510373
-0.37213913 0.41046304 -0.24008814 -0.32946533 -0.29515645 -0.32879773 -0.38738397 -0.38005772
-0.3084294 -0.37793094 -0.39688975 0.40875223 0.40521392 -0.3336937 -0.39429158 0.3764984
-0.36756778 -0.22138125 -0.3523343 -0.38123265 -0.3811929 -0.3448075 -0.3899743 -0.40288454
-0.33838156 -0.3201858 -0.37567413 -0.35768875 -0.30486733 -0.28565794 -0.39678916 -0.2757745
-0.3417696 0.39130983 -0.41200253 -0.299775 0.36880067 0.3593779 -0.26090008 -0.40892163
-0.29600272 -0.4129401 0.4159891 0.3685574 -0.26871818 -0.37356377 -0.39751673 -0.28040975
-0.30043885 -0.25319445 -0.31084177 -0.37563944 -0.21433106 -0.36028627 -0.3652028 -0.38564664
-0.27778208 -0.39884168 0.3023543 -0.28170943 -0.31664166 -0.25752756 0.3457026 -0.3364541
0.42545158 0.39753568 -0.39267325 -0.42941162
00000000: b036 8dbe b14a cdbe 9731 b5be 087e 5ebe
00000010: d02d dabe 3e8f c1be cede b2be d0a3 6cbe
00000020: 827e b6be 1711 c6be 203d 8ebe ba01 bf3e
00000030: b24a c2be 72d8 d3be 2e5f 89be ff73 a6be
00000040: 0589 bebe 3628 d23e aad9 75be aeaf a8be
00000050: bf1e 97be 2d58 a8be 3157 c6be ed96 c2be
00000060: 75ea 9dbe 2a80 c1be 2235 cbbe f947 d13e
00000070: 3378 cf3e e7d9 aabe 96e0 c9be 66c4 c03e
00000080: d831 bcbe c4b1 62be 2965 b4be ed30 c3be
00000090: b72b c3be 9c8a b0be b6aa c7be e246 cebe
000000a0: 5940 adbe 65ef a3be 5c58 c0be fb22 b7be
000000b0: 9217 9cbe c241 92be f327 cbbe 5132 8dbe
000000c0: 6dfc aebe c359 c83e fff1 d2be 1c7c 99be
000000d0: 71d3 bc3e 6100 b83e b294 85be 2d5e d1be
000000e0: ab8d 97be e36c d3be 86fc d43e 8eb3 bc3e
000000f0: 6e95 89be c043 bfbe 5087 cbbe de91 8fbe
00000100: 1fd3 99be b4a2 81be a726 9fbe d053 c0be
00000110: 9a79 5bbe 7177 b8be ddfb babe 7a73 c5be
00000120: 7439 8ebe fa34 ccbe 2fce 9a3e 383c 90be
00000130: db1e a2be a7da 83be eeff b03e b643 acbe
00000140: cad4 d93e cc89 cb3e 780c c9be d7db dbbe

fc3.weight f4 [10, 84]
-0.25263354 -0.30090982 -0.30923018 -0.36346954 -0.21174066 -0.32106537 -0.29431465 -0.2586648
-0.4208467 -0.30271995 -0.34928793 -0.4401789 -0.40718973 -0.32479548 -0.24357192 -0.21723288
-0.24962819 -0.3411789 -0.2451178 -0.28334492 -0.4284347 -0.10820493 -0.387252 -0.3792994
-0.23955193 -0.32394916 -0.22237167 -0.38168427 -0.38234863 0.20583467 -0.11986585 -0.30479226
-0.2869292 -0.20382077 -0.2227296 -0.3490962 -0.34584135 -0.30491826 -0.24925429 -0.28433132
-0.111823976 -0.37828723 -0.2712927 -0.30526873 -0.27848443 -0.23460111 -0.03418746 -0.36014873
-0.24221012 -0.32886708 -0.30442464 -0.26730955 -0.43520036 -0.27586654 -0.41102248 -0.31162214
-0.3110289 -0.35676804 -0.32347625 -0.39482814 -0.3738979 -0.39019537 -0.33396053 -0.24309865
-0.40596086 -0.34045774 -0.32204044 -0.39668432 -0.31877506 -0.30336237 -0.22285926 -0.23714852
-0.20916101 -0.43236983 -0.29075792 -0.10771263 -0.31446162 -0.26171553 -0.2776076 -0.22743678
-0.3183939 -0.35907114 -0.40835285 -0.32291147 -0.38817936 -0.27301836 -0.23957208 -0.28922215
-0.2127908 -0.049894683 -0.34971076 -0.36313242 -0.4363148 -0.4209422 -0.42833126 -0.29425138
-0.41396677 -0.38291714 -0.3736925 -0.28708 -0.28477827 -0.31743097 -0.2940917 -0.24842244
-0.3895769 -0.25432187 -0.4140547 -0.2459426 -0.29614347 -0.3576852 -0.41108367 -0.3223047
-0.43985555 -0.39254755 -0.04481574 -0.24237123 -0.35601616 -0.030420497 -0.41403785 -0.35387024
-0.22595012 -0.3578326 -0.3734999 -0.22961646 0.4025833 -0.22220159 -0.33802003 -0.2653848
-0.39086437 -0.23552479 0.11692935 -0.385482 -0.3618672 -0.23589927 -0.3168134 -0.39548743
-0.34745616 -0.42787522 -0.2152813 -0.39202023 -0.29650548 -0.22854677 -0.1781299 -0.3751344
-0.28294498 -0.36156508 -0.23020077 -0.31283557 -0.38051504 -0.3099831 -0.29534423 -0.23110822
-0.3729199 -0.39161026 -0.39394188 -0.24046412 -0.41034192 -0.28243455 -0.3454433 -0.2541803
-0.29130632 -0.32813466 -0.37020576 -0.22628611 -0.25157163 -0.13484463 -0.36282825 -0.37916017
-0.3830581 -0.30717075 -0.28447297 -0.17107287 -0.36280054 -0.3904544 -0.2705477 -0.32653448
-0.27867198 -0.2822874 -0.30073762 -0.28004715 -0.31826708 -0.4143032 -0.21315129 -0.38482404
-0.41193596 0.4041921 -0.40008482 -0.26638395 -0.36956608 -0.26081273 -0.26854977 -0.3802171
-0.39934635 -0.40289882 -0.38253015 -0.0021087527 0.10770158 -0.25805342 -0.24041346 -0.29855785
-0.26883042 -0.27889347 -0.3754422 -0.30348295 -0.34130996 -0.29997385 -0.23245654 -0.36788946
-0.3732639 -0.43400124 -0.27815717 -0.22912724 -0.050985172 -0.38643205 -0.28524515 -0.3078141
-0.23177826 -0.081753045 -0.41362765 -0.20493776 -0.038087767 -0.09224382 -0.4406461 -0.30452847
-0.35730535 -0.25533038 0.30527282 -0.026961457 -0.2697471 -0.31536287 -0.29132754 -0.31978276
-0.33873966 -0.22735602 -0.23975319 -0.28970104 -0.26276675 -0.22817472 -0.35497326 -0.41956258
-0.2793843 -0.44117957 -0.035012364 -0.42837343 -0.38950837 -0.40523303 -0.23983917 -0.17283708
-0.35414204 -0.21146521 -0.29818398 -0.3855338 -0.2191005 -0.3838309 -0.1960732 -0.32271412
00000000: 2f59 81be da10 9abe 6b53 9ebe ae18 babe
00000010: 8bd2 58be ae62 a4be 69b0 96be b66f 84be
00000020: 3879 d7be 1cfe 9abe ded5 b2be 215f e1be
00000030: 2c7b d0be 984b a6be eb6a 79be 4c72 5ebe
00000040: 889e 7fbe 00af aebe 2900 7bbe 9612 91be
00000050: cb5b dbbe 8c9a ddbd e545 c6be 8833 c2be
00000060: 1a4d 75be aadc a5be 66b5 63be 1f6c c3be
00000070: 33c3 c3be 53c6 523e 3a7c f5bd bb0d 9cbe
00000080: 62e8 92be 64b6 50be 3a13 64be bdbc b2be
00000090: 1e12 b1be 3f1e 9cbe 843c 7fbe e093 91be
000000a0: f803 e5bd ddae c1be e0e6 8abe 2f4c 9cbe
000000b0: 8395 8ebe 463b 70be 2608 0cbd 6a65 b8be
000000c0: ee05 78be 4461 a8be 8cdd 9bbe ccdc 88be
000000d0: 95d2 debe 613e 8dbe 8a71 d2be f08c 9fbe
000000e0: 2e3f 9fbe 4daa b6be ae9e a5be ea26 cabe
000000f0: 8c6f bfbe b0c7 c7be e0fc aabe daee 78be
00000100: 1ada cfbe 7a50 aebe 7ce2 a4be 351a cbbe
00000110: 7c36 a3be 5052 9bbe 3835 64be 10d7 72be
00000120: 4e2e 56be 945f ddbe 39de 94be 7098 dcbd
00000130: 1d01 a1be 94ff 85be 9522 8ebe 30e5 68be
00000140: 8604 a3be 2cd8 b7be a013 d1be a754 a5be
00000150: 72bf c6be 10c9 8bbe 6252 75be ed14 94be
00000160: d5e5 59be 5e5e 4cbd 4a0d b3be 7eec b9be
00000170: a764 dfbe bc85 d7be 3c4e dbbe 1ea8 96be
00000180: 74f3 d3be b70d c4be a054 bfbe 26fc 92be
00000190: 75ce 91be 5086 a2be 3093 96be 7462 7ebe
000001a0: a076 c7be 7a36 82be fafe d3be 60d8 7bbe
000001b0: 1ea0 97be 8422 b7be 8f79 d2be 1f05 a5be
000001c0: bf34 e1be fefb c8be b690 37bd 2a30 78be
000001d0: c047 b6be 6834 f9bc c5fc d3be 7b2e b5be
000001e0: 785f 67be d635 b7be 613b bfbe 9420 6bbe
000001f0: 661f ce3e d088 63be f610 adbe 84e0 87be
00000200: 601f c8be 692d 71be a878 ef3d e65d c5be
00000210: a846 b9be 948f 71be 5e35 a2be 547d cabe
00000220: c6e5 b1be 7612 dbbe b372 5cbe e0b6 c8be
00000230: 91cf 97be 2a08 6abe af67 36be 9e11 c0be
00000240: 2ade 90be 0f1f b9be c0b9 6bbe fc2b a0be
00000250: ded2 c2be 1bb6 9ebe 5c37 97be a2a7 6cbe
00000260: 5bef bebe 2481 c8be c0b2 c9be 3a3c 76be
00000270: 5618 d2be 439b 90be f2dd b0be ec23 82be
00000280: 1a26 95be 4401 a8be 9c8b bdbe 8cb7 67be
00000290: ffcd 80be b614 0abe a0c4 b9be 4821 c2be
000002a0: 3120 c4be 7c45 9dbe 71a6 91be ba2d 2fbe
000002b0: fec0 b9be a4e9 c7be 3a85 8abe 872f a7be
000002c0: 18ae 8ebe f987 90be 48fa 99be 5762 8fbe
000002d0: e7f3 a2be 8d1f d4be 5544 5abe a807 c5be
000002e0: 45e9 d2be 44f2 ce3e ebd7 ccbe 7a63 88be
000002f0: c437 bdbe 3f89 85be 5b7f 89be d1ab c2be
00000300: 2077 ccbe c148 cebe feda c3be 0033 0abb
00000310: a592 dc3d 941f 84be f22e 76be 93dc 98be
00000320: 24a4 89be 20cb 8ebe f639 c0be 1e62 9bbe
00000330: 2ec0 aebe 2c96 99be 1609 6ebe 025c bcbe
00000340: 721c bfbe 6935 debe 9e6a 8ebe 55a0 6abe
00000350: d4d5 50bd 6cda c5be a70b 92be cf99 9dbe
00000360: 4857 6dbe 246e a7bd 01c7 d3be 34db 51be
00000370: eb01 1cbd 54ea bcbd 5e9c e1be 28eb 9bbe
00000380: baf0 b6be aaba 82be b84c 9c3e 46de dcbc
00000390: 4b1c 8abe 3e77 a1be e228 95be 91ba a3be
000003a0: 496f adbe 04d0 68be dc81 75be b253 94be
000003b0: 5d89 86be a2a6 69be 0ebf b5be e8d0 d6be
000003c0: 750b 8fbe 4ae2 e1be 2069 0fbd c353 dbbe
000003d0: a46d c7be b47a cfbe 6698 75be 34fc 30be
000003e0: 1b52 b5be 568a 58be 92ab 98be b064 c5be
000003f0: e25b 60be 7c85 c4be 6ac7 48be c93a a5be

fc3.bias f4 [10]
-0.3305328 -0.2506052 0.29073086 0.36839288 0.3021958 0.2512281 0.32637805 -0.004031703
-0.2308726 -0.25036824
00000000: 983b a9be 534f 80be adda 943e fe9d bc3e
00000010: 68b9 9a3e f8a0 803e 061b a73e 601c 84bb
00000020: de69 6cbe 4430 80be
