FL/cnn-img/outputs/2025-03-18/18-20-35/model_state_acc_0.2043_round_5.pth (torch, 251962 bytes, 10 tensors)

conv1.weight f4 [6, 3, 5, 5]
000000 4a e2 ee 3e 58 68 e8 3e aa 5c ed 3e fd c1 bd 3e
       0.4665702 0.45392108 0.4635976 0.37062064
000010 11 05 ba 3e 55 ab ba 3e e8 6d d6 3e 71 24 f2 3e
       0.3633199 0.3645884 0.41880727 0.47293428
000020 a4 28 fb 3e 1a 2e dd 3e 80 f2 d7 3e fc 3e 34 be
       0.49054444 0.43199235 0.421772 -0.17602152
000030 98 04 26 3e c1 dc ae 3e 46 f9 f0 3e 96 a4 8a be
       0.1621269 0.34152797 0.4706518 -0.27078694
000040 81 e4 a5 be 16 bf b6 be 62 6d 88 3e 00 37 fb 3e
       -0.32400897 -0.35692662 0.26645952 0.490654
000050 8a 41 06 bf e9 9f ae be 72 03 f1 be d3 a5 6c bd
       -0.52443755 -0.34106377 -0.4707294 -0.05777533
000060 df b9 f9 3e 56 48 0a bf b4 32 d9 be 54 5c 9f be
       0.4877462 -0.54016626 -0.42421496 -0.31125128
000070 e9 78 a3 be 73 84 49 be c8 e1 e2 be 90 69 ef be
       -0.31928185 -0.19679432 -0.44312882 -0.46760225
000080 56 59 dc be c5 65 60 be d2 f4 57 3e 8e 06 a3 bd
       -0.43036908 -0.21913822 0.21089485 -0.079602346
000090 03 1f bb be dc 8d a8 be b0 3b 94 bb 55 50 21 3e
       -0.36547098 -0.3292073 -0.004523717 0.157533
0000a0 94 b3 de bd d3 59 bb be 60 ac 7f be 09 cc 5e 3e
       -0.108740956 -0.36591968 -0.249681 0.2175752
0000b0 47 95 3d 3e 5d 30 f0 bd cc 0d 03 bf 78 7f b0 bd
       0.18513976 -0.117279746 -0.5119293 -0.08618063
0000c0 b6 43 91 3e e3 a1 c6 3e 46 75 e9 be 46 d5 02 bf
       0.28371972 0.38795385 -0.45597285 -0.5110668
0000d0 c8 7f ad be 84 9b e6 be 1d 4e 00 bf 75 66 ad be
       -0.33886552 -0.45040524 -0.5011919 -0.3386723
0000e0 7b 43 db be ff 70 cd be f0 37 c4 be 1d 2c 95 be
       -0.4282492 -0.40125272 -0.38323927 -0.29135218
0000f0 89 6a 99 be 06 3f 04 bf 3b 94 ff be 44 84 cd be
       -0.29964092 -0.51658666 -0.49917778 -0.40139973
000100 31 be 31 be 2a 83 bd be 46 ae e0 be 23 0e fa be
       -0.17357709 -0.37014133 -0.4388296 -0.4883891
000110 95 72 95 be 41 b5 83 3d 9a f3 92 be ac 88 be be
       -0.29188982 0.06431056 -0.28701478 -0.37213647
000120 4a 6e cb be d4 bb 74 be aa d2 ab 3e 40 ee 1e 3e
       -0.3973258 -0.23899776 0.3355916 0.15520573
000130 0a 05 1a 3e f2 65 ba bc 5c d3 55 be 9e f4 64 be
       0.15040985 -0.02275369 -0.20881408 -0.22358939
000140 3f 9e c9 3e 46 35 b0 3e b2 c0 88 3e 6b 78 bd be
       0.39378545 0.34415644 0.26709515 -0.37005934
000150 02 d6 d7 be 4d f4 b6 3e c0 44 fc 3e 45 84 9d 3e
       -0.42155463 0.35733262 0.49271202 0.30764976
000160 46 57 f6 be 16 ff 4a be a7 8f d5 3e f4 88 c0 3e
       -0.4811346 -0.1982387 0.4171116 0.37604487
000170 c2 6f bf 3e ad c5 f6 bd bc a4 71 be c2 ae e1 3e
       0.37389952 -0.120494224 -0.23597997 0.44078642
000180 2f a3 ff bd 7c a2 72 bc a4 07 85 3c ad 81 ab bd
       -0.12482297 -0.014809247 0.016238995 -0.08374343
000190 66 7b 72 3e 12 a2 28 3d 9d 37 1f be a8 4b 96 be
       0.23679885 0.041170187 -0.15548559 -0.29354596
0001a0 eb 4b ef 3c 48 98 e8 3e ad 94 15 3e b1 1a 19 be
       0.029211005 0.4542868 0.14607497 -0.14951588
0001b0 10 50 d1 be fa e7 d9 be cb 64 da 3e d6 95 a3 3d
       -0.40881395 -0.42559797 0.42655024 0.07987563
0001c0 37 38 30 3d f8 7d de be 52 97 a2 be f6 8f e0 3e
       0.04302236 -0.43455482 -0.31756073 0.43859833
0001d0 cc 9a de 3d cd 21 10 bd 06 54 b7 bd 47 06 22 be
       0.10869369 -0.035188485 -0.08951573 -0.15822707
0001e0 10 df f6 3e c0 b9 3d bc ce aa fa bd 42 1a ec 3e
       0.48217058 -0.011579931 -0.1223961 0.46113783
0001f0 ca 0c 29 3e 90 35 16 be 27 94 c0 be 3c 51 bb be
       0.16508785 -0.1466887 -0.3761303 -0.36585414
000200 1b 34 92 be 8f 36 a3 be 3d 3c 0c be bd e2 98 be
       -0.28555378 -0.31877562 -0.13694854 -0.29860488
000210 4b 35 93 be 12 33 e1 be 31 63 cc be 78 2f 19 bc
       -0.28751597 -0.43984276 -0.39919427 -0.009349696
000220 b6 1a 97 be 9e 4b c2 be 6e 63 c2 be db 2a 8f be
       -0.29512566 -0.37948316 -0.37966484 -0.27962384
000230 c1 23 05 be 5c 1b 8f be 63 ed cd be fa 29 cd be
       -0.1300192 -0.2795056 -0.40220174 -0.40071088
000240 a0 05 db be ee 31 00 be 18 69 05 bf b0 ab b0 be
       -0.4277773 -0.12519047 -0.52113485 -0.34505987
000250 28 31 38 be 62 0c 93 be b8 44 db 3e f9 5b 9e 3e
       -0.17987502 -0.28720385 0.42825866 0.30929545
000260 c4 b2 d2 3e 8e 7e ad 3e 4e 1c 80 bd 6a d6 f4 3e
       0.41152012 0.33885616 -0.06255399 0.47819835
000270 4f 1a f3 3e 86 b9 f2 3e 44 c1 84 3e b3 8a 83 3e
       0.4748101 0.47407168 0.259287 0.25691757
000280 d9 fa e5 3e 17 3b af 3e 32 d2 00 bf d8 09 06 bf
       0.44917944 0.3422477 -0.5032073 -0.5235877
000290 82 f4 d1 3e ee e1 88 3e 41 91 bd 3e 9b b0 cc be
       0.41006857 0.2673487 0.37024882 -0.3997849
0002a0 1e 47 05 bf 45 0f c6 3e 3d 35 bd bd 14 3d 95 be
       -0.5206164 0.38683525 -0.0923867 -0.2914816
0002b0 dc c2 c6 be 00 c5 cb be a2 34 8f bd cc fa bc bd
       -0.3882054 -0.39798737 -0.06992461 -0.09227523
0002c0 28 c9 16 bd 58 71 a3 3e d9 8f 5a 3e 4f ed 26 be
       -0.03681293 0.31922412 0.21343936 -0.16301464
0002d0 13 7e 96 3e 2d 63 9b 3e 26 03 20 bc dd 3d 00 be
       0.29393062 0.30349103 -0.009766376 -0.12523599
0002e0 97 f3 bc 3e 43 15 c9 3e 8b de 00 3f 7d 2c 9b be
       0.36904594 0.39274034 0.50339574 -0.3030738
0002f0 5b 8f 96 be aa b2 04 3f 1c 26 a7 3e bd 04 ca 3e
       -0.29406247 0.5183512 0.32646263 0.3945674
000300 a4 f7 e3 be 60 f4 a3 be 1e f7 09 3f 33 f7 ab 3e
       -0.44524872 -0.3202238 0.53892696 0.33587036
000310 6d 10 d3 3e c4 5c c0 3e 2a 6a 39 3d 7e cf bf 3e
       0.4122347 0.37570775 0.04526726 0.3746299
000320 b0 91 e0 be 0c bf 0b bf 82 40 ab be cc c8 d8 be
       -0.4386115 -0.5458839 -0.33447653 -0.42340696
000330 35 1b 04 bf 15 46 af be a2 3a 00 bf e9 7a bc be
       -0.51604015 -0.34233156 -0.50089467 -0.36812523
000340 98 f5 ad be cd 71 e0 be a0 7d f2 be 52 a0 a9 be
       -0.33976436 -0.43836823 -0.4736147 -0.33130127
000350 e0 26 ee be e3 c0 e8 be 18 52 92 be b0 cd 6e be
       -0.46514034 -0.4545966 -0.28578258 -0.23320651
000360 7e bf a8 be cf 56 f6 be 74 69 dc be 81 eb cf be
       -0.32958597 -0.48113105 -0.43049204 -0.40609363
000370 b8 e2 c2 be 4d 66 ec be 07 91 02 bf a9 51 e4 be
       -0.38063598 -0.461718 -0.51002544 -0.44593552
000380 c8 9e 90 be 19 cd e6 3e cc 94 c8 3e ff 42 b2 3e
       -0.2824614 0.45078352 0.39176023 0.3481674
000390 87 24 2c 3e 58 ba 97 3e e4 e5 cf 3e 96 50 01 3f
       0.16810809 0.29634356 0.4060508 0.5051359
0003a0 23 06 02 3f fc 2c 04 3f 6e 24 89 3e 50 69 9f 3e
       0.50790614 0.5163114 0.26785606 0.31135035
0003b0 fe 3f 9f 3e c0 39 e6 3e e8 78 9e 3e a6 53 80 3d
       0.3110351 0.44965935 0.3095162 0.06265955
0003c0 c9 65 aa 3e c7 aa 9b bd 0e 0f e1 be 7c c2 99 3c
       0.3328078 -0.076009326 -0.43956798 0.018769495
0003d0 77 22 01 3d 76 3c e5 3e 2c 26 c6 be 0e 89 a4 be
       0.03152701 0.4477269 -0.38700998 -0.32135814
0003e0 fe 1d d1 be eb 6a e8 be 6f 5d 9e bd b6 60 51 bd
       -0.40843195 -0.45394072 -0.07732665 -0.05111762
0003f0 ea f2 fb be 56 a6 ab be 2c 9f bf bd a5 2d bd 3e
       -0.49208766 -0.33525342 -0.093565315 0.36948887

conv1.bias f4 [6]
000000 ea 4f fe be 2f 13 dd be b6 d5 ab be ec 30 ad be
       -0.49670345 -0.43178698 -0.33561486 -0.33826387
000010 2a 8d e3 be 91 e4 f9 be
       -0.44443637 -0.48807195

conv2.weight f4 [16, 6, 5, 5]
000000 3c 21 b8 be 14 1b fd be 7c c6 e2 be 92 a9 c3 be
       -0.35962856 -0.4943472 -0.44292057 -0.3821531
000010 6e b9 b8 be bd 05 dd be 34 78 b4 be aa f4 c5 be
       -0.36078972 -0.4316844 -0.35247958 -0.38663226
000020 8a 35 ef be 0e eb cd be 0c ae f6 be 90 39 bb be
       -0.46720535 -0.40218395 -0.48179662 -0.36567354
000030 52 1d cd be 45 af c7 be fe 4d fa be a4 6a df be
       -0.40061432 -0.39000908 -0.48887628 -0.43636048
000040 ba ec c2 be 53 4b f8 be 8b f6 aa be 3d f3 c8 be
       -0.38071233 -0.48494968 -0.33391222 -0.39248076
000050 88 6a b4 be 3d 28 bf be 5f 6b cf be 6a dd b1 be
       -0.35237527 -0.37335387 -0.40511605 -0.34739238
000060 fa 15 c7 be ca 94 f9 be a4 40 be be 4e 91 d2 be
       -0.38883954 -0.4874633 -0.37158692 -0.41126484
000070 e2 b9 c6 be 31 62 c2 be e7 89 e2 be b9 4d e9 be
       -0.38813692 -0.3796554 -0.44245836 -0.4556711
000080 18 cd c9 be 3d fe d9 be 08 1a ce be 0b d8 b3 be
       -0.39414287 -0.4257678 -0.40254235 -0.35125765
000090 be ed da be 32 9a c1 be 19 03 a2 be 14 03 c8 be
       -0.42759508 -0.37812954 -0.31642988 -0.39064848
0000a0 4c d6 ed be 67 d2 fb be 2b 73 c7 be 5f 0b cb be
       -0.46452558 -0.49183962 -0.38955054 -0.39657113
0000b0 87 bb ce be 68 d3 d2 be de f9 db be 7b db b1 be
       -0.40377447 -0.41176915 -0.4296407 -0.34737763
0000c0 36 69 85 be 80 90 d4 be f1 f6 d0 be 64 1d d2 be
       -0.26056832 -0.41516495 -0.408134 -0.41038048
0000d0 fe 6f d6 be 0f 16 d4 be 7c 44 a7 be 97 cc cd be
       -0.41882318 -0.4142308 -0.32669437 -0.40195152
0000e0 6e b1 db be 1c b5 be be 18 40 ec be c8 96 e4 be
       -0.42908806 -0.3724755 -0.4614265 -0.44646287
0000f0 f0 b2 d6 be ec 63 02 bf 26 7f bc be 78 e4 eb be
       -0.41933393 -0.5093372 -0.36815757 -0.46072745
000100 98 fb d9 be 68 28 e4 be 15 b3 b4 be d0 80 05 bf
       -0.42574763 -0.44562078 -0.3529288 -0.5214968
000110 0e b5 ad be 79 30 d4 be d1 09 b3 be 33 2b b9 be
       -0.33927196 -0.41443232 -0.34968427 -0.3616577
000120 2f 66 bc be 26 8c d8 be 3e e9 c5 be be f2 ca be
       -0.3679671 -0.42294425 -0.38654512 -0.39638323
000130 b4 3c d2 be 37 1c c4 be 48 d5 cd be 74 39 02 be
       -0.41061938 -0.38302776 -0.40201783 -0.12717229
000140 c3 00 e4 be 03 39 f3 be a0 3f 00 bf 92 b0 ff be
       -0.4453183 -0.47504434 -0.50097084 -0.499394
000150 59 c2 ca be 09 d4 df be b5 1c e3 be e6 2e df be
       -0.396014 -0.43716457 -0.4435784 -0.43590468
000160 81 f7 bb be 5d fb de be 1a 47 ec be 54 24 ff be
       -0.36712268 -0.4355115 -0.46147996 -0.49832404
000170 09 8e af be 93 1d d0 be 65 06 ba be 20 dd eb be
       -0.34288052 -0.40647563 -0.36333004 -0.46067142
000180 3a 63 a4 be 40 43 be be d2 ac f1 be 9b 41 aa be
       -0.32106954 -0.37160683 -0.47202164 -0.33253178
000190 1c ac b1 be 32 82 cc be d1 8c 1a be eb b5 66 3d
       -0.34701622 -0.3994308 -0.1509278 0.056325834
0001a0 50 4a 23 3e 18 39 ab bc 9c 08 0f be 70 8f d4 bb
       0.15946317 -0.020901248 -0.13968128 -0.0064868256
0001b0 fb 53 67 3e 7e 70 b6 3e 6b 7d a5 be ee 8a d0 be
       0.2259063 0.356327 -0.3232225 -0.40730995
0001c0 46 18 db be 9a 85 ca be 7e 08 d2 be 50 1a 2d be
       -0.42791957 -0.39555055 -0.41022104 -0.16904569
0001d0 25 71 c0 be df 03 b4 be 7d a4 dd be 30 09 be be
       -0.37586322 -0.35159203 -0.43289557 -0.37116385
0001e0 8c 34 9a be b2 05 fc be 96 db b2 be ec 50 db be
       -0.30118215 -0.49223095 -0.34933156 -0.42835176
0001f0 d2 7d 7e be 97 10 f2 be b6 fe c1 be 40 94 d0 be
       -0.24852684 -0.47278282 -0.37889642 -0.40738106
000200 4b 7f 38 be f8 15 65 be a6 44 a4 be 94 fe f5 be
       -0.18017308 -0.22371662 -0.32083625 -0.4804579
000210 44 fb bb be 19 39 ac be 79 1d dd be bd 54 ba be
       -0.36715138 -0.33637312 -0.43186548 -0.36392775
000220 28 fb f8 be a3 26 a8 be 28 f3 ab be 55 54 9d be
       -0.48629117 -0.32841977 -0.3358395 -0.30728403
000230 21 08 aa be df 19 c1 be ee a2 9e be 61 b9 b2 be
       -0.33209327 -0.3771505 -0.3098368 -0.34907058
000240 5c c8 a8 be cd c0 a2 be 0b 49 ea be 84 70 bb be
       -0.32965362 -0.3178772 -0.45758852 -0.3660928
000250 b1 10 91 be 1c 67 e7 bd d5 5f 53 be cd 2b 6d be
       -0.28333047 -0.112989634 -0.20642026 -0.2316124
000260 23 e2 a0 be 6d b3 84 be f8 05 8e be 38 cf 95 be
       -0.3142253 -0.2591814 -0.2773893 -0.29259658
000270 d6 34 41 be 54 ae 92 be e6 e5 4f be 46 94 a0 be
       -0.18867812 -0.28648627 -0.20302543 -0.31363124
000280 68 04 80 be 7f aa 9a be 31 ab 96 be b0 4d 79 be
       -0.25003362 -0.30208203 -0.29427484 -0.24346042
000290 bd b0 a1 be 61 0d 9e be 54 54 55 be b5 30 71 be
       -0.31580153 -0.30869582 -0.2083295 -0.23553737
0002a0 94 d4 8a be 3b 86 a5 be 3e 8a aa be 65 58 6a be
       -0.2711531 -0.32328972 -0.33308595 -0.22885282
0002b0 84 fc a9 be 1c db 92 be fc 9d 81 be a2 b7 a3 be
       -0.33200467 -0.28682792 -0.25315845 -0.31976038
0002c0 65 d0 9c be 24 45 8d be 96 75 52 be fd fc 7f be
       -0.30627742 -0.27591813 -0.20552668 -0.24998851
0002d0 49 ee 9e be cc 75 93 be 75 8e 82 be d6 bc 62 be
       -0.31041172 -0.2880081 -0.2549931 -0.22142348
0002e0 68 a2 90 be a2 41 7a be f2 37 35 be 9b f0 aa be
       -0.28248906 -0.244391 -0.17697123 -0.33386692
0002f0 4b c2 a6 be 2f 29 89 be 25 80 47 be 25 50 87 be
       -0.3257011 -0.26789233 -0.19482477 -0.26428333
000300 0e ff 50 be d6 0d 67 be 2d 18 79 be 9b af 8f be
       -0.20409796 -0.22563872 -0.24325629 -0.28063664
000310 09 96 6c be a4 7b 7a be e8 96 88 be c6 4a 9f be
       -0.23104109 -0.24461228 -0.26677632 -0.31111735
000320 a3 ea 91 be e4 5d 43 be 84 0d 34 be 2e 0f a5 be
       -0.28499326 -0.19078785 -0.17583281 -0.32238144
000330 b7 a0 43 be 94 80 92 be 2f 16 71 be 40 66 37 be
       -0.19104277 -0.28613722 -0.23543619 -0.17910099
000340 74 be a2 be 68 9f 8c be e6 b3 88 be 9f 16 9e be
       -0.3178593 -0.27465367 -0.26699752 -0.30876634
000350 e5 39 44 be 69 a0 8e be c7 35 37 be 7d 57 84 be
       -0.1916271 -0.27856758 -0.17891608 -0.25847998
000360 db 71 aa be 9e d7 4d be 98 ef 8e be 56 6b 87 be
       -0.3328999 -0.20101783 -0.2791717 -0.26449078
000370 8a d9 3e be 08 a3 a3 be cc f2 6c be c4 72 a4 be
       -0.18637672 -0.3196032 -0.23139495 -0.3211881
000380 41 c3 46 be 0a f8 94 be 44 01 56 be 50 4a 8c be
       -0.19410421 -0.2909549 -0.2089892 -0.27400446
000390 69 6f 71 be 80 dd 71 be 8a c0 4a be 90 7d a1 be
       -0.23577656 -0.23619652 -0.1980001 -0.3154111
0003a0 b3 41 62 be fb ae 94 be 5f a5 65 be 6e f9 98 be
       -0.22095375 -0.2903975 -0.22426365 -0.298778
0003b0 56 90 5d be b0 a6 41 be 7e 5d 92 be e0 e0 aa be
       -0.21637091 -0.18911242 -0.28586954 -0.3337469
0003c0 9d 15 3a be 82 93 8f be ee 53 a4 be c5 90 6e be
       -0.18172307 -0.28042227 -0.32095283 -0.23297413
0003d0 de fa 92 be db 13 4a be 73 a0 8c be 54 31 3f be
       -0.2870702 -0.19734137 -0.27466163 -0.18671161
0003e0 36 ed 86 be 2e 55 a4 be bc 9c 5c be 77 7a 8c be
       -0.26352853 -0.32096237 -0.21544164 -0.27437183
0003f0 91 eb 92 be 73 f5 35 be fa fa a8 be 57 87 6f be
       -0.28695348 -0.17769413 -0.3300398 -0.23391472

conv2.bias f4 [16]
000000 ae d4 e0 3e e6 95 a3 be 38 7c 84 be 42 52 f0 3e
       0.43912262 -0.319503 -0.2587602 0.46937758
000010 1e 41 81 3e 9d 9c 82 3e 05 c5 df 3e 2e 37 f3 3e
       0.25244993 0.2551011 0.43705 0.47503036
000020 99 90 89 be 4d 3d 80 be 88 ed a2 be 84 0b 41 3e
       -0.26868132 -0.2504677 -0.31821847 0.18852049
000030 f4 17 0a 3e 07 30 d2 3e c4 96 a4 be 9c 64 77 bd
       0.134857 0.41052267 -0.32146275 -0.060398683

fc1.weight f4 [120, 400]
000000 59 6d ae be a4 a4 d1 be 23 6b ba be 4e 22 b4 be
       -0.340678 -0.40945923 -0.36409864 -0.35182422
000010 4b 01 9d be 3c cd cc be 67 83 c6 be dd 20 d6 be
       -0.3066505 -0.4000033 -0.38772127 -0.41821948
000020 7e 7c 8f be 55 5a 91 be 91 93 c5 be ad 2f d6 be
       -0.28024668 -0.2838923 -0.38589147 -0.4183325
000030 bb ab b6 bd 2d 3b 70 be 2a ad b3 be 1d 0c d0 be
       -0.08919474 -0.23460074 -0.3509305 -0.40634242
000040 73 47 a6 be 62 cb 95 be 92 fe c7 be ab bc d5 be
       -0.32476386 -0.2925673 -0.3906141 -0.41745505
000050 04 bd c5 be 55 71 b1 be 68 16 3d bd 30 2a a2 3e
       -0.3862077 -0.34656778 -0.046163946 0.31672812
000060 de 3e ac bc 09 0e 52 3e 50 4e 84 3e 03 32 97 3e
       -0.021026071 0.20513166 0.25840998 0.29530343
000070 f8 f3 77 be 99 46 72 3e 88 1c 6c be 41 cb 90 be
       -0.2421416 0.23659743 -0.23057759 -0.2828007
000080 22 71 96 be b4 eb 97 be fd c5 83 3e 78 56 7e be
       -0.29383188 -0.29672015 0.2573699 -0.24837673
000090 fe 5c 90 be a3 a8 89 be 09 be 93 be c3 ba 8a 3e
       -0.28195947 -0.26886472 -0.28855923 0.27095613
0000a0 84 e7 8d 3e eb c6 73 3e 98 f8 5d be 99 13 75 be
       0.27715695 0.2380635 -0.21676862 -0.23933257
0000b0 86 03 63 be d0 5f 92 be 1d 63 66 be d4 90 85 be
       -0.22169313 -0.28588724 -0.22498746 -0.26087058
0000c0 d6 ce 78 3e 7a 39 9b be 84 63 75 be 6a cc 7a be
       0.24297652 -0.3031729 -0.23963743 -0.2449204
0000d0 4a 2b 6e be 98 71 93 be 78 c5 8f be c6 95 99 be
       -0.23258701 -0.28797603 -0.28080344 -0.2999708
0000e0 fb a9 62 be 31 1c 80 be 39 09 96 3e ac 97 73 be
       -0.22135155 -0.25021508 0.2930391 -0.23788327
0000f0 8d fb 6f be 32 65 8c be 34 6d 8b be f0 44 76 be
       -0.23435803 -0.27420956 -0.27231753 -0.24049735
000100 ff 3b 9b be ae 1f 8f 3e 32 42 6f be 3f e3 81 be
       -0.3031921 0.27953857 -0.23365095 -0.25368688
000110 ad ce 65 be de d9 62 be eb 91 68 be 77 1b 8c be
       -0.22442122 -0.22153422 -0.22711913 -0.27364704
000120 0c cf 6a be 08 b3 83 be 10 35 65 be ee 30 cb be
       -0.22930545 -0.25722528 -0.22383523 -0.39685768
000130 54 fe a3 bd 9c 76 6a be 85 61 dd be 3e a1 a2 be
       -0.080074936 -0.22896808 -0.43238464 -0.31763643
000140 75 27 da be e4 a9 24 be 1b 79 a5 be b7 1c c8 be
       -0.42608228 -0.16080433 -0.3231896 -0.39084408
000150 ab 00 cf be 0b 7d d3 be 44 df f1 3d ae b0 f7 3d
       -0.40430197 -0.41306338 0.11810163 0.12094246
000160 ff 56 6f be c0 49 5b 3d 16 48 d0 be 93 3c 86 be
       -0.2337303 0.05353713 -0.40679997 -0.2621809
000170 03 3a 05 be 7f 1c b2 be 4e 18 e2 bd 9f 5e 9d be
       -0.13010411 -0.34787366 -0.11039792 -0.30736253
000180 56 ba 95 be 48 a1 90 be 8d af 95 be 17 d8 ca be
       -0.29243726 -0.28248048 -0.29235497 -0.39617988
000190 4e 76 aa be 61 ee a5 be 32 da a1 be e2 35 81 be
       -0.33293384 -0.3240843 -0.31611782 -0.25236422
0001a0 d3 0f 93 be 07 0b 34 be e6 96 7f be 1f 04 e8 3d
       -0.2872301 -0.17582332 -0.24959907 0.11328911
0001b0 dd 44 9e be 8a 3f a2 be 26 88 9d be c7 61 a6 be
       -0.30911914 -0.316891 -0.30767936 -0.32496473
0001c0 5c 9c 2b be f2 74 af be a6 30 89 be a3 ac 6b be
       -0.16758865 -0.3426891 -0.26794928 -0.23015074
0001d0 19 bf bd be 66 44 c6 be f4 10 3f be b2 ac 8a be
       -0.37059858 -0.3872406 -0.18658811 -0.2708488
0001e0 22 b0 a7 be b6 a0 5a 3e e5 e9 d3 bd ad 87 a7 be
       -0.32751566 0.21350369 -0.10347346 -0.327207
0001f0 be 47 ab be 2a 8c ac be cc 23 32 be 3e ee 95 be
       -0.33453172 -0.33700687 -0.17396468 -0.29283327
000200 ce b4 df bd 62 21 c0 be 36 10 34 be 46 93 c5 be
       -0.10923158 -0.3752547 -0.17584309 -0.38588923
000210 72 8d b4 be 49 ec b1 be 88 12 b4 be 31 ec 83 bd
       -0.35264164 -0.34750584 -0.35170388 -0.06441534
000220 ee e4 66 bd 57 5a 96 be 72 0b d1 be af f1 b0 be
       -0.056370668 -0.293658 -0.40829045 -0.3455939
000230 2e 15 fc bd 5c 2f 00 3b b2 7b b3 be c8 a5 c3 be
       -0.12308727 0.0019559478 -0.3505531 -0.3821242
000240 4e d8 d4 be 96 fe d0 be f6 59 4b be 6d f8 aa be
       -0.41571277 -0.40819234 -0.19858536 -0.3339266
000250 d9 37 c5 be 32 de c6 be d6 c2 77 be eb 5f b0 be
       -0.3851917 -0.38841397 -0.24195418 -0.3444818
000260 a0 15 f5 bd c8 e7 a1 be 86 8f b0 be 26 2b a6 be
       -0.11967015 -0.31622148 -0.344845 -0.32454795
000270 c4 35 9e bd b6 fc b0 be 5c ed d1 be 01 52 b7 be
       -0.07725099 -0.34567803 -0.41001403 -0.35804752
000280 c6 67 b2 be e0 a6 66 be a8 4b 84 be 97 ce a0 3d
       -0.34844798 -0.22524595 -0.2583897 0.07851904
000290 11 d2 c3 be 00 86 27 be 8a cd ba be 78 b9 bf be
       -0.38246205 -0.1635971 -0.3648494 -0.3744619
0002a0 a6 e6 c9 be d2 a0 8e be a9 43 82 be 86 66 96 be
       -0.39433783 -0.2785707 -0.25442246 -0.29375094
0002b0 b2 ed 3a be 60 c4 3c be 0c 5a c3 be eb b8 a2 be
       -0.18254736 -0.18434286 -0.38154638 -0.31781706
0002c0 d0 f7 84 be 0b 80 91 be 1b 5b 7c be 6d da 7c be
       -0.25970316 -0.28418002 -0.24644129 -0.24692698
0002d0 b7 68 ad be a8 3f b8 be fd 18 a9 be 0a a8 a6 be
       -0.33868954 -0.35986066 -0.33026877 -0.3255008
0002e0 37 ff bc be 13 c9 cf be 0f bf c1 3e 96 19 c0 be
       -0.36913463 -0.40583095 0.3784108 -0.3751952
0002f0 6f 92 c0 be 76 4d df be 1e d1 b5 be 02 6a 83 be
       -0.3761172 -0.43613786 -0.35511106 -0.25666815
000300 35 a7 ab be bb a3 16 be 14 9c ad be aa 2b b5 be
       -0.33526006 -0.14710896 -0.3390814 -0.35384876
000310 68 f2 96 bd a2 9f 51 be ff 6a b8 be f6 62 b2 be
       -0.07370454 -0.20471051 -0.36019132 -0.34841126
000320 9c 68 75 be 71 00 5c be 90 28 80 be 2e 71 6f be
       -0.23965687 -0.21484543 -0.25030947 -0.23383018
000330 9a 0e 8d be b4 0a 91 be 8e ec 8c be 39 3d 55 be
       -0.27550203 -0.28328478 -0.27524227 -0.20824136
000340 2e 47 59 be 20 b3 83 be aa 79 78 be d9 3b 6a be
       -0.21218559 -0.257226 -0.24265161 -0.22874393
000350 fc b3 6a be d4 67 73 be b7 bd 9a be ab 89 8b 3e
       -0.22920221 -0.23770076 -0.30222866 0.2725347
000360 fc 92 90 be 3c 31 9a be d8 32 70 be 71 34 57 be
       -0.2823714 -0.30115688 -0.23456895 -0.21016099
000370 ca bc 90 be fc 57 73 be 7a e5 95 be f1 bd 58 be
       -0.28269035 -0.23764032 -0.2927664 -0.21166207
000380 e7 59 55 be c4 b4 85 be 84 c6 9a be 25 f6 98 be
       -0.20835076 -0.26114476 -0.3022958 -0.29875293
000390 53 e3 66 be fc 45 7f be c6 b9 8c be 7e f3 8a be
       -0.22547655 -0.2492904 -0.27485484 -0.27138895
0003a0 62 50 9a 3e 87 02 54 be 3a bc 5b be 99 d6 8c be
       0.30139452 -0.20704089 -0.21458521 -0.27507475
0003b0 8c 28 95 be e3 d2 95 be 21 d5 51 be 48 8a 78 be
       -0.29132497 -0.29262456 -0.20491458 -0.242715
0003c0 0b 6d 80 be d5 ef 86 3e 9e 02 93 be df 68 8a be
       -0.25083193 0.26354852 -0.28712934 -0.27033135
0003d0 4e 99 8b be 49 3d 56 be 5c eb 6c be 85 1c 78 be
       -0.272654 -0.20921816 -0.23136657 -0.2422963
0003e0 42 1a 76 be cd 8e 9a be ec a7 89 be 97 c1 84 3e
       -0.24033454 -0.30187073 -0.26885927 0.25928947
0003f0 70 5e 82 be e7 f3 8c be 24 5d 6f be d2 3d 83 be
       -0.25462675 -0.27529833 -0.23375374 -0.25633103

fc1.bias f4 [120]
000000 ce a0 c7 be cc 2b d7 be d1 81 e3 be cc 02 c5 be
       -0.38989872 -0.42025602 -0.4443498 -0.38478696
000010 74 c1 cf be b7 96 e5 be d7 e6 b1 be 49 1d a5 be
       -0.4057728 -0.4484155 -0.3474643 -0.32248905
000020 6d c7 e4 be 86 c1 de be 87 41 ee be f9 10 ef be
       -0.446834 -0.43507022 -0.46534368 -0.46692637
000030 17 6a d7 be 8c 74 e9 be e4 0f df be 8b 9e c7 be
       -0.42073128 -0.4559673 -0.4356681 -0.38988146
000040 0e a3 ae be c9 b1 ea be 4f 81 c6 be 20 70 ce be
       -0.34108776 -0.45838764 -0.3877053 -0.4031992
000050 c2 bc cf be 04 84 cb be 3c 0c db be 12 1c bf be
       -0.40573698 -0.39749157 -0.42782772 -0.37326103
000060 ae 59 d7 be 72 61 dd be b5 02 d7 be fe ce cb be
       -0.42060608 -0.43238407 -0.41994253 -0.3980636
000070 95 1d d0 be 0a da dd be 30 8b c0 be bc d8 dd 3e
       -0.4064757 -0.43330413 -0.37606192 0.43329418
000080 3d c4 b1 be ca fa bd be 3c b8 e1 be d6 fc dc be
       -0.3472003 -0.371054 -0.44085872 -0.4316165
000090 5e cc d8 be fc ec c4 be c8 c7 ce be 46 ea c8 be
       -0.4234342 -0.38462055 -0.40386796 -0.39241236
0000a0 65 6d d3 be fa a6 c8 be c7 4a cc be 50 1e e9 be
       -0.412944 -0.39189893 -0.399008 -0.4553094
0000b0 1e c8 e7 be d8 1a bf be cd 25 bf be 84 a5 e4 be
       -0.45269865 -0.37325168 -0.37333527 -0.44657528
0000c0 ee b3 ed be 64 a9 d1 be 8c 8f d3 be 16 d0 c5 be
       -0.46426338 -0.40949547 -0.41320455 -0.3863532
0000d0 5d bc c7 be d5 59 be be 44 25 41 be b4 73 e6 be
       -0.39010897 -0.3717791 -0.18861872 -0.4501015
0000e0 3a b2 e0 be 0e e8 e2 be 19 52 d7 be d0 bb bd be
       -0.43885976 -0.4431767 -0.42054823 -0.37057352
0000f0 e4 dc cc be c4 24 cd be ea cd e5 be 06 19 ef be
       -0.40012276 -0.40067112 -0.44883662 -0.4669878
000100 df aa ac be 04 cb e9 be e2 ea db be e2 1e cf be
       -0.33724114 -0.456627 -0.4295264 -0.4045325
000110 9e 12 e0 be 75 0c cf be 65 58 d0 be f0 f0 be 3e
       -0.43764204 -0.4043919 -0.4069244 0.37293196
000120 b4 50 c9 be 54 cb c5 be e1 46 ca be 12 91 de be
       -0.39319384 -0.3863169 -0.395072 -0.43470055
000130 aa a2 c6 be 2a e1 df be d2 1b b2 be e1 ec f0 be
       -0.38795978 -0.43726474 -0.3478685 -0.47055724
000140 84 a4 da be 0c cf c9 be ab 5b e7 be 57 e9 c9 be
       -0.4270364 -0.39415777 -0.45187125 -0.39435837
000150 91 b5 e5 be 29 95 d3 be c1 2f d7 be ba 18 ce be
       -0.44865087 -0.41324738 -0.4202862 -0.4025324
000160 e1 46 e3 be 7d e4 ed be e3 d7 c0 be 3a 20 bc be
       -0.44390014 -0.46463385 -0.37664708 -0.36743337
000170 d6 42 df be 43 63 d7 be 3e c7 f2 be 38 5d ba be
       -0.4360568 -0.42067918 -0.47417635 -0.36399245
000180 a5 51 d5 be 68 99 e7 be 8c ed cd be 11 b8 e5 be
       -0.41663852 -0.45234227 -0.40220296 -0.44866994
000190 3d c8 ca be 14 df cf be 93 69 df be d4 52 ae be
       -0.39605895 -0.40599883 -0.43635234 -0.34047568
0001a0 62 16 c5 be 2a a4 df be 30 8e e0 be c5 b4 c6 be
       -0.3849364 -0.43679935 -0.4385848 -0.3880979
0001b0 25 b6 b2 be a2 3c 9e be 66 7a d8 be da 34 bf be
       -0.3490459 -0.30905634 -0.42280883 -0.3734501
0001c0 54 82 d0 be 89 51 b3 be 12 e9 d7 be fa a8 c1 be
       -0.40724432 -0.35023144 -0.42170006 -0.3782423
0001d0 ef 9c c3 be 26 e0 ce be 30 e6 ed be 85 60 e8 be
       -0.38205668 -0.40405387 -0.46464682 -0.4538614

fc2.weight f4 [84, 120]
000000 c1 b5 a7 bd d4 78 f5 bd 48 53 79 be bd 8b 33 3e
       -0.08188964 -0.11985937 -0.24348176 0.17533775
000010 68 3e e1 3d 35 d0 4d 3c b3 31 02 be 0e 3c a6 be
       0.10998231 0.012561847 -0.12714271 -0.32467693
000020 1a b9 be be 79 6c 15 3e 9c 83 00 bf 68 4a 77 be
       -0.37250596 0.1459216 -0.5020082 -0.24149477
000030 e1 9a 14 be 71 2f 10 be c6 54 92 be 5e 65 86 be
       -0.14512207 -0.14080597 -0.28580302 -0.26249212
000040 7d 8b c1 be 76 b0 66 be 54 92 5d be 55 a9 34 be
       -0.37801734 -0.22528252 -0.21637851 -0.1764272
000050 d7 43 de be 36 2f aa 3d f7 b7 cc be 32 85 98 be
       -0.43411133 0.08309786 -0.39984104 -0.2978912
000060 98 f6 3f 3e 08 0b d3 be 5a 74 9a be e3 b0 c2 be
       0.18746412 -0.41219354 -0.30166894 -0.3802558
000070 f0 b7 dd bd d9 0d af be 4b ca e2 be 64 6f e8 be
       -0.10826099 -0.34190252 -0.44294962 -0.45397484
000080 98 f6 42 be 53 88 2b be 49 a7 87 be 27 7c 1a be
       -0.1903938 -0.16751222 -0.26494816 -0.15086423
000090 12 8e c0 be 9b 52 9a be 31 e3 ab 3d ea 90 5d be
       -0.3760839 -0.30141148 0.08392943 -0.21637312
0000a0 2f 9f 82 be 8b b8 31 bd e4 5e c2 3e 7d 36 b5 be
       -0.25512072 -0.043388885 0.3796302 -0.35393134
0000b0 d7 6c 99 be 86 e4 d2 bd 5b 50 70 bc 55 54 4c 3e
       -0.2996585 -0.10297494 -0.014667596 0.19954045
0000c0 4e 0d e2 be df a6 96 be 93 95 4a 3e a1 fd 80 3e
       -0.44150776 -0.29424188 0.1978362 0.25193503
0000d0 17 e9 f6 be 04 2a 85 be 42 bf 35 3d 5f 1d a7 3d
       -0.48224708 -0.26008618 0.04437185 0.08159899
0000e0 d2 e1 cc be 8d 58 93 be a8 f5 64 3e d8 9f d3 be
       -0.40016037 -0.28778496 0.22359335 -0.4133289
0000f0 44 28 ba be 4d 65 ea 3d 71 b8 76 be 6c 1b 8e 3d
       -0.36358845 0.11445103 -0.24093796 0.06938824
000100 fa f6 95 be 09 7f a6 be 18 06 9d be e5 33 92 bd
       -0.2928999 -0.32518795 -0.30668712 -0.07138804
000110 7a 6a b5 be 3c 3d a9 be 13 de 86 3e 81 15 61 be
       -0.35432798 -0.3305453 0.26341304 -0.2198086
000120 50 f6 a6 be 27 69 c6 be c1 7a c9 be 54 1d 57 be
       -0.32609797 -0.387521 -0.39351466 -0.21007282
000130 55 a5 ee bd d4 8e 34 3c e8 9c be be 52 95 b9 be
       -0.11652628 0.011020381 -0.37229085 -0.36246735
000140 b4 f4 bf bd d9 14 9e be 74 19 9e be 0c d7 a3 3e
       -0.09372845 -0.3087528 -0.30878794 0.32000005
000150 eb e2 1c be 3e 3d 81 be 2c 7d 8b be ac 8b 9b be
       -0.15320937 -0.25242037 -0.27243936 -0.3038
000160 f8 22 35 bb 06 1c 42 bd 91 e4 a9 be 4b ee b8 be
       -0.0027639251 -0.047390006 -0.33182195 -0.36119303
000170 a1 26 85 be 50 58 ac be 2d 65 c3 bd 6b 64 92 be
       -0.26006034 -0.33661127 -0.09540782 -0.28592238
000180 f3 4a 14 be 6d db ec 3d e2 02 a0 be 91 4e 88 3e
       -0.14481716 0.1156529 -0.312522 0.2662244
000190 68 4e a4 be bd 31 70 be cf a5 9a bd 9f 07 ae be
       -0.3209107 -0.23456474 -0.07551157 -0.3399019
0001a0 35 bb 5e be 7e fc e4 3e da 06 2d be 8d 2c 1d be
       -0.21751101 0.44723886 -0.16897145 -0.15349026
0001b0 cb 2f ea be 02 a2 c5 bd ef 5b d5 bd 5f a1 b5 bd
       -0.45739588 -0.09650041 -0.104179256 -0.0886867
0001c0 dd c3 04 be 55 36 3d be 9a 31 ec be 57 d0 24 be
       -0.12965341 -0.18477757 -0.46131593 -0.160951
0001d0 c1 c9 85 be 50 17 82 be 1b 05 d7 be 51 81 03 bf
       -0.2613049 -0.2540841 -0.41996083 -0.51369196
0001e0 b2 29 cf bd 5e 31 1d be 80 a2 93 be 88 11 76 be
       -0.101153746 -0.15350863 -0.28834915 -0.24030125
0001f0 a8 ff b3 3e 84 de 99 be 2c b8 b4 be 92 40 bc be
       0.35155988 -0.30052578 -0.35296762 -0.36768013
000200 64 0d a9 be ac d1 96 be d6 92 e5 be 87 16 99 be
       -0.3301803 -0.29456842 -0.4483859 -0.299
000210 27 de 68 be 95 3b cf be 14 f5 a3 be 17 90 ca be
       -0.22740994 -0.40475145 -0.32022917 -0.39563057
000220 65 99 71 be d1 f2 97 be f7 52 9e be 10 af 1e be
       -0.23593672 -0.29677442 -0.30922672 -0.15496469
000230 d4 6e ca be 06 57 ba be 02 b2 a3 be ec b2 ae be
       -0.3953768 -0.3639452 -0.31971747 -0.34120882
000240 11 25 e4 be 00 36 25 be ff 51 d8 be e8 b1 8b be
       -0.4455953 -0.1613388 -0.42250058 -0.2728417
000250 da 54 66 be 3b 0a 81 be ea de 83 be 01 f1 c0 be
       -0.22493306 -0.25203118 -0.25756007 -0.3768387
000260 a3 f6 d8 be 3b 2b 93 be 3d 9c 68 be 0c 23 b1 be
       -0.4237567 -0.2874392 -0.2271585 -0.3459705
000270 6a 44 92 be ec 9e 50 be e8 41 9c be f2 24 78 be
       -0.2856782 -0.20373124 -0.30519032 -0.24232844
000280 4d 29 92 3e 3b c2 c7 be d3 a9 ba bd c8 ed d1 3d
       0.28547135 -0.39015374 -0.09114423 0.10250431
000290 4c 23 35 be ed b5 aa be 6c c5 ef bd 48 59 8f 3d
       -0.17689246 -0.33341923 -0.11707577 0.06999451
0002a0 f3 a6 9f be 6c 1b 88 be 3e 0d d4 be 06 a5 b4 be
       -0.3118206 -0.2658342 -0.41416353 -0.35282153
0002b0 31 14 9b be cb 87 90 be af fc e7 be 1a 7f 90 be
       -0.30288842 -0.28228602 -0.4530997 -0.2822197
0002c0 d3 f5 ac be fa e7 bd be 59 ad 6b be 35 53 be be
       -0.337813 -0.37091047 -0.23015346 -0.37172857
0002d0 df dd 63 3e b8 37 e1 bb ea 42 c7 be 99 4b cd be
       0.22252606 -0.0068730973 -0.3891824 -0.4009674
0002e0 21 e7 1a be e8 43 96 be 5c 62 75 be 04 06 8d be
       -0.15127231 -0.29348683 -0.23963302 -0.27543652
0002f0 1a 5c 3f be 1b 21 e3 be 75 08 71 be f7 94 9c 3d
       -0.18687478 -0.44361195 -0.23538382 0.076456
000300 2a 29 cb be 3e 98 9d be f0 5b 84 be c4 a1 b4 be
       -0.39679843 -0.30780214 -0.25851393 -0.35279667
000310 3c db 89 be f7 a7 72 be f5 0b d7 be 34 aa 72 bd
       -0.26925075 -0.23696886 -0.4200131 -0.05924435
000320 60 5d 9a 3e 64 53 8d be 55 d9 30 be 87 f0 1d be
       0.30149364 -0.27602684 -0.17270406 -0.15423785
000330 fa a8 ac bb 0a 2a 8c bd dc cb e7 be 7c b0 8f bd
       -0.005269167 -0.06843956 -0.4527272 -0.070160836
000340 56 9f d4 3c f7 54 81 be a7 9d c5 be ea 46 12 be
       0.025954884 -0.25260136 -0.38596842 -0.14284864
000350 34 35 5f be e9 4b 44 be 1c 92 02 be 8e 64 de be
       -0.21797639 -0.19169582 -0.12751049 -0.43436092
000360 e6 11 95 be 96 3b 83 bd e8 32 6f be 1b 70 f7 bc
       -0.29115218 -0.064078495 -0.23359263 -0.030204823
000370 8f 20 ec bd 5c a4 b1 be c4 71 80 be 91 8f 72 be
       -0.115296476 -0.3469571 -0.25086796 -0.23687579
000380 2b 45 69 be 04 e2 e3 be e5 04 82 be 4b d6 a5 3d
       -0.22780292 -0.44508374 -0.2539436 0.08097514
000390 c1 bc e0 be 3f db 96 be 7f 7d 80 be 9a e6 58 be
       -0.43894008 -0.29464146 -0.25095746 -0.21181718
0003a0 37 3b a5 be ca 85 61 be 54 4a 98 be 70 97 a1 be
       -0.3227174 -0.22023693 -0.29744208 -0.3156085
0003b0 c4 94 91 be 28 87 c4 bc 4c cb d0 be d6 aa c8 be
       -0.28433812 -0.023990229 -0.40780103 -0.39192837
0003c0 44 2a a1 be e6 33 a3 be 41 8d 9b be 02 d4 b4 3c
       -0.3147756 -0.31875533 -0.30381206 0.02207375
0003d0 ba 2d 7a be 1b 4b 5f be a0 3a 83 be 98 c3 97 be
       -0.24431506 -0.21805994 -0.25630665 -0.29641414
0003e0 bb f7 b2 be 9f 54 3e be 4c ac 91 be 2d 61 50 be
       -0.34954628 -0.18586968 -0.28451765 -0.2034957
0003f0 fa 8e b0 be ac 08 3f be e8 62 51 be 4f 9c 5c be
       -0.34484082 -0.18655652 -0.20447886 -0.21544002

fc2.bias f4 [84]
000000 9e 5e bb be 99 ad f8 be cb 74 ce be 13 fe 8a be
       -0.36595625 -0.48569945 -0.4032348 -0.27146968
000010 90 d6 04 bf 9e 3f e8 be 92 10 cf be 79 da 92 be
       -0.51889896 -0.45361036 -0.4044233 -0.28682306
000020 d2 3b d8 be 22 83 eb be fc 6a b7 be 8d 89 ec 3e
       -0.4223314 -0.45998484 -0.3582381 0.46198693
000030 b2 e5 e7 be c6 33 02 bf ee 04 ba be b1 32 d4 be
       -0.4529243 -0.5086025 -0.36331886 -0.41444924
000040 b1 b0 e7 be 18 e0 f9 3e 14 b3 a9 be d6 e5 d6 be
       -0.45251992 0.48803782 -0.33144438 -0.41972226
000050 7c 8c b9 be e4 94 d7 be b1 22 f1 be 4e 98 f2 be
       -0.36239994 -0.42105782 -0.4709678 -0.47381824
000060 15 2b ca be b2 f6 e5 be ce 20 ed be 81 6d 00 3f
       -0.39485994 -0.44914776 -0.4631409 0.5016709
000070 da 64 fe 3e 71 36 c3 be f4 4f f4 be 9b 31 eb 3e
       0.4968632 -0.38127473 -0.4771725 0.45936283
000080 a3 f0 e1 be 10 18 98 be 74 38 e0 be d4 21 ee be
       -0.44128904 -0.29705858 -0.4379307 -0.46510184
000090 f7 e3 ef be b7 30 d7 be 5c e1 f6 be 74 19 f6 be
       -0.4685361 -0.42029354 -0.4821881 -0.48066294
0000a0 5b d2 dd be d4 b2 ce be 63 b2 e4 be 47 85 dc be
       -0.4332455 -0.4037081 -0.44667348 -0.43070433
0000b0 a7 db c6 be fa 58 bb be 6f 32 fc be da 97 bc be
       -0.38839456 -0.3659132 -0.49257228 -0.36834604
0000c0 32 1f d0 be 21 06 f6 3e 47 a1 01 bf 82 04 c5 be
       -0.406488 0.4805155 -0.50636715 -0.38480002
0000d0 c4 26 e9 3e 52 e3 e6 3e e0 d8 b4 be 4e e6 fc be
       0.45537388 0.45095307 -0.35321712 -0.4939446
0000e0 2a 57 c4 be ce ba 00 bf 81 80 fb 3e d6 15 e2 3e
       -0.3834775 -0.5028504 0.49121478 0.44157284
0000f0 de b2 b5 be 72 d5 ed be b2 cd f3 be 78 10 be be
       -0.35488027 -0.46451908 -0.4761787 -0.3712194
000100 0a f1 c3 be 68 5a b1 be 9d 6a cc be 9d a8 e9 be
       -0.38269836 -0.34639287 -0.3992509 -0.45636454
000110 c2 05 9a be d1 63 d7 be d1 05 e8 be 51 b6 f1 be
       -0.30082518 -0.4206834 -0.45316938 -0.4720941
000120 58 e2 b5 be 4a 26 f5 be ba 38 c4 3e 9d e3 ba be
       -0.3552425 -0.47880775 0.3832453 -0.3650178
000130 b2 59 ca be e6 2f a6 be ec a6 d9 3e ad 93 d5 be
       -0.39521557 -0.3245842 0.42510164 -0.4171423
000140 93 10 04 3f 70 0c fa 3e 02 e8 f5 be b1 a6 03 bf
       0.5158779 0.48837614 -0.4802857 -0.51426226

fc3.weight f4 [10, 84]
000000 24 13 af be 8b 68 c7 be 29 bc 9a be 34 9e e7 be
       -0.3419429 -0.38946947 -0.3022168 -0.45237887
000010 ac 6b 9a be 2e 65 d2 be 42 78 c5 be a0 0b b2 be
       -0.30160272 -0.4109282 -0.38568312 -0.34774494
000020 21 2e 03 bf 53 c4 c4 be 5f 41 e2 be 73 d0 05 bf
       -0.5124226 -0.38431033 -0.441905 -0.52271193
000030 d4 e3 fe be 0c 76 d5 be ce 2d a6 be ba 0a 9b be
       -0.49783194 -0.41691625 -0.3245682 -0.3028162
000040 5d c4 ac be 37 76 d3 be a6 e4 a3 be 4a 15 bb be
       -0.33743563 -0.41301128 -0.32010382 -0.3653968
000050 36 16 05 bf 80 06 47 be da f3 f5 be 51 ff ee be
       -0.51987016 -0.19436073 -0.48037606 -0.46679166
000060 60 d1 a8 be 04 80 d2 be 27 29 95 be c9 98 f1 be
       -0.3297224 -0.41113293 -0.2913296 -0.47186878
000070 ca a3 f4 be fb af 90 3e 41 8d 51 be be 2b 90 be
       -0.4778121 0.28259262 -0.2046404 -0.28158373
000080 57 97 c1 be b3 26 93 be 78 bc a0 be 41 00 e0 be
       -0.37810776 -0.28740463 -0.3139379 -0.43750194
000090 4e 71 dd be 52 24 c9 be 06 09 ac be 21 5f bf be
       -0.43250507 -0.39285523 -0.33600634 -0.37377265
0000a0 cd 05 3c be fa 9a f1 be 04 6b bb be 81 f8 c9 be
       -0.18361588 -0.4718855 -0.36605084 -0.39447406
0000b0 d3 fa ba be 5d ff a6 be 9a 3c 79 bd a8 1a e5 be
       -0.3651949 -0.32616702 -0.06084881 -0.447469
0000c0 84 59 ab be 9e f5 d1 be 46 67 c7 be 2c 95 b8 be
       -0.33466733 -0.41007704 -0.3894598 -0.3605131
0000d0 cb 4d ff be 79 6a a1 be f0 b9 ff be 12 86 cd be
       -0.4986404 -0.31526545 -0.49946547 -0.4014135
0000e0 2a ce cb be a4 1a e3 be 9b 49 b0 be a0 51 f5 be
       -0.39805728 -0.44356263 -0.34431157 -0.47913837
0000f0 88 80 eb be 53 c9 f5 be 46 bc d6 be 9e 0b aa be
       -0.459965 -0.4800516 -0.41940516 -0.33211988
000100 32 30 fe be 83 69 d4 be 5f 7a d1 be ad 93 f9 be
       -0.49646145 -0.4148675 -0.40913674 -0.4874548
000110 c8 2c cf be d3 83 cb be 5a bc 9f be 8d 86 a7 be
       -0.40463853 -0.3974901 -0.31198388 -0.32719842
000120 ad d6 97 be 75 48 05 bf 95 1b be be e0 ff 45 be
       -0.29655972 -0.52063686 -0.37130418 -0.1933589
000130 24 0f ce be 48 d2 b1 be 44 50 be be 5d 8d 9f be
       -0.40245926 -0.34730744 -0.37170613 -0.3116254
000140 17 7d d1 be b6 5a bd be f1 d1 fa be 10 ec cb be
       -0.40915748 -0.3698327 -0.48988298 -0.3982854
000150 38 21 f2 be 48 fc b7 be 1c bc 63 be 0b b7 c2 be
       -0.4729097 -0.35934663 -0.22239727 -0.38030276
000160 c5 99 9a be 18 a9 0d be 5c 69 df be 5c bd e7 be
       -0.30195442 -0.13834035 -0.4363507 -0.45261657
000170 48 c5 07 bf 24 94 01 bf d2 b5 04 bf a3 d4 91 be
       -0.530354 -0.5061667 -0.51839936 -0.2848254
000180 ea 4a 00 bf 92 86 f2 be 9e 11 ea be a7 17 c0 be
       -0.5011431 -0.47368294 -0.45716566 -0.37518045
000190 ea 75 c0 be 58 8f ab be bc da c2 be 32 18 b0 be
       -0.3758996 -0.335078 -0.38057506 -0.3439346
0001a0 f0 fa f6 be f1 59 ad be 21 1e 02 bf 56 d5 ac be
       -0.48238325 -0.33857682 -0.50827223 -0.33756512
0001b0 0b 30 c7 be de 3f e5 be 50 f7 f7 be b3 79 ad be
       -0.3890384 -0.4477529 -0.48430872 -0.33881912
0001c0 b6 70 05 bf aa ec f7 be fd 25 06 be fb 5d 7d be
       -0.5212511 -0.48422748 -0.13100429 -0.24742882
0001d0 ac e5 e4 be b9 76 e7 bd 4a 49 00 bf e7 0b e4 be
       -0.44706476 -0.113019414 -0.5011183 -0.4454033
0001e0 59 da a1 be 10 0c e7 be 86 7a ed be 94 eb a4 be
       -0.316119 -0.4512639 -0.4638254 -0.32210982
0001f0 f1 e2 eb 3e 83 a4 a1 be 14 ce db be 02 3f b7 be
       0.4607158 -0.31570825 -0.42930663 -0.3579026
000200 97 d1 f3 be 00 c1 a7 be bb 07 2c 3e 5d cc f1 be
       -0.47620842 -0.32764435 0.16799824 -0.4722623
000210 2b 25 e5 be 53 cf 8e be 10 5c cc be 4f 62 fa be
       -0.4475492 -0.2789255 -0.39913988 -0.48903129
000220 e1 2e a2 be d7 6b f4 be c3 98 99 be f1 93 f8 be
       -0.3167639 -0.47738525 -0.2999936 -0.4855037
000230 5c 37 c5 be 21 06 a4 be d5 b0 39 be 6a bc d4 be
       -0.38518798 -0.32035926 -0.18133862 -0.4155
000240 f7 8a be be b6 b9 e6 be 62 d5 a2 be 54 c6 cc be
       -0.37215397 -0.4506356 -0.31803423 -0.39995062
000250 5c b6 ef be 89 ff c9 be 78 67 c3 be 12 d3 a5 be
       -0.46818817 -0.3945277 -0.38164878 -0.32387596
000260 c3 2f ea be c2 00 f9 be 60 30 f9 be ba 49 aa be
       -0.45739564 -0.4863339 -0.4866972 -0.33259374
000270 5d b3 fd be 69 5e bc be b9 1f df be 82 e2 af be
       -0.49550906 -0.3679078 -0.4357889 -0.343525
000280 84 7f c2 be da bb d7 be ab 09 e4 be 1d c0 9f be
       -0.37987912 -0.42135507 -0.44538626 -0.31201258
000290 c4 86 82 be 11 32 00 be f9 69 e6 be d2 eb ee be
       -0.25493443 -0.12519099 -0.45002726 -0.46664292
0002a0 ca 06 f0 be 6a b7 cb be c9 34 9c be 74 d6 83 be
       -0.4688018 -0.3978837 -0.30509022 -0.25749552
0002b0 6a f3 e7 be 04 ad f6 be 66 58 b3 be e0 73 d3 be
       -0.45302898 -0.48178875 -0.3502838 -0.41299343
0002c0 e0 0a bf be 6c db be be d8 12 c5 be a6 30 92 be
       -0.37312984 -0.3727678 -0.3849094 -0.2855274
0002d0 bc 07 d0 be 6e 6f 01 bf c0 1a 9a be 82 4a f4 be
       -0.406309 -0.50560653 -0.30098534 -0.47713095
0002e0 ad ff 00 bf a0 f4 d4 3e 09 a2 f6 be cc 3b b8 be
       -0.5039013 0.41592884 -0.48170498 -0.3598312
0002f0 90 01 eb be 9d 37 b3 be cf 6c b9 be 77 ad f1 be
       -0.4589963 -0.35003367 -0.36215827 -0.47202656
000300 11 c6 f9 be 64 e2 f5 be cf 0d e8 be a2 bf 31 bd
       -0.48783925 -0.48024285 -0.45323035 -0.043395646
000310 40 40 5c 3d 4e 2c 6f be 9b 1e a7 be 5c 48 a4 be
       0.05377221 -0.23356745 -0.32640538 -0.32086456
000320 da e9 b6 be ea f3 bb be d2 41 ed be 8c 88 ca be
       -0.3572529 -0.3670953 -0.4633928 -0.39557302
000330 ae 30 de be 14 db c8 be 6c 4f a6 be 04 25 ec be
       -0.43396515 -0.39229643 -0.3248247 -0.4612199
000340 6c e1 ed be 2e 95 00 bf 40 76 be be 30 06 a4 be
       -0.46461046 -0.5022763 -0.37199593 -0.3203597
000350 70 78 0c be b3 e7 f4 be 51 d9 c2 be 15 98 cc be
       -0.13717818 -0.47833022 -0.38056424 -0.3995978
000360 b5 fc 93 be 26 d6 26 be ce c4 00 bf 62 4a 95 be
       -0.28903738 -0.16292629 -0.503003 -0.29158312
000370 a7 91 89 bd 9a 24 ee bd 43 d6 08 bf f4 44 cc be
       -0.06717234 -0.11628075 -0.5345194 -0.39896357
000380 87 58 e3 be f9 1c b2 be 4c 51 83 3e 08 8a b6 bd
       -0.44403479 -0.3478773 0.25647962 -0.08913046
000390 3a 41 b8 be 3f d5 cf be 60 81 c3 be 9f aa d2 be
       -0.35987264 -0.4059238 -0.38184643 -0.411458
0003a0 96 04 dd be 48 07 9d be 6a fc a7 be 8a 23 c4 be
       -0.4316756 -0.30669618 -0.32809764 -0.38308364
0003b0 17 15 b4 be 32 a3 a4 be 93 14 e5 be 56 96 01 bf
       -0.3517234 -0.32155758 -0.4474226 -0.5062002
0003c0 b4 c5 bd be 1e 33 09 bf a2 f9 b0 3c c5 aa 05 bf
       -0.37064898 -0.53593624 0.02160341 -0.522137
0003d0 95 73 f5 be 32 21 fb be 52 a1 a0 be c0 37 85 be
       -0.47939745 -0.49048764 -0.31373078 -0.26019096
0003e0 be ae af be f7 8a 49 be ab 29 c7 be c8 2d f1 be
       -0.34313005 -0.19681917 -0.38898978 -0.4710524
0003f0 29 bf 9c be 1c dd f3 be 80 1c 35 be 5d 1c d4 be
       -0.30614594 -0.4762963 -0.17686653 -0.4142789

fc3.bias f4 [10]
000000 bf 83 d9 be 52 71 af be e2 79 c4 3e af 24 ea 3e
       -0.42483327 -0.34266144 0.3837424 0.45731112
000010 61 10 cb 3e ea b7 a4 3e 35 59 d4 3e 8b c0 8c 3d
       0.39660934 0.32171565 0.4147431 0.06872662
000020 8e 95 a1 be a2 9e b0 be
       -0.31559414 -0.34496027
