FL/cnn-img/outputs/2025-03-18/18-18-01/model_state_acc_0.1513_round_2.pth (torch, 251962 bytes, 10 tensors)

conv1.weight f4 [6, 3, 5, 5]
000000 86 10 1c 3f 80 05 14 3f 6c 5a 19 3f de fe 06 3f
       0.6096271 0.5782089 0.599036 0.52732646
000010 1c 6d 05 3f bf 39 ce 3e 86 12 d4 3e ce b3 ed 3e
       0.5211961 0.40278432 0.41420382 0.46426243
000020 61 f1 a6 3e 56 6a cb 3e fc 18 2c 3e 16 05 9a 3d
       0.32606032 0.39729565 0.16806406 0.07520501
000030 9e 5b b9 3d e4 86 94 3d e0 7b 05 3b ce 18 bf 3c
       0.09050678 0.07252291 0.0020368025 0.023327257
000040 78 e0 b2 bb fb a2 b6 bd b2 26 46 be 8b 0f bb be
       -0.0054588877 -0.08917805 -0.19350699 -0.36535296
000050 c8 d5 1e be cc d8 a2 be 32 63 8d be 42 ab 51 be
       -0.15511239 -0.31806028 -0.27614743 -0.20475486
000060 5c 7e 95 be 21 c1 67 bd 58 5d 4e be d2 ef b8 3d
       -0.29197967 -0.056580666 -0.20152795 0.09030117
000070 be 7a 3c 3d fc 3d d8 bd e8 dc 2e be 28 e4 92 be
       0.046015494 -0.105586976 -0.17076457 -0.28689694
000080 09 e9 a0 be ad 05 a2 be a7 3e f9 bd 1d 8d 6d be
       -0.31427792 -0.31644955 -0.12170153 -0.23198362
000090 36 ea e8 be 0a 02 a0 be 28 1b 27 be 2e cb 53 be
       -0.4549119 -0.31251556 -0.16318953 -0.20682976
0000a0 67 98 a5 be 8c 15 b2 be 5b 89 a0 be 6a 8e 67 be
       -0.32342836 -0.34782064 -0.31354794 -0.2261292
0000b0 a7 8b 87 be 60 9c 82 be 37 82 59 be bf e4 fb bd
       -0.26473734 -0.2550993 -0.2124108 -0.12299489
0000c0 5f 21 02 be d3 7b e8 bd 1a 50 16 3e 83 eb b6 3d
       -0.12708043 -0.113517426 0.14678994 0.08931639
0000d0 7a 9b d5 3c 61 84 a4 3d 1c 2e 7d 3e 05 57 42 bd
       0.026075114 0.08033062 0.2472462 -0.04744627
0000e0 99 a8 61 bd dd 13 bb bd 87 ac 82 3d e6 3b d8 bd
       -0.055092428 -0.09134648 0.06380563 -0.105583
0000f0 1f b3 56 bd 7f a8 6b bd 40 d3 87 bc 70 b2 89 3d
       -0.052416917 -0.057533737 -0.016580224 0.067234874
000100 91 2d 36 3e 70 b7 94 3e 36 79 4e 3e e0 30 3a 3e
       0.1779082 0.29046202 0.20163426 0.18182707
000110 b6 43 6b 3e 11 40 94 3e 97 22 5f 3e 00 c3 c9 3e
       0.22975048 0.2895513 0.21790539 0.39406586
000120 f5 f9 b9 3e 87 fb e0 3e d1 33 93 3e 86 8e ae be
       0.36323515 0.439419 0.2875047 -0.34093112
000130 dd 26 48 be 51 62 ad bd 75 64 ab bd ef d5 97 be
       -0.19546075 -0.08466018 -0.0836877 -0.29655406
000140 08 08 75 be 72 55 79 be 7a 8a cb bd 72 49 12 be
       -0.23928845 -0.24349001 -0.09938522 -0.1428583
000150 1d 0a be be e7 a3 24 be bd b7 15 be 78 65 60 be
       -0.3711709 -0.16078149 -0.14620872 -0.21913707
000160 5b 51 36 be 69 5d 72 be e5 6a 14 3d 04 c9 1c be
       -0.17804472 -0.23668446 0.036234755 -0.15311056
000170 dd 54 67 bd fb 44 0d be 85 11 92 3d 17 2a 59 bd
       -0.056477416 -0.13795845 0.07132248 -0.053018656
000180 5f 26 96 3d 3b c1 b1 3d 2c 0f 27 bc 77 41 1b 3d
       0.073315375 0.08679434 -0.010196488 0.03790423
000190 db c2 24 be f4 77 1b bd a8 48 bd bd 22 37 99 3c
       -0.16089956 -0.037956193 -0.09242374 0.018703047
0001a0 86 d2 94 bd 52 56 ca bd 45 a0 f0 bd 40 ed 5d b9
       -0.07266717 -0.098797455 -0.11749319 -0.00021164585
0001b0 64 6b 20 bd f1 40 c5 bd 89 57 0e be 05 aa e0 bd
       -0.039164916 -0.09631527 -0.1390058 -0.10969929
0001c0 2b b3 6f be 65 e9 54 be 57 15 cf bd 71 34 2c 3e
       -0.23408191 -0.20792158 -0.10111492 0.1681688
0001d0 94 7c fd 3b d2 61 dd 3c 9f 0b b0 3c de ed c6 3d
       0.007735798 0.027024183 0.021489916 0.09713338
0001e0 9d 7c c1 3d a4 f2 fe 3a 13 bd ef 3d 72 9d d8 3c
       0.09447596 0.0019450975 0.11705985 0.026442263
0001f0 a6 42 50 bc 3d 77 9f 3e 2a e5 9d 3e c4 ec cb 3e
       -0.012711203 0.3114566 0.308389 0.39829075
000200 33 f1 96 3e f0 b6 33 3e 51 f5 c1 3e 90 30 a5 3e
       0.29480895 0.17550254 0.37882474 0.32263613
000210 36 c2 d1 3e c8 72 e7 3d a4 cf 93 3d 42 ff 90 3e
       0.40968484 0.1130119 0.07217339 0.28319746
000220 85 00 f0 3d 30 86 91 3d de bc 64 3e 37 e5 85 3d
       0.11718849 0.07105672 0.22337672 0.0653786
000230 40 c7 ec 3e c8 4a bd 3e 52 92 a5 3e 05 7f 90 3e
       0.46245766 0.36971116 0.32338196 0.28221908
000240 44 97 be 3e 43 29 8a 3e 26 5f ac 3e 87 fb ce 3e
       0.37224782 0.26984605 0.33666342 0.40426275
000250 53 92 0b 3f 06 9d e5 3e 3d e0 13 bd 6e 01 59 be
       0.5452015 0.44846362 -0.036102522 -0.21191952
000260 8c 7c 32 be 47 05 8b bc a2 b6 92 bd 28 2f 0c 3d
       -0.17430323 -0.01697029 -0.07163741 0.03422466
000270 06 cf b0 bd 4e 6c c0 bc 56 5a 3c be c7 41 6a be
       -0.086332366 -0.023489144 -0.18393835 -0.22876655
000280 05 41 4e bd a1 50 2b bd 6f 84 12 be dc 36 00 be
       -0.050354976 -0.04182494 -0.14308332 -0.12520927
000290 24 53 5e be 6a 40 64 bd 7f 44 42 be 8e 7c f7 bc
       -0.21711403 -0.055725493 -0.18971442 -0.03021076
0002a0 66 93 e9 bd 3b db 9b be e7 9b 38 be 78 e8 91 bc
       -0.11405067 -0.30440697 -0.18028222 -0.017811045
0002b0 75 23 ed bd a2 24 8a be 3b a8 ae be 33 c0 71 bd
       -0.115790285 -0.26981074 -0.34112725 -0.059021186
0002c0 ae f1 2c bd 5c ea 9a 3c 4b 0d 69 bd f2 86 7c 3d
       -0.04222267 0.01891058 -0.056897443 0.06165213
0002d0 51 85 3b bd b0 d5 a3 bb 1d 0f 50 bc d0 b9 2c 3d
       -0.045781437 -0.004999839 -0.012698916 0.042169392
0002e0 fe 8b 84 bc db 53 d5 3d 36 54 83 3d 80 f9 69 3d
       -0.016180035 0.10416385 0.06412546 0.057122707
0002f0 88 8e cd bd 01 f4 0c be 23 83 de 3c 7e 0d 16 bd
       -0.10036951 -0.13764955 0.02716214 -0.03663396
000300 cc 30 e0 3d a4 23 b2 3d 58 86 dd bd 42 dc 00 be
       0.10946807 0.08698204 -0.1081664 -0.12584022
000310 e4 e8 d4 3c 8e ed 45 bc 0a cd fa 3c 41 e0 74 bd
       0.025989957 -0.012080563 0.030615348 -0.059784178
000320 65 e1 ce 3e e5 86 99 3e d7 70 7f 3e c9 b0 95 3e
       0.40406337 0.2998573 0.24945389 0.2923644
000330 5e 3f 61 3e 37 57 03 3f 68 fb 93 3e b2 b6 4f 3e
       0.21996829 0.51304954 0.28902745 0.20284536
000340 d4 28 36 3e b3 30 1a 3e fe f1 d5 3e e2 48 ba 3e
       0.17789012 0.1505764 0.41786188 0.3638373
000350 69 d2 84 3e 10 30 ce 3e 28 2f 92 3e 1d 49 0a 3f
       0.2594178 0.40271044 0.28551602 0.5401781
000360 3c 8a ef 3e 36 83 d9 3e b6 10 54 3e 09 8f 54 3e
       0.46785152 0.42482919 0.207095 0.20757689
000370 33 eb bc 3e 39 2f be 3e c2 68 a7 3e 54 c4 ac 3e
       0.36898193 0.37145403 0.3269711 0.33743536
000380 2f 36 33 3e 83 cb 2f be 0b 5a 70 be 74 3f b4 bd
       0.17501138 -0.17167477 -0.23471849 -0.08801165
000390 d7 52 ed 3d 04 d8 6b bd 9f d6 04 be 4d 9a 1a be
       0.11588066 -0.057579055 -0.12972496 -0.15097924
0003a0 78 9e 38 bd 46 d2 05 3e c4 9b ae 3d ca 1e 38 be
       -0.045073003 0.13068494 0.08525804 -0.17980495
0003b0 6d 2d 08 3d 41 24 db bd c9 b6 89 bd 42 3e c6 bc
       0.033246446 -0.10700274 -0.067243166 -0.024199609
0003c0 43 2e a7 3b 41 5d 06 3e ec 83 20 bd 3b 51 32 be
       0.0051019504 0.13121511 -0.03918831 -0.174138
0003d0 23 f1 a3 be e9 98 f7 bb 41 53 f0 3d dc 17 03 3e
       -0.3201991 -0.00755607 0.117346294 0.1280207
0003e0 8f 5e 63 be 73 ea cb be 2d 38 96 3d 68 37 cf 3d
       -0.2220404 -0.39827308 0.073349334 0.1011799
0003f0 4a a4 71 3e 5b 55 47 3e 9f a5 3b 3e a2 6a 98 bc
       0.23597828 0.19466154 0.18324898 -0.018605534

conv1.bias f4 [6]
000000 a6 75 c6 bf a6 6d b0 bf 07 58 a3 bf a7 eb 95 bf
       -1.5504653 -1.3783462 -1.2761239 -1.171254
000010 36 18 6b bf d3 d5 5f bf
       -0.9183382 -0.87435645

conv2.weight f4 [16, 6, 5, 5]
000000 be 75 8d be 01 0f 7f bd f1 11 83 bd 16 ae 88 be
       -0.27628893 -0.06227017 -0.063999064 -0.26695317
000010 42 5c 09 bd 80 e4 42 be cf 88 98 3d ee 59 29 bd
       -0.03353525 -0.19032478 0.07447969 -0.04134553
000020 c7 c6 2f be c3 f5 11 be 38 5b 60 be 43 1e 8a be
       -0.17165671 -0.14253907 -0.21909797 -0.26976213
000030 da 95 c2 be 78 22 c2 be 4f 7f 1d be 0f 90 89 be
       -0.38004953 -0.37916923 -0.15380596 -0.2686772
000040 b5 1a a9 be 44 54 a3 be e3 81 d0 be 72 a9 dd bd
       -0.33028188 -0.31900227 -0.40724096 -0.10823335
000050 0a a2 81 be f3 96 24 be 6c d6 97 be 1c 48 94 be
       -0.25318938 -0.16073208 -0.29655778 -0.28961265
000060 7a d8 20 be 5e b9 0d be 1b b6 4a be 83 5d 61 be
       -0.1570758 -0.13840243 -0.1979603 -0.22008328
000070 78 2d 4f be 4b 4e a3 3d 4f 15 56 be 68 ef 40 3a
       -0.20232189 0.079739176 -0.20906566 0.0007359893
000080 fc 34 04 be aa 7c 70 be 3b 4f 4d be 53 64 f7 bd
       -0.12910837 -0.23485056 -0.20049755 -0.12079682
000090 b1 7d 79 bd 0b 23 64 be 60 30 bd be ca ea 84 be
       -0.060910884 -0.22278993 -0.3695097 -0.2596038
0000a0 42 29 d2 bd 7f 18 07 be fa 0c 2a be 8f 32 8a be
       -0.102617756 -0.13192938 -0.16606513 -0.26991698
0000b0 82 26 b4 be 8e e8 6e bd fe 42 9b be 56 b4 bf be
       -0.3518563 -0.05832725 -0.30324548 -0.37442273
0000c0 e5 9b 98 be 42 c4 d6 be 94 60 75 be 8a 78 6b be
       -0.29806438 -0.41946608 -0.23962623 -0.22995201
0000d0 a7 f3 bb be ad 13 89 be 19 b6 38 be ea 1e fb be
       -0.3670933 -0.26772824 -0.18038215 -0.49047023
0000e0 ff 48 43 be 78 09 1f be fa 5c 7d be 28 e6 61 be
       -0.19070815 -0.15530956 -0.24742499 -0.22060454
0000f0 d2 71 da be ba f7 5d be e7 08 a7 be 67 21 27 be
       -0.42664963 -0.21676531 -0.3262398 -0.16321336
000100 b9 06 7d be d2 c6 b0 be 64 2e e4 be bf 14 b4 be
       -0.24709596 -0.34526688 -0.44566643 -0.35172078
000110 35 d8 9a be 8a ec d3 be d3 f7 21 be a3 d3 72 be
       -0.30243078 -0.41391402 -0.15817194 -0.23713546
000120 5e 04 42 be 4f e2 89 be e6 a7 75 be 88 26 3f be
       -0.18946978 -0.26930472 -0.2398983 -0.18667042
000130 6a 07 be bc 06 f1 0f be 04 d8 f9 bb 5e 5c 0e bd
       -0.023196895 -0.14056787 -0.007624628 -0.034756057
000140 b0 f6 88 be 39 59 85 be 63 04 4a be 8e 02 14 be
       -0.26750708 -0.26044634 -0.19728236 -0.144541
000150 04 99 d2 be 46 71 68 bd 00 f1 42 be e9 10 57 be
       -0.41132367 -0.05674865 -0.19037247 -0.21002544
000160 d1 f9 36 be 3c 9c f0 be 0c 35 d4 bd b9 7d b0 be
       -0.17868735 -0.46994197 -0.103616804 -0.3447092
000170 4e a6 41 be a1 d7 8f be c8 05 f4 bd 64 f1 2a be
       -0.18911096 -0.280942 -0.11915165 -0.16693646
000180 fe b8 88 be 49 96 e8 3c 34 eb 68 be c5 6c 0b be
       -0.26703638 0.028391974 -0.22745973 -0.13615711
000190 24 7e 05 be fa 7b 13 be 19 b9 86 be e6 65 9a be
       -0.130364 -0.14402762 -0.26313093 -0.30155867
0001a0 72 82 f4 bd 8d bd d5 be 3d cd d3 be fe e2 99 be
       -0.11938943 -0.41746178 -0.41367522 -0.30055994
0001b0 8d ac 81 be 80 59 d3 bd 26 38 68 be 80 c3 0a be
       -0.25326958 -0.10319805 -0.22677669 -0.1355114
0001c0 08 cb d3 be b9 eb ac be 1f 10 9a be 6c 1a b0 be
       -0.41365838 -0.33773592 -0.30090424 -0.34395158
0001d0 b0 85 b9 be 78 51 cd be 73 12 c9 bd e1 4b d0 3d
       -0.36234808 -0.40101218 -0.09817972 0.10170723
0001e0 0b 61 c6 be 53 1d c4 be ea 7f 34 be 6a 7d 05 3e
       -0.38745913 -0.38303623 -0.1762692 0.13036123
0001f0 88 17 93 3e 38 e2 02 3d 53 5a 73 be e4 90 eb be
       0.2872889 0.03195402 -0.23764925 -0.4600898
000200 cc 6e d9 be b8 c8 bf be 3d ac 5c be c4 4c 48 be
       -0.42467344 -0.37457824 -0.21550079 -0.19560534
000210 a0 63 67 bd b7 df 48 be 91 c7 9b be 2d ba 04 bf
       -0.056491494 -0.1961659 -0.30425695 -0.5184658
000220 38 f4 cc be db cf ba be a2 6b aa be f6 76 8d be
       -0.40030074 -0.36486706 -0.33285242 -0.27629822
000230 e4 73 d2 be 40 6f a7 be 2e 6a ae be f6 b0 98 be
       -0.41104043 -0.32702065 -0.34065384 -0.2982251
000240 f4 e5 8d be ad 60 67 be 98 db ae be 71 22 73 bd
       -0.27714503 -0.22595473 -0.34151912 -0.059359018
000250 a2 3f 28 3d af 19 d7 3d cc 22 e4 be f2 65 5b be
       0.04107631 0.10502946 -0.44557798 -0.21425608
000260 9d 03 99 be ed d9 e2 be e6 10 17 3d 73 a3 c5 be
       -0.2988557 -0.4430689 0.03688135 -0.38601264
000270 d9 32 82 be 4e bb fa be aa 49 ea be db 26 f5 bd
       -0.2542942 -0.48971027 -0.45759326 -0.11970302
000280 0e 3b 85 be ef 4c 8b be 0a bd 97 be 40 9f ed bd
       -0.26021618 -0.27207133 -0.29636413 -0.1160264
000290 d2 ba 38 be 40 27 bc be ef 78 b6 be f7 eb ab be
       -0.18040016 -0.36748695 -0.3563914 -0.33578464
0002a0 43 f7 ac be c3 6a ce bd 60 0c a4 be 2c 57 e1 be
       -0.33782396 -0.10078957 -0.3204069 -0.4401182
0002b0 62 79 0c bf fc a5 e1 be b4 82 30 be 8c c2 8f 3d
       -0.54872715 -0.4407195 -0.1723736 0.07019529
0002c0 f2 ef 36 be 30 36 5b be ba 5f 90 bc cc ac ef 3c
       -0.1786497 -0.2140739 -0.017623771 0.0292572
0002d0 53 13 8d be 5c d2 62 be 13 7d 58 be 7e 40 80 be
       -0.27553806 -0.22150558 -0.21141462 -0.25049204
0002e0 ac be ee bb 62 c8 4d be bf c7 3f be 75 5f 70 be
       -0.0072859135 -0.20095971 -0.18728541 -0.23473914
0002f0 09 33 0e be 12 c4 b7 be 7c 7c bf bd 01 72 15 be
       -0.13886656 -0.35891777 -0.093499154 -0.1459427
000300 12 09 41 be b1 3e 4c be 7d 47 9f be de 27 7d be
       -0.18851116 -0.1994579 -0.3110923 -0.2472224
000310 3d 8d b6 be 58 7f 9f be 26 4f 84 be 7e f9 59 bd
       -0.3565463 -0.31151843 -0.25841635 -0.05321645
000320 50 8c 89 3c 33 e4 67 be c7 23 46 be 56 7b 86 3b
       0.016790539 -0.22645645 -0.19349585 0.0041040583
000330 da 7c 62 3d d7 bc fd bd 7d 6e 88 be 4c 2f 5f be
       0.05529485 -0.12389534 -0.26646796 -0.21795386
000340 fa f7 16 be 1a 52 f5 bb bc 58 bc bd f4 59 8f be
       -0.14743033 -0.007486594 -0.09196612 -0.27998316
000350 f1 33 77 be 7e a6 94 be 65 e1 1f be 4a a8 8a be
       -0.24140908 -0.29033273 -0.15613325 -0.2708152
000360 10 15 8a be 45 3f aa be 9f fc d8 bd d0 2c 2e be
       -0.26969194 -0.33251396 -0.10595059 -0.17009282
000370 75 18 45 be 9c e5 ce be fd 8a d1 bd 64 a7 33 be
       -0.19247611 -0.40409553 -0.10231588 -0.17544323
000380 af d9 72 be 95 cf a5 bd 45 a5 b3 be d0 19 31 bd
       -0.23715852 -0.08096234 -0.35087028 -0.043237507
000390 1a 05 00 3e da 6c 91 be 4f a0 fa be 07 4c c6 be
       0.12501946 -0.2840336 -0.4895043 -0.3872988
0003a0 93 f8 80 be b7 0e 54 be 9c 53 38 be 65 8b 12 be
       -0.25189647 -0.20708738 -0.18000644 -0.14310987
0003b0 c5 12 9f be e0 8d 55 be 8c c3 84 3d 2e 1d 1b be
       -0.31069008 -0.20854902 0.0648261 -0.1514785
0003c0 69 25 05 be 86 80 e4 be b7 78 a8 be c0 be 56 be
       -0.13002552 -0.44629306 -0.32904598 -0.20971203
0003d0 b2 76 56 be ff fd 17 be c1 ce b7 be e8 1a 54 be
       -0.20943716 -0.14842986 -0.35899928 -0.20713389
0003e0 fb 25 c7 be 65 aa e6 bd 15 37 4b 3e 3f d0 d9 bd
       -0.38896164 -0.11262969 0.19845231 -0.10635423
0003f0 5d 28 14 be 27 a2 89 be fd 16 b8 bd fb e7 19 be
       -0.14468522 -0.26881525 -0.0898876 -0.150299

conv2.bias f4 [16]
000000 41 2b 52 3e 5d 93 0f 3f b0 a6 4b be 3a f2 2c 3f
       0.20524313 0.56084234 -0.19887805 0.6755711
000010 39 8a 01 be 96 42 6e 3f 3e 0a 63 be 4e 2d c2 bd
       -0.12650384 0.9307035 -0.22171876 -0.094812974
000020 46 37 26 be 5c 27 7b 3f 6d bd 0c 3f 30 5f 89 39
       -0.16232023 0.9810693 0.5497654 0.00026201596
000030 ca 53 a6 bd a6 de 0c be f0 22 ad 3e dc d2 f7 bd
       -0.0812145 -0.13756809 0.33815718 -0.12100765

fc1.weight f4 [120, 400]
000000 70 05 3a be 36 d7 52 be db df 20 be 02 35 ad bc
       -0.18166137 -0.20589909 -0.15710394 -0.02114344
000010 d5 11 31 be a5 1f 0b be d8 ea 46 3b a9 34 ff bd
       -0.17291959 -0.1358629 0.003035238 -0.12461216
000020 ec 66 40 bd a9 a9 98 3d f9 95 53 be da 37 9b bc
       -0.046973154 0.07454235 -0.20662679 -0.01894753
000030 d0 6c f7 bc e5 3c f1 bd 10 62 ef bc 0d 25 80 be
       -0.030203253 -0.11779193 -0.029221565 -0.25028268
000040 cf 70 bb bc 8a 87 02 be 6c 5c 15 be 58 12 78 be
       -0.02288094 -0.12747017 -0.14586037 -0.24225748
000050 1f 08 28 be bb d8 35 be 0e 3e fa bd e9 83 3f bc
       -0.16409348 -0.17758457 -0.12218867 -0.011689165
000060 8e f5 03 be af 11 82 be 9b 86 8f be 04 2d 05 be
       -0.1288664 -0.25404117 -0.28032383 -0.13005453
000070 f4 45 19 be 16 35 6a be cf 28 50 be 64 b0 92 be
       -0.14968091 -0.22871813 -0.20328067 -0.286502
000080 67 d5 0d 3e 2d b4 fb 3c e0 55 53 be b5 8e 46 bd
       0.13850938 0.030725563 -0.20638227 -0.04847594
000090 e0 df 6b be c6 c7 19 be 7e e0 e7 bd dc 65 87 bd
       -0.2303462 -0.15017614 -0.11322115 -0.06611225
0000a0 1b 69 08 bd 46 56 09 3d 4f 9d 50 be 3a c5 df bd
       -0.03330336 0.033529542 -0.20372508 -0.1092629
0000b0 40 74 36 bc 0c 37 ba bd 8e 9c e1 bd c7 4b dd bc
       -0.011136115 -0.090925306 -0.110161886 -0.027013673
0000c0 15 88 97 bd 00 aa 0d be e6 04 87 3d a9 89 f0 3b
       -0.073990025 -0.13834381 0.06592731 0.007340629
0000d0 fb eb 57 bd f4 d3 45 bd 65 39 1c 3d ae 78 4b bd
       -0.052715283 -0.048297837 0.038140673 -0.049675636
0000e0 d1 a2 80 bd f5 13 79 bb 94 65 89 bc e0 c8 84 bd
       -0.06281055 -0.003800628 -0.016772069 -0.06483626
0000f0 79 aa fb 3a fd cf 76 bc 6c 32 64 bd 6c 50 cd bd
       0.0019200585 -0.015064237 -0.05571215 -0.10025105
000100 bd e3 c1 bd 67 ef e5 bb 7c 85 bc bd 9d fc ac bd
       -0.09467266 -0.0070170644 -0.092051476 -0.0844662
000110 20 97 cc bd 90 f6 a4 bd b6 47 2f be be c3 43 bd
       -0.09989762 -0.080548406 -0.171172 -0.047794096
000120 77 e0 82 bd 93 1c 9e bd 0b 58 07 bd 79 7a 7e be
       -0.063904695 -0.07720294 -0.03304295 -0.24851407
000130 25 1c 71 be cb b3 4a be 94 76 83 bb 1c d4 58 be
       -0.23545893 -0.19795148 -0.0040119383 -0.21174663
000140 d4 81 0d be d8 0e 7d bb f8 7e cd bd 68 b4 a7 bd
       -0.13819057 -0.0038613584 -0.10033983 -0.08188707
000150 80 cb fb bd fc 10 2b be 64 8a d0 bd cc a5 54 be
       -0.12294674 -0.16705698 -0.10182646 -0.20766371
000160 ec f3 3b be 4c f1 79 be cd 8b 37 be 92 30 07 be
       -0.18354768 -0.24408454 -0.17924424 -0.13202122
000170 88 1e 79 be ef 0a 7a be 8c 25 81 be f1 da a8 be
       -0.24328053 -0.24418233 -0.25223958 -0.3297954
000180 2d 0a 98 be 91 34 e7 bd 52 80 a6 be d8 ce 86 be
       -0.29695264 -0.11289323 -0.32519776 -0.26329684
000190 1e 6b 86 bd 30 a9 c5 bd 5f 45 b6 bd 0a 33 84 bd
       -0.065634 -0.096514106 -0.0889995 -0.064550474
0001a0 bf 1f 42 3b bb 66 45 bd 43 38 fd bc 50 c9 da 3c
       0.0029620973 -0.048193675 -0.030910617 0.026707321
0001b0 f7 2b 8b 3c 30 48 9e bc 2c d3 75 bd b3 e0 dd 3c
       0.016988738 -0.019321531 -0.060015842 0.027084684
0001c0 b8 68 7f bd f6 a7 4f bd d3 41 5a bc f6 e4 93 bc
       -0.062355727 -0.05069729 -0.013321358 -0.018053513
0001d0 55 97 be 3b cb 5a 21 3c 02 39 89 bd 84 25 21 bd
       0.00581638 0.009848307 -0.067003265 -0.03934242
0001e0 e6 e2 ec bb a9 81 9b bd 99 6b dc bc 3c 6f b5 bc
       -0.007229197 -0.0759309 -0.026906775 -0.022147767
0001f0 1e c9 fd 3c 47 2d 5b be a9 65 a6 be 5a 18 4c be
       0.03097969 -0.2140399 -0.32499436 -0.19931164
000200 a2 d7 af bd 15 22 b1 bd 7f e8 45 be 12 1e 99 be
       -0.085860506 -0.08649079 -0.19326971 -0.29905754
000210 f9 65 9b be a9 13 42 be b6 bd 81 bd 87 70 17 be
       -0.30351236 -0.18952812 -0.063350126 -0.1478902
000220 5c 37 c8 bc 52 67 23 be 69 a1 14 be 2b 5a 82 be
       -0.02444046 -0.15957382 -0.14514698 -0.25459418
000230 75 d5 88 be e0 98 55 be 76 25 b9 bd 74 70 96 be
       -0.26725355 -0.20859098 -0.09040348 -0.2938267
000240 0b b7 b6 be a3 03 9d be 61 d3 ab be 87 0e 62 be
       -0.35686526 -0.30666837 -0.33559707 -0.22075854
000250 90 c0 db bd dc 05 05 be e0 df e7 bc 42 34 77 bd
       -0.10730088 -0.12990516 -0.028304994 -0.06035257
000260 a8 e4 9e bd dc aa 3d bd e5 3c b5 3d 2d 8e ad bd
       -0.077584565 -0.046305522 0.08849505 -0.084743835
000270 5f d5 30 bd e8 ee 13 be 49 d7 47 bd e7 88 8b bd
       -0.043172237 -0.14446604 -0.048789296 -0.068132214
000280 6d a8 18 be 90 de b2 bd 5a bb 40 be da f9 fc bd
       -0.14908 -0.08733857 -0.18821469 -0.12352343
000290 d8 fa f9 bd 28 7c db 3c 52 e2 26 bd 48 c3 38 be
       -0.12206048 0.0267926 -0.04074318 -0.18043244
0002a0 c1 15 1d be 78 6d 39 3c d1 ef fe bd 78 75 0f be
       -0.1534033 0.011317603 -0.12448085 -0.14009655
0002b0 62 90 49 be 23 91 87 bd 2e 8d 4e 3d 44 0a 87 bd
       -0.19683984 -0.066194795 0.05042761 -0.06593755
0002c0 29 55 a7 bd 5a dc 00 be c6 84 5b 3c 93 3d e9 bc
       -0.0817054 -0.12584057 0.013398355 -0.028471744
0002d0 f9 77 f2 3d b7 2c ff bc 75 dc a3 bc 29 f3 c1 bc
       0.11839289 -0.031149251 -0.020002583 -0.023675518
0002e0 f7 bb 02 bd 7d 6b ba bd 88 a7 ab bd 14 9f cc bd
       -0.03191754 -0.09102533 -0.083815634 -0.09991279
0002f0 87 57 b2 bd c4 cd 8c bc 40 62 a7 bd c0 1b 44 be
       -0.08708101 -0.01718796 -0.081730366 -0.19151211
000300 9e 25 0b be 48 a4 68 be 0b cb 11 be be ea 90 be
       -0.13588569 -0.22718918 -0.14237611 -0.28304094
000310 0c 9f b3 be 38 1d 53 be 35 1c d0 bc bb a2 52 bd
       -0.3508228 -0.20616615 -0.025404075 -0.051424723
000320 3f 0d b1 bd 29 5a 04 bc 00 de e2 bc 8f 76 5a bd
       -0.086451046 -0.0080781365 -0.027693748 -0.053335723
000330 2d 43 2e bd a6 10 ca 3c 8f 2d 0a be 92 b3 05 be
       -0.042544533 0.024666142 -0.13493942 -0.13056782
000340 44 de d7 bd 5b 7b 8c bc 41 21 30 be 87 43 e5 bd
       -0.10540441 -0.017148664 -0.17200185 -0.111945204
000350 9c 81 2a bd c1 97 cb bd bd eb ee bc e4 73 61 be
       -0.04162751 -0.09941054 -0.029165143 -0.22016865
000360 63 47 8a bd 0d b7 a5 bc 6d 9f 3e bd 2b bd ef bd
       -0.06751897 -0.020228887 -0.04653876 -0.11706003
000370 87 98 2b bd 40 a9 c6 bc 77 7d 8f 3d 1a f0 b4 3b
       -0.04189351 -0.024250627 0.070063524 0.0055217864
000380 50 06 cc bd 9a bc 3e 3c 3e 51 96 bd 53 94 a9 bd
       -0.099621415 0.011641646 -0.073397145 -0.08280244
000390 bc 4a 47 be 30 8b 00 be a4 0e fe 3c 03 dd 84 bd
       -0.19462103 -0.12553096 0.03101284 -0.06487467
0003a0 ff e7 5c be d3 b0 e0 bd 4d 7a 85 3c f4 c6 85 be
       -0.21572874 -0.109712265 0.01629367 -0.26128352
0003b0 a7 9e 9b bd 23 18 62 be 64 c8 0c be 32 16 35 bd
       -0.0759862 -0.2207952 -0.13748318 -0.04421062
0003c0 71 7b bc bd 64 d3 19 be ac aa 4b be 10 34 bc bd
       -0.09203232 -0.15022045 -0.19889325 -0.09189618
0003d0 41 f1 9f be ef f5 40 be af 81 1d bd e0 9a 56 be
       -0.3123875 -0.18843816 -0.038453754 -0.20957518
0003e0 94 bb ab bd 17 c7 8e bd 64 71 83 bd 76 64 b7 bd
       -0.08385387 -0.06971567 -0.06418112 -0.08954708
0003f0 7c 59 2a be 72 12 c0 bd b8 1e 14 be 29 f4 13 bd
       -0.16635698 -0.09378518 -0.14464843 -0.03612152

fc1.bias f4 [120]
000000 b0 d5 f1 bc ee d3 b9 be 66 47 b3 be 01 6a 65 be
       -0.02952084 -0.36294502 -0.3501541 -0.22403719
000010 97 53 9b be dd d7 b2 be 25 9f 12 bf c4 6b d1 be
       -0.3033721 -0.34930316 -0.57274085 -0.4090253
000020 d0 10 94 be 2f 09 c7 be 58 4f d6 be fb 8d 1e be
       -0.28919077 -0.38874194 -0.4185741 -0.15483849
000030 b0 91 e6 be 7d e9 a1 be 03 d5 d3 be 24 25 f2 be
       -0.45033026 -0.3162345 -0.41373453 -0.4729396
000040 2e 73 08 bf d5 72 aa be 6f 78 8b be 54 c7 d0 be
       -0.5330075 -0.33290735 -0.2724032 -0.40777075
000050 4b ac f0 be 14 7c e3 be 65 d3 9b be 92 52 f9 bd
       -0.4700645 -0.44430602 -0.3043472 -0.12173952
000060 ab 1e cd be aa 95 9b be 77 fb 0b bf 12 32 a7 be
       -0.4006246 -0.30387622 -0.5468058 -0.32655388
000070 a8 29 0a bf b5 5c 1e bf 68 fa 9b be f9 59 4d 3f
       -0.5396981 -0.6186021 -0.30464482 0.8021541
000080 68 56 8a be a0 ca 23 bf 8c d8 a2 be 59 fd cb be
       -0.27019048 -0.63981056 -0.31805837 -0.39841726
000090 24 2d 02 bf f7 ca 2a be 34 8e be be c0 4f 01 bf
       -0.5085013 -0.16678987 -0.37217867 -0.50512314
0000a0 a5 d5 9c be 68 2e f5 bd 42 e9 18 bf 82 22 e1 be
       -0.30631748 -0.11971742 -0.59730923 -0.4397164
0000b0 03 78 00 be eb 63 27 be 72 32 bf be f3 85 f7 be
       -0.12545781 -0.1634671 -0.37343174 -0.48344383
0000c0 f6 c1 dd be 2c 5c 21 be 0b d9 d9 be 48 50 d1 be
       -0.43312043 -0.15757817 -0.42548403 -0.40881562
0000d0 ef 0b ac be 28 7f 16 bf f3 3e c8 3e 65 7c 0b bf
       -0.33602855 -0.58787775 0.39110526 -0.54486686
0000e0 82 0c 4f be 69 6d 09 bf 8e 2e 8f be 4a 19 0c bf
       -0.20219615 -0.5368257 -0.27965206 -0.5472609
0000f0 60 ea 12 bf 9f e9 0d bf e2 60 1d bf 68 bb ee be
       -0.5738888 -0.554346 -0.61475956 -0.46627355
000100 62 f9 de be d4 ac 46 be c5 1c 0d bf 24 3c bd 3e
       -0.4354964 -0.19401866 -0.55122024 0.36959946
000110 75 e1 94 be b5 6b a4 be 7e 20 e8 be 18 1b de be
       -0.2907826 -0.32113424 -0.4533729 -0.43380046
000120 03 51 c6 be b6 b3 a1 be ea 50 8d bd 09 ff da be
       -0.38733682 -0.3158242 -0.06900199 -0.427727
000130 e2 eb 9b be 18 09 da be 6b cc 02 bf f7 5d 6c be
       -0.30453402 -0.42585063 -0.5109317 -0.2308272
000140 7f 28 00 bf 6b 03 96 be f3 c1 15 bf 31 de 22 bf
       -0.5006179 -0.29299483 -0.5849907 -0.6362029
000150 ce ea 9a be cf c2 ee be f7 cd 01 bf aa bf e2 be
       -0.30257267 -0.46633002 -0.507049 -0.44286853
000160 67 52 10 bf d6 64 fd be 3a 3b c3 be 4d 68 91 be
       -0.56375736 -0.49490994 -0.38131124 -0.28399888
000170 c3 96 64 be 00 65 01 bf 74 d4 ed bc 68 91 12 bf
       -0.22323136 -0.5054474 -0.02903197 -0.5725312
000180 41 eb 1b bf de 04 a6 be b0 2c e9 be 67 91 eb be
       -0.60905844 -0.32425588 -0.45541906 -0.4600937
000190 63 8c 0b bf 25 a8 d2 be 51 7c 7f be 06 62 cc be
       -0.5451109 -0.4114391 -0.24949767 -0.39918536
0001a0 11 86 7a be 32 7c 18 bf cc ae f0 be cd 2e 9c be
       -0.24465205 -0.59564507 -0.4700836 -0.30504456
0001b0 c3 5a da be 24 12 e1 be 9e a7 9b be ff 0e 0a bf
       -0.4264737 -0.43959153 -0.3040132 -0.5392913
0001c0 89 b3 e4 be e2 1b 19 bf 46 49 9e be a1 e4 bc be
       -0.44668224 -0.5980817 -0.30915278 -0.3689318
0001d0 d1 48 63 be c1 65 1b bf c2 74 17 bf 60 45 8d be
       -0.22195746 -0.6070214 -0.59162533 -0.2759199

fc2.weight f4 [84, 120]
000000 77 36 e8 bd 2c 7b a9 bc fc dd 10 be 0f bf 9d be
       -0.11338513 -0.020688616 -0.1414718 -0.3080983
000010 aa 0d 01 bd 90 07 26 be f7 de be 3c 05 9d 6e be
       -0.03150717 -0.16213822 0.023299677 -0.23302086
000020 24 db 5e bd 7d df 86 bd 24 c6 32 3d 5f 85 e8 3c
       -0.054408208 -0.06585596 0.043645993 0.028383909
000030 bf 42 33 3d 51 9a ee bd 8d 28 29 3d 7d 28 db bd
       0.043764826 -0.11650527 0.041298438 -0.10701082
000040 71 e2 04 be 1e a0 1b be 4a fb a1 bd 4a 4e 57 bd
       -0.12977006 -0.15197799 -0.07909258 -0.052564897
000050 2c 30 24 bb 27 aa ad 3d ea c1 89 bd 57 1d 47 be
       -0.0025053127 0.084797196 -0.06726439 -0.19444786
000060 d3 ed 40 bd c3 16 3a be b4 9a 2d be 5b cb f6 bc
       -0.047101807 -0.18172745 -0.16953546 -0.030126264
000070 a6 33 8b be 0f 06 5e bc b0 75 08 be 49 2f 9b be
       -0.27187842 -0.013551249 -0.13326144 -0.30309513
000080 2a 8f 7f bd 11 0f 82 bd 16 fe 21 3b 46 97 cc bd
       -0.06239239 -0.0635053 0.0024718097 -0.099897906
000090 63 a8 11 be 43 2f 99 bd b1 a4 cd bd 2e 21 24 be
       -0.1422439 -0.074797176 -0.10041178 -0.16028282
0000a0 28 c8 40 be 76 3f 14 be 7c 59 6b be c5 0d 80 bd
       -0.18826354 -0.14477333 -0.22983354 -0.06252626
0000b0 bc 64 2c be 5b 2d 21 3e 6e d4 ba bd e2 d4 03 bc
       -0.16835302 0.15739958 -0.09122549 -0.008046361
0000c0 01 30 fd bd 1d 0b 0e be c8 a4 8d be 09 4d 0a be
       -0.12362672 -0.13871427 -0.2766478 -0.13505949
0000d0 86 43 ad bd 54 94 03 be 7f 25 8f be 84 89 b1 bc
       -0.08460145 -0.12849551 -0.27958295 -0.021672018
0000e0 8c 5e 09 bc 10 80 2d be 7f f0 af 3d 10 9d 8b 3a
       -0.008384358 -0.16943383 0.08590793 0.0010651667
0000f0 6a 12 3b bd 2d f1 c6 bd bb 64 0f be 5e 60 6b 3d
       -0.045671858 -0.097139694 -0.1400327 0.05746495
000100 30 5d 0d be bc 9f 24 be db b0 38 3c 7e 0c c7 bd
       -0.1380508 -0.16076559 0.011272634 -0.097191796
000110 b2 64 09 3d 8c fd 0f 3c 24 62 6e bd d6 3f 32 3d
       0.033543296 0.008788478 -0.058199063 0.04351791
000120 9c e5 6f bd 5c 09 89 bd 28 81 c2 bc dc 19 c5 bc
       -0.058568582 -0.06691238 -0.023743227 -0.024060182
000130 55 f1 1e be 7a 2a 0a be d1 de 28 be b2 c3 db bd
       -0.15521748 -0.13492766 -0.16491248 -0.10730685
000140 85 65 dd bd 28 65 e8 bd c4 d3 87 3d 87 6f 5c be
       -0.10810379 -0.11347419 0.06632188 -0.2152692
000150 e3 42 33 be aa d2 0c be 9d 5c 32 bd c8 91 22 be
       -0.17505984 -0.13752237 -0.043545354 -0.15875924
000160 c9 f0 77 3c 52 96 73 be 71 41 8d bd c5 26 19 be
       0.015133091 -0.23787811 -0.068972476 -0.14956196
000170 d7 dc c9 bd 1a bb c1 bd b5 ba 51 be ab 4a 87 bd
       -0.09856575 -0.09459515 -0.2048138 -0.06606039
000180 36 0e cb bd ae d8 bc bc 71 2f 12 be e7 27 5d be
       -0.0991482 -0.02305254 -0.1427591 -0.21597253
000190 59 32 fa bd 71 cd 8d bd 9c e0 2c be f3 eb 2a bd
       -0.12216634 -0.069239505 -0.16882557 -0.041728925
0001a0 c3 3a 22 bd 0d 81 45 bd 18 da e3 bd 5c cf 5e be
       -0.03960682 -0.048218776 -0.111255825 -0.21758789
0001b0 b8 14 4b bd ac 88 dd bd b2 98 31 be 89 c5 26 be
       -0.049580306 -0.10817084 -0.17343405 -0.16286291
0001c0 67 56 d7 3c a5 90 20 be 56 59 0c bc 58 3e 2c be
       0.026286317 -0.15680178 -0.008566221 -0.16820657
0001d0 20 90 5c be 43 8c 60 be b3 f8 85 bd 7a 0a 8d be
       -0.21539354 -0.21928506 -0.06541576 -0.27547055
0001e0 a5 8a 4b be 1a 83 99 bd c6 d1 c5 bd be 2a 2c be
       -0.19877107 -0.07495709 -0.09659152 -0.1681318
0001f0 fe bb 61 be 5d e0 09 be b8 56 1a bd 50 40 25 be
       -0.2204437 -0.13464494 -0.037680358 -0.16137815
000200 65 3b 2d 3c 78 62 98 3d 8c f7 c8 3c 5a 21 c8 bd
       0.010573243 0.074406564 0.024532102 -0.09771986
000210 a4 b0 4f be 10 df 55 bd 6a 9d 51 be e9 9d 95 bd
       -0.20282227 -0.052214682 -0.20470205 -0.073055096
000220 9b db a9 bd d0 01 e8 ba d1 f7 be bd 90 af 60 bb
       -0.082938395 -0.0017700735 -0.09324611 -0.003428433
000230 92 66 d7 3c fb 92 41 be a3 01 78 bc 35 d4 c7 be
       0.026294027 -0.18903725 -0.015137109 -0.3902909
000240 e6 81 c0 bd 3c 23 3c be a9 89 1a be c1 fd f8 3b
       -0.09399776 -0.18372816 -0.15091576 0.007598609
000250 92 59 a9 bd d4 05 de bd eb 25 33 3c 19 5e 9a be
       -0.08269037 -0.108409554 0.010934333 -0.30149916
000260 b0 f6 ed bc fd fc 25 be 15 c3 4c 3d 30 33 b2 bd
       -0.029048294 -0.16209789 0.049990732 -0.087011695
000270 e0 23 24 be 4d b9 3e be cd 7e 7e 3d 92 23 22 be
       -0.1602931 -0.18625374 0.062132645 -0.15833881
000280 e0 47 c8 be bd ac 0f bd b2 54 f4 bd 09 e8 be bd
       -0.39117336 -0.035076845 -0.11930217 -0.09321601
000290 3c 2f 1d bd dc 65 00 3d 74 64 1d be c8 a5 28 be
       -0.038375124 0.03134714 -0.15370351 -0.1646949
0002a0 03 1a 1b be 90 a3 dc bb 9a 32 5c bd e9 42 0c 3d
       -0.15146641 -0.0067333654 -0.053759195 0.034243498
0002b0 23 1e 1c be 6e 19 01 3d a4 8f b2 be 30 8f 96 3c
       -0.15245871 0.031518392 -0.34875214 0.018378824
0002c0 e8 82 8b bd 0e 8a f8 bd 28 31 fc bd 09 eb 30 bd
       -0.06812078 -0.12135707 -0.12314063 -0.043192897
0002d0 78 34 30 be 5d 3c 32 be 8c 5b fc bd 46 ce 1e bc
       -0.17207515 -0.1740584 -0.12322149 -0.009692734
0002e0 fb 7b 49 bd 09 29 a1 be 70 a0 0e be 7f e9 1d be
       -0.049190503 -0.3147662 -0.1392839 -0.15421103
0002f0 81 3d 02 be 02 a2 3c be 6e 84 ce 3d 16 01 bd bd
       -0.12718774 -0.18421176 0.10083853 -0.09228723
000300 a5 a1 39 bb 6d c2 3c 3d 93 cd 8e be c1 34 10 be
       -0.0028325107 0.046083856 -0.27891216 -0.14082624
000310 81 3e 22 bd 63 8b ec bd 18 ff db 3b a8 ef 8c bd
       -0.03961039 -0.115500234 0.006713759 -0.06881648
000320 bf 75 5e be 92 f7 28 be 98 a0 9c 3c 47 64 54 bd
       -0.21724604 -0.1650069 0.019119546 -0.051853444
000330 2c d3 93 bc 33 4c 04 be 64 5b ac bd 78 fa 10 bc
       -0.01804503 -0.12919693 -0.08415869 -0.008848779
000340 8c 6d 29 3b a1 7f 0c be 52 e2 58 bd eb 3a 83 3c
       0.0025852649 -0.13720562 -0.05295021 0.016019305
000350 f2 ef 20 be 92 21 3f bd f2 dc b5 bd 45 2f e3 bd
       -0.15716532 -0.046662875 -0.088800326 -0.11093
000360 88 15 8d bd 16 f2 1c be 31 0b 1b 3d 7f 28 eb bd
       -0.068888724 -0.15326723 0.03785247 -0.114823334
000370 e4 9e 9b bb 9a ca 8c 3c 45 8c 67 be ac 8f 20 bd
       -0.004749166 0.017186452 -0.22612102 -0.039199516
000380 1b 5a 84 be bf 7e 08 be 0f 9d 82 bd 29 c2 d2 bd
       -0.25849995 -0.133296 -0.06377613 -0.10290939
000390 de ae d2 bd 2e 4e cd bd cc 3f 58 bd ae e4 67 bd
       -0.102872595 -0.10024677 -0.052795216 -0.05661457
0003a0 10 56 08 be 88 36 e1 bd d8 50 18 be 34 2a 91 bd
       -0.1331408 -0.10996729 -0.1487459 -0.07088128
0003b0 16 4a c0 bd 21 f4 f9 bd a1 5c ae bd 88 40 77 bd
       -0.09389131 -0.12204767 -0.08513761 -0.060364276
0003c0 24 aa 54 be 76 b5 6f be 82 a6 17 3b 49 50 47 be
       -0.20768028 -0.23409066 0.0023140018 -0.1946422
0003d0 48 d0 51 be 45 92 6d bd 10 7d e8 3c 59 b4 06 be
       -0.20489609 -0.05800082 0.028379947 -0.13154735
0003e0 18 f1 57 be c9 15 01 be a4 de 5c 3d bb 00 86 be
       -0.21088064 -0.12605967 0.053923264 -0.26172432
0003f0 30 27 6f be 11 8d 2e be f6 be e5 bc 18 61 62 bd
       -0.23354793 -0.17046 -0.028045159 -0.055268377

fc2.bias f4 [84]
000000 cd 86 03 bf e0 76 d0 be 80 fd 19 bf f3 bf 16 bf
       -0.51377565 -0.40715694 -0.60152435 -0.5888664
000010 da 99 fc be f4 89 16 bf 50 68 c9 be c5 3a ff be
       -0.4933613 -0.5880425 -0.39337397 -0.49849525
000020 95 d2 0c bf db 95 fb be c3 2a de be 68 0d 01 bf
       -0.5500882 -0.49137768 -0.43392 -0.5041108
000030 f3 3e 1c bf d8 09 d9 bd 88 f4 08 bf 5f 18 53 be
       -0.6103355 -0.10597581 -0.53498125 -0.20614766
000040 86 f3 bc 3d 9e 04 0c bf ac 97 6a be c3 e8 14 bf
       0.09226136 -0.54694545 -0.2290942 -0.58167666
000050 a3 32 f1 be a0 4b 0a bf cd 63 10 bf 80 6b 38 bf
       -0.47108945 -0.54021645 -0.56402284 -0.7203903
000060 26 13 15 bf 90 1d e4 be 25 0a 06 bf 40 a6 3c 3e
       -0.58232343 -0.44553804 -0.5235923 0.18422794
000070 a7 32 c1 be ec 1d e0 be f6 da 80 be f9 73 94 be
       -0.37733957 -0.4377283 -0.25167054 -0.2899473
000080 73 c7 cf 3e 80 d9 24 be b8 ca 20 bf 04 d5 f2 3e
       0.40581855 -0.16098595 -0.62809324 0.47428143
000090 b0 4b 6c be f9 83 f5 be 54 ff 43 bf 1d ef b2 be
       -0.23075747 -0.4795225 -0.76561475 -0.34948054
0000a0 73 be 43 3d 20 3a f3 bd 9d cf 1d bf 58 8f ca 3d
       0.04778905 -0.11876321 -0.6164492 0.09890622
0000b0 2d 6d c0 be 66 74 0c bf 83 56 e2 3e 87 5e a6 3e
       -0.37583295 -0.5486511 0.44206628 0.32493994
0000c0 53 41 f3 be 58 53 d3 be e6 d0 93 be 02 83 05 bf
       -0.47510776 -0.41274524 -0.28870314 -0.5215303
0000d0 6f cf f4 be 3e 3e ee be 42 84 ee be 8b 0b d0 be
       -0.4781451 -0.46531862 -0.4658528 -0.40633807
0000e0 18 61 18 bf 62 7a be be 42 20 a0 be 2d 98 44 bf
       -0.59523153 -0.37202746 -0.3127461 -0.767947
0000f0 6c 01 f7 be 2b 09 b5 be 7e 68 28 bf 88 39 ed be
       -0.48243272 -0.35358557 -0.6578444 -0.46332955
000100 77 df 05 bf bf 8a 17 bf 73 73 17 bf 78 9e 17 bf
       -0.52294105 -0.59196085 -0.59160537 -0.5922618
000110 ad 33 29 bf 1a 7d 9a be 41 a5 4d 3b e1 f9 c1 be
       -0.66094476 -0.3017357 0.0031379017 -0.37885955
000120 f6 ec f0 3d cf 1f 02 bf 48 05 22 bf 14 e5 72 be
       0.11763947 -0.50829786 -0.6328931 -0.23720199
000130 bb b2 8d 3e 47 17 05 be a1 64 3b bf ee e4 e7 3c
       0.27675423 -0.12997161 -0.7320042 0.028307404
000140 53 d9 8d be 71 0b d3 be 03 b1 f9 be 99 76 fe be
       -0.27704868 -0.41219667 -0.48767862 -0.49699858

fc3.weight f4 [10, 84]
000000 89 2b fb be 64 97 a7 be c8 c9 a1 be 8b da 3c be
       -0.49056652 -0.3273269 -0.3159926 -0.18442743
000010 9f f3 8b be 48 db c3 be 7a c9 58 be 40 de 9c be
       -0.27334306 -0.38253236 -0.21170607 -0.30638313
000020 13 0b 57 be ee aa 40 be bd 5b bd be 56 43 c0 be
       -0.21000318 -0.18815205 -0.36984053 -0.37551373
000030 8b fc 94 be 99 cf ed bd 5f e1 c1 be 5d c5 46 be
       -0.29098925 -0.11611862 -0.37867257 -0.19411226
000040 87 1d b2 be db 64 18 bf 6b 9d 77 be 7f 73 ec be
       -0.34788153 -0.59528893 -0.24181144 -0.46181867
000050 1f 12 21 bf c8 b6 fc bd 05 e5 d6 be 6f 57 d1 be
       -0.62918276 -0.1233955 -0.41971603 -0.4088702
000060 88 13 f9 be 4e cb ad be bf 51 df be 30 6a 1c bf
       -0.48647714 -0.33944172 -0.43617055 -0.6109953
000070 d9 53 1e bf 82 07 79 be 7b e7 0b bf 46 20 a6 be
       -0.6184669 -0.2431927 -0.54650086 -0.32446498
000080 7d e4 d9 be 16 30 d8 be 32 df 01 bf 88 7f 06 bf
       -0.42557135 -0.42224187 -0.50731194 -0.5253835
000090 27 39 b0 be c9 2e 5d be 8a a0 e2 be 60 c0 a0 be
       -0.34418604 -0.21599878 -0.44263107 -0.3139677
0000a0 b5 17 e7 bc 8c a9 b7 be f8 55 e0 be 2b 3e ca be
       -0.028209547 -0.35871542 -0.4381559 -0.39500555
0000b0 7a a9 cf be 4c e8 42 be 6a c8 57 3d ac 0c 7f bd
       -0.40558988 -0.19033927 0.052681364 -0.062267944
0000c0 94 d7 54 be c5 6b bb be 62 52 a5 be 5a 8c c0 be
       -0.20785362 -0.3660566 -0.32289416 -0.3760708
0000d0 4e bc b7 be 21 e6 ce be 69 25 83 be 91 25 ab be
       -0.35885853 -0.4040995 -0.2561448 -0.33427098
0000e0 e7 d4 d7 be 03 70 01 bf 98 6b 92 be d7 28 b4 be
       -0.4215462 -0.5056154 -0.28597713 -0.35187408
0000f0 c2 6b 11 bf c8 cc 96 be d4 0b b1 be 05 fa af be
       -0.5680505 -0.2945311 -0.34579337 -0.34370437
000100 e6 95 d8 be b7 03 ba be 57 42 c8 be 92 16 ee be
       -0.42301863 -0.3633096 -0.39113113 -0.46501595
000110 24 eb c5 be c8 dc a8 be c3 92 5f be 7d 4a 9f be
       -0.3865596 -0.32980943 -0.21833329 -0.31111518
000120 52 1a c9 be 8c 3c f9 be 16 b8 c4 be f2 6d 1d bf
       -0.39277893 -0.48679006 -0.38421696 -0.6149589
000130 b6 c4 b8 be 1e f5 ad be a2 00 39 bf a1 d3 44 be
       -0.3608758 -0.33976072 -0.7226659 -0.19221355
000140 00 de 75 bd 2d 1f 6b be 95 2a 1b bf f1 21 f9 be
       -0.06002617 -0.22961111 -0.6061185 -0.48658708
000150 d7 18 06 bf 9e 1e 9f be 1a c0 c9 be 73 ac 9b be
       -0.5238165 -0.31078047 -0.39404374 -0.30405006
000160 be d1 b1 be bc cd be be e0 79 88 be be b8 a8 be
       -0.34730333 -0.37266338 -0.26655483 -0.32953447
000170 e0 f5 c9 be d8 6f a3 be d8 28 9f be fd 92 e8 be
       -0.394454 -0.31921268 -0.3108585 -0.45424643
000180 4d 53 7c be d8 e1 ec be 99 83 ae be 6d 83 d3 be
       -0.24641152 -0.46266055 -0.34084776 -0.41311207
000190 91 27 a8 be 70 ac 7a be c0 85 d9 be 95 f4 f3 be
       -0.32842687 -0.24479842 -0.42484856 -0.4764754
0001a0 73 05 08 bf 07 54 d2 be 42 e2 6d be f0 da ae be
       -0.53133315 -0.41079733 -0.23230842 -0.3415141
0001b0 12 53 b1 be 61 d0 9d be db a7 91 be 59 15 70 be
       -0.3463369 -0.30823043 -0.28448376 -0.23445643
0001c0 b4 71 c0 be 6f 8c db be 4c be 0c bf 72 73 8d be
       -0.3758675 -0.4288058 -0.5497787 -0.2762714
0001d0 eb 7b 8e be 26 ba ee be 94 2f b9 be dd 0e ac be
       -0.27828917 -0.46626395 -0.36169112 -0.3360509
0001e0 db 07 a5 be 77 7a 60 be d1 d7 ab be 93 e6 8b be
       -0.32232556 -0.21921717 -0.33563092 -0.27324352
0001f0 33 1b dd bd e8 d7 7f be c8 6b a0 be 64 da eb be
       -0.107962035 -0.24984705 -0.3133223 -0.46065056
000200 d9 c5 eb be e6 b7 81 be ba 17 21 3e b1 7a 99 be
       -0.46049383 -0.25335616 0.15731707 -0.2997642
000210 c8 4d 66 be a8 c3 95 be 8a 8c cf be 1a 5f 14 bf
       -0.22490609 -0.29250836 -0.4053691 -0.57957613
000220 12 a5 8b be 6d 1d c7 be 9c 1d d1 be 6d 1a c7 be
       -0.27274376 -0.38889638 -0.40842903 -0.3888735
000230 d2 5d 68 be 5f 16 96 be dc 49 3c be 18 e9 cf be
       -0.2269204 -0.29313943 -0.1838755 -0.40607524
000240 38 ac af be e1 be 22 be fe b5 c0 be 5b 0f c2 be
       -0.3431108 -0.15893127 -0.3763885 -0.3790234
000250 59 07 a3 be 81 db b6 be b1 2a b0 be db ce e0 be
       -0.31841543 -0.35714343 -0.3440757 -0.43907818
000260 68 96 e1 be f5 69 d7 be 45 50 24 be 1d 46 10 bf
       -0.44060063 -0.42073026 -0.16046245 -0.56356984
000270 74 63 a6 be 2f 44 bb be af 1d a8 be 42 ee 14 bf
       -0.32497752 -0.36575457 -0.32835147 -0.5817605
000280 45 c3 9f be d6 e6 a6 be 8a 78 7e be 21 75 c6 be
       -0.31203666 -0.3259799 -0.2485067 -0.38761237
000290 6d 92 d1 be e5 53 61 be 21 74 02 bf ca 31 0a bf
       -0.40932027 -0.2200466 -0.5095845 -0.5398222
0002a0 ed 04 99 be df 5a a8 be 00 09 b3 be 24 28 fd be
       -0.2988657 -0.3288183 -0.34967804 -0.49444687
0002b0 15 4f 97 be a2 0e b1 be 79 fb 27 be 8d b8 82 be
       -0.29552522 -0.34581476 -0.16404523 -0.25531426
0002c0 91 99 44 be 9b a8 63 be 3c d2 ac be 23 2a f4 be
       -0.19199206 -0.22232287 -0.33754146 -0.47688398
0002d0 6f 41 b4 be 26 e2 cf be 22 c4 c5 bd 4b c6 8d be
       -0.35206172 -0.40602225 -0.0965655 -0.27690348
0002e0 ef 56 cd bd 6b fe af be 33 45 c1 be df a7 a1 be
       -0.10026347 -0.34373793 -0.37748107 -0.31573388
0002f0 25 76 c5 be 29 2a a3 be d7 e7 76 be 5f 71 c2 be
       -0.385667 -0.31868103 -0.24111877 -0.3797712
000300 68 03 03 bf e6 1f 41 be 50 c0 36 be 90 2a 70 bc
       -0.5117707 -0.18859825 -0.17846799 -0.014658585
000310 01 04 09 bf 64 40 bf be 16 96 cd be 4c e6 42 be
       -0.53521734 -0.37353814 -0.4015357 -0.19033164
000320 16 3b 46 3d 11 30 f5 bd 6a 74 d7 be 39 b3 8c bd
       0.048396192 -0.119720586 -0.42081004 -0.068701215
000330 6e f3 48 be e4 ad 39 be 1f fb a1 be 86 b6 7c be
       -0.19624111 -0.1813274 -0.31636903 -0.24679002
000340 8a a9 3d be f9 d9 7f be 5c 51 e9 be 29 c8 8f be
       -0.18521705 -0.24985494 -0.45569885 -0.28082398
000350 65 d1 07 bf 68 fb 8f be 28 ff c3 bd c8 b1 e4 3c
       -0.53053886 -0.28121495 -0.095701516 0.027916804
000360 ee 96 38 be 1d 8d d0 be 56 e2 39 be ff 90 8d be
       -0.18026325 -0.4073266 -0.18152747 -0.27649686
000370 d8 b8 21 be f0 6b ae be b8 89 92 be e6 92 a0 be
       -0.15793169 -0.34066725 -0.28620696 -0.31362075
000380 0a ee bc be 35 ef 92 be 63 39 24 bd ab 60 a3 be
       -0.3690036 -0.28698125 -0.04009379 -0.3190969
000390 d0 68 76 be 3a 4a 86 be b4 b7 74 be 42 2e a2 be
       -0.2406342 -0.26228505 -0.23898202 -0.31675917
0003a0 83 0f 90 be 0b ee 3c be 71 15 7d be 84 29 f8 be
       -0.28136835 -0.18450181 -0.2471521 -0.48469174
0003b0 e1 f0 d0 be e7 2f 8d be 3c d8 ff 3c 34 f3 f3 be
       -0.40808776 -0.2757561 0.031231038 -0.47646487
0003c0 db ff 13 be 0a ce 8c be e0 ad f2 be 24 20 a8 be
       -0.1445307 -0.27500945 -0.4739828 -0.3283702
0003d0 28 b8 0d 3d 3a 82 36 be 49 41 02 bf ca 7f b4 be
       0.034599453 -0.17823115 -0.5088087 -0.35253745
0003e0 c9 6d ea be 8d 77 9d be 4c f1 e0 be 09 67 5d be
       -0.45786884 -0.30755273 -0.43934095 -0.21621336
0003f0 97 22 9d be 5d 8a bf be 14 0f 7d be 3d 03 a5 be
       -0.30690452 -0.3741025 -0.24712783 -0.32229033

fc3.bias f4 [10]
000000 73 eb ba 3e 92 e5 da be 11 e2 78 3e 73 e1 53 3d
       0.36507758 -0.42753273 0.24304987 0.051728677
000010 76 9d 0d 3e d2 db 64 be c0 ee c4 39 81 58 fe be
       0.13829598 -0.2234948 0.00037561916 -0.49676898
000020 4a 63 05 3f 8c f9 70 be
       0.5210463 -0.23532695
