FL/cnn-img/outputs/2025-03-18/18-18-01/model_state_acc_0.1006_round_0.pth (torch, 251962 bytes, 10 tensors)

conv1.weight f4 [6, 3, 5, 5]
0	0x3dcc1b4c	0.09966144
1	0x3d929828	0.07157928
2	0x3d168a0f	0.036752757
3	0x3d3923c8	0.04520014
4	0x3dc81555	0.09769694
5	0x3cc48e96	0.023993772
6	0x3be35154	0.0069371853
7	0x3d140e7f	0.036146637
8	0xbcec2cc1	-0.028829934
9	0x3de68ba5	0.11257104
10	0x3c76022d	0.015015167
11	0xbd70f8bc	-0.05883096
12	0xbdafe685	-0.0858889
13	0xbc31b0bc	-0.010845359
14	0x3c35b14d	0.011089635
15	0x3d847377	0.06467336
16	0x3d90cea8	0.070706666
17	0x3c10f49c	0.008847382
18	0xbcd8568e	-0.02640846
19	0xbdca921f	-0.09891152
20	0x3d0d49d3	0.034494232
21	0xbd907801	-0.07054139
22	0xbd0459ba	-0.032312132
23	0x3cba340f	0.022729902
24	0x3d4e3858	0.050346702
25	0xbd310182	-0.04321433
26	0xbddf39bf	-0.10899686
27	0x3dc65623	0.09684398
28	0x3d999068	0.074982464
29	0xbdd67686	-0.10471825
30	0x3d811407	0.06302648
31	0x3b240fb1	0.0025033767
32	0xbda60473	-0.08106317
33	0xbde41082	-0.11135961
34	0x3d506678	0.05087897
35	0x3d8d1144	0.06888059
36	0xbdd834b3	-0.105569266
37	0xbd468bb2	-0.048473068
38	0x3d66d549	0.05635575
39	0xbc5a70ef	-0.0133325895
40	0xbda7f4b6	-0.08200972
41	0xbd9ec167	-0.07751732
42	0xbdd39d7d	-0.10332773
43	0xbd9f080b	-0.07765206
44	0xbdb04234	-0.08606377
45	0xbdb0d161	-0.08633686
46	0xbcdada8f	-0.026715545
47	0x3a68ce40	0.00088808313
48	0xbdb6bf2f	-0.08923184
49	0x3bcbfd90	0.0062252954
50	0xbcb1503b	-0.021644702
51	0x3cb037a3	0.021510905
52	0xbdbd6281	-0.09247304
53	0xbcd22c57	-0.025655909
54	0x3ddf1b19	0.1089384
55	0xbcdf17a2	-0.027232949
56	0x3d09d090	0.033646166
57	0xbd4609a2	-0.04834903
58	0x3da875a7	0.082255654
59	0xbdd65b8c	-0.1046668
60	0xbd9d1dea	-0.07671721
61	0xbd5d69a6	-0.054055832
62	0xbdacf03c	-0.084442586
63	0xbd0115d0	-0.031514943
64	0x3da5ee2c	0.08102068
65	0x3de982ed	0.11401925
66	0x3cb4fdfa	0.022093762
67	0xbd4814ed	-0.04884808
68	0xbd2633f1	-0.04057688
69	0x3d8f49e4	0.069965154
70	0xbd964252	-0.07336868
71	0x3dbae7de	0.091262564
72	0xbb7b112c	-0.0038309796
73	0x3cab0fee	0.02088162
74	0xbd0de930	-0.034646213
75	0xbdb2fe1c	-0.08739874
76	0xbd222eb7	-0.039595332
77	0x3c078ce3	0.008273336
78	0x3cdbfb77	0.026853306
79	0xbdb91afd	-0.09038351
80	0xbd69fe5f	-0.057127353
81	0xbd5eaeab	-0.054365795
82	0x3d455e6b	0.048185747
83	0x3d8f7d9a	0.070063785
84	0xbddacca0	-0.1068356
85	0x3d8aba9b	0.067738734
86	0x3dc8b752	0.098005906
87	0x3c4a031c	0.012329843
88	0x3d637003	0.055526745
89	0xbd60d9f0	-0.05489534
90	0x3d9d7f66	0.07690315
91	0xbdb7540b	-0.08951577
92	0x3c137c39	0.009001785
93	0xbdbc6908	-0.091997206
94	0x3dae1656	0.08500354
95	0xbd82854a	-0.06373079
96	0x3da951e8	0.082675755
97	0x3dc3dcf7	0.0956363
98	0xbd4f1e4a	-0.050565995
99	0x3d626147	0.055268552
100	0xbd43cc0c	-0.047802016
101	0xbc0ee533	-0.008721638
102	0xbdc66e17	-0.09688967
103	0x3c8a20be	0.016861316
104	0x3cc3c1b7	0.023896081
105	0xbd78e56e	-0.060765676
106	0xbd6e2d7c	-0.058148846
107	0x3d482480	0.048862934
108	0x3d8eca0d	0.06972132
109	0x3dab1e52	0.083553925
110	0xbc93be6b	-0.018035134
111	0x3d1930d5	0.037400085
112	0xbd8b54dc	-0.06803295
113	0xbd0006e7	-0.031256583
114	0x3d2aa7a9	0.0416638
115	0x3ddf7096	0.10910146
116	0xbcc78661	-0.024356069
117	0xbb52b611	-0.0032151977
118	0xbc919cad	-0.017774904
119	0x3d374567	0.04474392
120	0x3d0b20b9	0.033966754
121	0xbd363bd2	-0.044490643
122	0x3d34f3e3	0.0441779
123	0xbde678ff	-0.11253547
124	0xbd964746	-0.07337813
125	0x3d9ba265	0.07599334
126	0xbc3365e7	-0.010949588
127	0x3d1a5bd8	0.037685245
128	0xbd19704d	-0.037460614
129	0xbd72ec67	-0.059307482
130	0x3d845502	0.064615265
131	0x3cf2c7f5	0.029636363
132	0x3de04198	0.10950011
133	0xbdbbbbe6	-0.09166698
134	0xbd802155	-0.062563576
135	0x3d45acde	0.048260562
136	0xbdb8c1c8	-0.09021336
137	0xbdcab654	-0.098980576
138	0x3de8a1eb	0.113590084
139	0xbdebc29c	-0.11511728
140	0x3d9bbedf	0.07604765
141	0xb9f2222c	-0.00046183297
142	0xbd0ec62b	-0.034856956
143	0xbd008052	-0.031372376
144	0x3ca90ecf	0.020636944
145	0xbda3fc4b	-0.080071054
146	0xbbd28712	-0.006424793
147	0x3c5c1597	0.013432882
148	0x3deac933	0.11464157
149	0x3da4c36f	0.080450885
150	0x3d657c2d	0.056026626
151	0xbdcc508b	-0.099763
152	0xbdb8403d	-0.089966275
153	0x3cbdb714	0.023158588
154	0x3c813fdb	0.015777519
155	0x3dc89e7d	0.09795854
156	0x3c133e0b	0.00898696
157	0x3d9d098a	0.07667835
158	0xbd8a022d	-0.06738696
159	0xbd4affca	-0.049560346
160	0x3d817736	0.06321566
161	0x3d97e55d	0.074167944
162	0xbd8ae294	-0.067814976
163	0x3baaed43	0.005216272
164	0xbc94a05d	-0.018142873
165	0x3d7e86d4	0.0621403
166	0xbde04f9c	-0.10952684
167	0x3cd3c59f	0.025851069
168	0x3d5fcaa4	0.054636613
169	0xbdb299b6	-0.08720724
170	0x397e4029	0.00024247229
171	0x3dcd333d	0.100195386
172	0xbd122d00	-0.035687447
173	0xbda62100	-0.08111763
174	0xbdb98e7d	-0.090603806
175	0xbd11675c	-0.03549896
176	0x3c918e6b	0.017768105
177	0x3d936a15	0.07197968
178	0xbd951d7d	-0.07281015
179	0x3dc68128	0.09692603
180	0xbde5ae57	-0.11214893
181	0xbcbe95fe	-0.023264881
182	0x3c145f4c	0.009055924
183	0x3da071fb	0.0783424
184	0x3d847242	0.064671054
185	0x3d8010fc	0.062532395
186	0x3d43cd4e	0.047803216
187	0x3c06ad56	0.008220037
188	0xbdec5d70	-0.11541259
189	0xbdcbe55f	-0.099558584
190	0xbc67f13e	-0.014156638
191	0xbdd58851	-0.10426391
192	0x3c95cf36	0.018287282
193	0x3d83fda6	0.06444864
194	0xbd9341b2	-0.07190265
195	0xbd7b59ef	-0.061365064
196	0x3c5b0987	0.013368971
197	0xbd6b9dc2	-0.057523496
198	0x3d3666e0	0.044531703
199	0x3c832063	0.016006654
200	0x3d974a9e	0.07387279
201	0x3cf3c9a1	0.02975923
202	0xbcbac83c	-0.022800557
203	0xbd4601aa	-0.04834143
204	0xbd559eb4	-0.052153304
205	0x3dae6681	0.08515645
206	0xbda3ee91	-0.08004487
207	0xbdc834d5	-0.09775702
208	0xbda6d21c	-0.08145544
209	0xbd8e2e96	-0.06942479
210	0x3c0984ea	0.008393506
211	0xbc30e65f	-0.010797112
212	0xbdcb0ac2	-0.09914161
213	0x3de77128	0.1130088
214	0x3c8577bc	0.016292445
215	0x3dd2661a	0.102733806
216	0x3d029b70	0.031886518
217	0x3bfe614c	0.0077630635
218	0xbde7a8ce	-0.11311494
219	0xbd9ad166	-0.07559471
220	0x3dac716a	0.084200695
221	0x3d057d76	0.032590352
222	0xbc9d0b53	-0.019170439
223	0x3d5f7282	0.054552563
224	0xbd6ad817	-0.057334986
225	0xbd932073	-0.071839236
226	0xbde0936f	-0.10965621
227	0xbdaf724d	-0.08566723
228	0x3d7d5977	0.0618529
229	0xbd5a608d	-0.053314734
230	0xbcbe7e61	-0.023253622
231	0xbd99ac10	-0.075035214
232	0xbd85789d	-0.06517146
233	0x3da74106	0.08166699
234	0x3de1ad59	0.110193916
235	0xbdc8e296	-0.09808843
236	0x3afda31f	0.0019350982
237	0xbdb8165c	-0.0898864
238	0x3d2b5d14	0.041836813
239	0x3d9ee082	0.07757665
240	0x3d916dd7	0.071010284
241	0x3dc646bd	0.09681461
242	0xbcf7c80f	-0.030246763
243	0x3d4cce4a	0.05000142
244	0xbd3d7fd0	-0.04626447
245	0x3d5d6423	0.054050576
246	0x3d4574dd	0.048207153
247	0x3d9b08f8	0.0757007
248	0xbd8ff3f3	-0.070289515
249	0xbdde68de	-0.108598456
250	0x3d1b9b8d	0.03799014
251	0x3dd5de1a	0.10442753
252	0x3dd2f324	0.10300282
253	0x3ca0bff8	0.019622788
254	0x3dcf5f5b	0.101256095
255	0xbd925222	-0.07144572

conv1.bias f4 [6]
0	0xbd388ffa	-0.04505918
1	0x3c69b049	0.014263221
2	0x3d3133f4	0.043262437
3	0xbcd59ef7	-0.026076777
4	0x3d9cd0ac	0.076569885
5	0x3da38f18	0.07986277

conv2.weight f4 [16, 6, 5, 5]
0	0xbd94271c	-0.07234022
1	0x3d91b588	0.071147025
2	0x3d89b559	0.067240424
3	0xbd983dfe	-0.07433699
4	0xbcd3f30f	-0.025872735
5	0xbb7841a6	-0.0037880926
6	0x3d7c8b31	0.06165618
7	0xbc698620	-0.014253169
8	0x3d85d7a8	0.06535274
9	0x3c8dd5b5	0.017313818
10	0xbcd5ae07	-0.02608396
11	0x3d56c74a	0.05243615
12	0xbc64a608	-0.013955601
13	0xbd143a1c	-0.03618823
14	0x3da0d8ee	0.07853876
15	0x3c83aad1	0.016072663
16	0x3d2fc348	0.042910844
17	0xbcc360d9	-0.023849891
18	0xbd1f56b9	-0.038901065
19	0x3cf95a03	0.030438429
20	0xbcc383b6	-0.023866516
21	0x3d34e8b5	0.04416724
22	0x3cf1898e	0.029484536
23	0xbc837f0e	-0.016051795
24	0x3d8fffde	0.07031225
25	0x3d709aec	0.058741495
26	0x3d9407c2	0.07228042
27	0xba748c63	-0.00093287806
28	0x3d9b62e6	0.07587223
29	0x3d2de63e	0.042455904
30	0x3a8110ae	0.000984689
31	0xbb81070b	-0.003937607
32	0x3d039c9a	0.03213177
33	0xbd0aa860	-0.03385198
34	0x3bc5654d	0.006024039
35	0x3d0c7395	0.034289915
36	0xbcec3850	-0.028835446
37	0xbd733b44	-0.059382692
38	0xbd100294	-0.03515871
39	0x3d1d37c6	0.038383268
40	0x3d444beb	0.047923964
41	0x3d7de0d3	0.061981987
42	0x3c7bc7ff	0.015367507
43	0xbd8b18df	-0.06791853
44	0x3c5009a0	0.012697607
45	0x3d6c3e60	0.057676673
46	0xbd686174	-0.056733564
47	0xbd8d0c5e	-0.068871245
48	0x3d321e56	0.04348596
49	0xbc95e88c	-0.018299364
50	0xbd985ded	-0.0743979
51	0xbd442f20	-0.047896504
52	0xbd95a7bc	-0.073073834
53	0xb9a5a82e	-0.00031596556
54	0xbb8dfa59	-0.0043328223
55	0xbd3303ea	-0.043704905
56	0xbba9f564	-0.0051867235
57	0x3cdc65a1	0.02690393
58	0xbd77ee87	-0.06053021
59	0xbcda1ac6	-0.026624095
60	0xbce4e4dc	-0.02794116
61	0x3d8224ad	0.063546516
62	0xbd2ce55d	-0.042210925
63	0x3d8d9fae	0.06915222
64	0x3d37c228	0.044862896
65	0xbc889424	-0.016672201
66	0xbda3f1e9	-0.08005125
67	0xbc452d6a	-0.012034753
68	0xbc455eb0	-0.012046501
69	0xbcd42dd3	-0.025900757
70	0x3b31c080	0.0027122796
71	0xbd2d4762	-0.042304404
72	0x3d78cc4a	0.0607417
73	0x3b8a024c	0.0042116996
74	0x3d92f955	0.071764626
75	0xbbec31bd	-0.0072080777
76	0x3d88fd79	0.06688971
77	0xbd43f0c6	-0.04783704
78	0x3d40e2ee	0.047091417
79	0x3d4dc41b	0.05023585
80	0xbda64f33	-0.08120575
81	0xbd7f6b0f	-0.06235796
82	0x3c0a9e16	0.008460542
83	0x3d524380	0.051333904
84	0xbd4c1999	-0.0498291
85	0xbcf3279f	-0.029681979
86	0xbd98a68a	-0.0745364
87	0x3bbd7e06	0.0057828454
88	0x3d6c90f6	0.057755433
89	0xbd95e481	-0.07318974
90	0xbd1d06fa	-0.03833673
91	0xbd574eb2	-0.052565284
92	0xbd718e01	-0.058973316
93	0x3bb9403f	0.0056534107
94	0x3da3ed24	0.08004215
95	0xbd7cd7e7	-0.061729338
96	0xbbb15ce3	-0.0054126843
97	0x3da14e9d	0.078763224
98	0xbd165016	-0.03669747
99	0x3d5ae6ee	0.053442888
100	0x3cf6ebe7	0.030141784
101	0x3b21e43a	0.0024702684
102	0x3d04a19a	0.032380678
103	0xbd18e25b	-0.037325244
104	0x3d67ba03	0.05657388
105	0x3cba8111	0.022766622
106	0xbce76f57	-0.028251333
107	0x3cff41eb	0.031159362
108	0x3ce87094	0.028373994
109	0xbb03291e	-0.0020013521
110	0xbb6698b4	-0.0035186233
111	0x3d92cedc	0.071683615
112	0xbd403edd	-0.04693495
113	0xbcee165f	-0.029063402
114	0xbd9b62c3	-0.07587197
115	0xbcd7779d	-0.026302153
116	0x3854c76e	5.0730472e-05
117	0xbda467e8	-0.08027631
118	0x3ceab35f	0.028649984
119	0x3d70dc72	0.058803983
120	0xbc4e77d4	-0.012601811
121	0xbcdc718d	-0.026909614
122	0x3d4cb3a1	0.049975995
123	0x3d928a6d	0.07155309
124	0x3d927acc	0.07152328
125	0x3d8a8678	0.06763929
126	0x3c163985	0.009168987
127	0xbc6c6161	-0.014427514
128	0x3d2ba68d	0.041906882
129	0xbd6b0f2d	-0.05738752
130	0xbc6310b9	-0.013858967
131	0xbd173259	-0.03691325
132	0x3d7d13f2	0.0617866
133	0x3d30ab1b	0.04313193
134	0xbd7b21ea	-0.06131164
135	0xbcd03c15	-0.025419274
136	0xbd7f7b6b	-0.06237356
137	0xbd02afa4	-0.031905785
138	0xbb45f57f	-0.0030206142
139	0xbb85f78d	-0.0040883482
140	0xbcdef4ca	-0.027216334
141	0xbac55e1e	-0.0015057956
142	0x3d9b1bbb	0.075736485
143	0xbc45d859	-0.012075507
144	0xbd65cea4	-0.05610527
145	0x3d904b50	0.07045615
146	0x3d6331fe	0.0554676
147	0x3d6f27c9	0.05838755
148	0xbd6df106	-0.058091186
149	0x3da4a722	0.080396906
150	0xbc91e32b	-0.017808517
151	0x3ce0c1dd	0.027436191
152	0x3bf95faa	0.007610281
153	0xbd73b875	-0.059502084
154	0x3c945ff9	0.01811217
155	0xbd71fbf7	-0.059078183
156	0xbc2f385d	-0.01069459
157	0xbd61141b	-0.054950815
158	0xbd704a6d	-0.058664728
159	0xbca7886c	-0.020450793
160	0x3c16fa76	0.009214988
161	0x3d78c8a2	0.060738213
162	0x3cd1f790	0.025630742
163	0x3d8d9a9b	0.06914254
164	0xbd903c87	-0.07042795
165	0xbd9d8072	-0.076905146
166	0xbd846cea	-0.06466086
167	0x3cb1f6e1	0.021724166
168	0x3d64e759	0.055884693
169	0x3cdc18cc	0.026867293
170	0xbcc2f70d	-0.023799444
171	0x3c9c4e8f	0.019080428
172	0xbd41f3e0	-0.047351718
173	0xbd82f9b4	-0.06395283
174	0xbc09f461	-0.008420081
175	0x3d8e432e	0.06946407
176	0xbd0fa7fd	-0.035072315
177	0x3c144646	0.009049958
178	0x3d7eb69d	0.062185872
179	0xbd218eda	-0.039442874
180	0x3d06086c	0.032722875
181	0x3c73e301	0.014885665
182	0x3d37a3b3	0.04483385
183	0xbcc9d102	-0.024635796
184	0x3cc240ba	0.023712505
185	0xbc0882f4	-0.008332003
186	0xbd16e396	-0.036838137
187	0xbcc20c69	-0.023687558
188	0x3d1c7ceb	0.03820507
189	0xbd4f9831	-0.05068225
190	0xbc380682	-0.01123202
191	0xbd074822	-0.033027776
192	0xbc6e236f	-0.014534815
193	0x3d2e374d	0.042533208
194	0xbc43c14c	-0.011947941
195	0xbc1ecd9c	-0.009692576
196	0x3bdf2410	0.006809719
197	0xbca261d3	-0.019822037
198	0xbd751068	-0.0598301
199	0x3d8d4696	0.06898229
200	0x3d16e362	0.036837943
201	0x3da3d4c0	0.07999563
202	0xbb203b52	-0.002444942
203	0x3d953172	0.072848216
204	0x3d5bde3f	0.053678747
205	0xbd9fc466	-0.07801132
206	0xbd52efc2	-0.051498182
207	0xbcb50610	-0.022097617
208	0xbd766d97	-0.060163107
209	0x3d6a017b	0.057130318
210	0xbd2af828	-0.041740566
211	0xbd0eb265	-0.0348381
212	0x3ce5535f	0.027993856
213	0xbd57b12d	-0.052659202
214	0x3d102a01	0.035196308
215	0x3ca1f389	0.019769447
216	0xbcdbabfb	-0.026815405
217	0xbd92fc66	-0.071770474
218	0x3d5c201b	0.053741556
219	0xbd138d8b	-0.036023658
220	0xbd489051	-0.048965756
221	0xbc0e0464	-0.008668039
222	0x3d647cf6	0.055783235
223	0xbceec505	-0.02914668
224	0x3be63627	0.0070254984
225	0x3cf86dfc	0.030325882
226	0xbd512d4c	-0.05106859
227	0x3d9a79c1	0.07542754
228	0x3d96c936	0.07362597
229	0xbd7195b6	-0.058980666
230	0xbda6c994	-0.08143917
231	0xbc87796e	-0.016537394
232	0xbd7a9940	-0.061181307
233	0xbca6fbf2	-0.020383809
234	0xbd268f96	-0.040664278
235	0x3d3e542e	0.046467
236	0xbda53689	-0.080670424
237	0xbc5cc66d	-0.013475043
238	0x3d72c284	0.059267536
239	0xbd2abb37	-0.04168245
240	0x3d2488d6	0.04016956
241	0x3c73a113	0.014869946
242	0xbd3f7377	-0.046740975
243	0xbd6ab5da	-0.057302333
244	0xbccc351d	-0.02492767
245	0xbcea2d0f	-0.028585939
246	0xbd83984e	-0.06425534
247	0xbd2892b4	-0.041155532
248	0xbd79d4a4	-0.060993806
249	0xbcfe930b	-0.031075975
250	0x3d5e53b4	0.054279044
251	0xbcc8f793	-0.024532115
252	0x3d712fbb	0.05888341
253	0x3cf493a2	0.029855553
254	0xbbdbaea7	-0.00670417
255	0x3bf53a4d	0.0074837566

conv2.bias f4 [16]
0	0x3d49f154	0.049302414
1	0x3cd680e8	0.026184514
2	0xbd056f18	-0.03257665
3	0x3d6c1214	0.05763443
4	0x3c217c00	0.009856224
5	0x3d936ef9	0.07198901
6	0xbd6e318a	-0.058152713
7	0xbcfd2231	-0.030900093
8	0xbd464bb5	-0.048412044
9	0x3da1f054	0.07907167
10	0x3d834498	0.064095676
11	0xbc1fd228	-0.009754695
12	0xbc844c5c	-0.016149692
13	0xbce59143	-0.028023368
14	0x3d6446e6	0.055731677
15	0xbbf17ec1	-0.0073698466

fc1.weight f4 [120, 400]
0	0x3ce646ea	0.028109986
1	0xbd0917b5	-0.033469874
2	0xbcad642a	-0.021165926
3	0x3c9c222d	0.019059265
4	0xbd016c13	-0.03159721
5	0xbc90744d	-0.017633582
6	0x3d2b24e0	0.041783214
7	0xbbe5850d	-0.0070043863
8	0x3d0ca44a	0.034336366
9	0x3cc18bed	0.023626292
10	0x3c065373	0.008198607
11	0x3d020852	0.031746216
12	0xbc15fba7	-0.009154237
13	0xbccc6f2d	-0.024955356
14	0xb9c71667	-0.0003797293
15	0xbd497097	-0.04917964
16	0x3c8fd1ba	0.01755606
17	0xbd0e3a2a	-0.03472344
18	0xba9d6567	-0.001200837
19	0xbceb9927	-0.028759552
20	0x39d7859a	0.00041107537
21	0x3cc26140	0.023728013
22	0x3c8f33c3	0.017480737
23	0x3cb6f4a7	0.022333456
24	0x3c964793	0.018344676
25	0xbd36401a	-0.044494726
26	0xbc6d2ce7	-0.014476038
27	0xbcc9fb97	-0.0246561
28	0xbbbeb200	-0.005819559
29	0xbc4f380d	-0.012647641
30	0xbc7f7e40	-0.015594065
31	0xbd1e6318	-0.038668722
32	0x3d3503aa	0.044192947
33	0xbca08b6a	-0.019597728
34	0xbcb0e323	-0.021592682
35	0x3c884963	0.016636556
36	0x3bbaf167	0.005705047
37	0xbc853e9d	-0.016265208
38	0x3c040b73	0.00805937
39	0xbd0bd3a7	-0.034137394
40	0xbcc43dc0	-0.023955226
41	0xbcf3eb00	-0.029775143
42	0x3c11c6e0	0.008897513
43	0x3cfe5737	0.031047447
44	0x3cbe42d0	0.023225218
45	0x3d47bb17	0.048762407
46	0xbb28cf4d	-0.0025758327
47	0x3c86306a	0.016380507
48	0x3d13be60	0.036070228
49	0xbcd8d9ea	-0.026471097
50	0x3ccff4aa	0.02538522
51	0xbc0397cd	-0.008031798
52	0x3cedd3e3	0.0290317
53	0xbc5c28ad	-0.013437432
54	0x3d0e070b	0.034674685
55	0xbd29593f	-0.041344877
56	0xbcbe9c2d	-0.02326783
57	0x3c8859a3	0.016644305
58	0x3c39216d	0.011299473
59	0xbd29bada	-0.04143796
60	0xbc10117a	-0.008793229
61	0x3a5ae267	0.00083497766
62	0x3c63afe0	0.013896912
63	0xbc340c4d	-0.010989261
64	0xbc9cb07d	-0.019127125
65	0x3d248d32	0.040173717
66	0xbd3e79d8	-0.046502918
67	0xbc20737a	-0.009793157
68	0x3c84ef8a	0.016227502
69	0x3cba18da	0.022716928
70	0xbd10186f	-0.03517955
71	0x3ce0c05a	0.02743547
72	0x3cfa9d00	0.030592442
73	0xbd385e9a	-0.045012094
74	0x39e3cb33	0.0004344821
75	0x3d2097fd	0.039207447
76	0x3c597ced	0.0132744135
77	0xbc2868a7	-0.010278857
78	0xbd3b9728	-0.04579845
79	0x3c720bf3	0.014773357
80	0x3c3503f3	0.011048305
81	0x3caf4847	0.02139677
82	0xbd134ffd	-0.035964955
83	0xbd371912	-0.044701643
84	0xbd2eed12	-0.042706557
85	0x3d37066f	0.04468387
86	0xbd312e93	-0.043257307
87	0x3c7cb49a	0.015423918
88	0xbd08af68	-0.033370405
89	0xbc900857	-0.017582102
90	0x3c9db383	0.019250637
91	0xbcabddd7	-0.020979805
92	0xbcdd26a7	-0.02699597
93	0xbd20ee0a	-0.03928951
94	0xbd23cae5	-0.039988417
95	0xbd19a0bb	-0.0375068
96	0x3d3de537	0.046361174
97	0xbc23da27	-0.010000742
98	0xbd377fbf	-0.044799563
99	0xbd081770	-0.033225477
100	0xbd280d50	-0.04102832
101	0xbce72d13	-0.028219735
102	0xbd0f4983	-0.034982216
103	0xbd33ecaa	-0.043926872
104	0x3ccf8193	0.02533034
105	0xbc5b83fa	-0.013398165
106	0x3be517f3	0.0069913804
107	0x3d450e7a	0.04810951
108	0x3d366a1d	0.04453479
109	0x3bfd6a1a	0.0077335956
110	0xbbc62d40	-0.0060478747
111	0x3c2aefba	0.010433132
112	0x3b8985b3	0.0041968464
113	0x3cee5dc7	0.02909745
114	0x3d2e17cd	0.042503167
115	0x3d2d876b	0.042365473
116	0x3cedf38d	0.029046798
117	0x3c8da2d0	0.01728955
118	0xbca60a7a	-0.020268667
119	0xbbabf90d	-0.005248195
120	0x3d38d0fb	0.045121174
121	0xbc3e3293	-0.0116087375
122	0x3a26b0cd	0.0006358743
123	0x3d409bca	0.047023572
124	0x3d402b1d	0.046916116
125	0x3d0d2743	0.03446127
126	0xbd19d64d	-0.03755789
127	0x3cdcca23	0.026951855
128	0x3cb83dc0	0.022490382
129	0x3bd5c58d	0.006523794
130	0xbb063767	-0.00204798
131	0x3c3ac67a	0.01139986
132	0xbcfca6ad	-0.030841196
133	0xbc17003a	-0.009216363
134	0x3c371380	0.011174083
135	0xbbda77a7	-0.0066670957
136	0x3d08bb87	0.033381965
137	0x3d436b45	0.047709722
138	0xbcf99737	-0.030467613
139	0x3b100a33	0.0021978735
140	0xbd3e8533	-0.046513747
141	0x3b414a9a	0.002949393
142	0x3be16eda	0.0068796696
143	0xbc2f9f40	-0.0107191205
144	0xbd14ef2d	-0.03636091
145	0xbcd14e47	-0.02555002
146	0xba1b52cd	-0.0005925119
147	0xbc3a13b3	-0.011357236
148	0xbccf469a	-0.02530222
149	0xbca322c3	-0.019914037
150	0xbcce4dfd	-0.025183672
151	0x3d2067ea	0.0391616
152	0x3d0fb320	0.035082936
153	0xbca435b7	-0.020045144
154	0xbb97d5b3	-0.004633629
155	0xbcb4d830	-0.022075742
156	0xbc30e73a	-0.010797316
157	0x3af222cd	0.0018473506
158	0x3cabe573	0.020983433
159	0xbc8602c0	-0.016358733
160	0x3c92b8ba	0.01791035
161	0x3d4401e5	0.04785337
162	0xbd4b9330	-0.049700916
163	0xbd2cd9bd	-0.04219984
164	0xba1e5467	-0.00060397986
165	0x3cc530d3	0.024071133
166	0x3cbc1450	0.022958905
167	0x3b96fab3	0.0046075224
168	0xbd3683f7	-0.044559445
169	0xbc88868a	-0.016665716
170	0x3bce91a7	0.006303984
171	0xbd183510	-0.03715998
172	0xbd40de15	-0.047086794
173	0x3bbabd67	0.005698848
174	0xbbdc0ee7	-0.0067156437
175	0x3d1aee77	0.037825074
176	0xbc456da7	-0.012050069
177	0x3c4ac98d	0.012377155
178	0x3c961e40	0.018324971
179	0xbd2fa2fb	-0.04288004
180	0x3cb67953	0.022274649
181	0x3b8f2b80	0.0043691993
182	0x3aba9ccd	0.0014237404
183	0x3cd90ced	0.026495421
184	0xbc3ffb2d	-0.0117176
185	0x39a2c733	0.00031047463
186	0x3c80e727	0.015735222
187	0x3c872d83	0.016501194
188	0xbcf58883	-0.02997232
189	0xbb8ddcb3	-0.004329288
190	0x3cf544fd	0.029940123
191	0xbc9b726a	-0.018975455
192	0xbca23eb3	-0.019805288
193	0xbcb39bfa	-0.021924961
194	0x3c1be15a	0.009514177
195	0xbcb6d09a	-0.022316266
196	0xbd0aef30	-0.033919513
197	0x3d250417	0.040287104
198	0xbad44a00	-0.001619637
199	0x3d058010	0.032592833
200	0xbd120ecb	-0.03565864
201	0x3d47f962	0.048821814
202	0x3cc34b53	0.023839628
203	0x3cc39697	0.023875518
204	0xbcd9ba80	-0.026578188
205	0x3d3a7fbf	0.045531984
206	0x3d2a48e0	0.041573405
207	0xbbcd1c27	-0.0062594595
208	0x3d4970a0	0.049179673
209	0x3cd7352a	0.026270468
210	0xbbadd273	-0.0053046285
211	0x3d3a144d	0.045429517
212	0x3cc76f23	0.024344986
213	0xbce394aa	-0.02778085
214	0xbc1d322d	-0.009594482
215	0xbc98196d	-0.018566811
216	0xbba118a7	-0.004916269
217	0x3d2e277d	0.042518128
218	0x3d43f1e0	0.04783809
219	0x3d21bce3	0.039486777
220	0xbc2686e0	-0.010163993
221	0xbd123d3f	-0.03570294
222	0x3cda7343	0.02666629
223	0x3d0a0c87	0.033703353
224	0xbd422fed	-0.047408987
225	0x3d1a094a	0.037606515
226	0x3d0ff09f	0.035141584
227	0xbb9336da	-0.004492623
228	0x3c4b6e00	0.012416363
229	0xbc997bcd	-0.01873579
230	0x3c1aa00d	0.009437573
231	0x3d32f03f	0.043686148
232	0xbceb84b0	-0.028749794
233	0x3bc80f5a	0.0061053457
234	0x3c0abbad	0.008467597
235	0xbc17b033	-0.009258318
236	0x3d0778d5	0.03307422
237	0xbae1f2cd	-0.0017238498
238	0x3d2ea0f5	0.04263397
239	0x3d011735	0.031516273
240	0xbd339dd5	-0.043851692
241	0x3cf86c80	0.030325174
242	0x3cc81b90	0.024427205
243	0xbcf8bebd	-0.030364389
244	0xbcf8799a	-0.030331422
245	0x3c4e93e7	0.012608505
246	0x3cb0dff0	0.021591157
247	0x3c9b85e3	0.01898474
248	0x3d0fd8fb	0.035119038
249	0xbc2b3200	-0.010448933
250	0x3d1b8473	0.03796811
251	0x3d0de33f	0.034640547
252	0x3ceb7ae3	0.02874512
253	0xbb865fda	-0.004100782
254	0xbbd4dc1a	-0.0064959647
255	0x3d11ed45	0.03562667

fc1.bias f4 [120]
0	0x3d4b1007	0.04957583
1	0x3d01caf8	0.031687707
2	0x3cd9d5dd	0.026591236
3	0x3cca8bb7	0.024724824
4	0x3d10b583	0.035329353
5	0xbd1e92d0	-0.03871423
6	0xbd2a0792	-0.041511126
7	0xbba9c9f3	-0.005181545
8	0xbcb3d57a	-0.02195238
9	0x3c11ffda	0.008911097
10	0xbc398eed	-0.01132558
11	0x3d053eaa	0.032530464
12	0xbd2b64e7	-0.041844275
13	0x3cc4911d	0.023994977
14	0x3d27412f	0.04083365
15	0xbab7b833	-0.0014016688
16	0xbc6e3b2d	-0.014540476
17	0x3b85a667	0.0040786746
18	0x3ce1aba3	0.027547663
19	0x3ca94eea	0.020667512
20	0x3d1b813a	0.037965037
21	0xbafa7233	-0.001910752
22	0xbcf6a7dd	-0.03010934
23	0x3c27cc0d	0.010241521
24	0xbce0a4d3	-0.027422344
25	0xbc5b3040	-0.013378203
26	0xbc947393	-0.018121516
27	0x3cfffe20	0.031249106
28	0xbd3d4d28	-0.04621616
29	0xbd342738	-0.043982714
30	0xbd48c775	-0.049018342
31	0x3d083c03	0.033260357
32	0xbd030ff7	-0.031997647
33	0x3cb93e3d	0.022612685
34	0xbc6e48f3	-0.01454376
35	0x3b85c340	0.0040821135
36	0xbc03fc93	-0.008055824
37	0x3cd3f1b7	0.025872095
38	0xbd25e978	-0.040505856
39	0xbcb4ac0a	-0.02205469
40	0x3cbf0acd	0.02332058
41	0x3cb420c0	0.021988273
42	0xbc5196c0	-0.012792289
43	0xbd34bd9f	-0.04412615
44	0x3cd3f1e7	0.025872184
45	0x3d317bca	0.043330945
46	0x3cf7fff7	0.03027342
47	0x3d04878a	0.032355823
48	0x3cb0f5fa	0.021601666
49	0x3cdb3b0d	0.026761556
50	0x3ce6238d	0.028093124
51	0xbcd11a60	-0.025525272
52	0xbce8a72a	-0.028400023
53	0xba98dd9a	-0.0011662722
54	0x3d3b0435	0.04565831
55	0xbc73b76d	-0.014875275
56	0x3d0ae00f	0.033905085
57	0xbbf51780	-0.007479608
58	0xbcfa8767	-0.030582143
59	0xbc015107	-0.007892854
60	0xbd459378	-0.04823634
61	0xbd3d2f0a	-0.046187438
62	0x3bd33373	0.006445342
63	0xbcdaab4d	-0.02669301
64	0xbc805210	-0.01566413
65	0x3ccbe2a0	0.024888337
66	0x3a8ac200	0.0010586381
67	0x3d3e3da8	0.04644552
68	0x3c5cd64d	0.013478828
69	0x3c372913	0.011179226
70	0xbcc9ba63	-0.024625009
71	0x3ce79460	0.028268993
72	0x3d18886d	0.03723948
73	0xbd136b77	-0.03599116
74	0x3b2df080	0.0026541054
75	0x3d362f53	0.044478726
76	0xbd061f35	-0.032744605
77	0xbc115f1a	-0.008872772
78	0xbd1de2f8	-0.038546532
79	0x3d31ea98	0.043436617
80	0x3c8f7dca	0.017516036
81	0x3d14d880	0.036339283
82	0xbcd637ed	-0.026149714
83	0x3c8928e0	0.016743124
84	0x3cefbbf3	0.029264426
85	0xbbfb3840	-0.0076666176
86	0x3cb7b327	0.022424294
87	0x3bfdd640	0.007746488
88	0xbca82d6a	-0.020529468
89	0x3c102060	0.008796781
90	0xbc8896ad	-0.01667341
91	0x3bb02f40	0.0053767264
92	0xbc06862d	-0.008210701
93	0xbd49de9f	-0.049284574
94	0x3ccca543	0.024981147
95	0xbbef1780	-0.0072965026
96	0xbd0c4b98	-0.03425178
97	0x3d22a8ab	0.039711636
98	0x3b036f67	0.0020055415
99	0xbd152b00	-0.03641796
100	0xbd4bb12f	-0.049729522
101	0xbd47ccc7	-0.048779275
102	0xbd02c37a	-0.031924702
103	0xbb541800	-0.0032362938
104	0x3d191ccd	0.037380982
105	0x3c902760	0.0175969
106	0xbd33b12a	-0.04387013
107	0x3cd0592a	0.025433142
108	0xbcd2ea47	-0.025746478
109	0x3cb924d3	0.022600567
110	0x3c09d267	0.00841198
111	0xbd3fddda	-0.046842434
112	0xbcb4e200	-0.022080421
113	0xbd0459ea	-0.03231231
114	0xbc7dbcad	-0.015486878
115	0x3d11ad57	0.0355657
116	0x3d21e20f	0.039522227
117	0x3c13b43a	0.009015137
118	0xbcafd33d	-0.021463031
119	0x3c044e20	0.008075267

fc2.weight f4 [84, 120]
0	0xbd178e9a	-0.03700123
1	0xbbf5175a	-0.0074795904
2	0x3d46a605	0.048498172
3	0xbcd57024	-0.02605445
4	0x3b7fd3bc	0.0039036116
5	0xbc1348c4	-0.008989517
6	0x3da40928	0.08009559
7	0xbda415be	-0.080119595
8	0x3cfee097	0.031112952
9	0xbd8d98ce	-0.06913911
10	0x3c8ee89a	0.017444897
11	0x3da57f75	0.08080951
12	0x3d9aa983	0.07551863
13	0xbd1d12a4	-0.038347855
14	0x3d815a75	0.063160814
15	0x3c79f6e2	0.015256615
16	0xbd093162	-0.03349436
17	0xbcb89e8c	-0.022536539
18	0xbc74227a	-0.014900798
19	0x3cf832fd	0.03029775
20	0x3d06b523	0.03288759
21	0x3b2c3fdd	0.0026283183
22	0xbdb00b2a	-0.085958794
23	0xbca8f5db	-0.020625046
24	0x3da697da	0.08134432
25	0xbd906e65	-0.07052306
26	0x3d9022f6	0.07037918
27	0x3db842da	0.08997126
28	0xbd9d1843	-0.07670643
29	0x3db1db83	0.08684447
30	0x3bff9de0	0.0078008026
31	0xbd9f5a6f	-0.07780921
32	0x3daf9681	0.08573628
33	0x3d213a34	0.039362147
34	0xbc3c8000	-0.011505127
35	0x3d1ded51	0.0385564
36	0xbd232551	-0.03983051
37	0x3c5b1037	0.013370565
38	0xbd35a247	-0.044344213
39	0xbd9f690a	-0.077837065
40	0xbd999d31	-0.07500685
41	0xbcca71f1	-0.024712535
42	0xbd8848dc	-0.06654522
43	0x3d7ef2f6	0.062243424
44	0xbd76d951	-0.060265843
45	0xbdb7aac3	-0.08968117
46	0x3d16fdec	0.036863253
47	0x3ce2fd9f	0.027708827
48	0x3d7a4168	0.061097533
49	0xbbbdcdd6	-0.00579236
50	0xbdb4d5dc	-0.08829853
51	0x3be4332d	0.0069641084
52	0x39c6bb64	0.0003790512
53	0x3d097646	0.03356006
54	0x3b42ff6f	0.00297543
55	0x3d77ce8a	0.060499705
56	0x3daffc65	0.08593062
57	0x3c5688ea	0.013094166
58	0x3d8f170d	0.069868185
59	0xbb478f2d	-0.003045033
60	0xbd2a1326	-0.041522168
61	0x3b13b407	0.0022537725
62	0xbd9f2a3d	-0.07771728
63	0xbce76e59	-0.02825086
64	0xbda82181	-0.08209515
65	0x3d5222af	0.051302608
66	0x3d6748b4	0.05646582
67	0x3d58d8f2	0.05294127
68	0xbd13f780	-0.036124706
69	0x3d829c6e	0.06377493
70	0x3b8d2b31	0.0043081273
71	0x3d5f8011	0.054565493
72	0x3d87094e	0.065935716
73	0xbd99bf42	-0.07507183
74	0xbc8f1bdc	-0.01746934
75	0x3d85f04e	0.06539975
76	0x3caafc18	0.02087216
77	0xbd326d52	-0.043561287
78	0xbd0309e8	-0.03199187
79	0x3d307663	0.043081652
80	0xbd1184e5	-0.03552713
81	0xbd04384c	-0.03228025
82	0x3d234833	0.039863776
83	0x3d17f0dc	0.037094936
84	0x3d8e4718	0.06947154
85	0xbda14b7b	-0.07875725
86	0x3d78508b	0.060623687
87	0xbdb2af2e	-0.08724819
88	0x3d8d929d	0.0691273
89	0xbd2c43ca	-0.042056836
90	0x3d964171	0.07336701
91	0xbd56acad	-0.05241077
92	0x3c538899	0.012910985
93	0x3d302565	0.043004412
94	0xbd1a2b21	-0.037638787
95	0x3b9151dd	0.0044348077
96	0xbb5a2d18	-0.0033291038
97	0xbcc3f236	-0.023919206
98	0xbd2babc6	-0.041911863
99	0xbd7c0c60	-0.06153524
100	0xbd051fc7	-0.03250101
101	0xbd543b71	-0.0518145
102	0xbcf68194	-0.030091085
103	0xbcfb9fa4	-0.030715771
104	0x3d06412b	0.032776993
105	0x3d94099c	0.07228395
106	0x3d081b5f	0.033229228
107	0xbdb0e5e2	-0.08637597
108	0xbd294d14	-0.041333273
109	0xbd151fee	-0.036407404
110	0x3d2e1bd9	0.042507026
111	0xbd2280a5	-0.039673466
112	0xbcbdb9de	-0.023159917
113	0x3d10a1ab	0.03531043
114	0x3bc917fc	0.0061368924
115	0xbc2e5766	-0.010640955
116	0xbdaebbab	-0.085318886
117	0xbdae4dff	-0.0851097
118	0xbd488752	-0.048957177
119	0xbd9de7cc	-0.07710227
120	0xbda7c7f8	-0.08192438
121	0x3d705682	0.05867625
122	0x3d8ecf35	0.06973115
123	0xbcbfc32f	-0.0234085
124	0xbd39e96d	-0.045388628
125	0x3cbee073	0.023300385
126	0x3cc103a6	0.02356131
127	0x3da1bf47	0.078978114
128	0x3da8c0ce	0.082398996
129	0x3db3d443	0.0878072
130	0xbd9ad430	-0.07560003
131	0x3d1b4821	0.037910584
132	0xbd6ff936	-0.058587275
133	0x3db5bce0	0.08873916
134	0xbd04253a	-0.032262065
135	0x3bf0896f	0.007340602
136	0x3d0cad4e	0.034344964
137	0x3dac9278	0.08426374
138	0xbd6167fc	-0.055030808
139	0xbd5c8a5a	-0.05384288
140	0x3da58096	0.080811664
141	0xbd87ea38	-0.066364706
142	0x3c99edf8	0.01879023
143	0xbd9f26ab	-0.07771047
144	0x3cb95940	0.022625566
145	0xbd28ed3d	-0.041241873
146	0xbd9664a6	-0.07343416
147	0x3d62faca	0.055414952
148	0xbd8a49df	-0.06752371
149	0xbce983ac	-0.028505169
150	0x3da8408c	0.08215436
151	0xbd674776	-0.056464635
152	0x3d81ed3d	0.06344078
153	0xbcaac2b8	-0.020844802
154	0x3c514b0b	0.012774239
155	0x3d5551b2	0.052079864
156	0xbd298f55	-0.041396458
157	0x3d5d3ce8	0.054013163
158	0x3d8cf104	0.068819076
159	0xbd857029	-0.065155335
160	0xbd4b7804	-0.049675003
161	0xbd27bd47	-0.040951993
162	0x3c10c7a8	0.008836664
163	0xbbab5dbf	-0.0052296813
164	0xbc1ce4ad	-0.009576005
165	0x3d6215a9	0.055196438
166	0x3d17afe9	0.037032995
167	0xbd0260ec	-0.031830713
168	0xbd9d8995	-0.07692257
169	0xbc21a5c3	-0.009866181
170	0xbd2ec544	-0.042668596
171	0x3d2ec5a7	0.042668965
172	0xbb58a893	-0.0033059462
173	0xbd1dd896	-0.03853663
174	0xbd4a266f	-0.04935306
175	0x3c094993	0.008379358
176	0xbc6bd9c9	-0.014395186
177	0xbd472271	-0.04861683
178	0xbcf57f54	-0.029967941
179	0xbc266ffa	-0.010158533
180	0xbd99784b	-0.07493647
181	0xbd605b42	-0.05477453
182	0xbd0e3ac5	-0.034724016
183	0x38cd3c78	9.786425e-05
184	0xbd3309af	-0.043710407
185	0xbdb9999d	-0.090625025
186	0xbd98758b	-0.074442945
187	0x3d6e8cc5	0.058239717
188	0x3aac54dc	0.0013147849
189	0x3d6f50a3	0.05842651
190	0x3d912c84	0.07088569
191	0x3b86bb00	0.0041116476
192	0x3d9cfc79	0.07665343
193	0x3bf6c337	0.0075305956
194	0x3c3bb3ca	0.011456439
195	0xbd01bb11	-0.03167254
196	0x3d28b98f	0.041192587
197	0xbdbad514	-0.09122673
198	0xba888b4a	-0.0010417488
199	0xbd118ab0	-0.035532653
200	0xbb9348db	-0.004494769
201	0xbda38b8d	-0.079856016
202	0xbd252a8a	-0.04032377
203	0x3da823d9	0.082099624
204	0x3b20cfbd	0.0024537884
205	0xbbf9e2e4	-0.0076259244
206	0x3d1ea03e	0.038727038
207	0x3db1182c	0.086471885
208	0x3d05c793	0.032661032
209	0xbadb8b45	-0.001674988
210	0x3c982cff	0.018576143
211	0x3d03f813	0.032219004
212	0x3d76d7d9	0.060264442
213	0xbd59e269	-0.053194437
214	0x3d615690	0.055014193
215	0x3c2a3f9b	0.010391141
216	0x3cd909c0	0.026493907
217	0xbdb2db2b	-0.08733209
218	0x3cc4dde4	0.024031587
219	0x3ce41c37	0.027845485
220	0xbce5824a	-0.028016228
221	0x3b9164f1	0.004437082
222	0xbd090057	-0.03344759
223	0xbcf55596	-0.029948037
224	0xbd171998	-0.036889642
225	0xbd8757c2	-0.06608535
226	0x3cbb9160	0.022896469
227	0xbc57e6af	-0.013177558
228	0xbd1a8e7c	-0.03773354
229	0x3d3e7e08	0.04650691
230	0x3ca98eb7	0.020697935
231	0xbd1e1b22	-0.038600095
232	0xbd8b6411	-0.068061955
233	0xbdb29864	-0.087204725
234	0xbccaa403	-0.02473641
235	0x3d9539b5	0.07286397
236	0xbda65745	-0.08122114
237	0xbd071f02	-0.032988556
238	0xbd822097	-0.06353872
239	0xbd4f0929	-0.050545845
240	0x3ba08742	0.0048989365
241	0xbdabff56	-0.08398311
242	0x3da13c1f	0.07872795
243	0xbbafc0c3	-0.005363555
244	0xbc879ecf	-0.016555218
245	0x3d75d14e	0.06001406
246	0xbd94145d	-0.072304465
247	0x3c58ec50	0.013239935
248	0xbd9f87ba	-0.0778956
249	0xbd4669d4	-0.04844077
250	0xbb15e5cf	-0.0022872572
251	0xbd63dd1a	-0.05563078
252	0xbd43218d	-0.04763942
253	0x3cce78fc	0.025204174
254	0x3cad3ee6	0.021148156
255	0x3d232138	0.0398266

fc2.bias f4 [84]
0	0x3cc07fa0	0.023498356
1	0x3d68cd96	0.056836687
2	0xbdb1dea1	-0.08685041
3	0xbd201838	-0.039085597
4	0xbccd799c	-0.025082402
5	0xbd7573ce	-0.059924893
6	0xbd73c0c9	-0.059510026
7	0xbda6f040	-0.08151293
8	0x3d222c60	0.0395931
9	0xbd0e037f	-0.034671303
10	0x3da74e6e	0.08169256
11	0x3a6c7938	0.00090207485
12	0xbd614a8c	-0.055002734
13	0x3c341f4d	0.010993791
14	0xbcd12707	-0.025531305
15	0x3d970730	0.07374418
16	0x3bdfd2a0	0.0068305284
17	0x3d8047ed	0.06263719
18	0x3d1bc2bd	0.038027514
19	0xbd4a7a11	-0.049432818
20	0xbcbc5f92	-0.02299479
21	0xbd0364f7	-0.03207871
22	0xbca4f320	-0.020135462
23	0xbd7a4eee	-0.06111043
24	0xbd3d355a	-0.04619346
25	0x3d44f27d	0.048082817
26	0xbca33507	-0.019922746
27	0x3d841ba4	0.064505845
28	0xbc7ab7c5	-0.015302603
29	0xba6fec25	-0.0009152315
30	0x3d5154af	0.05110615
31	0x3d068b45	0.03284766
32	0x3da6dc76	0.08147518
33	0x3d1ae14b	0.037812512
34	0xbd563b4f	-0.052302655
35	0x3d498510	0.049199164
36	0x3d82afb4	0.06381169
37	0xbd081f89	-0.0332332
38	0xbd8843a6	-0.06653528
39	0x3d34475d	0.04401337
40	0x3d8410a3	0.06448486
41	0x3d36e5d0	0.04465276
42	0xbc69a09c	-0.014259484
43	0x3d7661c4	0.06015183
44	0xbd04d133	-0.03242607
45	0xbdb774a3	-0.089577936
46	0x3d8c8fca	0.06863363
47	0x3da91692	0.08256258
48	0xbc390270	-0.011292085
49	0x3d9d4ac5	0.07680277
50	0x3d9b7ea5	0.07592515
51	0x3ba7d214	0.005121479
52	0xbb617a79	-0.0034405275
53	0x3b9795b0	0.0046259984
54	0xbccd0bf9	-0.025030123
55	0x3d25a208	0.04043773
56	0x3cd5bd76	0.026091319
57	0x3ccf464a	0.025302071
58	0x3c08c048	0.008346625
59	0xbcf8ae9d	-0.0303567
60	0x3b908f9b	0.0044116504
61	0x3d3f2dd1	0.046674553
62	0xbcaad046	-0.020851266
63	0x3c22f7d8	0.009946786
64	0x3ce1d26d	0.02756616
65	0xbd8e7a25	-0.06956891
66	0xbc0706d1	-0.008241371
67	0xbd102fd2	-0.035201855
68	0xbd90b2f9	-0.07065386
69	0x3d2153c1	0.039386515
70	0x3d8d50da	0.06900187
71	0x3c9d0b85	0.019170532
72	0x3d6273ea	0.055286326
73	0xbd1cae9d	-0.03825246
74	0xbd708dfd	-0.05872916
75	0x3d2f8eff	0.04286098
76	0x3d3110d5	0.043228943
77	0x3d9672b1	0.073460944
78	0xbdb4e940	-0.088335514
79	0xbc41dca3	-0.011832389
80	0x3d080d2d	0.03321569
81	0xbc20aadc	-0.009806361
82	0x3c9a1f26	0.01881368
83	0xbd1dd11f	-0.03852951

fc3.weight f4 [10, 84]
0	0xbbddbabb	-0.006766645
1	0xbda6938e	-0.081336126
2	0xbbfa8a47	-0.0076458785
3	0x3d22cb64	0.03974475
4	0x3d9bf305	0.07614712
5	0xbd603912	-0.054741926
6	0xbceebe32	-0.029143427
7	0x3c0913ad	0.0083665075
8	0x3daf0f9b	0.085478984
9	0xbcf9216d	-0.030411446
10	0xbc8e399a	-0.017361451
11	0x3c6f13d8	0.014592133
12	0xbda26eb2	-0.0793127
13	0x3dc152f2	0.09439649
14	0xbc4af46d	-0.012387377
15	0x3da973db	0.08274051
16	0xbce432c9	-0.027856247
17	0xbd9a1455	-0.07523409
18	0x3d16ae1e	0.036787145
19	0xbd73a396	-0.05948218
20	0xbd9ba97b	-0.07600685
21	0x3dde59bb	0.108569585
22	0xbd0ed74e	-0.0348733
23	0xbd31be43	-0.04339434
24	0xbdd6e67a	-0.10493179
25	0xbbab0c42	-0.005219967
26	0xbd8c2b3f	-0.06844186
27	0xbd518219	-0.05114946
28	0x3bdb0eba	0.006685105
29	0x3d965eae	0.073422775
30	0xbc977241	-0.018487098
31	0x3d4c1b8d	0.049830962
32	0xbdd986cd	-0.10621414
33	0xbdc3f8de	-0.09568952
34	0xbd813f9c	-0.06310961
35	0xbd44d69e	-0.048056237
36	0x3dd7e105	0.10540966
37	0x3dae2543	0.08503201
38	0x3d025f3e	0.03182911
39	0xbdad9eb9	-0.084775396
40	0x3d8d5ebb	0.06902834
41	0xbdb17485	-0.086648025
42	0xbd1a4b1a	-0.03766928
43	0xbd8f8c97	-0.07009237
44	0xbcc90512	-0.02453855
45	0x3d42042e	0.047367267
46	0x3ac9b7f5	0.0015389906
47	0x3dd1f456	0.102516815
48	0x3db99fc0	0.09063673
49	0xbdce4b58	-0.100729644
50	0x3d1593e5	0.036517996
51	0x3c73ebd0	0.014887765
52	0x3d9cfa97	0.07664984
53	0xbd211520	-0.039326787
54	0xbbc1e1c5	-0.0059168064
55	0x3dc5f213	0.096653126
56	0xbd1f26e4	-0.03885545
57	0xbd8f27ff	-0.069900505
58	0xbd43638a	-0.04770235
59	0xbd015e90	-0.031584322
60	0xbdd92ba7	-0.10604029
61	0xbd4ec3af	-0.050479587
62	0xbd456cdc	-0.04819952
63	0xbc10c2f7	-0.008835546
64	0x3b485522	0.0030568321
65	0xbdc0e46f	-0.0941857
66	0x3d6db920	0.058037877
67	0xbb967bc0	-0.004592389
68	0xba74527c	-0.00093201525
69	0x3d889ddd	0.06670735
70	0xbd95277d	-0.072829224
71	0x3dbe261b	0.09284612
72	0xbc6c3599	-0.014417076
73	0xbd9dd34c	-0.07706317
74	0x3d54cf57	0.051955547
75	0xbdcb7248	-0.09933907
76	0x3d08b192	0.03337247
77	0x3d619fee	0.05508416
78	0xbd8c88b6	-0.06862013
79	0x3dd58b0a	0.1042691
80	0x3da92dba	0.08260675
81	0x3dac1053	0.08401551
82	0xbdd0d001	-0.101959236
83	0x3d82ca16	0.06386201
84	0xbdba7738	-0.091047704
85	0x3d9a91aa	0.075473145
86	0x3bbf30db	0.0058346814
87	0xbd65992e	-0.056054287
88	0x3d8324d3	0.06403508
89	0x3d2fa415	0.04288109
90	0x3d8d0149	0.06885011
91	0x3cd1ea96	0.025624555
92	0x3bc99dfd	0.006152867
93	0x3d46ed3d	0.04856609
94	0x3cef3c06	0.029203426
95	0x3c89bb91	0.016813071
96	0xbd78241e	-0.06058132
97	0xbdd01c95	-0.101617016
98	0xbd75b8c2	-0.059990652
99	0x3dd8e198	0.105899036
100	0xbd342b03	-0.04398633
101	0x3db32953	0.08748116
102	0xbda98a3e	-0.08278321
103	0xbdde73c4	-0.10861924
104	0xbd7642d6	-0.060122333
105	0xbd9bd8a8	-0.07609683
106	0xbd73468b	-0.059393447
107	0x3dd38663	0.103283666
108	0xbb7970aa	-0.0038061538
109	0x3dd4e00a	0.103942946
110	0xbc7a894b	-0.015291522
111	0x3ddb8df4	0.10720435
112	0x3d30b275	0.04313894
113	0x3da9223b	0.08258482
114	0xbdbae8ed	-0.09126458
115	0xbdc952a9	-0.09830219
116	0xbd8ee868	-0.06977922
117	0x3b82f26a	0.003996183
118	0x3dd2182c	0.10258517
119	0xbd6fb7f9	-0.05852506
120	0x3d7959a8	0.06087652
121	0x3db2428d	0.087041
122	0x3dc4b03d	0.09603927
123	0x3db893da	0.090125754
124	0x3c94f46e	0.01818296
125	0xbda6d6bf	-0.08146428
126	0x3cbff10d	0.023430372
127	0xbdb61a0f	-0.08891689
128	0x3d0c44bd	0.03424524
129	0xbd82b35f	-0.063818686
130	0xbd6a2290	-0.057161868
131	0xbc985fe5	-0.018600414
132	0xbcc8a08e	-0.024490621
133	0x3dc48a54	0.095966965
134	0x3d3fa914	0.046792105
135	0xbd15cc58	-0.03657183
136	0xbd41f9bf	-0.047357317
137	0xbd670693	-0.056402754
138	0xbdc16b49	-0.09444291
139	0xbcaa24ac	-0.02076944
140	0x3dd9f583	0.10642531
141	0x3d975955	0.073900856
142	0xbd8488b6	-0.06471388
143	0xbdc8fda9	-0.09814007
144	0x3d714fb3	0.058913898
145	0x3d4b814d	0.049683858
146	0x3db1630e	0.08661471
147	0x3d0ce27f	0.03439569
148	0x3c691028	0.014225043
149	0xbcb19802	-0.021678928
150	0xbdbd7166	-0.09250145
151	0xbbe2241e	-0.006901278
152	0x3be5be32	0.0070111984
153	0xbcd0b58f	-0.025477199
154	0xbdae20db	-0.085023604
155	0xbdc33756	-0.09532039
156	0xbd9572a1	-0.07297254
157	0x3d82a192	0.06378473
158	0xbdb9bb71	-0.09068955
159	0xbdb56e5d	-0.08858941
160	0xba995658	-0.0011698706
161	0x3db61989	0.08891589
162	0x3ddacf9f	0.10684132
163	0xbdc55d0f	-0.0963689
164	0xbdb2ce3d	-0.08730743
165	0x3dd1e4b5	0.102487005
166	0x3d96a16f	0.0735501
167	0xbd9047bf	-0.070449345
168	0x3bebcd12	0.007196077
169	0xbc4231cd	-0.011852694
170	0xbd40ef54	-0.04710324
171	0xbdb92c73	-0.09041681
172	0x3cc4ae4a	0.024008889
173	0x3d47c4b0	0.04877156
174	0x3c3500c5	0.011047547
175	0x3d594ec4	0.053053632
176	0x3be23d6e	0.0069042956
177	0x3da7ebea	0.08199294
178	0x3da7e6a2	0.081982866
179	0x3d71cfa1	0.0590359
180	0xbd8f4969	-0.06996424
181	0xbb6d58cf	-0.0036216264
182	0xbd95cc8e	-0.07314406
183	0xbd41ba62	-0.04729689
184	0xbd06811b	-0.03283797
185	0xbceec543	-0.029146796
186	0xbc9f883e	-0.019474145
187	0x3d594067	0.053039934
188	0x3d8fe7e5	0.07026652
189	0xbd433a80	-0.04766321
190	0x3d227cdf	0.039669868
191	0x3ddbfaf8	0.10741228
192	0xbd9a7233	-0.07541313
193	0x3da3fb6c	0.08006939
194	0x3d3f8fb6	0.046767913
195	0x3d137509	0.036000285
196	0xbd9e7c68	-0.07738572
197	0x3c84153f	0.016123412
198	0x3d3c712f	0.046006378
199	0x3ce7b0fd	0.028282637
200	0x3db8755a	0.09006758
201	0x3dacafa9	0.08431942
202	0xbd3d7bfc	-0.04626082
203	0xbc699b99	-0.014258289
204	0x3da14c70	0.078759074
205	0x3c40918d	0.011753452
206	0xbd4b5e4d	-0.04965048
207	0xbcf8698d	-0.030323768
208	0xbc5d683e	-0.013513623
209	0xbd5b8056	-0.053589188
210	0xbdb79b72	-0.08965196
211	0x3ce7fcca	0.028318781
212	0xbd06dc56	-0.032924972
213	0xbd37c971	-0.044869844
214	0x3d159e54	0.036527947
215	0x3db97fe2	0.09057595
216	0x3b31935f	0.0027095897
217	0x3c8a6359	0.016893076
218	0x3db490c5	0.08816675
219	0x3da21e2c	0.07915911
220	0xbd189dfa	-0.037260033
221	0x3cfe2abd	0.031026239
222	0xbd2dca05	-0.04242899
223	0x3b845c00	0.0040392876
224	0x3d84ae6a	0.06478579
225	0x3d15cce7	0.036572363
226	0x3d9d08fd	0.0766773
227	0xbd95a6e3	-0.07307222
228	0xbdd2939f	-0.10282063
229	0xbdb30419	-0.08741016
230	0xbbd1d5ef	-0.0064036767
231	0xbc979e10	-0.018507987
232	0x3dd11ce6	0.1021059
233	0x3d848189	0.06470019
234	0x3dd939b5	0.1060671
235	0x3d4ededa	0.050505497
236	0xbd46d4f9	-0.04854295
237	0x3da8b232	0.08237113
238	0x3dd228be	0.10261677
239	0xbd17063d	-0.036871184
240	0xbdcec9d5	-0.1009709
241	0x3d9f6ab9	0.077840276
242	0xbdc79caf	-0.09746682
243	0x3d37792e	0.0447933
244	0x3da27a98	0.07933539
245	0x3db21b86	0.08696656
246	0xbddb3486	-0.107033774
247	0x3d22e969	0.03977338
248	0x3cc85b06	0.024457466
249	0x3d39656c	0.04526274
250	0x3d28207e	0.041046612
251	0x3b9d8dde	0.0048081717
252	0x3da62732	0.08112945
253	0x3d498558	0.049199432
254	0x3d80f4ee	0.06296717
255	0x3d319f63	0.043364894

fc3.bias f4 [10]
0	0x3d76b574	0.06023164
1	0xbccdf322	-0.025140349
2	0xbd87277a	-0.065993264
3	0x3d7b1ea0	0.061308503
4	0x3dcbdf58	0.09954709
5	0xbd9f0ef4	-0.07766524
6	0xbce72e0f	-0.028220205
7	0x3d5bee4e	0.053694062
8	0x3dc8edc0	0.09810972
9	0xbdda1475	-0.10648433
