FL/cnn-img/outputs/2025-03-18/18-09-28/model_state_acc_0.1002_round_0.pth (torch, 251962 bytes, 10 tensors)

conv1.weight f4 [6, 3, 5, 5]
0	0xbd32f078	-0.04368636
1	0x3bd9eb64	0.006650375
2	0xbda121ab	-0.0786775
3	0xbdcbf884	-0.0995951
4	0x3c66c31d	0.014084605
5	0x3d0cc08c	0.034363315
6	0xbcd0dfb3	-0.025497293
7	0xbcf7ef60	-0.03026551
8	0x3d79b57e	0.0609641
9	0x3c6968c0	0.014246166
10	0xbd903575	-0.07041446
11	0x3d0e3ce7	0.03472605
12	0xbcbe9f76	-0.023269396
13	0xbdcef21b	-0.10104772
14	0xbd41a399	-0.04727516
15	0xbd1ba6ff	-0.038001057
16	0xbd568c2b	-0.05237977
17	0xba7925f6	-0.0009504253
18	0x3db0567d	0.08610246
19	0xbd9c9036	-0.076446936
20	0xbdc7083a	-0.09718366
21	0xbd31893e	-0.043343775
22	0xbaf6ae92	-0.0018820337
23	0xbdd41748	-0.10356003
24	0xbcb87744	-0.022517808
25	0xbd213515	-0.039357264
26	0xbd45d694	-0.04830034
27	0x3da39ce3	0.07988908
28	0xbd10cfa9	-0.03535429
29	0x3baa6cbe	0.0052009514
30	0x3d83390c	0.06407365
31	0x3de46155	0.11151377
32	0xbd210a1d	-0.039316285
33	0xbd444ed9	-0.047926757
34	0xbdb2ad23	-0.087244295
35	0xbdbaa31d	-0.09113143
36	0xbdd238c4	-0.102647334
37	0x3cad128d	0.02112701
38	0xbd18cf29	-0.03730694
39	0x3c7c045a	0.015381897
40	0x3d4822cc	0.04886131
41	0x3cd79f1a	0.026320983
42	0xbb826fa1	-0.0039805924
43	0xbd1dc461	-0.03851736
44	0xbc98a3d8	-0.018632814
45	0x3d8c89a5	0.06862191
46	0x3d4be6f9	0.04978082
47	0xbd8c93f4	-0.06864157
48	0xbdc3558a	-0.095378
49	0xbd6a0a9c	-0.057139024
50	0x3d283f32	0.041075893
51	0x3d8987e3	0.067153715
52	0xbd351fbc	-0.044219717
53	0xbcd9b097	-0.026573462
54	0xbd74d474	-0.059772924
55	0xbc48248b	-0.012215744
56	0xbde824c1	-0.11335135
57	0x3c95d85d	0.018291647
58	0xbda8ad7a	-0.08236213
59	0x3d873a59	0.06602926
60	0xbbe2a281	-0.0069163446
61	0xbd8a66a3	-0.06757858
62	0xbcc5c146	-0.024140012
63	0xbc227240	-0.009914935
64	0xbd204fef	-0.03913873
65	0xbd974292	-0.07385744
66	0xbde4cbb3	-0.11171665
67	0xbbc9756e	-0.006148032
68	0xbdcac5e1	-0.09901024
69	0xbd0fb3c0	-0.035083532
70	0xbd792bbc	-0.060832724
71	0x3db68d93	0.08913722
72	0xbdb0ba42	-0.08629276
73	0xbd8a1367	-0.06741982
74	0xbdd7d56a	-0.105387524
75	0x3d961f1e	0.07330154
76	0x3cd62e00	0.026144981
77	0x3dc4d2f2	0.09610547
78	0xbc997f11	-0.018737348
79	0x3cbb007f	0.022827385
80	0x3d2b8109	0.041871104
81	0xbcfa69d4	-0.03056804
82	0xbd2a8b33	-0.041636657
83	0xbc3fce7c	-0.011706945
84	0x3c8b9aa5	0.017041514
85	0x3de47d1c	0.11156675
86	0xbdb85f72	-0.0900258
87	0xbc3a4d94	-0.011371035
88	0xbd338a13	-0.04383285
89	0x3de65f8f	0.11248695
90	0x3dc5f97f	0.09666728
91	0xbdd7113f	-0.10501336
92	0x3cc2d044	0.02378095
93	0x3deab394	0.11460033
94	0x3d823792	0.063582554
95	0xbd2b2ba1	-0.041789655
96	0x3ce18d85	0.027533302
97	0x3d9f07fc	0.07765195
98	0xbddf5e91	-0.10906709
99	0x3b1b1438	0.0023663174
100	0xbd57b609	-0.052663837
101	0xbb1438d8	-0.002261689
102	0x3d91fdbf	0.07128476
103	0xbd8d83d4	-0.0690991
104	0xbc44ab4f	-0.012003734
105	0xbde12599	-0.10993499
106	0xbd49e57e	-0.049291126
107	0xbb9a1457	-0.0047021317
108	0xbc02973c	-0.007970627
109	0xbce76243	-0.028245097
110	0x3da589ab	0.08082899
111	0x3d9153d6	0.070960686
112	0xbc1a523b	-0.009419019
113	0x3c1d7640	0.0096107125
114	0xbd206c7f	-0.03916597
115	0xbce4c81d	-0.027927453
116	0x3d7614d6	0.060078464
117	0xbcaecef8	-0.021338925
118	0x3d2d3a55	0.042291958
119	0xbdc05c4c	-0.09392604
120	0xbd014a95	-0.031565268
121	0x3d6abf4e	0.05731135
122	0xbcbb92db	-0.022897175
123	0x3cbeb765	0.023280809
124	0x3d9b45a8	0.07581645
125	0x3dd2734f	0.102758996
126	0x3d6c9f2c	0.057768986
127	0xbdb454fa	-0.088052705
128	0xbdbd7a20	-0.09251809
129	0xbd742d4f	-0.059613522
130	0x3c6545e4	0.013993714
131	0x3d91c4e0	0.07117629
132	0x3dc65e7f	0.096859924
133	0xbb865619	-0.004099619
134	0x3d813794	0.06309429
135	0xbdbf2c2d	-0.09334598
136	0x3d67b202	0.056566246
137	0xbd744f93	-0.0596462
138	0xbdad6eb1	-0.08468378
139	0xbd9b35ee	-0.07578646
140	0x3cc513cf	0.024057297
141	0x3d4ebbad	0.05047195
142	0xbcc50f91	-0.024055274
143	0x3d268015	0.040649492
144	0xbd0f3beb	-0.03496925
145	0x3d1f192d	0.03884237
146	0xbd0d3df2	-0.034482904
147	0xbdec5f88	-0.11541659
148	0xbd869165	-0.065707006
149	0x3d474356	0.0486482
150	0x3dcf054a	0.10108431
151	0x3da92b2a	0.08260186
152	0x3de17231	0.110081084
153	0xbdadb2d3	-0.08481374
154	0x3d96f638	0.07371181
155	0x3cdc2785	0.026874313
156	0xbdcf414c	-0.10119876
157	0x395ebde2	0.00021242307
158	0xbc0b4f90	-0.008502856
159	0x3c7445f6	0.014909258
160	0x3d3664cc	0.04452972
161	0x3db3ea90	0.087849736
162	0xbd54397b	-0.05181263
163	0x3de6e409	0.11273963
164	0xbde2dc6f	-0.110772006
165	0xbd4851ff	-0.048906323
166	0xbddf2ed2	-0.10897602
167	0x3dda0243	0.10644963
168	0xba724f70	-0.00092434045
169	0xbd393503	-0.04521657
170	0x3ddbd95a	0.10734816
171	0xbdb07dea	-0.08617766
172	0xbdd176cc	-0.10227737
173	0x3d728acd	0.059214402
174	0xbdd5c9e4	-0.10438898
175	0x3dde0ff7	0.10842889
176	0x3d41b66b	0.047293108
177	0xbc10a6ab	-0.008828799
178	0x3d89a373	0.067206286
179	0xbddb5110	-0.10708821
180	0xbd860e41	-0.065456875
181	0xbdd12448	-0.10211998
182	0x3cb3f309	0.021966474
183	0xbd3fd974	-0.04683824
184	0x3d9f0c91	0.07766069
185	0xbd99a8b5	-0.075028814
186	0xbd824d36	-0.06362383
187	0x3d8caf66	0.06869392
188	0xbdd996ae	-0.10624443
189	0xbc5ae236	-0.013359597
190	0x3d9a678d	0.07539282
191	0xbd8a24c4	-0.06745294
192	0x3d882fa6	0.06649713
193	0xbd064fad	-0.03279083
194	0xbcdcea49	-0.026967185
195	0x3cd088c0	0.025455832
196	0x3d113db4	0.035459235
197	0xbc88248f	-0.016618995
198	0xbd66bda1	-0.056333188
199	0xbd21dceb	-0.039517324
200	0xbcf51765	-0.029918382
201	0xba59826e	-0.00082973286
202	0x3da98f3c	0.08279273
203	0x3dc16eba	0.094449475
204	0x3cc60f21	0.024177136
205	0xbca796fc	-0.020457737
206	0xbdcc9124	-0.09988621
207	0x3d981332	0.07425536
208	0xbde6e70a	-0.11274536
209	0xbdb807ce	-0.089858636
210	0x3d6d3d7b	0.05791996
211	0x3c9c2c08	0.019063964
212	0x3c4bbbdc	0.012434926
213	0xbc8b4e00	-0.017004967
214	0xbdaf47b5	-0.08558599
215	0xbd51718d	-0.05113368
216	0xbdcc7cd7	-0.09984749
217	0x3d977202	0.07394792
218	0x3d682521	0.056676034
219	0xbc93c62f	-0.018038837
220	0xbd33a3d7	-0.04385742
221	0xbd22223b	-0.039583426
222	0xbdc8623a	-0.0978436
223	0x3dd7b938	0.105333745
224	0x3dd658b0	0.104661345
225	0x3dd15da8	0.10222942
226	0x3c3a3d1f	0.0113671115
227	0xbda04084	-0.078248054
228	0x3ce48b4a	0.02789845
229	0xbda6227c	-0.08112046
230	0x3d133a94	0.035944536
231	0xbbb06c9c	-0.005384041
232	0xbd83ae66	-0.06429748
233	0x3d3d1050	0.046158135
234	0x3c9949ce	0.01871195
235	0xbceca13c	-0.028885476
236	0x3de31f49	0.110899515
237	0xbd2a360a	-0.041555442
238	0xbde23934	-0.11046067
239	0x3d0aef72	0.03391976
240	0xbda0eed9	-0.078580566
241	0x3d980203	0.07422259
242	0x3dd5973c	0.10429236
243	0x3cd6204a	0.026138443
244	0xbd85c88e	-0.065323934
245	0xbddf8290	-0.10913575
246	0x3de9ea13	0.11421599
247	0x3dcdca7b	0.10048386
248	0x3cfec1ce	0.031098273
249	0xbd4d17df	-0.050071593
250	0xbce5f619	-0.02807145
251	0x3cd0120c	0.02539923
252	0xbdb166cc	-0.08662185
253	0x3dc82424	0.09772518
254	0x3db99518	0.090616405
255	0xbd927f6b	-0.07153209

conv1.bias f4 [6]
0	0x3dca4af2	0.09877576
1	0x3b2c7583	0.002631516
2	0x3cc813c6	0.024423491
3	0x3d03dbb1	0.032191936
4	0xbdc62ca2	-0.09676482
5	0x3cec4354	0.028840698

conv2.weight f4 [16, 6, 5, 5]
0	0xbc32f208	-0.010921963
1	0x3d50ea68	0.051004797
2	0xbd689352	-0.05678112
3	0xbd9f3fe4	-0.07775858
4	0xbd719b21	-0.058985833
5	0x3d6b588f	0.057457503
6	0x3d0ff679	0.035147164
7	0xbd6d2ad2	-0.057902165
8	0x3d63a75d	0.055579532
9	0x3b3700c7	0.0027924047
10	0xbd4f0c88	-0.05054906
11	0x3bcfc039	0.0063400534
12	0xbd1b4d43	-0.03791548
13	0x3d5a9090	0.05336052
14	0xbd94df2e	-0.07269131
15	0x3c06bae6	0.008223271
16	0x3d40a277	0.04702994
17	0xbd8bb028	-0.068207085
18	0xbd12aeb8	-0.035811156
19	0x3b06f418	0.0020592269
20	0x3da42287	0.08014398
21	0xbd8dea07	-0.06929403
22	0x3d5bc391	0.053653304
23	0x3d861014	0.065460354
24	0x3cc798ba	0.024364818
25	0xbb2738c1	-0.0025516006
26	0x3d5c4432	0.053775974
27	0xbd0e2f66	-0.03471317
28	0xbcc280d7	-0.023743076
29	0x3d554cce	0.0520752
30	0xbd46b0c5	-0.048508424
31	0xbd5a1cc1	-0.053250078
32	0x3d346311	0.04403979
33	0xbc5fe44e	-0.013665272
34	0xbce020bf	-0.027359365
35	0xbd40c542	-0.04706312
36	0x3c983333	0.018579101
37	0xbd82c7b7	-0.06385749
38	0x3ce099c1	0.027417066
39	0xbd918edd	-0.07107327
40	0xbd02273d	-0.0317757
41	0xbd5f99ef	-0.054590162
42	0xbd138036	-0.036010943
43	0xbc8bd665	-0.017070005
44	0x3d616c3f	0.055034872
45	0xbbd6c916	-0.006554733
46	0xbd6834d5	-0.05669101
47	0x3d8b0fdc	0.06790134
48	0x3d1a98b9	0.037743304
49	0x3da55ea9	0.080746956
50	0x3d5b81dc	0.05359064
51	0xbd160c2d	-0.036632705
52	0xbbeac4c4	-0.0071645696
53	0xbd957436	-0.07297556
54	0xbd933eb3	-0.07189693
55	0xb9e38985	-0.00043399274
56	0xbb31bd66	-0.0027120947
57	0x3c61f38f	0.013790979
58	0x3d5faef3	0.054610204
59	0xbd933c2b	-0.071892105
60	0xbcdb686f	-0.026783196
61	0x3d8c9c30	0.06865728
62	0x3da14da3	0.07876136
63	0x3cb5aec0	0.022178054
64	0xbc95ed38	-0.018301591
65	0xbd8fc26d	-0.07019506
66	0x3ba13169	0.00491922
67	0xbd954db9	-0.07290215
68	0xbd2d84ac	-0.042362854
69	0x3cc18aa0	0.023625672
70	0xbd07321b	-0.03300677
71	0x3b45a18f	0.003015611
72	0x3da211f8	0.079135835
73	0xbb8b8c2d	-0.0042586536
74	0xbd8b150b	-0.06791123
75	0x3cff7a5c	0.031186275
76	0xbbcc5597	-0.006235789
77	0x3d62f91d	0.055413354
78	0x3d7fd395	0.06245764
79	0xbd8020d0	-0.062562585
80	0xbd3d7208	-0.046251327
81	0x3d699cf8	0.057034463
82	0xbd8f98e3	-0.07011583
83	0x3ceca23b	0.028885951
84	0xbce22d9d	-0.02760964
85	0xbd5a0079	-0.053223107
86	0x3b092a17	0.0020929629
87	0x3c42248f	0.011849537
88	0x3d80849d	0.06275294
89	0xbda6dac9	-0.08147199
90	0xbd3bef57	-0.04588255
91	0x3d8e1f25	0.06939534
92	0x3d31725a	0.043321945
93	0xbd621709	-0.05519775
94	0xbd633442	-0.05546976
95	0x3d149348	0.03627327
96	0xbc8af2c7	-0.016961468
97	0xbd4ca557	-0.049962368
98	0x3ca641d3	0.02029506
99	0x3d313f81	0.043273453
100	0xbcd46510	-0.025927097
101	0xbc09f441	-0.008420051
102	0x3d40a150	0.04702884
103	0x3d470e13	0.048597407
104	0xbd7bbb2b	-0.061457794
105	0x3cd202bb	0.025636068
106	0xbd28cecc	-0.041212842
107	0xbcff2428	-0.03114517
108	0xbb8c673e	-0.0042847684
109	0xbd6694c7	-0.05629423
110	0xbd9ce149	-0.07660157
111	0x3d0b9c5a	0.034084655
112	0xbd9aff30	-0.075682044
113	0xbd95529b	-0.07291146
114	0x3d942e78	0.07235426
115	0x3d3179b5	0.04332896
116	0xbd9c8755	-0.07643
117	0x3d081923	0.033227097
118	0x3aec3664	0.0018021581
119	0xbd238743	-0.039923918
120	0x3c82bec5	0.015960107
121	0xbd19fbe8	-0.037593752
122	0xbd7d286e	-0.061806135
123	0x3c2d9e3d	0.010596809
124	0xbc70f3ca	-0.014706561
125	0xbd4eeac2	-0.05051685
126	0xbda4897d	-0.08034036
127	0x3cd4c51a	0.025972892
128	0xbd499f07	-0.049223926
129	0xbd4e11c9	-0.05030993
130	0x3d99b069	0.07504351
131	0x3d39c024	0.045349255
132	0x3ce51eb0	0.027968735
133	0xbbe6a076	-0.0070381714
134	0xbc531c47	-0.01288516
135	0x3d9cec1e	0.07662223
136	0xbd6efdf3	-0.058347654
137	0x3c18400a	0.009292612
138	0xbd85a06c	-0.06524739
139	0x3d36c42f	0.04462069
140	0xbd3c9462	-0.046039946
141	0xbd9b2c38	-0.075767934
142	0x3d9f5e04	0.07781604
143	0x3d986036	0.07440226
144	0xbb6bfedf	-0.003601007
145	0xbd0967eb	-0.03354637
146	0xbd4e1df9	-0.050321553
147	0x3d00b7cb	0.03142528
148	0x3cdde54d	0.027086878
149	0x3d4a51c5	0.049394388
150	0xbc87e810	-0.016590148
151	0xbd86e505	-0.06586651
152	0xbd4c3486	-0.049854778
153	0xbd92b734	-0.071638495
154	0xbda04855	-0.07826296
155	0x3d68f519	0.05687437
156	0xbd8512e3	-0.06497743
157	0xbd9346a9	-0.07191212
158	0x3d452693	0.04813249
159	0xbd98cae8	-0.07460576
160	0xbb0d4c45	-0.0021560353
161	0xbd40f228	-0.04710594
162	0xbda085c0	-0.07838011
163	0x3da03b00	0.07823753
164	0x3b27ae01	0.0025585892
165	0xbd58d76c	-0.052939817
166	0x3d98c227	0.074589066
167	0x3d41f2dd	0.047350753
168	0xbd9b7b49	-0.07591874
169	0x3d81cc85	0.06337837
170	0xbcebb85e	-0.028774437
171	0x3c56405d	0.013076869
172	0x3cf61f54	0.030044235
173	0x3d29ee25	0.041486878
174	0xbcdc01d0	-0.026856333
175	0x3d3194c9	0.043354783
176	0x3d88a077	0.06671231
177	0x3d85e529	0.065378495
178	0x3d05a486	0.032627605
179	0xbcbd4acf	-0.02310696
180	0x3d942113	0.07232871
181	0xbd9e2d9c	-0.07723543
182	0xbd5dd957	-0.05416235
183	0x3d30b0b8	0.043137282
184	0x3d840b1f	0.06447434
185	0xbd3d8789	-0.046271835
186	0x3d29594e	0.041344933
187	0xbcc7fa8b	-0.02441146
188	0xbd231f01	-0.03982449
189	0x3b94fa8f	0.0045464705
190	0x3d511e31	0.051054183
191	0xbd82fbb4	-0.06395665
192	0xbd834629	-0.06409866
193	0x3cf6f0e2	0.030144159
194	0x3cad2db4	0.021139957
195	0x3d6833b8	0.056689948
196	0xbd87cfe9	-0.066314526
197	0xbcc101c3	-0.02356041
198	0x3d5f3319	0.05449209
199	0xbd97f56d	-0.07419858
200	0xbbcab7f4	-0.0061864797
201	0xbd8cb4fd	-0.06870458
202	0x3d31719b	0.043321233
203	0xbd089caf	-0.03335255
204	0x3d82be6d	0.06383977
205	0xbd94bb8c	-0.07262334
206	0xbd837d36	-0.064203665
207	0xbd550cb3	-0.052014064
208	0x3d0b0ece	0.033949666
209	0x3da3cce9	0.07998068
210	0xbd14dd80	-0.03634405
211	0x3d173730	0.036917865
212	0xbcabe1fb	-0.02098178
213	0xba6a29e0	-0.00089326315
214	0x3c712d06	0.014720207
215	0x3cd25c23	0.0256787
216	0x3b2a7651	0.0026010463
217	0x3da4b99e	0.08043216
218	0xbd499cea	-0.04922191
219	0x3d5935a5	0.053029675
220	0x3cedf3b0	0.029046863
221	0xbd71d307	-0.059039142
222	0x3d270a66	0.0407814
223	0x3d990498	0.07471579
224	0xbda068a3	-0.07832458
225	0x3d470d25	0.04859652
226	0x3da59bdb	0.08086368
227	0x3ab426ab	0.0013744434
228	0xbd2762fd	-0.040865887
229	0xbd4c18be	-0.049828283
230	0xbd3c60fc	-0.04599093
231	0xbb82b227	-0.0039885226
232	0xbccc4362	-0.024934474
233	0xbceb957b	-0.028757801
234	0xbcb658af	-0.022259085
235	0x3d886bd2	0.0666119
236	0x3c5794d8	0.013158046
237	0xbc54e91c	-0.012995031
238	0xbd8e1092	-0.06936754
239	0xbcad5d34	-0.021162607
240	0x3d9d02c9	0.07666547
241	0x3cac9b1a	0.021070052
242	0x3d472deb	0.048627775
243	0x3b769260	0.0037623867
244	0xbd5a039e	-0.053226106
245	0xbd03e845	-0.03220393
246	0x3cd50508	0.026003376
247	0xbd76286c	-0.060097143
248	0x3d87abc3	0.06624558
249	0x3cbcc86a	0.023044784
250	0x3d5c7dad	0.05383079
251	0x3d252105	0.040314693
252	0xbd28b187	-0.04118493
253	0x3c888391	0.016664298
254	0xbd2ea275	-0.0426354
255	0xbd0c9419	-0.034320924

conv2.bias f4 [16]
0	0xbd881c4d	-0.06646023
1	0x3d5b23f1	0.053501073
2	0xbd46f341	-0.04857183
3	0x3ca584e3	0.020204967
4	0x3d438682	0.0477357
5	0xbd9f9f3d	-0.07794044
6	0xbd8d94de	-0.0691316
7	0x3d8ac0fe	0.067750916
8	0x3d0b2583	0.03397132
9	0x3af43a16	0.0018633034
10	0x3cf12298	0.02943544
11	0x3d6cb688	0.057791263
12	0xbcedc02b	-0.029022297
13	0xbb86d3ae	-0.0041145897
14	0xbc85deab	-0.016341528
15	0xbc2f352e	-0.010693831

fc1.weight f4 [120, 400]
0	0x3c5f0360	0.0136116445
1	0xbd409c8f	-0.047024306
2	0x3c2be6ad	0.010492009
3	0xbcd4a8a3	-0.025959319
4	0x3d091f7d	0.033477295
5	0x3c4f19b3	0.0126404045
6	0xbd3ea6db	-0.046545845
7	0xbd1e3c0b	-0.03863148
8	0x3c83f833	0.016109562
9	0x3ca32ed3	0.019919788
10	0xbd095125	-0.03352465
11	0xbba76e27	-0.0051095667
12	0xbd16d612	-0.036825247
13	0xbd33b182	-0.043870457
14	0x3d2d6c2d	0.042339493
15	0x3d04a148	0.032380372
16	0x3d1a9d6d	0.03774779
17	0x3c262c53	0.010142404
18	0x3b827b27	0.003981966
19	0x3d0afaf5	0.033930738
20	0x39dbd4cd	0.00041929484
21	0x3d0c86a8	0.034308106
22	0x3c0b9c33	0.0085211275
23	0x3c5a372d	0.013318819
24	0x3c22f307	0.009945638
25	0x3cfc13d0	0.030771166
26	0x3d139532	0.036030956
27	0xbcdb6b17	-0.026784463
28	0xbbc29273	-0.0059378683
29	0xbd23790b	-0.039910357
30	0xbd41e672	-0.04733891
31	0x3d4b32f0	0.049609125
32	0xbc9a4c33	-0.018835163
33	0xbd37a2fb	-0.044833165
34	0xbd3f48e7	-0.046700384
35	0x3c442e4d	0.01197393
36	0xbd28f070	-0.041244924
37	0x3d325be8	0.04354468
38	0x3c7baaed	0.015360576
39	0xbcf7f750	-0.030269295
40	0xbcc1a803	-0.023639685
41	0xbc9b0eba	-0.01892792
42	0xbd495112	-0.04914958
43	0x3d07ab67	0.033122446
44	0x3cd0accd	0.025473023
45	0xbc79358d	-0.015210521
46	0x3d2f64a0	0.042820573
47	0xbcb2f80a	-0.02184679
48	0xbc7ff15a	-0.015621508
49	0x3d2c9f38	0.04214403
50	0x3d30a76b	0.043128412
51	0x3d3d408d	0.04620414
52	0xbcde8e07	-0.027167333
53	0x3d2ce3ea	0.042209543
54	0x3c8c6d0a	0.017141838
55	0x3d42a6a2	0.047522195
56	0xba71599a	-0.0009206772
57	0xbd398de5	-0.045301337
58	0x3c89a950	0.016804367
59	0xbd0e95b3	-0.034810733
60	0x3ce59733	0.028026199
61	0xbd1c1ef7	-0.038115468
62	0xbcc49840	-0.02399838
63	0xbc8f3690	-0.017482072
64	0x3d3e7feb	0.04650871
65	0x3ca16347	0.01970066
66	0xbcc8b11d	-0.024498517
67	0x3cdcf8da	0.02697413
68	0xbc33b1a0	-0.010967642
69	0x3d101f33	0.035186004
70	0xbd201fa8	-0.03909269
71	0xbc25b800	-0.01011467
72	0xbccfac83	-0.025350815
73	0x3bf982b3	0.0076144575
74	0x3c964720	0.018344462
75	0xbceef86d	-0.029171193
76	0x3c3dd653	0.011586743
77	0xbd39328f	-0.045214232
78	0xbd4b2c8b	-0.049603026
79	0xbd40c3ff	-0.047061916
80	0xbd466310	-0.048434317
81	0xbc11ac67	-0.008891202
82	0x3d29f6a8	0.041494995
83	0x3cf57d53	0.029966986
84	0x3bdd4767	0.0067528966
85	0x3cedcc23	0.029028004
86	0xbca640dd	-0.020294601
87	0x3d3f62e2	0.04672516
88	0xbc875e0a	-0.016524334
89	0x3cbf75a0	0.023371518
90	0x3b87d8c0	0.0041457117
91	0xbd312a2b	-0.043253105
92	0x3adfb967	0.0017068804
93	0x3c181280	0.0092817545
94	0x3d08fe73	0.033445787
95	0xbd31729b	-0.043322187
96	0x3c20adfa	0.009807104
97	0xbd2375bf	-0.039907213
98	0xbd45c788	-0.04828599
99	0xbcb51617	-0.02210526
100	0x3d425dfb	0.047452908
101	0x3cb81733	0.022472
102	0xbc46023a	-0.012085492
103	0x3c458533	0.012055683
104	0x3d0ddc52	0.034633942
105	0x3cf1ad73	0.029501652
106	0x3d046a40	0.03232789
107	0xbcb29cd7	-0.021803303
108	0xbbd2ef67	-0.0064372304
109	0x3d4b29b5	0.04960032
110	0xbc05a553	-0.008157092
111	0xbd2ca253	-0.042146992
112	0xbc97e04d	-0.018539572
113	0xbd00b0b3	-0.031418514
114	0xbd4a2bb2	-0.049358077
115	0xbd368b5d	-0.0445665
116	0x3a1ac133	0.0005903423
117	0xbc696bba	-0.014246875
118	0xbd37dd1f	-0.044888612
119	0x3d4a9f10	0.0494681
120	0x3d31fe8d	0.04345565
121	0xbc66a50d	-0.014077437
122	0x3d09ded5	0.033659775
123	0x3d31e6a3	0.043432843
124	0xbd31cbc7	-0.043407228
125	0x3bead267	0.007166195
126	0x3d1ff8fa	0.039055802
127	0xbd22f58d	-0.039784957
128	0xbd2cec75	-0.04221769
129	0xbb99d6da	-0.0046948018
130	0xbca57033	-0.020195102
131	0x3cca7803	0.02471543
132	0xbbe20ea7	-0.0068987194
133	0xbbdd8e27	-0.0067613306
134	0x3cb6525a	0.022256065
135	0xbccf51a3	-0.025307482
136	0xbc1d211a	-0.009590412
137	0xbd45abb5	-0.048259456
138	0x3cd20840	0.0256387
139	0x3cd15e0d	0.025557542
140	0x3c69e17a	0.014274949
141	0xbd3a81ca	-0.045533933
142	0xbd0be578	-0.034154385
143	0xbc93588d	-0.01798656
144	0xbd09a345	-0.03360297
145	0xbcfaa897	-0.030597968
146	0x3caef2b3	0.021355962
147	0xbd0bce85	-0.0341325
148	0x3c497213	0.012295264
149	0x3d08dcb7	0.033413615
150	0xbceda0c0	-0.029007316
151	0x3d32b325	0.043627877
152	0xbd0643f3	-0.032779645
153	0x3d205b82	0.03914977
154	0xbadafecd	-0.0016708017
155	0xbd44f270	-0.04808277
156	0x3d271a9d	0.040796865
157	0xbd2fcfb2	-0.042922683
158	0xbc67fc9a	-0.014159346
159	0xbd1205ad	-0.035649944
160	0xbca011aa	-0.019539673
161	0x3b0e3100	0.0021696687
162	0xbcfcfc2d	-0.030881966
163	0x39e5d333	0.0004383564
164	0xb95e9e67	-0.0002123058
165	0xbcad2917	-0.021137757
166	0x3c1a2b8d	0.009409797
167	0x3cce02d3	0.025147831
168	0xbbf55073	-0.007486397
169	0xb9b21b33	-0.0003397107
170	0x3d0d4eb2	0.034498878
171	0xbcbd89a3	-0.02313692
172	0x3ca1736d	0.01970836
173	0x3cdf7e70	0.02728197
174	0x3d26b29d	0.040697683
175	0x3d36726a	0.044542708
176	0xbd12220a	-0.035676993
177	0xbc66681a	-0.014062906
178	0x3d1a45f7	0.03766438
179	0xbd0989fb	-0.033578854
180	0xbd218195	-0.03943022
181	0xbc7c6f00	-0.015407324
182	0x3cd551aa	0.026039917
183	0xbb1c4ccd	-0.0023849488
184	0x3ca0b537	0.01961766
185	0xbb41c680	-0.0029567778
186	0x3d23e480	0.040012836
187	0xbcdf2587	-0.027239574
188	0x3bc0219a	0.0058633806
189	0xbc131313	-0.008976716
190	0xbd287627	-0.041128304
191	0xbae6ba00	-0.001760304
192	0x3ce93cc0	0.02847135
193	0xbc737353	-0.014859038
194	0xbcef23e0	-0.029191911
195	0x3d13fabb	0.036127787
196	0xbcf26873	-0.02959082
197	0xbd3b1717	-0.045676317
198	0xbc24facd	-0.010069561
199	0xbd239d0b	-0.03994469
200	0x3b1008e7	0.0021977962
201	0xbb8a35b3	-0.004217827
202	0x3b661067	0.0035104991
203	0x3d2fab70	0.042888105
204	0x3d095a33	0.033533286
205	0x3bde630d	0.00678671
206	0x3cfd9530	0.030954927
207	0x3cafb9f7	0.02145098
208	0x3bba3b33	0.0056833266
209	0xbb8a2d27	-0.0042168084
210	0x3cbcf603	0.023066526
211	0xbb57a000	-0.0032901764
212	0xbc87b70a	-0.016566772
213	0xbcbb6c13	-0.022878682
214	0xbc7bb0fa	-0.015362019
215	0xbc751c5a	-0.014960373
216	0xbd056752	-0.032569237
217	0xbc6562c0	-0.014000595
218	0x3ca509e0	0.02014631
219	0x3d336b17	0.0438033
220	0xbc4d0aed	-0.012514812
221	0xbd3660c5	-0.04452588
222	0x3ce692ed	0.028146232
223	0x3d0cceaf	0.034376796
224	0xbd3b4d12	-0.045727797
225	0x3d494620	0.049139142
226	0x3d240c8a	0.04005102
227	0x3cd3bbed	0.025846446
228	0x3b46b300	0.0030319095
229	0x3d274137	0.040833678
230	0x3d12b08d	0.035812903
231	0xbd2359c3	-0.039880525
232	0xbc397327	-0.011318958
233	0xbc9bbd0d	-0.019011045
234	0x3bf014da	0.0073267044
235	0x3cc777b0	0.024349064
236	0xbc9b31f0	-0.01894471
237	0x3a48dd9a	0.0007662416
238	0xbcf27007	-0.029594434
239	0xbd2e792d	-0.04259603
240	0xbd48a365	-0.04898395
241	0x3d454ef2	0.04817099
242	0xbc1cf87a	-0.009580726
243	0xbd1cab0f	-0.03824907
244	0x3bb06df3	0.0053842007
245	0x3d2a204d	0.04153471
246	0x3cb509d3	0.022099411
247	0x3cc934fa	0.024561394
248	0xbcc8a847	-0.024494303
249	0x3cd4482a	0.025913317
250	0xbccdaa53	-0.025105631
251	0x3c8047b0	0.015659183
252	0x3d229683	0.03969432
253	0x3be7c10d	0.007072574
254	0x3d1bee38	0.03806898
255	0xbd4c749d	-0.0499159

fc1.bias f4 [120]
0	0xbd3acaab	-0.045603435
1	0x3cc0ed00	0.02355051
2	0x3d4babbb	0.04972432
3	0xbd22a3b3	-0.039706897
4	0xbc6fa92d	-0.014627737
5	0xbb8580da	-0.004074198
6	0x3b548b9a	0.0032431842
7	0xbcfa6257	-0.03056447
8	0xbcabb2ad	-0.020959223
9	0x39895667	0.0002619505
10	0x3ce5e373	0.028062558
11	0xbcf83050	-0.030296475
12	0xbd10a5c8	-0.03531435
13	0xbd1039bd	-0.035211314
14	0xbb8acada	-0.0042356076
15	0xbd3a737b	-0.045520287
16	0x3d3e696b	0.046487253
17	0xbd4c714f	-0.049912747
18	0x3c2897e7	0.010290123
19	0xbc0f0fa0	-0.008731753
20	0x3d43ab4b	0.04777078
21	0xbc8c09a3	-0.017094439
22	0xbbf818cd	-0.007571316
23	0xbd30f59b	-0.043202978
24	0xbbb9244d	-0.0056500793
25	0x3cf3c47a	0.029756773
26	0xbcd1eb6d	-0.025624955
27	0xbd491c47	-0.049099233
28	0xbbe1df33	-0.0068930625
29	0x3c6d0d87	0.014468557
30	0xbc920987	-0.017826809
31	0x3d133c68	0.03594628
32	0x3cd1ffc7	0.02563466
33	0xbc20bb93	-0.009810346
34	0x3ca443ca	0.020051856
35	0xbd47f693	-0.048819136
36	0x3c621013	0.013797778
37	0x3cc14920	0.023594439
38	0x3d31c6a3	0.043402325
39	0xbcdf1b97	-0.027234836
40	0xbb22ed00	-0.0024860501
41	0x3c11f7d3	0.008909184
42	0xb8f77333	-0.00011799335
43	0x3c01ce0d	0.0079226615
44	0xbd44c12f	-0.048035797
45	0x3d037305	0.032092113
46	0x3cdbbb8a	0.026822824
47	0xbc43673a	-0.011926467
48	0x3cd5f4b0	0.026117653
49	0xbcb6a147	-0.0222937
50	0x3d0ba99b	0.034097295
51	0xbd0ad055	-0.033890087
52	0xbcd44970	-0.025913924
53	0x3d25f37a	0.0405154
54	0x3ca79d57	0.020460768
55	0x3cb2062a	0.021731455
56	0xbd373f2b	-0.044737976
57	0xbcbcf813	-0.02306751
58	0x3d454e83	0.048170578
59	0x3ce2ea80	0.027699709
60	0x3c5cb0e0	0.013469905
61	0x3d0fe57a	0.035130955
62	0xbd3d2950	-0.046181977
63	0x3bb1d867	0.0054274085
64	0xbc7f10f3	-0.015568006
65	0xbce9392d	-0.028469646
66	0x3d2ba50f	0.04190546
67	0xbc72d687	-0.014821655
68	0xbcb80457	-0.022463007
69	0xbb8e2840	-0.0043382943
70	0xbc8efe50	-0.01745525
71	0x3d2dab4a	0.042399682
72	0xbd4794dd	-0.04872595
73	0xbcb80f8a	-0.022468347
74	0xbc98b187	-0.01863934
75	0xbbf4715a	-0.0074598016
76	0xbc821960	-0.01588124
77	0xbd3b1015	-0.045669634
78	0x3c0000a7	0.0078126555
79	0xbc80f19d	-0.01574021
80	0x3c250b0d	0.0100734355
81	0x3be10880	0.0068674684
82	0x3d39dc72	0.04537625
83	0x3b28dccd	0.0025766373
84	0xbc6ebd1a	-0.0145714525
85	0x3d26f247	0.040758397
86	0xbc4bec33	-0.012446451
87	0x3b331533	0.0027325868
88	0x3b9ea19a	0.0048410418
89	0xbd266e6d	-0.040632654
90	0xbd0b239f	-0.033969518
91	0xbc760a47	-0.015017099
92	0xbca5ccd3	-0.02023927
93	0x3c06e3ba	0.008233005
94	0xbd4be9d0	-0.049783528
95	0x3c87473d	0.016513461
96	0x3d32ca88	0.04365018
97	0xba0c419a	-0.00053503516
98	0xbce81d6d	-0.028334344
99	0x3d187883	0.037224304
100	0xbd483948	-0.048882753
101	0xbcde86a7	-0.027163817
102	0x3d0c3dbd	0.034238566
103	0xbd1c1fa3	-0.03811611
104	0xbd458188	-0.048219234
105	0xbc0f4c80	-0.008746266
106	0xbc6df7cd	-0.014524412
107	0x3c3951ba	0.011310989
108	0xbd220cfa	-0.039563157
109	0x3d132f6f	0.035933908
110	0x3ce3bd4a	0.027800221
111	0xbd02de48	-0.031950265
112	0x3c702f9a	0.014659787
113	0xbd05ba78	-0.032648534
114	0xbbc18ba7	-0.0059065404
115	0xbce226d0	-0.027606398
116	0x3b00139a	0.0019542933
117	0xbc52994d	-0.012853933
118	0xbcc37a73	-0.0238621
119	0xbaa0e0cd	-0.0012274027

fc2.weight f4 [84, 120]
0	0xbc8393a9	-0.01606162
1	0xbd9d6daa	-0.076869324
2	0x3bdd0e54	0.006746093
3	0x3d4b8601	0.049688343
4	0x3d042d3a	0.032269694
5	0xbc98765e	-0.01861113
6	0x3c9c4a4a	0.019078393
7	0x3d527cc9	0.051388536
8	0x3d25de42	0.040495165
9	0xbd8e503d	-0.06948898
10	0x3d214f62	0.039382346
11	0x3c3ecb57	0.01164516
12	0x3d911772	0.0708455
13	0xbdb36734	-0.08759919
14	0xbd58cf3c	-0.05293201
15	0x3da67941	0.08128596
16	0xbd9a4d0e	-0.07534228
17	0x3da15704	0.07877925
18	0x39c0549b	0.0003668413
19	0xbc2536b9	-0.010083848
20	0xbdba9e71	-0.091122515
21	0x3c867bfe	0.016416546
22	0x3d6ded25	0.058087487
23	0xbd9820ec	-0.07428154
24	0x3d8ffe68	0.07030946
25	0x3d9c9265	0.0764511
26	0x3ca171cc	0.019707583
27	0xbd0b9577	-0.034078088
28	0x3db013c6	0.085975215
29	0xbd58b33f	-0.052905317
30	0x3d8b0350	0.06787741
31	0x3b5ea4bd	0.0033972703
32	0x3d128696	0.035772882
33	0x3d904a3a	0.070454076
34	0x3d4196df	0.047263023
35	0x3d8d88db	0.06910869
36	0x3aed6864	0.0018112776
37	0xbd851858	-0.06498784
38	0x3d2bec99	0.041973684
39	0x3da23a85	0.07921318
40	0x3d9f80ec	0.07788262
41	0xbd178922	-0.036996014
42	0xbd29df06	-0.041472457
43	0x3cb82fa7	0.02248366
44	0xbbee1c0b	-0.0072665266
45	0xbcc52eb4	-0.024070121
46	0x3d01e59e	0.03171312
47	0x3cd2ac8d	0.025717044
48	0xbdba22f0	-0.09088695
49	0xbb9b8550	-0.0047461167
50	0xbd17369f	-0.036917325
51	0x3d9ea91e	0.077471
52	0x3d350633	0.044195365
53	0xbdaab196	-0.08334653
54	0x3d6b020d	0.057375003
55	0x3bd9c7c4	0.0066461284
56	0xbd82b537	-0.0638222
57	0xbbf87015	-0.0075817206
58	0x3db87d38	0.090082586
59	0xbdad1d1f	-0.0845282
60	0x3d9bd265	0.07608489
61	0x3ccae257	0.02476613
62	0x3d91fdd0	0.07128489
63	0x3a844be0	0.0010093413
64	0xbd0f837e	-0.03503751
65	0xbd8be999	-0.068316646
66	0xbc9dc91f	-0.019260941
67	0x3ccc07ce	0.024906065
68	0x3b67d821	0.0035376626
69	0x3d82c9d6	0.063861534
70	0x3d9d0602	0.076671615
71	0xbd681891	-0.056664053
72	0x3d9476f4	0.07249251
73	0xbd8e9f3b	-0.069639646
74	0x3bbc48c5	0.0057459795
75	0x3cc9160c	0.024546646
76	0xbcd70831	-0.026249023
77	0xbc7372fa	-0.0148589555
78	0xbc11f06e	-0.008907421
79	0xbd214fbc	-0.03938268
80	0xbd65b734	-0.05608292
81	0xbd621a25	-0.055200715
82	0xbcb101d1	-0.021607311
83	0x3d55f9f9	0.052240346
84	0xbbcbcdad	-0.006219587
85	0xbd8dda60	-0.06926417
86	0x3d9808e4	0.07423571
87	0x3dba68e4	0.091020375
88	0x3d3e8aaa	0.04651896
89	0x3dafd6f6	0.085859224
90	0xbd141c21	-0.03615964
91	0x3db2e4f1	0.08735073
92	0xbd458e22	-0.04823125
93	0x3b1af72e	0.0023645866
94	0x3d3c5bc8	0.045985967
95	0x3ca467b5	0.020068983
96	0x3d5402b5	0.051760394
97	0x3d2cda44	0.04220034
98	0x3dacd23a	0.08438535
99	0xbd0e0eff	-0.03468227
100	0x3c1bfe7f	0.009521126
101	0xbd3474f0	-0.044056833
102	0x3d35a14c	0.044343278
103	0xbdb31a18	-0.08745211
104	0x3c46541a	0.012105012
105	0xbd8a9f8b	-0.06768712
106	0x3d4404cd	0.04785614
107	0x3caecfb2	0.021339271
108	0x3d204444	0.039127603
109	0x3daf480a	0.08558662
110	0xbd629651	-0.055319134
111	0x3bec8a90	0.0072186664
112	0xbc2d7430	-0.010586783
113	0xbd9f0543	-0.077646755
114	0x3d9f6fa8	0.077849686
115	0x3dac90e3	0.084260724
116	0x3d1ca57c	0.038243756
117	0xbc9411c7	-0.018074883
118	0x3d227afc	0.03966807
119	0xbca62738	-0.020282373
120	0xbd4efbe9	-0.05053321
121	0x3cc6554f	0.0242106
122	0x3c424226	0.011856591
123	0xbd0903a9	-0.033450756
124	0x3d5d96a2	0.054098733
125	0xbd9ef774	-0.07762042
126	0xbd0966be	-0.03354525
127	0xbc9e249e	-0.01930457
128	0x3bc430b2	0.0059872502
129	0x3dae4029	0.08508331
130	0xbd9613b9	-0.073279805
131	0xbd42751f	-0.047474977
132	0x3d1a2aca	0.037638463
133	0xbd0be20b	-0.03415112
134	0x3d9496e0	0.072553396
135	0x3dadf4c8	0.08493954
136	0xbd62b021	-0.05534375
137	0x3c808ab1	0.015691133
138	0xbd9ecbf6	-0.07753746
139	0x3cc18b76	0.02362607
140	0x3cd46cf4	0.02593086
141	0x3d35cf3a	0.04438708
142	0xbd87034d	-0.065924264
143	0xbc5a220c	-0.0133137815
144	0x3db63ac4	0.088979274
145	0x3d2584b8	0.040409774
146	0xbc90ac39	-0.017660247
147	0x3d8e7deb	0.06957611
148	0x3d48df55	0.04904111
149	0xbd185b6a	-0.037196554
150	0xbdb1c65c	-0.08680412
151	0xbd02bd1c	-0.03191863
152	0x3d981226	0.074253365
153	0x3cffbe6b	0.031218728
154	0xbd28ad91	-0.04118115
155	0x3c3648de	0.011125771
156	0x3dbaa253	0.09112992
157	0x3dad4446	0.08460288
158	0x3bdafcf4	0.0066829864
159	0x3d6e61b8	0.05819866
160	0x3d7d556e	0.06184905
161	0x3d9baee5	0.07601718
162	0x3cba769d	0.022761637
163	0x3d83e629	0.06440384
164	0xbd771831	-0.060325805
165	0x3d114cdb	0.035473686
166	0x3d9f8948	0.07789856
167	0xbd653c20	-0.055965543
168	0xbcc68ab1	-0.024236055
169	0xbd6f22a7	-0.058382656
170	0x3d61e2f0	0.055148065
171	0x3d919667	0.07108765
172	0xbd550691	-0.052008215
173	0x3cc2e3af	0.023790209
174	0xbd53a07e	-0.05166673
175	0x3c1ebbf2	0.009688364
176	0xbd71c203	-0.059022915
177	0xbc5d1700	-0.013494253
178	0x3c45f232	0.01208167
179	0x3d47d3ff	0.04878616
180	0x3dab3fb5	0.083617605
181	0x3d2a2187	0.04153588
182	0xbdacb5d0	-0.084331155
183	0x3d838539	0.064218946
184	0xbdb24180	-0.087038994
185	0x3d978a1e	0.07399391
186	0x3c8653c2	0.01639736
187	0x3d59cf9b	0.053176504
188	0xbd60341c	-0.054737195
189	0xbd9f28bb	-0.077714406
190	0x3cea5a0f	0.028607396
191	0xbd943ca6	-0.0723813
192	0x3d921328	0.0713256
193	0x3d9ab430	0.07553899
194	0xbd8273d9	-0.063697524
195	0x3c8830cd	0.016624833
196	0x3d43ad44	0.04777266
197	0x3d402468	0.04690972
198	0x3d857680	0.06516743
199	0x3d7d263c	0.06180404
200	0xbd9bc7e8	-0.076064885
201	0x3c6a1cda	0.014289105
202	0x3b889acf	0.0041688452
203	0xbd893246	-0.06699042
204	0xbc105624	-0.0088096
205	0xbdab374b	-0.08360156
206	0x3d27e08f	0.04098564
207	0xbd415ecf	-0.047209557
208	0x3d9a0038	0.07519573
209	0x3d65c6c7	0.056097772
210	0x3d10dfaa	0.035369553
211	0xbda46fcc	-0.08029136
212	0x3d8ccbdf	0.06874823
213	0x3d8d8b15	0.069112934
214	0x3cbca3ec	0.023027383
215	0xbd3f1a1f	-0.04665577
216	0x3d1b2f2f	0.037886795
217	0xbc9a6885	-0.018848667
218	0x3cf4c823	0.029880589
219	0x3b89dff9	0.004207608
220	0x3d2a3a84	0.04155971
221	0x3d892adc	0.06697628
222	0xbb440d47	-0.002991514
223	0xbda4c053	-0.080444954
224	0x3da96383	0.082709335
225	0xbd5095a7	-0.05092397
226	0xbc914f0e	-0.017737892
227	0xbcf7cdef	-0.030249564
228	0xbd826d2b	-0.063684784
229	0x3d761e1f	0.06008732
230	0x3cb867ef	0.022510497
231	0x3d483e3b	0.048887473
232	0xbd7927ef	-0.0608291
233	0xbdb29589	-0.08719928
234	0x3cd5c0ff	0.026093004
235	0xbd9712ef	-0.07376658
236	0x3c85fc02	0.016355518
237	0xbce75467	-0.028238488
238	0x3d464382	0.048404224
239	0xbbc3c7fe	-0.0059747687
240	0xbd386520	-0.045018315
241	0x3c84e45f	0.016222177
242	0xbcc4c2bc	-0.024018638
243	0xbd93b72d	-0.072126724
244	0x3d43672e	0.04770582
245	0xbcee223a	-0.029069055
246	0xbda11a4f	-0.07866346
247	0x3c8a0cbf	0.016851781
248	0xbc9df459	-0.019281553
249	0x3db429b5	0.087970175
250	0xbd993eac	-0.07482657
251	0x3d71eb46	0.059062265
252	0x3d747c3c	0.05968879
253	0xbd8bb4b1	-0.068215735
254	0xbb6159ca	-0.0034385794
255	0xbdb3741a	-0.08762379

fc2.bias f4 [84]
0	0x3cf18803	0.0294838
1	0x3ccd4a87	0.025059951
2	0x3d73d0d4	0.059525326
3	0x3d8f8b4b	0.0700899
4	0xbb56a930	-0.0032754652
5	0x3d6c9c20	0.05776608
6	0x3c3d6a78	0.011561029
7	0xbd14ddd7	-0.036344375
8	0x3ccdbe88	0.025115266
9	0x3b88cabb	0.004174558
10	0xbd3345fb	-0.04376791
11	0xbc82c716	-0.015964072
12	0xbd4a5ce9	-0.049405012
13	0xbd8433ca	-0.064551905
14	0xbb6c4c1f	-0.0036056114
15	0x3d4edc1c	0.05050288
16	0x3d66808f	0.056274947
17	0xbc448b58	-0.011996113
18	0x3d390ac4	0.045176283
19	0x3d8f337b	0.06992241
20	0xbd8399c6	-0.06425814
21	0xbd947c2f	-0.07250249
22	0x3c3c338c	0.011486899
23	0x3b0adca7	0.0021188648
24	0xbc3af8f9	-0.011411899
25	0xbcfa8954	-0.030583061
26	0xbd6aeaec	-0.057352945
27	0xbd5092ed	-0.05092137
28	0xbd9949ae	-0.074847564
29	0xbd7056d6	-0.058676563
30	0x3cacba7c	0.021085016
31	0x3db7bd9f	0.08971714
32	0xbcd1223c	-0.02552902
33	0xbd902bb8	-0.07039589
34	0x3d64628d	0.055758048
35	0x3d207f57	0.03918394
36	0x3d41c034	0.04730244
37	0xbce962c3	-0.028489476
38	0x3d0089a7	0.031381276
39	0x3d9c12b2	0.07620753
40	0xbda72520	-0.08161378
41	0x3a222611	0.0006185482
42	0xbd323c47	-0.043514516
43	0xbd549d87	-0.051908042
44	0x3d29a00f	0.04141241
45	0x3cc8aab1	0.024495455
46	0x3c78ed9a	0.015193367
47	0xbc9052ec	-0.017617665
48	0x3ca37130	0.019951433
49	0xbd7ea2db	-0.06216703
50	0x3c0eb84a	0.00871093
51	0x3c4a6b64	0.0123547055
52	0x3d8c5a10	0.068531156
53	0x3d09ce52	0.033644028
54	0x3a2990d6	0.00064684206
55	0x3a1b9db0	0.0005936278
56	0xbc9ded00	-0.01927805
57	0x3c1178b5	0.008878876
58	0x3c6121ec	0.013740998
59	0x3d297164	0.041367903
60	0xbb79c9e1	-0.0038114714
61	0x3d0bc83e	0.034126513
62	0x3d86398d	0.06553946
63	0xbd8ec10d	-0.06970415
64	0x3d3ad8eb	0.045617025
65	0x3addac70	0.0016912352
66	0x3d3435b9	0.043996546
67	0xbd53bcc8	-0.051693708
68	0xbd35b697	-0.044363584
69	0x3d9e43b1	0.07727755
70	0xbca9ca48	-0.020726338
71	0xbda43202	-0.08017351
72	0xbcd9e933	-0.026600456
73	0xbce68add	-0.028142387
74	0x3b752a40	0.0037409216
75	0xbda7a64c	-0.081860155
76	0x3d9d9a87	0.076954894
77	0xbd3a15ab	-0.04543082
78	0xbdb2de86	-0.08733849
79	0x3d982689	0.07429225
80	0xbc7d5aee	-0.015463574
81	0x3d6cb650	0.057791054
82	0xbaf23a97	-0.0018480596
83	0xbb89f122	-0.0042096535

fc3.weight f4 [10, 84]
0	0x3c4d668c	0.012536656
1	0xbc48517a	-0.012226457
2	0x3dd6c066	0.10485916
3	0xbda76700	-0.081739426
4	0xbd436a46	-0.047708772
5	0xbd8ef4a6	-0.06980257
6	0xbd728c78	-0.059215993
7	0xbc9b2867	-0.018940164
8	0xbda5bb59	-0.08092374
9	0xbdc8cd27	-0.09804755
10	0xba1b7078	-0.000592954
11	0x3cee6680	0.02910161
12	0xbbc13529	-0.0058962298
13	0x3d60d6a0	0.054892182
14	0xbdba59fe	-0.09099196
15	0x3d0587bd	0.032600153
16	0x3dbba270	0.09161842
17	0x3d7de6d5	0.061987717
18	0xbd5dc5c0	-0.054143667
19	0x3dda498c	0.10658559
20	0x3db9ccb5	0.09072248
21	0x3db9a976	0.09065525
22	0xbbbbcb5e	-0.0057310304
23	0x3bafda22	0.0053665796
24	0xbdde72d8	-0.108617485
25	0xbddd97fe	-0.10820006
26	0x3dac28cf	0.08406221
27	0x3dcfcdb6	0.10146658
28	0xbd0ff4a7	-0.035145428
29	0x3dae8148	0.08520752
30	0xbcf335cb	-0.029688736
31	0xbd1db933	-0.038506698
32	0x3d7d5244	0.061846033
33	0x3d8a87b4	0.067641646
34	0x3d9b74c7	0.07590633
35	0xbd6d4d45	-0.057935018
36	0xbc60e523	-0.013726505
37	0x3dc562cf	0.09637987
38	0xbd3f601d	-0.04672252
39	0xbd669d84	-0.056302562
40	0x3dcecad8	0.10097283
41	0xbcbaab7b	-0.022786846
42	0x3ca30197	0.019898219
43	0x3d117235	0.035509307
44	0x3d009663	0.03139342
45	0x3d8d5302	0.06900598
46	0x3dc5a415	0.09650437
47	0xbd68f68e	-0.056875758
48	0xbd08bc67	-0.0333828
49	0xbd656f37	-0.056014266
50	0x3dd7cf33	0.10537567
51	0x3dc96dda	0.09835406
52	0x3da50d3d	0.080591656
53	0x3da7b488	0.081887305
54	0x3d7970cd	0.06089859
55	0xbc0ccd3b	-0.008593853
56	0xbdd8f3fe	-0.10593413
57	0xbd21f425	-0.039539475
58	0x3d8003ff	0.06250762
59	0xbc9ed483	-0.019388443
60	0xbbce7d8a	-0.0063015865
61	0x3dcc3b80	0.09972286
62	0x3dd40368	0.10352212
63	0x3be207f7	0.006897922
64	0x3d0670d2	0.032822438
65	0x3c775265	0.015095328
66	0x3db4bcca	0.08825071
67	0xbcebad52	-0.028769169
68	0x3dc50845	0.09620718
69	0xbdcf7b7f	-0.10130977
70	0x3d4cd85d	0.050011028
71	0x3d993eb5	0.074826635
72	0xbc9bddef	-0.019026725
73	0x3da2a618	0.07941836
74	0xbd7bca55	-0.061472256
75	0x3d8940ec	0.06701836
76	0xbda37ccb	-0.07982787
77	0x3dcbb985	0.099474944
78	0x3ce45c69	0.027876096
79	0x3dba13af	0.090857856
80	0x3d3f08da	0.0466393
81	0xbd5b8dcc	-0.053602025
82	0x3c70b67f	0.014691948
83	0x3db471bc	0.088107556
84	0xbd960dfd	-0.07326887
85	0xbdc4c01d	-0.09606955
86	0x3dbecfda	0.09316988
87	0x3db9433d	0.09046028
88	0xbcf2c58c	-0.029635213
89	0xbd08a03d	-0.03335594
90	0xbcf6d1dd	-0.030129367
91	0xbbf44f6e	-0.007455758
92	0xbcb7816e	-0.022400584
93	0x3c55d28a	0.013050685
94	0x3dabfef7	0.0839824
95	0x3d9314c1	0.07181693
96	0xbd84a5f2	-0.06476964
97	0x3a25820f	0.0006313631
98	0x3dc2ea76	0.09517376
99	0x3da23f27	0.079222016
100	0x3dc4b48a	0.096047476
101	0x3c86013f	0.016358016
102	0xbdacd296	-0.084386036
103	0x3d315c14	0.043300703
104	0x3dd75610	0.10514462
105	0xbce8450c	-0.028353237
106	0xbdbcfd7e	-0.09228037
107	0xbcf56f51	-0.029960306
108	0x3daf8e69	0.085720845
109	0xbd25803b	-0.040405493
110	0xbd0dea52	-0.034647293
111	0xbd957f7a	-0.07299705
112	0x3dcdd40d	0.10050211
113	0x3dbf676c	0.09345898
114	0x3cbf13c7	0.02332486
115	0x3da557ad	0.080733635
116	0xbd2aa4eb	-0.041661184
117	0xbd9bf37b	-0.076147996
118	0xbc12b5dd	-0.008954492
119	0xbd8b4c04	-0.06801608
120	0x3db00f80	0.085967064
121	0xbd697b11	-0.05700213
122	0xbcf871fa	-0.030327786
123	0xbdd958c1	-0.106126316
124	0xbc877f27	-0.016540123
125	0xbd5dddb6	-0.05416652
126	0xbd22666c	-0.03964846
127	0x3cfc9af0	0.030835599
128	0xbda73978	-0.08165258
129	0xbd92f38b	-0.071753584
130	0x3d9969ce	0.07490884
131	0x3d7a4000	0.06109619
132	0xbcc8af6c	-0.02449771
133	0xbc8f883d	-0.017521018
134	0xbdb98691	-0.0905887
135	0x3d525081	0.051346306
136	0xbd63c2b4	-0.055605605
137	0xbcc87fd9	-0.024475025
138	0xbdb44a36	-0.08803217
139	0xbd9a18b4	-0.07524243
140	0xbd9e606c	-0.07733235
141	0xbce3748e	-0.027765539
142	0xbd20964a	-0.039205827
143	0xbd6898e6	-0.05678644
144	0x3c050fb4	0.00812142
145	0x3dc279e8	0.09495908
146	0x3b840984	0.0040294547
147	0xbcd27410	-0.025690109
148	0xbced396a	-0.028958041
149	0x3c56c18b	0.013107668
150	0xbdbc04ce	-0.09180604
151	0x3dcc1f10	0.09966862
152	0xbd22c31c	-0.039736852
153	0x3cd30447	0.025758876
154	0xbcdb21d9	-0.026749538
155	0x3c981385	0.018563995
156	0x3d24c8b6	0.040230475
157	0x3db556b7	0.0885443
158	0xbd3fc588	-0.04681924
159	0x3dc1d1e0	0.094638586
160	0xbd8028d6	-0.06257789
161	0x3d5bfaac	0.053705856
162	0x3dc40208	0.095707
163	0xbd380326	-0.044924878
164	0x3d6f18da	0.05837331
165	0xbda9a9cf	-0.082843415
166	0x3d3fc9fa	0.04682348
167	0x3d82c54c	0.06385288
168	0xbd7f29eb	-0.062295835
169	0xbd72ac04	-0.059246078
170	0xbdc27a72	-0.09496011
171	0x3ccd78e8	0.025082067
172	0xbd5e2a94	-0.054239824
173	0x3dd7a030	0.105286
174	0x3d9ec4d2	0.07752384
175	0xbd2e176b	-0.042502802
176	0x3cfd5c4e	0.030927803
177	0xbd889e1c	-0.06670782
178	0x3c12728b	0.008938442
179	0xbd68a788	-0.056800395
180	0xbd6e9172	-0.058244176
181	0x3b767bab	0.0037610333
182	0x3dabaa91	0.08382142
183	0xbd46ca1b	-0.048532587
184	0x3d0a5375	0.033770997
185	0xbd9357df	-0.071944945
186	0x3dc454a6	0.09586458
187	0x3c80e08e	0.015732076
188	0x3be00ee7	0.006837714
189	0xbd010233	-0.031496238
190	0xba184135	-0.00058080564
191	0x3ca63292	0.020287786
192	0xbd96436b	-0.07337078
193	0xbbbaea62	-0.00570421
194	0xbd2ad6d2	-0.041708775
195	0xbd90e1f5	-0.07074348
196	0x3cfb1f1a	0.030654479
197	0x3b53ac86	0.0032298877
198	0x3c24bde2	0.010055037
199	0xbb9f01ee	-0.004852525
200	0x3ca88b6f	0.0205743
201	0x3d9336b2	0.07188167
202	0x3d4913cd	0.04909115
203	0x3c6fa9df	0.014627903
204	0x3b5e6932	0.0033937213
205	0x3d912c12	0.07088484
206	0xbd0b6063	-0.03402747
207	0xbd9176a3	-0.07102706
208	0xbd84613b	-0.06463858
209	0x3db1e90c	0.08687028
210	0x3d1e3f67	0.038634684
211	0x3d6a9b52	0.05727703
212	0xbd7231bb	-0.059129458
213	0x3d217c58	0.039425224
214	0xbda3b1a3	-0.07992866
215	0x3db4fb91	0.08837045
216	0xbcb8d003	-0.022560125
217	0xbca6b39e	-0.02034932
218	0x3d8701dd	0.06592152
219	0xbdd490f6	-0.103792116
220	0xbbfc6dbd	-0.0077035115
221	0xbdd882de	-0.10571836
222	0x3da7905c	0.08181831
223	0x3c995ecd	0.018721962
224	0xbd296548	-0.041356355
225	0xbdd3f74c	-0.103499025
226	0xbdadd815	-0.0848848
227	0x3d0f6b61	0.035014514
228	0x3c1ecba6	0.009692108
229	0x3dae5fe8	0.085143864
230	0xbd27d7d0	-0.0409773
231	0xbcc88175	-0.024475792
232	0xbcc937eb	-0.024562797
233	0xbdc31803	-0.09526064
234	0x3d9589f9	0.07301707
235	0xbd96880a	-0.07350166
236	0xbd25dcc5	-0.040493745
237	0xbb4692f3	-0.003029999
238	0xbd8e2147	-0.06939941
239	0xbdd74f26	-0.10513143
240	0xbcfb636e	-0.03068706
241	0xbc431b75	-0.011908402
242	0xbccf4f54	-0.025306381
243	0x3d5dde5b	0.054167133
244	0xbccf7f3a	-0.025329221
245	0x3d79ebf6	0.061016046
246	0x3daaba33	0.08336296
247	0xbda78b15	-0.08180825
248	0x3cceb362	0.02523202
249	0xbd25f631	-0.04051799
250	0xbdc1000b	-0.09423836
251	0x3dc570cd	0.09640656
252	0xbc55c952	-0.013048487
253	0xbd934a62	-0.07191922
254	0xbd8e3620	-0.06943917
255	0xbd8425c6	-0.06452517

fc3.bias f4 [10]
0	0xbd7bd72b	-0.061484497
1	0x3daca7b9	0.08430428
2	0xbc3b5d9a	-0.011435891
3	0x3c95232f	0.018205253
4	0xbc4c56fa	-0.012471909
5	0xbdbb930a	-0.09158905
6	0xbdbf7320	-0.0934813
7	0x3c9b0063	0.018921083
8	0x3dd998b8	0.10624832
9	0x3dbf242a	0.093330696
